models/augmented_controller_seed_111.pt (torch, 54369 bytes, 29 tensors)

B_q f4 [10, 4]
0	0xbe1a45ac	-0.1506564
1	0x3ddeb717	0.10874765
2	0x3e5c05da	0.21486607
3	0xbe29dba4	-0.16587692
4	0xbb0400e9	-0.0020142144
5	0x3da7c2ed	0.08191476
6	0xbe066726	-0.13125286
7	0xbd4c1f28	-0.0498344
8	0x3d8c7681	0.0685854
9	0xbe3b742a	-0.18306032
10	0x3e026c8f	0.12736724
11	0xbca48c81	-0.020086529
12	0xbe588992	-0.21146229
13	0x3e72a1b4	0.23694497
14	0x3c82d0a5	0.01596863
15	0xbcb5d37e	-0.022195574
16	0x3d523515	0.051320154
17	0x3e173345	0.14765652
18	0x3cfd17f6	0.030895215
19	0xbdd55ed5	-0.104184784
20	0x3dc980a3	0.09838989
21	0xbc67a7f2	-0.014139162
22	0x3e146053	0.1448987
23	0xbe043b60	-0.12913275
24	0x3d024810	0.031807005
25	0x3e0d9462	0.13826135
26	0x3de412ba	0.11136384
27	0x3b4dd2b2	0.0031406102
28	0x3db02de4	0.08602503
29	0x3e1ab6f6	0.15108857
30	0x3e6ae4b9	0.22938813
31	0xbc944d15	-0.018103162
32	0xbe09d981	-0.13461877
33	0xbdb665af	-0.08906113
34	0xbd950b79	-0.07277579
35	0xbaa44b84	-0.0012534712
36	0xbdcade81	-0.099057205
37	0x3d70f207	0.058824565
38	0xbd722aa9	-0.059122715
39	0x3c9b89cb	0.018986603

lambda_xi_diag f4 [4]
0	0xbecf01b4	-0.40430987
1	0xbef47b1a	-0.4775017
2	0xbefceb36	-0.49398202
3	0xbf05eac3	-0.5231134

lambda_q_real f4 [5]
0	0xbf108ccd	-0.56464845
1	0xbef656ed	-0.48113194
2	0xbeff7a9e	-0.49898237
3	0xbf1c78ad	-0.61121637
4	0xbead638f	-0.3386502

lambda_q_imag f4 [5]
0	0x3f800000	1.0
1	0x3f800000	1.0
2	0x3f800000	1.0
3	0x3f800000	1.0
4	0x3f800000	1.0

q0_scale f4 [10]
0	0x40a00000	5.0
1	0x40a00000	5.0
2	0x40a00000	5.0
3	0x40a00000	5.0
4	0x40a00000	5.0
5	0x40a00000	5.0
6	0x40a00000	5.0
7	0x40a00000	5.0
8	0x40a00000	5.0
9	0x40a00000	5.0

mlp1_xi_init.network.0.weight f4 [32, 4]
0	0xbe9104cc	-0.28323972
1	0xbe9520ef	-0.2912669
2	0x3ebad69c	0.3649186
3	0x3e391794	0.180754
4	0xbe9cea9e	-0.3064775
5	0xbe961320	-0.29311466
6	0x3e226f51	0.15862776
7	0x3e797f3b	0.24364941
8	0x3e69be6d	0.22826548
9	0xbe25f6c5	-0.16207416
10	0xbe9cfe0a	-0.30662566
11	0x3ec9b9e5	0.3939964
12	0x3e030b78	0.12797344
13	0xbded1e7a	-0.115780786
14	0xbee71ce4	-0.4513923
15	0x3e6b1ec4	0.22960955
16	0x3d9cc79e	0.076552615
17	0x3ee88117	0.45410988
18	0xbe90d24e	-0.2828545
19	0x3eb34685	0.3501474
20	0x3b1936b8	0.0023378562
21	0xbf503ece	-0.8134583
22	0xbf8504b3	-1.0392059
23	0xbe917928	-0.28412747
24	0x3e4d320a	0.2003862
25	0xbe6dd8be	-0.23227212
26	0x3dc02490	0.09381974
27	0x3e28382d	0.1642768
28	0x3e4fbe5d	0.20287462
29	0x3ebdcdb0	0.3707099
30	0xbe4aa526	-0.19789562
31	0xbde5b03c	-0.11215255
32	0xbea7d2af	-0.32777926
33	0x3f0eb309	0.55741936
34	0xbe2be40a	-0.16786209
35	0xbd590eb4	-0.052992538
36	0x3e7b3cd2	0.2453492
37	0x3f057568	0.5213227
38	0x3db1721c	0.08664343
39	0xbe1ee5c5	-0.15517338
40	0xbe38f15d	-0.18060823
41	0xbec176d7	-0.3778598
42	0xbd8e53bf	-0.06949567
43	0xbe06db4d	-0.13169594
44	0xbe8225da	-0.25419503
45	0x3dcada97	0.09904974
46	0x3e8ba696	0.27275532
47	0x3da4685a	0.08027716
48	0x3e42bac8	0.19016564
49	0x3efb2311	0.4905019
50	0x3f18177a	0.5941082
51	0x3f1df562	0.6170255
52	0xbea6c6b6	-0.3257348
53	0x3f160e73	0.586158
54	0x3f05a054	0.52197766
55	0x3eb1b004	0.34704602
56	0x3e0bf07b	0.13665955
57	0xbe154531	-0.14577176
58	0x3e91d8c7	0.284857
59	0xbe23e19e	-0.16004035
60	0xbd71f632	-0.05907268
61	0x3f1289a0	0.5724125
62	0x3f808c70	1.0042858
63	0x3f0fb3a8	0.5613351
64	0xbe5161dc	-0.20447487
65	0x3da8ebd7	0.08248108
66	0x3d444938	0.04792139
67	0x3ee61c1d	0.44943324
68	0x3e322a1c	0.17398876
69	0xbf26ac22	-0.65106404
70	0xbf954293	-1.1660942
71	0xbe8042eb	-0.25051054
72	0x3eaf6342	0.34255415
73	0xbe534aab	-0.20633952
74	0xbf234363	-0.637747
75	0x3e9a1cfb	0.30100235
76	0x3e1e9ee1	0.15490295
77	0x3e31b3e4	0.17353779
78	0xbeaacd5b	-0.333598
79	0xbf0880c3	-0.53321475
80	0x3eef2fdf	0.4671621
81	0x3e2454d1	0.1604798
82	0xbdfad158	-0.122469604
83	0xbebd66f0	-0.36992598
84	0xbe896605	-0.26835647
85	0x3e783d70	0.24242187
86	0x3de3d6db	0.11124965
87	0x3ea779bb	0.3271006
88	0x3e9ca25d	0.30592623
89	0xbebdaac4	-0.37044346
90	0xbf1b88aa	-0.6075541
91	0xbe2187ef	-0.15774511
92	0x3970e60a	0.0002297388
93	0xbdd0236e	-0.10163008
94	0x3ea0bd65	0.31394497
95	0xbe9d5fbc	-0.30737102
96	0xbe04db0d	-0.12974186
97	0xbea5bdd8	-0.32371402
98	0x3cf47e41	0.029845359
99	0x3e94755b	0.28995785
100	0xbd8302fb	-0.06397053
101	0x3e0f674b	0.14004247
102	0x3daef5e2	0.08542992
103	0x3dc75512	0.09733023
104	0x3e8a7552	0.27042633
105	0x3e5227ff	0.2052307
106	0xbe7b95d1	-0.24568869
107	0xbec7feed	-0.3906168
108	0x3dc84fa5	0.09780816
109	0xbe12be63	-0.1433044
110	0x3e226ec9	0.15862574
111	0x3eb3f561	0.35148147
112	0x3eecda7f	0.4626045
113	0xbe5e6fd8	-0.21722353
114	0x3ecdc67c	0.40190494
115	0x3ee057c1	0.4381695
116	0x3df4f6a9	0.11961109
117	0x3ee46b34	0.4461304
118	0x3f9d0f32	1.2270262
119	0xbce779ae	-0.028256264
120	0x3da3eee0	0.08004546
121	0xbeb44b38	-0.35213637
122	0x3e03d98d	0.12875958
123	0xbed162a1	-0.4089556
124	0x3d062535	0.032750327
125	0x3f06b710	0.5262308
126	0x3dc950b1	0.09829844
127	0xbd077dd4	-0.033078983

mlp1_xi_init.network.0.bias f4 [32]
0	0xbea45825	-0.320985
1	0x3e73fc37	0.23826681
2	0xbe2084a2	-0.15675595
3	0x3e864953	0.26227817
4	0xbcc61933	-0.024181938
5	0x3e0c7a8d	0.13718624
6	0xbee95fae	-0.4558081
7	0x3e79c6a4	0.24392182
8	0xbef6745b	-0.48135647
9	0x3dbb57d8	0.09147614
10	0xbe5aee51	-0.21379973
11	0x3e1d56af	0.15365098
12	0x3eeb9669	0.4601319
13	0x3eb83245	0.35975853
14	0xbe5c55e1	-0.21517135
15	0xbc25a385	-0.010109787
16	0xbeda890a	-0.42682678
17	0x3ecfbbe1	0.40573028
18	0x3ed05a04	0.40693676
19	0x3e8b57de	0.27215475
20	0xbed49bea	-0.41525203
21	0x3e76ef1b	0.24114649
22	0x3ed00bab	0.40633902
23	0xbe4bd8b0	-0.19906878
24	0x3e5e0106	0.21680078
25	0x3e8207bc	0.25396526
26	0xbeb31ed2	-0.34984452
27	0x3ccceca3	0.02501518
28	0xbcc9f554	-0.024653114
29	0x3f114597	0.5674681
30	0xbe8df06a	-0.27722484
31	0x3d0aff25	0.03393473

mlp1_xi_init.network.2.weight f4 [32, 32]
0	0xbd223587	-0.03960183
1	0xbd946ef9	-0.07247729
2	0xbe0fdc07	-0.14048778
3	0xbc817768	-0.015804008
4	0xbe071ac7	-0.13193808
5	0xbe40f303	-0.18842702
6	0x3e1a6429	0.1507727
7	0x3d0a2422	0.033725865
8	0xbe2c76d1	-0.168422
9	0xbd6ae873	-0.057350587
10	0x3dc736fc	0.09727284
11	0xbc9137a9	-0.017726736
12	0x3ce2049d	0.02759009
13	0xbdca5a7c	-0.0988054
14	0xbcb279d8	-0.021786615
15	0xbd18a573	-0.03726716
16	0xbd4240e1	-0.047425155
17	0xbe2ff08f	-0.1718161
18	0x3d060aaa	0.032725014
19	0x3ccdcdec	0.025122605
20	0x3d782090	0.06057793
21	0xbd6799a0	-0.056542993
22	0x3ded6da0	0.11593175
23	0x3d42a2ce	0.047518544
24	0x3d98bf31	0.07458342
25	0xbdd8bffc	-0.10583493
26	0x3b45baea	0.0030171224
27	0x3c91e0f1	0.017807456
28	0xbda848ce	-0.082170114
29	0x3ea446ca	0.32085258
30	0xbe0ec1ab	-0.13941066
31	0xbe2303b6	-0.15919384
32	0x3e24ae8c	0.1608221
33	0x3d18c492	0.03729684
34	0x3debd805	0.11515812
35	0x3d105eeb	0.03524677
36	0xbda97a07	-0.08275228
37	0xbd3212f2	-0.0434751
38	0x3e3da606	0.18520364
39	0xbe12015a	-0.14258328
40	0xbc13f24f	-0.009029939
41	0x3d39be6a	0.04534761
42	0x3df4c5e9	0.11951811
43	0x3db9118e	0.090365514
44	0x3e603818	0.21896398
45	0xbde4aaa3	-0.11165359
46	0x3d56cbc4	0.05244042
47	0x3ea7f649	0.32805088
48	0xbdb1d4c8	-0.08683163
49	0xbe58299b	-0.21109621
50	0x3d25b423	0.040454995
51	0xbe068246	-0.13135633
52	0xbe00f30e	-0.12592718
53	0xbe040e0f	-0.12895988
54	0x3d93fec9	0.07226331
55	0x3e051040	0.1299448
56	0x3ce7ec69	0.028310971
57	0x3e1d3ba6	0.15354785
58	0xbd860b13	-0.06545081
59	0x3dab075c	0.08351013
60	0x3e0eee00	0.13957977
61	0x3e9aaec4	0.3021146
62	0x3cef6f60	0.029227912
63	0x3d6c5c4e	0.057705216
64	0xbe22ed30	-0.15910792
65	0xbb6b3243	-0.0035888113
66	0x3d9cdaa2	0.076588884
67	0x3d2af18d	0.041734267
68	0xbe028fcb	-0.12750165
69	0xbe931c42	-0.28732497
70	0x3e1a056a	0.15041128
71	0x3d7dea23	0.06199087
72	0xbe1503cf	-0.14552234
73	0xbe27ce6a	-0.16387334
74	0xbe1d1fe3	-0.15344195
75	0xbd138557	-0.036015835
76	0xbde9833f	-0.11401986
77	0x3e0e852b	0.13917987
78	0xbdad650d	-0.084665395
79	0xbd147a1a	-0.036249258
80	0x3c22b256	0.009930214
81	0xbd7a6e78	-0.061140507
82	0xbb9a837f	-0.0047153826
83	0xbe18b6ba	-0.14913455
84	0x3d832a61	0.064045675
85	0xbb6e49e3	-0.0036359958
86	0xbe2f773b	-0.17135327
87	0xbccdc6cd	-0.02511921
88	0x3debd2d1	0.115148194
89	0xbe4f02b9	-0.20215882
90	0xbbdc93ea	-0.0067315
91	0x3d20f8bc	0.03929971
92	0x3e48a1c1	0.19592954
93	0x3d5b8d13	0.053601336
94	0x3dc6fc02	0.097160354
95	0xbdc950e4	-0.09829882
96	0x3c50036e	0.01269613
97	0x3d8985dd	0.067149855
98	0x3cb0e79e	0.021594819
99	0x3e073ca8	0.13206732
100	0x3e88cdee	0.26719612
101	0x3f05dfbd	0.5229452
102	0x3cd2495a	0.025669742
103	0x3deec84f	0.116592996
104	0x3ddbedfd	0.10738752
105	0xbcef68be	-0.02922475
106	0x3d8edca0	0.06975675
107	0xbdc3fe51	-0.095699914
108	0xbe433064	-0.19061428
109	0xbe1e3e47	-0.15453444
110	0xbe1b128d	-0.15143795
111	0xbe2817c6	-0.16415319
112	0xbd21bdc2	-0.039487608
113	0x3ebf7924	0.3739711
114	0x3e964c19	0.29354933
115	0x3e103fca	0.14086834
116	0x3e2940ec	0.16528672
117	0xbdc95863	-0.098313116
118	0x3e52c284	0.20582014
119	0xbcd20e85	-0.02564169
120	0xbdd09f71	-0.10186661
121	0x3d30befb	0.043150883
122	0x3dc4f215	0.09616486
123	0xbd7727a9	-0.060340557
124	0xbd910a9d	-0.070821024
125	0xbdbdd75d	-0.09269593
126	0xbd31d010	-0.043411314
127	0xbe17d01c	-0.14825481
128	0x3e141324	0.14460427
129	0x3c2132b3	0.009838748
130	0x3c7295f3	0.0148062585
131	0xbdf0ad65	-0.117518224
132	0xbe25be8f	-0.16185974
133	0xbe8f43ee	-0.27981514
134	0x3d95c5c7	0.07313114
135	0xbdbe4480	-0.09290409
136	0x3dde7def	0.10863864
137	0x3d896c67	0.06710129
138	0xbe36db51	-0.178571
139	0x3b245e20	0.0025080517
140	0x3e4e16e3	0.20125918
141	0xbde01cb2	-0.10942973
142	0x3d3ce0b5	0.046112735
143	0x3d8970fb	0.067110024
144	0xbe0d6047	-0.13806258
145	0xbea75644	-0.32683003
146	0xbe132a1d	-0.14371534
147	0xbe2cc5f9	-0.16872396
148	0x3c96e49b	0.018419554
149	0x3c7ee8d1	0.015558437
150	0x3dac4a7e	0.08412646
151	0x3e204e23	0.15654807
152	0x3d1ac766	0.037787817
153	0x3cf05e4b	0.029341837
154	0xbd6ef578	-0.058339566
155	0xbcbb7da8	-0.022887066
156	0xbd4187f1	-0.047248784
157	0x3edcee6c	0.4315065
158	0xbe30b36b	-0.17255943
159	0x3da3ae63	0.07992246
160	0x3d882289	0.06647212
161	0xbd6794b0	-0.056538284
162	0xbe0d7a58	-0.13816202
163	0xbe034c29	-0.12822022
164	0x3b0ead73	0.0021770864
165	0xbe60ece0	-0.2196536
166	0xbd59dff7	-0.053192105
167	0x3d72bb81	0.05926085
168	0x3b2be03a	0.0026226179
169	0xbcd4e6a3	-0.025988882
170	0x3d97ee64	0.07418516
171	0xbd6c9c5f	-0.057766315
172	0x3e4a06ca	0.19729152
173	0x3d7141c7	0.05890062
174	0x3e133f51	0.14379622
175	0x3e4cac06	0.19987497
176	0xbd9d5876	-0.07682888
177	0xbe395748	-0.18099701
178	0x3d272d86	0.0408149
179	0xbdcdaa5b	-0.10042258
180	0xbd81ffbf	-0.06347608
181	0xbda54046	-0.080689
182	0xbe2b12e4	-0.16706425
183	0x3c983d9a	0.018584061
184	0xbdad4a83	-0.084614776
185	0xbe3c8881	-0.18411447
186	0x3d800948	0.0625177
187	0x3e6c6f36	0.23089299
188	0x3dfae539	0.12250752
189	0x3f10768d	0.56430894
190	0xbe34d820	-0.1766057
191	0x3dd8babe	0.10582493
192	0xbe53f28e	-0.20697996
193	0xbcceceaf	-0.025245039
194	0xbe1c476f	-0.15261625
195	0xbdc8b04c	-0.09799251
196	0x3de7b1cf	0.11313211
197	0x3e6e2e29	0.23259796
198	0x3d4f12a7	0.050554898
199	0xbca1c7cd	-0.019748593
200	0xbcc167a6	-0.023608994
201	0x3df90d01	0.121606834
202	0x3da5d43e	0.080971226
203	0xbccb3008	-0.024803177
204	0xbdc42d66	-0.095789716
205	0xbd66bb35	-0.05633088
206	0x3d7c68fd	0.061623562
207	0xbc0ed17e	-0.008716939
208	0xbd758dbd	-0.059949625
209	0x3f1627ab	0.5865428
210	0xbdfbaa78	-0.12288374
211	0x3da74ff1	0.081695445
212	0xbc9b0162	-0.018921558
213	0xbc1b18cb	-0.00946636
214	0x3e0e0200	0.1386795
215	0x3d986abc	0.07442233
216	0xbc15dabe	-0.0091463905
217	0x3dd76180	0.105166435
218	0xbcfc7f44	-0.030822404
219	0xbe1ed136	-0.15509495
220	0xbc7458a1	-0.014913709
221	0xbd359247	-0.044328954
222	0xbc83b50e	-0.016077545
223	0x3d4b2273	0.0495934
224	0x3d723af3	0.05913825
225	0xbcdb13d2	-0.02674285
226	0xbe22dd1e	-0.15904662
227	0xbb56f10f	-0.003279749
228	0x3dab30ab	0.08358892
229	0xbe60ddd6	-0.21959624
230	0x3dc27b20	0.094961405
231	0x3c252a78	0.010080926
232	0xbe0580c7	-0.13037406
233	0x3b24d414	0.0025150822
234	0x3d765c45	0.06014659
235	0x3d89a86b	0.06721576
236	0xbe523163	-0.20526652
237	0x3c4141c3	0.011795464
238	0xbe0cb2ea	-0.13740125
239	0x3e62f65d	0.22164293
240	0xbcb7becf	-0.022429852
241	0xbdfb5cba	-0.122735456
242	0xbe6163c4	-0.22010714
243	0xbcdbfeaf	-0.026854841
244	0x3db43eeb	0.08801063
245	0xbdcba265	-0.09943084
246	0xbe861d20	-0.26194096
247	0x3dfaa57d	0.12238596
248	0x3d3a326b	0.04545824
249	0xbd964201	-0.07336808
250	0xbe3fc056	-0.18725714
251	0xbe06f140	-0.13177967
252	0xbcca7583	-0.024714237
253	0xbb3b3f10	-0.0028571524
254	0xbe3fd089	-0.18731894
255	0xbe503a3d	-0.20334716

mlp1_xi_init.network.2.bias f4 [32]
0	0xbe15d133	-0.14630584
1	0xbc55effb	-0.013057704
2	0xbe2649ec	-0.16239136
3	0x3e052b67	0.13004838
4	0x3d950f32	0.07278289
5	0xbd6715a6	-0.05641713
6	0x3d896b06	0.06709866
7	0xbdae1585	-0.08500198
8	0x3c0b431f	0.00849989
9	0x3cc7cd1c	0.024389796
10	0xbe30dcdc	-0.17271751
11	0x3d9187a4	0.071059495
12	0x3e04902f	0.12945627
13	0xbdcda4ee	-0.100412235
14	0x3de238f7	0.110460214
15	0x3c3d334b	0.011547874
16	0xbe155718	-0.14584005
17	0xbd2be48e	-0.041966014
18	0x3dd91bd3	0.1060101
19	0x3d7dd5bb	0.061971407
20	0xbd87b8cd	-0.06627045
21	0x3db87028	0.09005767
22	0xbdd3b318	-0.10336894
23	0xbe43007e	-0.19043157
24	0x3e037fd6	0.12841734
25	0xbd8d7c5d	-0.06908486
26	0xbe316207	-0.1732255
27	0x3e0ca44c	0.1373455
28	0x3d9f285a	0.07771368
29	0xbdfad26f	-0.12247168
30	0xbe28e7e9	-0.16494717
31	0x3ddf0b15	0.108907856

mlp1_xi_init.network.4.weight f4 [32, 32]
0	0xbe28b8e2	-0.16476777
1	0xbe403907	-0.18771754
2	0xbd87396d	-0.0660275
3	0x3d6bef29	0.057601128
4	0xbe265796	-0.16244349
5	0xbe2493b5	-0.16071971
6	0xbe4de31d	-0.20106168
7	0x3d824294	0.06360355
8	0xbe24922d	-0.16071387
9	0x3e141c6e	0.1446397
10	0xbe4ca5e4	-0.19985157
11	0xbe2c517e	-0.16827962
12	0xbe015507	-0.12630092
13	0xbe41d2ed	-0.18928118
14	0x3dbf8210	0.09350979
15	0x3da7943f	0.081825726
16	0x3d651609	0.055929217
17	0x3dc7d6b2	0.09757747
18	0xbde222dd	-0.11041806
19	0x3e117da0	0.14208078
20	0xbda09b23	-0.0784209
21	0x3c129fd8	0.0089492425
22	0x3da60cf8	0.08107942
23	0xbd4602d7	-0.048342552
24	0xbd5c6893	-0.053810667
25	0x3e028968	0.12747729
26	0x3d83a002	0.064270034
27	0xba98d859	-0.0011661156
28	0xbc982c5f	-0.018575845
29	0xbdb2ce3f	-0.087307446
30	0xbdb7b563	-0.08970144
31	0xbd778b7c	-0.060435757
32	0x3cc07196	0.023491662
33	0x3d838e34	0.064236075
34	0x3d65e505	0.056126613
35	0xbe154c7a	-0.14579955
36	0xbe15290a	-0.14566436
37	0x3e17823b	0.14795773
38	0x3b38cfbf	0.0028199998
39	0xbc4361dd	-0.011925188
40	0x3df67029	0.120331116
41	0xbe210c6a	-0.15727392
42	0x3d71ee9e	0.059065454
43	0xbd5bb6cf	-0.053641137
44	0xbe4253ee	-0.18977329
45	0xbe18784c	-0.1488964
46	0x3e021dff	0.12706755
47	0x3df100fa	0.117677644
48	0xbcbe7f62	-0.0232541
49	0x3e237d18	0.15965688
50	0x3ddcc1b6	0.10779135
51	0x3e222d84	0.15837675
52	0x3dcb35ab	0.09922346
53	0x3e0cddba	0.13756457
54	0xbe34fd94	-0.17674857
55	0xbdd5e84a	-0.10444696
56	0x3e126cb7	0.14299284
57	0x3d521844	0.051292673
58	0x3cb756b6	0.022380214
59	0x3db3fb6b	0.087881885
60	0x3e0fe9f3	0.14054088
61	0xbc08c63d	-0.008348045
62	0x3c63c66c	0.013902288
63	0x3dea3021	0.11434961
64	0x3daf632e	0.08563839
65	0xbbad103f	-0.0052814777
66	0x3dc9a414	0.098457485
67	0x3d9ec6da	0.07752772
68	0xbc0990e0	-0.008396357
69	0x3e2d4ccf	0.16923831
70	0x3dc99567	0.09842949
71	0xbd4c8999	-0.04993591
72	0xbd0d2bfe	-0.034465782
73	0x3da361ee	0.07977663
74	0x3d733f48	0.05938652
75	0xbddf5e2a	-0.10906632
76	0x3d920330	0.07129514
77	0x3de19ca5	0.11016206
78	0xbe0de60d	-0.13857289
79	0xbd89130e	-0.066930875
80	0xbdb287cd	-0.08717308
81	0xbda64f01	-0.081205375
82	0x3d9af6a7	0.075665765
83	0x3dc1644a	0.09442957
84	0x3e24e4a9	0.16102852
85	0xbc2ead66	-0.010661459
86	0xbe2c731a	-0.16840783
87	0xbdffaec7	-0.12484508
88	0x3c517f5f	0.012786715
89	0x3d812e3e	0.06307648
90	0xbca79d11	-0.020460637
91	0xbe3739ac	-0.17893094
92	0x3e1b5f7e	0.15173146
93	0xbcf593ce	-0.029977705
94	0xbdcbe09d	-0.09954951
95	0xbdb5e3de	-0.08881353
96	0xbca1934f	-0.019723563
97	0xbd004509	-0.031315837
98	0x3e26d5a8	0.16292441
99	0xbe3d8c1c	-0.18510479
100	0x3dc3b34e	0.09555684
101	0x3da553e7	0.08072644
102	0x3e0f1a4e	0.13974878
103	0x3dbf58a1	0.093430765
104	0x3d2c6fef	0.042098936
105	0xbd6fdc39	-0.05855963
106	0x3bc80d8a	0.0061051296
107	0xbda6567f	-0.081219666
108	0xbe2f5a7d	-0.17124362
109	0x3e03c617	0.12868534
110	0xbcc0bd06	-0.023527633
111	0xbd7c2ce4	-0.06156625
112	0x3d0637fa	0.032768227
113	0x3e9c4685	0.30522552
114	0x3c98f05d	0.018669302
115	0xbd9d4e1a	-0.07680912
116	0x3e6ad374	0.22932225
117	0xbd650db9	-0.05592129
118	0x3e14245d	0.14466996
119	0x3dcc22b4	0.099675566
120	0xbc9b6e28	-0.018973425
121	0xbdcf89e9	-0.10133726
122	0x3e1550a0	0.14581537
123	0x3dac95b9	0.08426995
124	0x3e255353	0.16145067
125	0x3e43a463	0.19105677
126	0x3d9bce47	0.07607704
127	0xbdc3b512	-0.09556021
128	0xbda9efc2	-0.08297683
129	0xbe52031b	-0.20508997
130	0xbd0bc40d	-0.034122515
131	0x3d4ec75b	0.05048309
132	0xbe0c1d32	-0.13683012
133	0xbe82cfae	-0.25549072
134	0xbdab4e77	-0.08364575
135	0xbd53d5b7	-0.051717486
136	0xbdadfb32	-0.08495177
137	0x3da7570e	0.08170901
138	0x3d0525bf	0.0325067
139	0x3e0005af	0.12502168
140	0xbe556241	-0.20838262
141	0x3dbe4234	0.09289971
142	0x3d7684a2	0.060185082
143	0xbd762af3	-0.060099553
144	0xbe64eb8a	-0.22355476
145	0xbe6f0a14	-0.23343688
146	0x3e155857	0.1458448
147	0x3d309876	0.043114148
148	0xbe4aa32d	-0.19788809
149	0xbe48e8d7	-0.19620071
150	0xbd5a2b34	-0.053263858
151	0xbcfcd08b	-0.03086116
152	0x3e0e1dd7	0.1387857
153	0x3d55d1e6	0.052202128
154	0xbd0dc809	-0.034614597
155	0xbb142314	-0.0022603916
156	0x3de5d527	0.11222296
157	0xbdade6d7	-0.08491295
158	0x3d4388c1	0.04773784
159	0x3ab37c4a	0.0013693657
160	0x3c804e4a	0.015662331
161	0xbddbad72	-0.107264414
162	0xbe003943	-0.12521844
163	0x3c582d0c	0.013194334
164	0x3dad060a	0.084484175
165	0x3e1ae03e	0.15124604
166	0xbe0b78cf	-0.13620304
167	0x3d8c4ee2	0.06850983
168	0x3d01b5cd	0.03166752
169	0x3dd6750f	0.10471546
170	0x3c972696	0.018451016
171	0xbe347981	-0.17624475
172	0x3cedf239	0.029046165
173	0xbdfc091f	-0.12306427
174	0x3e1244c8	0.1428405
175	0xbe2f10a8	-0.17096198
176	0xbde91d19	-0.11382503
177	0xbdda574e	-0.10661183
178	0x3e02c3fa	0.12770072
179	0x3e098a0d	0.13431568
180	0xbd9daa93	-0.0769855
181	0x3dfc5ef8	0.12322801
182	0xbddbd64c	-0.10734233
183	0xbe08e89c	-0.13369983
184	0xbe169e7e	-0.14708897
185	0x3d08487a	0.033272244
186	0x3ce5d4c9	0.028055565
187	0x3d9c7b46	0.076407
188	0x3cd619a4	0.026135273
189	0x3da1788c	0.078843206
190	0x3c328620	0.010896236
191	0x3e2f95a7	0.17146932
192	0xbde24ae3	-0.1104944
193	0x3df3531a	0.11881085
194	0x3e12ff28	0.14355147
195	0x3e5c5207	0.21515666
196	0xbe278ed3	-0.16363077
197	0x3da6374d	0.081160165
198	0x3e0269c1	0.12735654
199	0x3dd8eb9a	0.105918124
200	0xbe4d2a01	-0.20035554
201	0x3d48e99c	0.049050912
202	0xbd468c1f	-0.048473474
203	0x3e3a3899	0.18185653
204	0x3cf589f8	0.029973015
205	0xbd8c67b2	-0.06855716
206	0x3cecb781	0.028896095
207	0xbd53f029	-0.051742706
208	0xbe0f6ce5	-0.14006384
209	0xbd93cde7	-0.07217007
210	0xbdb2ef48	-0.087370455
211	0x3ca24e6e	0.019812789
212	0xbe346079	-0.17614926
213	0x3d66bf84	0.056334987
214	0x3d704031	0.058654968
215	0x3cb6eae1	0.022328796
216	0xbe0455ba	-0.12923327
217	0x3e12fca4	0.14354187
218	0xbdbb0a12	-0.0913278
219	0x3d43d0a5	0.0478064
220	0xbd6bf5dc	-0.057607517
221	0xbe13e725	-0.14443643
222	0x3dd01ea3	0.101620935
223	0xbc0d0ca6	-0.008608973
224	0x3ce702ed	0.028199637
225	0xbe32d2f5	-0.17463286
226	0xbda3ff28	-0.080076516
227	0xbe1984f2	-0.14992121
228	0xbdf8b2ab	-0.12143453
229	0xbe4c6a76	-0.19962487
230	0xbd8eab37	-0.069662504
231	0x3c977e61	0.01849288
232	0x3e10f365	0.14155348
233	0x3d6431c3	0.05571152
234	0xbe165cb6	-0.14683804
235	0x3de16a16	0.110065624
236	0x3e16655d	0.14687105
237	0x3e0300ff	0.12793349
238	0xbdf36b2c	-0.11885676
239	0x3c9432b4	0.018090583
240	0xbcfdce64	-0.030982204
241	0xbc5045f1	-0.012711988
242	0x3d8baf29	0.068205185
243	0x3dccf23d	0.10007141
244	0x3e078992	0.13236073
245	0x3d11a571	0.035558168
246	0x3e0e5279	0.13898648
247	0xbe2377ed	-0.15963717
248	0x3e12c761	0.1433387
249	0x3d2e2ef8	0.04252526
250	0x3e1b9621	0.15193988
251	0xbdc06ee9	-0.093961544
252	0x3e267ca8	0.1625849
253	0xbe021da1	-0.12706615
254	0xbdab190f	-0.08354389
255	0x3d2161e8	0.03940001

mlp1_xi_init.network.4.bias f4 [32]
0	0xbdd44531	-0.1036476
1	0xbd4d20ba	-0.05008004
2	0xbdf53fb9	-0.11975045
3	0xbe50ef56	-0.204038
4	0x3dcab33a	0.09897466
5	0x3daf20b0	0.085511565
6	0x3dea5bc5	0.11443285
7	0xbdc5bf42	-0.0965562
8	0x3e0d1098	0.13775861
9	0x3cd8684a	0.026416916
10	0x3d6930df	0.056931373
11	0x3df59f3b	0.119932614
12	0x3d4f5104	0.050614372
13	0xbd340d2e	-0.04395788
14	0xbb58eaf2	-0.0033099023
15	0xbdc54554	-0.09632364
16	0xbe1f0d75	-0.15532477
17	0x3df799dc	0.12089893
18	0xbe22a30b	-0.15882508
19	0xbda80efb	-0.08205982
20	0xbe30cd9b	-0.17265932
21	0xbd6d9bcc	-0.058009908
22	0xbe3f0b6f	-0.18656705
23	0xbbc5fbb3	-0.006041968
24	0x3d6c42ad	0.057680774
25	0xbd8fb1ae	-0.070163116
26	0xbdfa5f14	-0.12225166
27	0x3e10404a	0.14087024
28	0xbd989434	-0.074501425
29	0x3ddcaac2	0.10774757
30	0xbe294288	-0.16529286
31	0xbe23aa42	-0.15982917

mlp1_xi_init.network.6.weight f4 [4, 32]
0	0x3cec95f8	0.028880104
1	0xbd172013	-0.036895823
2	0x3c019ce3	0.00791094
3	0x3d8068e8	0.06270009
4	0xbe1bf01d	-0.15228315
5	0xbd73420e	-0.059389167
6	0x3dbfbda3	0.09362342
7	0x3e0a84cd	0.13527222
8	0xbe2c0204	-0.16797644
9	0xbdd15d4b	-0.10222872
10	0x3e3d8cd5	0.18510754
11	0x3dc8dd12	0.09807791
12	0x3ccb0951	0.024784716
13	0xbdabefcf	-0.08395349
14	0x3d124b29	0.03571621
15	0x3b8fdd5a	0.004390401
16	0x3dd5e9ae	0.104449615
17	0x3d8f63f0	0.070014834
18	0x3df9fdc4	0.12206605
19	0x3d1fba06	0.038995765
20	0xbe03ca71	-0.12870194
21	0xbdf3871e	-0.11891006
22	0xbd4f92f2	-0.050677247
23	0xbceeef4c	-0.02916684
24	0x3e0092ba	0.12555972
25	0x3e258156	0.16162619
26	0xbe08146e	-0.13289043
27	0xbda97cc6	-0.08275752
28	0xbd12cc24	-0.035839215
29	0xbdf798ba	-0.12089677
30	0x3d352fa1	0.044234876
31	0xbe2e4f04	-0.1702233
32	0xbbb7caf3	-0.00560891
33	0x3dc87702	0.09788324
34	0x3cf15416	0.02945904
35	0x3e52c834	0.20584184
36	0xbe3a2d1f	-0.18181275
37	0x3c06e74a	0.008233855
38	0xbe1fe397	-0.15614162
39	0x3d04292c	0.032265827
40	0x3db49ba0	0.088187456
41	0xbdb6d65c	-0.089276046
42	0xbe2fe195	-0.17175896
43	0xbd8c7037	-0.06857341
44	0xbc3e6e48	-0.011622973
45	0xbe18c369	-0.14918293
46	0xbdd74980	-0.10512066
47	0x3dfe3100	0.1241169
48	0xbdbd39f2	-0.09239568
49	0x3df1c69a	0.11805458
50	0x3c864d17	0.016394181
51	0x3de32dc4	0.110927135
52	0x3ba527f1	0.005040162
53	0xbda29221	-0.07938028
54	0x3d5bd06d	0.053665567
55	0xbc4f3c9c	-0.012648728
56	0x3d37d356	0.04487928
57	0xbdecafd4	-0.11556974
58	0x3deb25dc	0.114818305
59	0x3e317fae	0.17333862
60	0x3df70157	0.120608024
61	0xbe2cdead	-0.16881819
62	0x3d48affd	0.04899596
63	0xbe30070d	-0.1719019
64	0x3add74b8	0.0016895747
65	0xbdf57dbe	-0.11986874
66	0xbdb908f4	-0.09034911
67	0xbd80862d	-0.06275592
68	0x3dbfb88f	0.09361374
69	0x3dbda1d9	0.092593856
70	0xbdb89b87	-0.090140395
71	0x3e131eff	0.14367293
72	0x3dcfd8eb	0.10148796
73	0x3e113469	0.14180149
74	0xbc70fba6	-0.014708435
75	0xbd1a4cec	-0.037671015
76	0x3d19ab9b	0.03751717
77	0x3d11c793	0.03559072
78	0xbd7561e8	-0.059907824
79	0xbd3c7f15	-0.046019632
80	0xbe07da5e	-0.13266894
81	0xbe0dcf09	-0.13848509
82	0x3df2a125	0.11847142
83	0x3dd1835e	0.102301344
84	0xbdc2578f	-0.09489357
85	0x3bbd63d0	0.005779721
86	0x3cea425f	0.028596101
87	0x3dbd225e	0.09235071
88	0x3e1d930e	0.15388128
89	0x3e36b1a3	0.178412
90	0xbd3026e6	-0.043005846
91	0xbdab2bf5	-0.083579935
92	0x3da825d2	0.08210339
93	0x3e0901f6	0.13379654
94	0xbde77054	-0.11300722
95	0x3d12a382	0.035800464
96	0x3d2a60a8	0.041596085
97	0xbdcb27a2	-0.09919669
98	0x3dbceab9	0.09224457
99	0x3cfc261d	0.030779893
100	0xbe05d5bc	-0.13069814
101	0x3d57a391	0.052646223
102	0x3af64ee1	0.0018791818
103	0x3e1dcef0	0.15410972
104	0xbdacd1f6	-0.08438484
105	0x3d171b61	0.036891345
106	0x3e21be66	0.15795287
107	0x3de0c4ef	0.10975062
108	0xbcb70a92	-0.022343908
109	0xbb7ce170	-0.003858652
110	0x3db6f611	0.08933652
111	0x3e1fa0de	0.1558871
112	0x3d2b9ad9	0.04189572
113	0xbdf1b761	-0.11802555
114	0xbdcb3f17	-0.09924143
115	0x3ddb7923	0.10716464
116	0xbd0533ce	-0.032520108
117	0x3e1a9076	0.1509417
118	0xbdf46852	-0.1193396
119	0x3e3322a8	0.17493689
120	0xbddca6e3	-0.107740186
121	0x3d82bb7f	0.06383418
122	0xbd799048	-0.060928613
123	0x3df6d214	0.12051788
124	0xbd97bce8	-0.07409078
125	0x3e1a6c3e	0.15080354
126	0x3db30c09	0.0874253
127	0x3ddabcc4	0.106805354

mlp1_xi_init.network.6.bias f4 [4]
0	0x3d95b047	0.07309013
1	0xbd354b85	-0.044261474
2	0xbda3a4a3	-0.07990386
3	0x3d3a0538	0.045415133

mlp2_q_dynamics.network.0.weight f4 [32, 4]
0	0xbea55604	-0.32292187
1	0xbeba0670	-0.36333036
2	0x3ee95dee	0.45579475
3	0x3de74f28	0.11294395
4	0xbdc33948	-0.0953241
5	0xbe70ad18	-0.2350353
6	0xbe8f4898	-0.27985072
7	0x3da57380	0.080786705
8	0xbeb11264	-0.34584343
9	0x3d316840	0.04331231
10	0xbeb04d62	-0.34434038
11	0x3e32b660	0.17452383
12	0xbecbe17e	-0.39820474
13	0xbe1506e8	-0.14553416
14	0x3e914ede	0.28380483
15	0xbd949b50	-0.07256186
16	0xbdc7d0c0	-0.09756613
17	0xbec69466	-0.38785094
18	0xbee5a42a	-0.4485181
19	0xbed7c484	-0.42142117
20	0x3e93dd0a	0.28879577
21	0x3e442fd8	0.19158876
22	0xbe465894	-0.19369727
23	0xbe965ca0	-0.29367542
24	0xbd745040	-0.059646845
25	0x3e8a2302	0.26979834
26	0xbe73a074	-0.23791677
27	0x3c4112c0	0.0117842555
28	0xbed21af8	-0.410362
29	0xbe617af4	-0.22019559
30	0xbecf6d92	-0.40513283
31	0xbeeabd20	-0.45847416
32	0x3ee02172	0.43775517
33	0xbde3f570	-0.11130798
34	0x3db2fe50	0.087399125
35	0xbc55d9c0	-0.013052404
36	0x3d218010	0.03942877
37	0xbee73642	-0.45158583
38	0xbd1efcf0	-0.03881544
39	0x3e1f0054	0.15527469
40	0xbd634810	-0.055488646
41	0xbeb91354	-0.3614756
42	0xbeeb0a12	-0.4590612
43	0xbdb743e8	-0.08948499
44	0xbda04a68	-0.07826692
45	0x3ee03b26	0.43795127
46	0xbda6a2f0	-0.081365466
47	0x3ecfaac6	0.40559977
48	0x3eaf40a0	0.34228992
49	0x3dab7758	0.083723724
50	0x3b516d00	0.0031955838
51	0xbebd2c30	-0.36947775
52	0xbee0df3e	-0.4392032
53	0xbeb0d944	-0.3454076
54	0xbe6740f4	-0.22583371
55	0xbd8aa338	-0.06769413
56	0x3de6fd88	0.11278826
57	0xbee0fce6	-0.43942946
58	0xbeefcfc4	-0.468382
59	0x3ea3c604	0.3198701
60	0xbee5e276	-0.44899338
61	0x3eaba8a4	0.335271
62	0x3bf03080	0.0073300004
63	0xbec0f842	-0.37689406
64	0xbeae8fa2	-0.34093958
65	0x3d242f10	0.040083945
66	0xbe4b0be4	-0.19828755
67	0x3edd1e5c	0.43187225
68	0x3e454934	0.19266206
69	0x3c506840	0.012720168
70	0x3da7dd68	0.08196527
71	0xbe399280	-0.18122292
72	0x3e70399c	0.23459476
73	0x3e68abcc	0.22721785
74	0xbeb9e2fe	-0.36305994
75	0xbe6c5c00	-0.2308197
76	0x3eed8998	0.46394038
77	0xbe3ff1a0	-0.18744516
78	0x3e871542	0.26383406
79	0xbce00e00	-0.027350426
80	0xbe152ffc	-0.14569086
81	0x3e17f798	0.14840543
82	0xbc9823e0	-0.018571794
83	0xbea6fd8c	-0.32615316
84	0xbe8161a4	-0.25269806
85	0x3e439f48	0.1910373
86	0x3ebf4312	0.37355858
87	0xbe47688c	-0.19473475
88	0xbee97b58	-0.45601916
89	0x3eff1400	0.49819946
90	0x3ecdea9a	0.4021805
91	0xbe850078	-0.2597692
92	0x3dc37788	0.09544283
93	0x3eb745e4	0.3579551
94	0xbe39a524	-0.18129402
95	0x3e8a5158	0.27015185
96	0x3e88d004	0.26721203
97	0xbe593698	-0.21212232
98	0x3e989168	0.29798436
99	0xbed294ca	-0.41129142
100	0x3edb2716	0.42803258
101	0x3c903de0	0.01760763
102	0xbd803300	-0.062597275
103	0xbee25ef8	-0.4421308
104	0xbe33cf7c	-0.17559618
105	0x3d7ffaf0	0.062495172
106	0x3eeda1e8	0.46412587
107	0xbe87736c	-0.26455247
108	0xbe724960	-0.23660803
109	0x3dbd22f8	0.092351854
110	0xbd5c6670	-0.05380863
111	0xbec1d44e	-0.37857288
112	0x3ef01ef6	0.4689862
113	0xbe97e674	-0.2966801
114	0x3d8ff018	0.07028216
115	0xbdf14d28	-0.117822945
116	0x3e8c6efc	0.27428424
117	0xbe015270	-0.12629104
118	0x3d1da6b0	0.038489044
119	0x3e9260e4	0.28589547
120	0x3e7f7dc0	0.24950314
121	0x3e252700	0.16128159
122	0x3ced07c0	0.02893436
123	0x3ec2556c	0.37955797
124	0x3ea6e604	0.32597363
125	0x3de48668	0.111584485
126	0xbd777260	-0.06041181
127	0xbe86ab2c	-0.2630247

mlp2_q_dynamics.network.2.weight f4 [32, 32]
0	0xbd3ebf23	-0.046569
1	0xbdf9dfe8	-0.1220091
2	0x3db00e80	0.08596516
3	0x3e3086a6	0.17238864
4	0x3cf0fe3a	0.0294181
5	0x3dac9ff1	0.08428944
6	0x3db92a98	0.09041327
7	0xbe108849	-0.14114489
8	0x3d39cc22	0.04536069
9	0x3d1e34b6	0.038624488
10	0x3dfc4081	0.12316991
11	0xbe2ed492	-0.17073277
12	0xbe0f238e	-0.13978407
13	0x3de2d0e9	0.11075003
14	0xbd82bcc4	-0.063836604
15	0x3dec72ea	0.115453556
16	0xbdb7e82a	-0.08979829
17	0x3b166b44	0.002295212
18	0x3dd38774	0.1032857
19	0x3d394bf8	0.045238465
20	0x3e244b31	0.16044308
21	0xbe2f8de4	-0.1714397
22	0xbde7f59c	-0.11326143
23	0xbe02fadb	-0.12791006
24	0x3d8f2284	0.06989005
25	0xbcdff076	-0.02733634
26	0x3d4bb2f0	0.049731195
27	0xbe2225ab	-0.15834682
28	0xbdeb348d	-0.11484633
29	0xbd9a6917	-0.075395755
30	0xbdec00d6	-0.11523597
31	0xbd789c7e	-0.060696118
32	0x3dcba172	0.099429026
33	0xbdd75cf6	-0.10515778
34	0xbe188222	-0.14893392
35	0x3b32c8e6	0.002728039
36	0xbd88613b	-0.0665917
37	0xbdf6af38	-0.12045139
38	0xbdac11ea	-0.08401854
39	0x3e0df29f	0.13862084
40	0xbe2358bd	-0.1595182
41	0x3dd1042f	0.10205876
42	0x3cd284c3	0.025698071
43	0x3d868277	0.06567853
44	0xbe2486c2	-0.16067031
45	0xbc812f35	-0.01576958
46	0xbe0acc3f	-0.13554476
47	0x3a3526e4	0.0006910397
48	0xbe27b3e9	-0.16377224
49	0xbcb77f72	-0.022399638
50	0xbc8770a0	-0.016533196
51	0xbdfba493	-0.122872494
52	0xbd81adde	-0.06331991
53	0x3d0afcc0	0.033932447
54	0x3db81e50	0.08990157
55	0xbe256a6a	-0.16153875
56	0xbe183057	-0.1486219
57	0x3df4f85f	0.119614355
58	0xbdcc7101	-0.09982491
59	0x3da71190	0.08157647
60	0xbdb39927	-0.08769446
61	0x3ca71ce3	0.020399516
62	0x3d1c9691	0.03822953
63	0xbd72e4df	-0.0593003
64	0x3d88475b	0.06654235
65	0x3daffdf9	0.08593363
66	0xbd7b3209	-0.061327014
67	0xbe238e09	-0.15972151
68	0x3d9dc78a	0.07704075
69	0xbe1f46a8	-0.15554297
70	0x3e1a9949	0.15097536
71	0xbe0236d0	-0.12716222
72	0x3de1018c	0.10986623
73	0x3dc3daad	0.095631935
74	0xbd9beb95	-0.07613293
75	0x3cb07cb8	0.021543846
76	0x3cf8d96a	0.030377109
77	0xbd4ba816	-0.049720846
78	0x3e06192b	0.13095538
79	0x3e08fb31	0.13377072
80	0x3d904523	0.07044437
81	0xbd8f2d8b	-0.069911085
82	0x3e04a4a7	0.12953435
83	0xbe2b4430	-0.1672523
84	0x3dbf3783	0.0933676
85	0x3dbd1c3b	0.092339
86	0x3cbbfdff	0.022948263
87	0x3e005626	0.12532863
88	0xbd6ab961	-0.057305697
89	0xbd542918	-0.051797003
90	0x3d7a0907	0.061043765
91	0xbe23ddfd	-0.1600265
92	0x3e217383	0.1576672
93	0x3d3f31a5	0.046678204
94	0x3d0b56dd	0.034018386
95	0xbc139d4a	-0.009009669
96	0x3dc9c35b	0.09851714
97	0xbe02b277	-0.12763391
98	0xbe3375d5	-0.17525418
99	0xbe13ee9c	-0.14446491
100	0xbd01b206	-0.031663917
101	0x3cc50e53	0.024054682
102	0xbdf2a2d0	-0.1184746
103	0x3d25a5d5	0.040441353
104	0xbda343b9	-0.079719014
105	0xbdb25955	-0.08708445
106	0x3d5f673d	0.054541815
107	0xbe009b2c	-0.12559193
108	0x3d8f5028	0.069977105
109	0xbb358d6c	-0.0027702702
110	0x3de0b5b9	0.10972161
111	0xbe159202	-0.14606479
112	0xbe0eae60	-0.13933706
113	0x3d09c17e	0.033631794
114	0x3d1d629d	0.038424123
115	0xbdcbf44d	-0.09958706
116	0x3bd52604	0.006504776
117	0x3b8b7687	0.004256073
118	0xbd5096b1	-0.05092496
119	0xbd9c91a7	-0.076449685
120	0x3e0e9566	0.13924178
121	0x3df8e561	0.121531256
122	0xbc680470	-0.014161214
123	0x3d7e8181	0.062135223
124	0x3dffad26	0.12484197
125	0xbe12c10c	-0.14331454
126	0xbe01647a	-0.12635985
127	0x3e2b101f	0.16705368
128	0x3dbc29d1	0.09187663
129	0xbd931397	-0.07181471
130	0x3e0fd403	0.1404572
131	0xbd4fe95d	-0.050759662
132	0xbe1dc979	-0.15408887
133	0x3e2ac708	0.16677487
134	0xbdc1e70d	-0.094678976
135	0xbdd297cc	-0.10282859
136	0xbd51454e	-0.051091485
137	0x3e3265ea	0.1742169
138	0xbd341a47	-0.043970373
139	0x3d1395aa	0.036031403
140	0xbda29155	-0.07937876
141	0x3d9cfb0b	0.0766507
142	0x3e322184	0.17395598
143	0xbd6bace4	-0.05753793
144	0x3ca7e587	0.02049519
145	0x3e27413a	0.16333476
146	0xbdca8394	-0.09888378
147	0x3ccf98e8	0.025341466
148	0x3d99b94c	0.07506046
149	0xbd02e4a4	-0.03195633
150	0x3dca302f	0.098724715
151	0x3dbfd006	0.09365849
152	0x3e23430c	0.15943545
153	0x3dfcd727	0.123457246
154	0x3dc46602	0.09589769
155	0x3e1b3961	0.15158607
156	0xbe212b04	-0.15739065
157	0x3dc328ac	0.09529242
158	0xbe29ba68	-0.16575015
159	0xbe051f6d	-0.13000269
160	0x3d50d1c2	0.05098129
161	0x3dc3b675	0.09556285
162	0xbc6085b4	-0.013703752
163	0xbd1f6503	-0.03891469
164	0x3d6b88c3	0.057503473
165	0x3cd66464	0.026170917
166	0xbe132f69	-0.14373554
167	0xbbb7d7f7	-0.005610462
168	0x3dc3488c	0.095353216
169	0xbb8904bd	-0.004181473
170	0x3acfff43	0.0015868921
171	0xbe1593c4	-0.1460715
172	0xbd2952f9	-0.041338895
173	0xbd781263	-0.06056441
174	0xbdc5c4d3	-0.09656682
175	0x3e0fd12f	0.14044641
176	0xbe1e879c	-0.15481418
177	0x3d00387e	0.031303875
178	0xbcb864f2	-0.022509072
179	0x3c8652bc	0.016396873
180	0x3e1536de	0.14571711
181	0x3de81826	0.11332731
182	0x3c85169d	0.016246134
183	0xbaa5bb1d	-0.0012644265
184	0x3ddfdb56	0.10930507
185	0x3d75a83e	0.0599749
186	0xbcabe3df	-0.02098268
187	0xbdf1ddc8	-0.118098795
188	0xbe06c033	-0.13159256
189	0xbcfb0e43	-0.030646449
190	0xbe3053ad	-0.1721942
191	0xbd8bdeea	-0.06829627
192	0xbde0b027	-0.109710984
193	0xbddd0033	-0.107910536
194	0x3de4ccbf	0.11171865
195	0x3d2fbae8	0.042902857
196	0x3bd759c2	0.0065719793
197	0x3defacd0	0.11702883
198	0x3e1e55b2	0.15462378
199	0x3dd9d194	0.10635677
200	0xbda1f690	-0.07908356
201	0xbdc37c39	-0.09545178
202	0x3d6657a5	0.056235928
203	0x3e1362ea	0.14393201
204	0x3e0478b1	0.12936665
205	0x3b4dec94	0.003142153
206	0x3c09c173	0.008407938
207	0x3daaf58e	0.08347617
208	0x3e236d70	0.15959716
209	0xbcae9d91	-0.021315368
210	0x3dd1ad4e	0.10238133
211	0x3daa204f	0.083069436
212	0xbbb60a3a	-0.0055554183
213	0xbdaa4401	-0.08313752
214	0x3d2fd72b	0.04292981
215	0xbe1c22c6	-0.1524764
216	0xbde0603a	-0.10955854
217	0xbdbf2e38	-0.093349874
218	0xbe1c7a17	-0.15280949
219	0x3d9b1b45	0.075735606
220	0x3de10d45	0.10988859
221	0x3e0e7383	0.13911252
222	0xbdea2418	-0.114326656
223	0xbd9d469e	-0.07679485
224	0x3e0188ef	0.12649892
225	0x3e1c3772	0.15255526
226	0xbd61d8da	-0.055138446
227	0xbe1f6ba9	-0.15568413
228	0xbdaf0e29	-0.08547623
229	0x3d75e3f8	0.06003186
230	0x3cc3bf82	0.023895029
231	0xbd41d05b	-0.047317844
232	0x3d9f0166	0.077639386
233	0xbdf34c8a	-0.11879833
234	0xbd752858	-0.059852928
235	0xbdd3c925	-0.103411
236	0x3d3098bd	0.043114413
237	0x3dd2dddb	0.10296222
238	0x3d66faa8	0.05639139
239	0x3e04331d	0.12910123
240	0xbcc4bf92	-0.02401713
241	0x3cf66fd8	0.030082628
242	0xbe211dc1	-0.15734006
243	0xbd3d3cec	-0.046200678
244	0x3dc4f837	0.09617656
245	0xbd8b7671	-0.068097
246	0x3d47d552	0.048787422
247	0xbd62f01d	-0.05540477
248	0x3e07689c	0.13223499
249	0xbdfea78b	-0.124343
250	0x3e0f8cac	0.14018506
251	0xbe27e267	-0.1639496
252	0x3e1f3f48	0.15551484
253	0x3e1660a3	0.14685301
254	0xbe001249	-0.12506975
255	0xbc934e18	-0.017981574

mlp2_q_dynamics.network.4.weight f4 [32, 32]
0	0xbe2af624	-0.16695458
1	0x3dbc6a24	0.09199932
2	0x3b3835a8	0.0028108153
3	0x3e0483f2	0.12940958
4	0x3d693fe5	0.0569457
5	0x3d3fc75a	0.046820976
6	0xbdbc5f94	-0.091979176
7	0x3db30fcc	0.087432474
8	0xbd904893	-0.070450924
9	0xbe1d69ed	-0.15372439
10	0xbce18a24	-0.02753169
11	0xbde71983	-0.11284163
12	0x3d23e7f0	0.040016115
13	0xbe19b348	-0.15009797
14	0xbe0cf9e2	-0.13767198
15	0x3e3441ce	0.17603227
16	0x3dbab479	0.09116454
17	0xbe0cea55	-0.13761266
18	0xbe2caeb7	-0.16863523
19	0xbe307351	-0.1723149
20	0xbc667c86	-0.014067775
21	0xbd8d5dae	-0.069026336
22	0x3df19d2e	0.11797558
23	0xbc997149	-0.018730776
24	0x3df46c06	0.11934666
25	0x3c66cd39	0.014087015
26	0x3e218717	0.15774189
27	0x3db63825	0.088974275
28	0xbdda5a4b	-0.10661753
29	0xbd8e94f9	-0.06962008
30	0x3d42f3c6	0.04759576
31	0x3decf242	0.115696445
32	0xbe1d03ff	-0.15333556
33	0xbcfa8a9b	-0.03058367
34	0xbddc35d0	-0.107524514
35	0x3de0e842	0.109818
36	0xbdb4155f	-0.08793139
37	0x3e12104f	0.14264034
38	0x3dd834d1	0.10556949
39	0x3e30af11	0.17254283
40	0x3d201e8a	0.039091624
41	0x3d1c2694	0.03812273
42	0xbe0b803a	-0.13623133
43	0x3c995593	0.018717563
44	0x3de2ddf6	0.11077492
45	0x3e2e8f82	0.17046931
46	0xbd843750	-0.064558625
47	0x3e0f22bb	0.13978092
48	0xbdff136f	-0.124548785
49	0x3e243bc3	0.16038422
50	0xbd0412a4	-0.03224434
51	0xbc4f739c	-0.012661841
52	0xbd4e1d86	-0.050321124
53	0x3d00c13b	0.03143428
54	0xbd4a8380	-0.049441814
55	0x3e0404b0	0.12892413
56	0x3e185755	0.14877065
57	0x3db5f125	0.08883885
58	0x3c4b8f79	0.012424343
59	0xbe1306f1	-0.14358117
60	0xbdbe62f8	-0.092962205
61	0x3b43f227	0.0029898973
62	0xbdd3f4e0	-0.103494406
63	0x3ce8b285	0.028405437
64	0xbd3383ee	-0.04382699
65	0x3e2cdee8	0.16881907
66	0x3d90d141	0.07071162
67	0x3e241234	0.16022569
68	0x3e32265d	0.17397447
69	0x3db23948	0.08702332
70	0x3db045a7	0.08607035
71	0x3cdb983a	0.026805986
72	0xbdca667f	-0.09882831
73	0x3e10a872	0.14126757
74	0xbe0f13db	-0.13972418
75	0xbdd29b0f	-0.10283481
76	0x3d5fe4f3	0.054661702
77	0x3e321829	0.17392029
78	0xbe0f4984	-0.13992888
79	0xbcf74ab2	-0.030186985
80	0xbd1d5ee6	-0.03842058
81	0xbe25f787	-0.16207705
82	0xbd8106ea	-0.06300147
83	0xbe2c209a	-0.16809312
84	0xbe2c8cb2	-0.16850546
85	0x3e1dd3d8	0.15412843
86	0x3e21ed3f	0.15813158
87	0x3d41b90b	0.04729561
88	0x3cde31ec	0.027123414
89	0x3e313b4d	0.17307778
90	0xbdf465d0	-0.11933482
91	0xbe2ba998	-0.16763914
92	0x3d4426e1	0.04788864
93	0x3e17a325	0.14808328
94	0x3d1bb111	0.03801066
95	0x3d1c04f8	0.038090676
96	0xb584efa2	-9.904509e-07
97	0x3ca5a915	0.020222226
98	0x3d510d7c	0.05103825
99	0x3e293fcf	0.16528247
100	0x3e058618	0.13039434
101	0x3e1c8fbc	0.15289205
102	0x3d7adf9d	0.06124841
103	0xbd1a787b	-0.037712555
104	0x3c5b3a5b	0.013380612
105	0xbdf83982	-0.12120344
106	0xbe057d8e	-0.13036177
107	0x3d0a3427	0.033741143
108	0xbde7f5bc	-0.11326167
109	0xbe2e6edc	-0.17034477
110	0x3d8c7f3b	0.06860205
111	0x3e1ba884	0.15201002
112	0xbc7b19c0	-0.0153259635
113	0xbcb6a975	-0.0222976
114	0xbd8f663e	-0.07001923
115	0x3e278108	0.16357815
116	0x3d545675	0.051840264
117	0xbe07b5a4	-0.13252884
118	0xbe04cdce	-0.12969133
119	0xbdaa055c	-0.083018035
120	0x3ddc6fb5	0.10763494
121	0xbb826135	-0.003978873
122	0xbda3c1dd	-0.07995961
123	0x3d5ddb31	0.054164115
124	0x3e0ffd5b	0.14061491
125	0x3e02b082	0.12762645
126	0xbddee6d8	-0.10883874
127	0x3d02f268	0.031969458
128	0x3df1bfdd	0.11804173
129	0xbd64c60d	-0.05585294
130	0x3d78d8af	0.06075352
131	0x3d8ad3f3	0.06778707
132	0x3b718ab8	0.0036856364
133	0xbdb39fd7	-0.087707214
134	0x3e333b3e	0.17503068
135	0xbb97faf5	-0.0046380707
136	0xbe25a723	-0.16177039
137	0x3ca1b8f8	0.01974152
138	0x3e2893ed	0.16462679
139	0x3c7b38dd	0.0153333815
140	0xbe159810	-0.14608788
141	0xbd35ba5e	-0.044367187
142	0xbe14be4a	-0.14525715
143	0x3cab2bfb	0.020894995
144	0x3d4a2147	0.049348142
145	0x3d3b67bc	0.045753226
146	0xbe1f3e6f	-0.1555116
147	0x3d8e48d6	0.06947486
148	0xbcae9c98	-0.021314904
149	0x3d4af678	0.049551457
150	0x3e2dae25	0.16960962
151	0x3cdb3d51	0.026762636
152	0xbab6c48c	-0.0013944074
153	0x3d256982	0.040383823
154	0x3db6593f	0.08903741
155	0xbe1564b0	-0.1458919
156	0x3baad031	0.0052128066
157	0xbdb39007	-0.087677054
158	0xbe01b2ca	-0.12665859
159	0xbe2e7cb1	-0.17039753
160	0x3db7c852	0.08973755
161	0x3d13dfe4	0.03610219
162	0x3e1cb9fd	0.15305324
163	0x3db7ba09	0.0897103
164	0xbdc421f0	-0.095767856
165	0x3e331569	0.17488636
166	0x3d03f459	0.03221545
167	0xbe3012a3	-0.1719461
168	0x3b10475e	0.0022015194
169	0x3d663e5e	0.05621182
170	0xbdf0e1fc	-0.11761853
171	0x3dfa2e5a	0.12215872
172	0x3dc2a762	0.09504582
173	0x3e1e4532	0.15456083
174	0x3d0ac434	0.03387852
175	0x3d8ce899	0.06880302
176	0xbcc76281	-0.024338963
177	0x3de3f616	0.111309215
178	0x3e03de15	0.12877686
179	0xbd9a24ab	-0.07526525
180	0xbdf4b63f	-0.11948823
181	0xbc95bfcb	-0.01827993
182	0xbe00166b	-0.12508552
183	0xbd8ca50c	-0.06867418
184	0xbbc5ffb6	-0.006042446
185	0xbe206aa1	-0.15665676
186	0xbd152b0f	-0.036418017
187	0xbd677dc7	-0.056516435
188	0x3d9b5bb5	0.07585851
189	0xbb217593	-0.002463673
190	0xbc92ac57	-0.017904444
191	0x3e04e065	0.12976225
192	0x3d4d9354	0.05018933
193	0xbe0820fa	-0.1329383
194	0x3e25c246	0.1618739
195	0xbe24958b	-0.16072671
196	0xbdf99549	-0.12186677
197	0xbdb0e5bc	-0.08637568
198	0xbc89dfb8	-0.01683031
199	0x3e2924c4	0.16517931
200	0xbce3ea13	-0.027821576
201	0xbcd3eca2	-0.025869671
202	0x3df2d1e9	0.118564434
203	0x3dd4fe79	0.10400099
204	0x3dec2629	0.11530716
205	0x3d604d34	0.054761127
206	0x3de25d42	0.11052944
207	0xbe072e56	-0.1320127
208	0x3def782e	0.11692844
209	0xbe19e267	-0.15027772
210	0xbd874050	-0.066040635
211	0xbe276aad	-0.16349287
212	0xbe31173c	-0.1729402
213	0xbcd03daa	-0.025420029
214	0x3d1a697a	0.037698247
215	0xbd6d9416	-0.058002554
216	0xbbd2f4c0	-0.006437868
217	0x3ddd4899	0.108048625
218	0xbd328a90	-0.043589175
219	0x3d9cbfb1	0.0765375
220	0x3dc23e00	0.09484482
221	0xbcbffa43	-0.023434764
222	0x3d004c72	0.031322904
223	0x3cfff88e	0.03124645
224	0xbcdba0b6	-0.026810031
225	0xbd61d01a	-0.0551301
226	0x3e042ade	0.12906978
227	0x3d3989e3	0.045297515
228	0xbc538b46	-0.012911623
229	0x3de2a59d	0.110667445
230	0x3e2276bd	0.15865608
231	0xbe10c94e	-0.14139292
232	0x3d806a1a	0.06270237
233	0xbe0cc0be	-0.137454
234	0x3cd9d0f0	0.026588887
235	0x3e29ed1a	0.16594353
236	0xbd6b5a2e	-0.05745905
237	0x3dac2085	0.0840464
238	0xbd63c532	-0.055607982
239	0x3d590249	0.052980695
240	0x3a74307b	0.00093150855
241	0xbe25db99	-0.16197051
242	0xbe3492f3	-0.17634182
243	0xbdffc6a6	-0.12489061
244	0xbe30a8dc	-0.17251915
245	0xbe05034c	-0.12989539
246	0xbdd45d93	-0.1036941
247	0x3d98213e	0.074282154
248	0x3e1158c1	0.14194013
249	0xbd755b03	-0.05990125
250	0x3d3fcf5f	0.046828624
251	0x3e16fecf	0.1474564
252	0x3dad8f8a	0.084746435
253	0xbbc51d43	-0.006015451
254	0xbe12e478	-0.14344966
255	0xbc425797	-0.011861703

mlp2_q_dynamics.network.6.weight f4 [10, 32]
0	0xbe251aa4	-0.16123444
1	0xbdda4b11	-0.10658849
2	0xbe2ef255	-0.1708463
3	0xbdd721e5	-0.10504512
4	0x3dfa2194	0.12213436
5	0xbda5de72	-0.08099069
6	0x3cec9598	0.028879926
7	0xbd46e9a7	-0.048562672
8	0xbb07c0e2	-0.0020714332
9	0x3b8f39f6	0.004370923
10	0x3de548a5	0.111954965
11	0x3e04c408	0.12965405
12	0xbd6d7740	-0.057975054
13	0x3c794eed	0.015216571
14	0xbe161690	-0.14657044
15	0xbe08557b	-0.13313858
16	0xbe2a067a	-0.16604033
17	0xbe13fb51	-0.14451338
18	0xbe18c2f6	-0.14918122
19	0x3db3d222	0.08780314
20	0x3cf95013	0.03043369
21	0x3da692a0	0.08133435
22	0xbdfeedef	-0.12447726
23	0xbd50c6cc	-0.050970837
24	0xbe21b85c	-0.15792984
25	0xbe234a91	-0.15946414
26	0xbd660928	-0.056161076
27	0xbe1f3196	-0.1554626
28	0x3d86892f	0.065691344
29	0xbd904b28	-0.07045585
30	0xbe0c8101	-0.13721086
31	0x3ce21155	0.027596155
32	0xbd374949	-0.044747625
33	0x3dfb9e1a	0.12286015
34	0xbe1b3984	-0.15158659
35	0x3dae7c28	0.08519775
36	0xbdd2ff4d	-0.10302601
37	0xbe34da6f	-0.17661451
38	0xbe0f5221	-0.13996173
39	0x3dd45053	0.10366883
40	0xbd9f171b	-0.07768079
41	0xbd34a748	-0.044104844
42	0x3c026ce0	0.007960528
43	0xbe342fb5	-0.17596324
44	0x3d80323a	0.0625958
45	0x3c00fd01	0.007872821
46	0xbd80dfd0	-0.06292689
47	0x3c83ece1	0.016104164
48	0x3daf4a0e	0.08559047
49	0xbdcfa8fe	-0.101396546
50	0x3d0955ca	0.03352908
51	0x3e1534e3	0.14570956
52	0x3cb6d5eb	0.0223188
53	0x3d91d22b	0.071201645
54	0xbe1fa042	-0.15588477
55	0x3d8c74f4	0.068582445
56	0xbdaeab7d	-0.085288025
57	0x3da86d65	0.0822399
58	0x3d933adb	0.0718896
59	0xbd0a3208	-0.03373912
60	0xbdab7599	-0.08372039
61	0xbceed1de	-0.029152807
62	0xbe0c0a9b	-0.1367592
63	0x3de8d44e	0.11368619
64	0x3d8b86c5	0.068128146
65	0x3a75005f	0.00093460636
66	0xbcce5913	-0.025188958
67	0x3e336c38	0.17521751
68	0xbdda2b3d	-0.10652778
69	0xbd55cf04	-0.05219938
70	0x3d029cce	0.03188782
71	0x3c4b9389	0.012425312
72	0xbdd00a77	-0.10158246
73	0x3d70fa73	0.058832597
74	0xb9cbcd2a	-0.00038872036
75	0x3dfe4f17	0.12417429
76	0x3d450ce9	0.048108015
77	0xbd183fe1	-0.037170295
78	0xbe2eca49	-0.17069353
79	0x3cf1d311	0.02951959
80	0xbde7d40c	-0.113197416
81	0xbca904ed	-0.020632232
82	0xbdb344ff	-0.08753394
83	0xbe1d4808	-0.15359509
84	0x3daa4733	0.083143614
85	0x3e0de924	0.13858467
86	0x3de3fa40	0.11131716
87	0x3df8af90	0.12142861
88	0xbd2a6bd9	-0.041606758
89	0x3e140a7b	0.14457123
90	0x3e23f699	0.16012038
91	0x3da2edcc	0.079555124
92	0xbe09d63f	-0.13460635
93	0x3db3a0ca	0.087709025
94	0xbe111da1	-0.14171459
95	0x3e0fe419	0.14051856
96	0xbe217491	-0.15767123
97	0x3d4f9e2b	0.05068795
98	0x3d8a58c5	0.06755213
99	0xbc901aa5	-0.01759083
100	0x3e2f9965	0.17148359
101	0xbdf7a8fc	-0.12092778
102	0x3e0b53b7	0.13606153
103	0xbe29d57e	-0.16585347
104	0xbd2b5235	-0.041826446
105	0xbc2e5a2c	-0.010641616
106	0xbdc8257f	-0.09772777
107	0x3e14cba3	0.14530806
108	0xbdc5c856	-0.09657352
109	0xbe103ac0	-0.14084911
110	0xbdc3fc22	-0.09569575
111	0x3e0d1955	0.13779195
112	0x3e2cf2c3	0.16889481
113	0xbe1b5b14	-0.15171462
114	0x3e1e84dd	0.15480371
115	0xbd784b4f	-0.060618695
116	0x3dc53701	0.09629632
117	0xbd39b571	-0.04533905
118	0xbd37ec46	-0.044903062
119	0xbe184a8f	-0.14872192
120	0x3e1ca525	0.15297373
121	0x3e0a02e3	0.13477664
122	0xbd7781d9	-0.060426567
123	0xbe2f27fc	-0.17105097
124	0x3e23967a	0.15975371
125	0xbdf37300	-0.11887169
126	0x3e21bfcf	0.15795825
127	0xbe2b4c9a	-0.1672844
128	0x3d42b455	0.04753526
129	0xbd0cb31d	-0.034350503
130	0xbde89a36	-0.113575384
131	0x3e1dbbb4	0.15403634
132	0xbe031b08	-0.1280328
133	0xbe0d167a	-0.13778105
134	0xbc98d45a	-0.018655945
135	0xbc17ddf8	-0.00926923
136	0x3d2b9ed7	0.04189953
137	0xbe10afea	-0.14129606
138	0xbdf5dc83	-0.1200495
139	0xbe0c0e84	-0.13677412
140	0x3d562c5a	0.05228839
141	0x3e2a36c5	0.16622455
142	0xbd6b0823	-0.057380807
143	0x3df42c46	0.11922507
144	0xbe241de6	-0.1602703
145	0x3e321a00	0.1739273
146	0xbd94d4e1	-0.07267166
147	0x3de8d827	0.11369353
148	0xbdfb582d	-0.122726776
149	0xbe26add7	-0.16277252
150	0xbcd55c32	-0.026044939
151	0xbd8e5479	-0.06949706
152	0xbe046591	-0.1292937
153	0x3e192c60	0.14958334
154	0xbe13e46e	-0.14442608
155	0xbe1ac782	-0.15115169
156	0x3e2e5727	0.17025433
157	0xbca7df63	-0.020492261
158	0x3e0b6a33	0.1361473
159	0x3d4d905e	0.050186507
160	0x3e034b1e	0.12821624
161	0xbe038de9	-0.12847103
162	0xbe28b36a	-0.16474691
163	0x3e155212	0.14582089
164	0xbe28d6b0	-0.16488147
165	0xbd723c23	-0.059139382
166	0xbcb2927f	-0.02179837
167	0xbcd7b526	-0.026331495
168	0x3d9deff2	0.077117816
169	0x3e221fcc	0.15832442
170	0x3e2a1d96	0.16612849
171	0x3dd0837d	0.101813294
172	0xbdd3251c	-0.103098124
173	0xbc99778f	-0.018733768
174	0x3d91144c	0.070839494
175	0xbd8d8435	-0.06909982
176	0xbdf77d44	-0.120844394
177	0xbd1e019f	-0.038575765
178	0xbd819280	-0.06326771
179	0xbda4a15d	-0.0803859
180	0x3d8df4e4	0.06931475
181	0x3d219088	0.039444476
182	0x3de0ec9f	0.10982632
183	0xbcad8a0f	-0.021183996
184	0x3e27b80c	0.16378802
185	0x3dec3b5a	0.11534758
186	0x3caa5719	0.020793485
187	0x3b513cc1	0.0031927081
188	0xbd31600e	-0.043304496
189	0xbd84f3db	-0.06491824
190	0x3e082d3b	0.13298504
191	0xbd108c8e	-0.035290293
192	0x3d413be3	0.047176253
193	0x3e15ca57	0.14627968
194	0x3d63080b	0.055427592
195	0xbde466d0	-0.111524224
196	0xbe2d582c	-0.16928166
197	0xbd556b01	-0.052104
198	0x3d92ea09	0.07173545
199	0x3cb4d735	0.022075275
200	0xbde5d0e8	-0.11221486
201	0x3ca762ef	0.020432917
202	0xbd2c74cf	-0.042103585
203	0x3e04c743	0.12966637
204	0x3b902d62	0.0043999413
205	0xbdaa92e2	-0.08328797
206	0x3d6a857f	0.057256218
207	0xbdd2c7a6	-0.10291986
208	0xbcf8c1ba	-0.030365814
209	0xbcbbba1d	-0.022915894
210	0xbdfc1eeb	-0.12310585
211	0xbe2ee08e	-0.17077848
212	0xbd20213c	-0.039094195
213	0x3da0b8b5	0.0784773
214	0xbd9560a2	-0.07293822
215	0x3e264612	0.16237667
216	0x3d3da752	0.046302147
217	0x3d55f7b7	0.052238192
218	0x3ad22619	0.0016033083
219	0xbdda215c	-0.10650894
220	0xbe1f7297	-0.15571056
221	0xbd9741d2	-0.07385601
222	0xbd18bb3a	-0.03728793
223	0x3d20a954	0.039223984
224	0xbe2a0b15	-0.1660579
225	0x3e3228d8	0.17398393
226	0x3db68bf8	0.08913416
227	0xbe31f9ae	-0.17380401
228	0xbe19ba89	-0.15012564
229	0x3e205f74	0.15661412
230	0x3d4b7423	0.049671303
231	0x3e140725	0.1445585
232	0x3e2afaac	0.16697186
233	0x3e3226cc	0.17397612
234	0xbd2c6951	-0.042092625
235	0xbe193c8d	-0.14964505
236	0xbdbc2a6f	-0.09187781
237	0x3dd89f15	0.105772175
238	0x3d5a3285	0.053270835
239	0x3e2e059c	0.16994327
240	0xbe212dfa	-0.15740195
241	0x3dedc059	0.11608953
242	0x3e289f2f	0.16466974
243	0x3de5c4d5	0.11219183
244	0xbc803c0d	-0.015653634
245	0x3d5ba467	0.053623583
246	0xbe26fb7d	-0.16306873
247	0xbe13e437	-0.14442526
248	0xbbe64614	-0.007027397
249	0xbde9121f	-0.113804094
250	0xbd7f095b	-0.06226478
251	0xbdca0efe	-0.09866141
252	0xbdbd26c5	-0.0923591
253	0x3e2d77c1	0.16940214
254	0x3d802e5a	0.06258841
255	0x3e317cf5	0.17332824
