models/augmented_controller_seed_456.pt (torch, 54369 bytes, 29 tensors)

B_q f4 [10, 4]
000000 b0 c0 04 3e c2 23 17 bd 49 18 d8 bd c4 c6 3e 3e
       0.1296413 -0.036899336 -0.10551507 0.1863051
000010 73 bd 13 3d a9 31 58 3e 2e bc a6 bd 06 33 1e 3d
       0.036069345 0.21112694 -0.08141361 0.03862288
000020 fa 94 b4 3d ba 75 83 3c ef 15 08 be 3d f2 25 be
       0.088174775 0.016047347 -0.13289617 -0.16205688
000030 1a 01 6b be 7b 38 49 bc b4 3d 29 3e a8 b4 ad bd
       -0.22949639 -0.012281532 0.16527444 -0.08481723
000040 40 3e b3 bd d4 f0 05 be 59 9e 1b be 17 b5 15 be
       -0.087521076 -0.1308015 -0.15197124 -0.14619862
000050 b0 0e 3f 3e f4 b2 bc 3e bd 52 a0 3e e6 66 40 3e
       0.18657947 0.3685528 0.31313124 0.18789253
000060 11 e1 91 bc 7b 1d ca 3d ae 55 0d bd ff 84 8e be
       -0.017807515 0.09868904 -0.03450554 -0.27835843
000070 b7 3f 46 bd 55 5c 87 3c f5 15 da bd 48 01 55 be
       -0.048400607 0.01652352 -0.10648719 -0.2080127
000080 2c f9 0f 3e b5 5b 50 bd 7b c6 46 3d bc c8 05 3d
       0.14059895 -0.05086871 0.04852913 0.03266214
000090 6c 15 f3 3c a7 5f 9a bd cf cb 00 3d 18 c2 71 3e
       0.0296733 -0.075377755 0.031444367 0.23609197

lambda_xi_diag f4 [4]
000000 84 00 02 bf 4c 81 01 bf c7 35 03 bf 3a f2 06 bf
       -0.50782037 -0.50587916 -0.5125393 -0.5271336

lambda_q_real f4 [5]
000000 a4 a3 06 bf 7c 3b f6 be 82 ab 1b bf 63 f3 16 bf
       -0.52593446 -0.48092258 -0.60808575 -0.5896513
000010 18 3b 00 bf
       -0.5009017

lambda_q_imag f4 [5]
000000 00 00 80 3f 00 00 80 3f 00 00 80 3f 00 00 80 3f
       1.0 1.0 1.0 1.0
000010 00 00 80 3f
       1.0

q0_scale f4 [10]
000000 00 00 a0 40 00 00 a0 40 00 00 a0 40 00 00 a0 40
       5.0 5.0 5.0 5.0
000010 00 00 a0 40 00 00 a0 40 00 00 a0 40 00 00 a0 40
       5.0 5.0 5.0 5.0
000020 00 00 a0 40 00 00 a0 40
       5.0 5.0

mlp1_xi_init.network.0.weight f4 [32, 4]
000000 25 2b 2b be 12 68 5e be 3e 80 36 3e 20 a8 32 3e
       -0.16715677 -0.21719387 0.17822358 0.17446947
000010 7e ff fd 3d eb 9e d5 3e 2f 05 17 bf f2 95 26 be
       0.12402247 0.41722807 -0.58992285 -0.16268137
000020 59 25 7b 3e 37 1a a7 be ff 3a 81 3e 8d 9d ad 3d
       0.24525966 -0.32637188 0.25240323 0.08477316
000030 09 60 4e be a0 89 67 be ee 5d 5a 3f 70 4e 74 3e
       -0.20153822 -0.22611094 0.85299575 0.23858047
000040 2f f9 aa 3e 66 9f de be 05 88 41 3d ef 3b 94 be
       0.33393237 -0.43480986 0.04724886 -0.28951976
000050 32 de c5 be 40 f2 21 be 98 f0 d2 3e 23 bf f7 3e
       -0.38646084 -0.15815067 0.41199183 0.48388013
000060 25 d8 03 be 48 03 2e bf a4 f0 8f bf c5 f8 a8 bb
       -0.12875421 -0.67973757 -1.1245313 -0.0051566088
000070 75 98 39 be e9 6c c6 be 84 96 4a be 1e 34 9b be
       -0.18124564 -0.38754967 -0.1978398 -0.303132
000080 21 44 84 bd 30 d2 99 be 94 18 88 bf eb 39 20 bf
       -0.06458307 -0.30043173 -1.0632501 -0.62588376
000090 73 34 e1 3e f0 57 e1 3e 7d e1 69 be df 41 82 bd
       0.43985328 0.44012403 -0.22839923 -0.0636022
0000a0 56 e2 dd 3e dd e4 d8 be b6 84 23 3e 93 dc e8 bc
       0.43336743 -0.4236211 0.15968594 -0.02842549
0000b0 50 ba b5 3d d6 c4 ac 3e 9e e8 96 3f 64 87 d2 3e
       0.08873427 0.33743924 1.1789739 0.4111892
0000c0 cb 37 9c 3e 1c 49 cf be c7 8e 77 3e 67 99 88 3d
       0.30511317 -0.40485466 0.24175559 0.06669884
0000d0 a2 66 7c 3e 96 d9 c2 3c 96 a3 63 bd 9b a6 cb be
       0.24648526 0.023785394 -0.05557593 -0.39775547
0000e0 4c fb 62 be 01 8f 91 bb 8e 42 24 3e 26 48 d0 3e
       -0.22166175 -0.004442096 0.16041014 0.40680045
0000f0 05 b2 46 3e 67 f6 7f 3d aa 2d 09 3e 90 51 7d 3e
       0.19403847 0.062490847 0.13396326 0.24738145
000100 57 a8 ce bd 0f 94 51 be bb b7 88 be c5 a4 3c 3d
       -0.10090702 -0.20466636 -0.26702675 0.046055574
000110 3b b1 e1 3e 29 6e 19 bf f3 c6 39 be 5a e2 76 be
       0.4408053 -0.59933716 -0.181423 -0.24109784
000120 94 18 4c 3e 17 50 de be af b5 8a be e5 7f ce be
       0.19931251 -0.4342048 -0.2709174 -0.4033195
000130 6e c5 c0 bc 3e 4c 85 bd a0 1b 80 3e 66 99 05 3f
       -0.023531642 -0.06508683 0.25021076 0.5218719
000140 03 98 3a 3d 29 1c 1b bd 7a 1f a1 bd 48 37 b0 3e
       0.045555126 -0.037868652 -0.07867332 0.34417176
000150 64 7f 07 3f 18 d4 5e 3d 82 60 16 3d fd 44 24 bd
       0.5292876 0.054401487 0.03671313 -0.040104855
000160 c6 56 67 bd 46 aa 8c 3e b7 06 ac 3d ae 55 aa be
       -0.056479238 0.27473658 0.08399718 -0.33268493
000170 5a c4 5d 3e 8b 1b 20 3e 3c 1a e6 be b4 e9 21 be
       0.21656933 0.15635507 -0.4494189 -0.15811807
000180 dc 3d 02 3e 81 8b 48 3e e6 9f 93 be 2f 5a ad be
       0.1271891 0.19584467 -0.2883293 -0.33857867
000190 6b e5 76 3e e6 eb fa be 02 c3 92 bf a8 cf ed be
       0.24110954 -0.490081 -1.1465762 -0.46447492
0001a0 c2 76 ae 3e c3 3b 09 be 14 5e da 3e f6 d3 cb be
       0.3407498 -0.13401704 0.426499 -0.3981015
0001b0 35 99 ff 3e 9b 75 bf be 56 ce ae 3e 44 39 9d 3e
       0.49921575 -0.37394413 0.34141797 0.30707753
0001c0 36 b5 27 be de 49 05 be 5a bc a7 3e 30 36 d1 3e
       -0.1637772 -0.1301646 0.32760888 0.40861654
0001d0 4f 8b b3 3d e9 92 1b be 52 f7 98 bd a2 fe 14 3c
       0.087668054 -0.1519276 -0.074690476 0.009093912
0001e0 78 ab 4f 3e fd b7 c9 3c db 4a ad be 77 f6 c3 bc
       0.20280254 0.024623865 -0.33846173 -0.023921235
0001f0 31 06 45 3e 08 6e a2 be 07 17 39 3f 37 4c 8e 3d
       0.19240643 -0.31724572 0.7230076 0.069481306

mlp1_xi_init.network.0.bias f4 [32]
000000 72 71 8c 3e 79 48 29 3c dd 4d 7f 3e b8 c4 fa bc
       0.27430302 0.01033222 0.24932046 -0.030611381
000010 ea 66 a5 be a6 b2 40 3e 1f 11 1a be 25 86 a7 be
       -0.3230508 0.18818149 -0.15045594 -0.32719532
000020 63 6a 70 bb 59 f5 c9 be 7c ff 14 be 8e ee c7 3e
       -0.0036684505 -0.39444998 -0.14550585 0.3904919
000030 80 15 65 be a3 7d a7 3e 83 43 ac 3e 03 01 43 be
       -0.22371483 0.3271304 0.33645257 -0.19043355
000040 99 12 e0 be 26 ce 1e 3e 86 6b d0 be 01 cd a1 be
       -0.4376419 0.15508327 -0.40707034 -0.31601718
000050 39 93 55 bd a3 bf 10 be af 36 df bd 9f 3f d4 3d
       -0.052142356 -0.14135604 -0.10899102 0.10363697
000060 71 20 c1 3e ce 6e 16 3f 16 5b ac 3e ef d3 c8 bd
       0.37720063 0.58762825 0.33663243 -0.09806048
000070 3b 2d 9a 3c 5f 65 83 be 7a 81 c8 be dd 0c 90 3e
       0.018820396 -0.25663278 -0.39161283 0.28134814

mlp1_xi_init.network.2.weight f4 [32, 32]
000000 3f b8 9a 3c 77 45 07 3c 7c 82 3c bb 53 d9 0c 3e
       0.018886684 0.008256308 -0.0028764298 0.13754778
000010 a4 a5 09 be 72 0f 9c 3c 29 c0 bc bc 4b b9 aa 3d
       -0.13442093 0.019050334 -0.023040848 0.08336123
000020 b7 04 fb bd 94 d8 14 3e 9a 92 69 3d c5 18 8c be
       -0.12256759 0.14535743 0.057024576 -0.27362648
000030 dc cc a9 bd 76 31 9b 3d b6 46 1a be 0d 34 16 be
       -0.08291027 0.07577793 -0.15066037 -0.14668293
000040 fd c7 48 3d c0 0b 53 3d 06 06 b3 bd 4e 14 d3 bd
       0.04901885 0.051524878 -0.08741383 -0.10306607
000050 25 c5 4a be 3d ec f5 3d 60 60 0c 3e 77 76 ca 3d
       -0.19801767 0.120079495 0.13708639 0.098858766
000060 56 bb a8 bd 99 d4 2d 3d f4 0a 91 bd df f6 ce bd
       -0.082388565 0.042439077 -0.07082167 -0.10105681
000070 bd 14 bd 3d 13 73 24 3d 90 e2 2b be 08 5e 2b be
       0.09232471 0.040148806 -0.16785645 -0.16735089
000080 a7 7e fe 3d a6 b3 b7 bd b5 f2 69 bd 14 f0 e1 bd
       0.12426501 -0.08969812 -0.05711623 -0.110321194
000090 6a e9 c3 3d a0 35 ef 3d 58 e7 64 be bc 6c 20 be
       0.095660046 0.1168015 -0.22353876 -0.15666479
0000a0 16 f8 6a be a7 5a 31 3d 45 f7 20 bd 89 05 3f bd
       -0.229462 0.043299343 -0.039298315 -0.046636138
0000b0 74 58 06 3e 59 45 8d bd 59 ae b2 bc ef 82 06 3e
       0.1311968 -0.06897993 -0.021811651 0.13135885
0000c0 c7 09 41 be bd e7 83 3d cb 49 1a be c3 a9 20 3e
       -0.18851386 0.06440685 -0.15067212 0.15689759
0000d0 a3 00 78 3c 99 6a 40 bd 38 29 af 3d 8f 44 13 be
       0.015136871 -0.04697666 0.08552784 -0.14381622
0000e0 9d 5b 37 3d 3e a2 ae bd 5a 8e e4 bd 25 ac 37 3c
       0.044765104 -0.08527039 -0.11159964 0.011210476
0000f0 a3 e8 fd 3d 41 35 eb 3d 32 5c 0f be a8 0a 99 bc
       0.123978876 0.11484767 -0.14000013 -0.01868184
000100 34 75 e7 bd 3c 8e db 3d 02 74 e2 3d e1 8f f4 bd
       -0.113016516 0.107204884 0.11057283 -0.11941505
000110 fd c6 19 be d6 dc 33 be f2 0b 61 bd a0 24 2a 3d
       -0.15017314 -0.17564711 -0.054943033 0.041538835
000120 57 9f e2 bc 91 3a 93 3d 8e c9 23 be fc 51 37 be
       -0.02766387 0.07188905 -0.15994856 -0.17902368
000130 a3 62 ee bd af ad a2 3c e4 ff 0c 3c a2 fc ce bd
       -0.11639907 0.01985821 0.008605931 -0.1010678
000140 8e cb d6 bc 33 48 18 3e 8f e2 ef 3d f9 1f 85 3d
       -0.02622011 0.14871292 0.117131345 0.06500239
000150 da be 37 3e 6a 90 a4 bd 9a a3 8f bd 3e 35 99 bc
       0.17943898 -0.08035357 -0.070136264 -0.018702146
000160 21 cf 12 3e da 49 ce 3c 8f 06 47 bd 60 94 11 3d
       0.14336826 0.0251817 -0.04859024 0.035541892
000170 36 60 4e ba 62 23 48 bd 7c 8f 1b 3e ee 51 9d bd
       -0.0007872613 -0.04886187 0.15191454 -0.076816425
000180 4f 0e 01 3e a1 ea ec bd e1 ed c7 3d c6 0a bc 3d
       0.12603115 -0.115681894 0.09762169 0.09181742
000190 f7 e6 e9 3c 46 d5 2b be 27 61 5a 3e 00 f8 fd 3c
       0.028552515 -0.16780576 0.21326123 0.031002045
0001a0 dc 00 78 3d 9c 76 24 3e 47 9f 37 be ad 01 71 be
       0.060547695 0.16060871 -0.17931853 -0.23535796
0001b0 c1 52 20 be 82 23 43 3d 90 76 af 3d 31 19 e1 3d
       -0.15656568 0.047641285 0.08567536 0.10991133
0001c0 27 a5 b9 bc c9 d1 36 be f6 73 c0 3d 02 54 5f be
       -0.022661759 -0.17853464 0.09397118 -0.2180939
0001d0 c9 b2 fe 3d 0b 79 bb 3d c2 aa 21 be 33 39 a4 bd
       0.12436444 0.091539465 -0.15787795 -0.080187224
0001e0 26 a7 38 be 53 d9 a0 3e ea f0 0a 3e 28 11 b9 bc
       -0.18032512 0.31415805 0.13568464 -0.022591189
0001f0 2a dd ae 3d db cf f1 3d 50 c3 00 3e 1f 4c b0 bc
       0.085382774 0.118072234 0.12574506 -0.021520672
000200 6f 1a 70 3c aa 3f fc bd 02 cb 1f bd 08 62 62 be
       0.01465474 -0.123168305 -0.039011963 -0.22107708
000210 60 50 15 be de 85 eb bd 8b c5 9a be 96 fb 25 be
       -0.14581442 -0.115001425 -0.30228838 -0.16209254
000220 4b be 8c be 9e 7b 06 be 1d 4a ba bd 6f c7 9a 3d
       -0.27488932 -0.13133094 -0.09096167 0.0755757
000230 19 8c 2c be d7 a4 5a bb e0 60 80 bd ed f8 8c 3d
       -0.16850318 -0.0033362412 -0.062684774 0.06883416
000240 f4 1f 4b 3d a3 00 97 bd c0 19 1f bd f2 7f 72 3d
       0.04959102 -0.07373168 -0.038842916 0.05920405
000250 bc 84 48 be 90 cd d5 3d 63 df f6 bd 3d 7b 5e 3d
       -0.19581884 0.104395986 -0.120543264 0.054316748
000260 e4 ed d4 bc 51 b4 98 be 2d 3f 0a 3e 1e 86 cc bc
       -0.025992341 -0.2982507 0.13500662 -0.024966296
000270 9d d6 11 be 14 2e 49 be d1 67 48 be e5 63 09 3b
       -0.14242025 -0.19646484 -0.19570853 0.0020964083
000280 d4 83 30 be 5f 69 5c bc 9d 5b 04 3e 96 a5 a1 bd
       -0.17237788 -0.013452857 0.12925573 -0.07892911
000290 3b a8 05 3d 1e ef c9 3c fb 8b 19 be ea 19 66 be
       0.03263114 0.024650153 -0.14994805 -0.22470823
0002a0 22 17 99 be c5 bd 2a be 84 8f 21 be 45 09 7a 3c
       -0.2990046 -0.16673954 -0.15777403 0.015260999
0002b0 22 b1 07 be b3 1b 7e bd f7 4c 4a be ed 45 e1 3d
       -0.13251165 -0.062038135 -0.19755922 0.109996654
0002c0 13 93 9a bc 05 bb 71 bd 68 87 4b bd 7c 27 b7 3b
       -0.018868959 -0.059016246 -0.04968968 0.0055894237
0002d0 9f 11 4c be 34 8e 29 3d 6d 77 40 3d 25 4b 22 be
       -0.19928597 0.04139538 0.046988893 -0.15848978
0002e0 b8 7d a4 3d 15 08 6f be b0 39 c3 bc 8d 59 4b 3d
       0.080317914 -0.23342927 -0.023831218 0.04964595
0002f0 e1 ec 29 bd ff 3d 2e be 6f cb 83 bd 3d c9 5d bd
       -0.04148567 -0.17015837 -0.06435286 -0.054146994
000300 19 fe 44 bc 13 24 24 3d 9c 5c ae 3d fd ba a7 3d
       -0.012023472 0.040073466 0.085137576 0.08189962
000310 73 5f 85 bd ae 1b 35 bc b2 32 c5 bb f0 7f 46 be
       -0.06512346 -0.011053963 -0.0060180062 -0.19384742
000320 42 18 10 be 7c f7 88 bd 3e ea d4 bd 59 c0 2d 3c
       -0.14071754 -0.06687829 -0.10396241 0.010604941
000330 18 14 18 3d ac 1b cc bd ea ed 3b be 6a 0f 05 3d
       0.037128538 -0.099662155 -0.18352476 0.032485403
000340 fa 33 e9 bd 2a d7 5b 3c 48 7e 62 bb 8e 09 93 3a
       -0.11386867 0.013417998 -0.0034560133 0.0011218057
000350 56 23 47 bc 59 d7 ac bd 29 37 92 3d 59 fe 05 3e
       -0.012154421 -0.08439512 0.07139427 0.13085307
000360 32 be f9 3d 29 77 8f be 51 e1 82 bc ae 55 1f 3e
       0.1219448 -0.280206 -0.01597658 0.15560028
000370 6b b5 c4 bd b5 0e cb 3d 76 cd de 3d ab 22 42 3e
       -0.09604915 0.099149145 0.10879032 0.18958537
000380 e6 08 4b bd 63 8f 12 be d4 3f ac bd 29 33 fa 3d
       -0.049569033 -0.1431251 -0.08410612 0.12216789
000390 04 1a 2b 3e 48 93 22 be bf 54 c0 3d 45 74 b7 bd
       0.16709143 -0.15876496 0.09391164 -0.089577235
0003a0 6f 07 71 3d f9 aa 63 3c ad 7d 14 3e 84 c6 86 be
       0.05884498 0.0138957435 0.14501067 -0.2632333
0003b0 ac f3 f8 3c dc 15 47 be 32 bc 53 be 05 29 a2 bc
       0.03038963 -0.19441932 -0.2067726 -0.01979495
0003c0 66 24 e1 bd be 73 83 3c 53 30 09 bd 70 68 8f bc
       -0.109932706 0.016046401 -0.03349335 -0.017505854
0003d0 08 e5 8f 3d 26 2e bc bd 56 ed 4a 3d c4 df 8a bd
       0.07026106 -0.091884896 0.049542747 -0.06780961
0003e0 2b 5c eb 3d 8e eb 03 3e 3c b3 ff 3d 5f e5 30 3e
       0.11492189 0.12882826 0.12485358 0.17274998
0003f0 aa 11 4e be 42 46 1d be d5 f6 19 be fe 2e 51 be
       -0.20123926 -0.15358832 -0.15035565 -0.20428082

mlp1_xi_init.network.2.bias f4 [32]
000000 92 21 91 3d d8 f9 f1 3d fd 69 11 be e5 73 ef bc
       0.07086481 0.11815232 -0.14200588 -0.029230068
000010 0e cf 5b be ef 49 cd bd 94 21 84 bd 04 e5 b8 3d
       -0.21465704 -0.10023867 -0.06451717 0.09028056
000020 f6 a4 ec 3d 2b b8 27 bd fe c7 c9 3d 85 65 5c 3d
       0.11554901 -0.04094712 0.098525986 0.053807754
000030 4b 82 94 bb 42 88 1c be 3d 3f 91 bd 89 95 7e 3d
       -0.0045321337 -0.15286353 -0.0709214 0.062154327
000040 1e c1 b8 bc 3c 4d c6 3d 59 1e c0 3c 68 07 c1 bc
       -0.022553023 0.096827 0.02345197 -0.023563102
000050 01 46 c6 bd db ab 55 be d0 67 50 3c 98 b6 39 be
       -0.09681321 -0.20866339 0.012720063 -0.1813606
000060 6d 81 39 be e6 ef a6 bc 4b 2c 35 be 54 82 fa 3c
       -0.18115778 -0.020378064 -0.17692678 0.030579723
000070 d7 28 7a be 27 45 f6 3d 65 cd cd 3d 75 9f 06 be
       -0.24429642 0.120249085 0.100489415 -0.13146766

mlp1_xi_init.network.4.weight f4 [32, 32]
000000 11 2f 8f 3b 8f 5e 39 bd d2 5c 36 be da 7b 2e bc
       0.0043696244 -0.045256194 -0.17808846 -0.010649646
000010 9a bf 69 bd 25 29 a3 3d d7 f3 f7 bd 91 74 19 3d
       -0.05706749 0.07966832 -0.12107056 0.037464682
000020 12 39 05 be 85 7a ae bd e5 26 1e bd d1 1f 94 3d
       -0.13010052 -0.085194625 -0.03861131 0.07232631
000030 08 c4 5f bd 90 87 b2 bd 3d 5a 08 3e 89 33 1c 3d
       -0.05463031 -0.08717263 0.13315673 0.038135085
000040 32 ee 4a be 26 bf c9 bd 34 f8 b2 bc b2 b9 1e be
       -0.19817427 -0.09850912 -0.021846868 -0.15500525
000050 bf e6 9b 3c 6d a4 f1 bd 14 0a 31 3d fe f3 17 3d
       0.019030927 -0.1179894 0.043222502 0.037097923
000060 3f 47 cb 3d be 5a b2 bd 0b bc 47 be 77 07 ee 3d
       0.099256985 -0.08708714 -0.19505326 0.116225176
000070 05 5f 80 bd d1 a2 28 bd d4 0e 8c 3d 65 83 94 bb
       -0.062681235 -0.0411709 0.06838766 -0.004532265
000080 43 16 dc bd d2 ba 0d 3e 3f 1d 81 bd b4 86 e7 3d
       -0.107464336 0.13840798 -0.063044064 0.113049895
000090 4c ba 1c be 81 f1 3e be 70 76 cb bd 79 d5 87 3b
       -0.15305442 -0.18646814 -0.099346995 0.004145321
0000a0 71 a0 9a bd b9 da 99 3d 39 d9 fe bd 63 1d 1f be
       -0.07550133 0.07512421 -0.12443776 -0.15538554
0000b0 d6 48 bb bd 43 b2 4a be ae bd 29 be ad 2f ec 3d
       -0.09144752 -0.19794564 -0.16576263 0.11532531
0000c0 da 4a 99 3d 94 5a 0e be de af 97 3d 30 10 92 39
       0.0748498 -0.1390174 0.07406591 0.0002785935
0000d0 75 90 f4 3d 77 94 f7 bd 3f 75 2b be 5f a4 15 be
       0.119416155 -0.12088864 -0.16743945 -0.14613484
0000e0 8a ef a3 bd 8e 2c e2 bd 80 98 38 be 07 a5 10 be
       -0.08004673 -0.110436544 -0.18026924 -0.14125453
0000f0 00 9c c5 bd da 83 44 bc d5 9e 46 bc 9e 11 ee bd
       -0.09648895 -0.0119943265 -0.012122829 -0.11624454
000100 e2 64 88 3d d2 ab 97 bd 94 64 54 bd e5 b2 88 bd
       0.06659867 -0.07405819 -0.05185373 -0.066747464
000110 a8 8d 91 bd dc 17 fd bd 1d 07 27 bd df d1 a1 3d
       -0.07107097 -0.123580664 -0.040778268 0.07901358
000120 d8 c8 f9 bd 28 9d bd 3d 8e 5b 1b 3b d8 07 ee bd
       -0.12196511 0.09258491 0.0023705694 -0.1162259
000130 39 08 61 3d d9 67 e9 3d bb 37 0e 3e 4a dc f6 bc
       0.054939482 0.113967605 0.13888447 -0.030134339
000140 67 32 96 bc 38 14 f6 3d cd 80 e8 3d 86 ca 1d 3d
       -0.01833458 0.12015575 0.11352692 0.03852322
000150 b2 fe ed 3d e5 92 dd 3d e8 e7 31 be 0e 08 0c 3e
       0.11620845 0.108190335 -0.17373621 0.13674948
000160 8b c1 d6 3d 21 cb 71 3d 2d 12 a4 bd 7a e0 6d 3d
       0.10486134 0.05903161 -0.08011279 0.058075406
000170 2f 7e 6c 3d bf df 3a bd d3 de 0b bd 95 cc a3 bd
       0.057737526 -0.045623537 -0.03414805 -0.07998005
000180 09 8b 18 be b9 8b aa 3d 27 ed ca 3d c6 41 0a 3e
       -0.14896788 0.08327431 0.099085145 0.13501653
000190 db ac 44 be 01 b8 46 bd 6b f6 19 bc ce c0 1d be
       -0.19206564 -0.048515324 -0.0093971295 -0.1540558
0001a0 e4 5d a3 bc 29 d3 b0 3c 32 96 8a bc da 13 a6 3c
       -0.019942231 0.021585064 -0.016917322 0.020273138
0001b0 c0 36 96 3d ff 29 19 be 26 f0 01 3e 4e 3d ff 3d
       0.073346615 -0.14957426 0.12689266 0.12462865
0001c0 3b d3 a2 3d 61 ab 1e be ed ff cd bd 33 b6 5b be
       0.07950445 -0.15495063 -0.100585796 -0.21456222
0001d0 1f f6 6b 3c 43 b0 b4 bd 81 ad 07 3e c2 48 ad 3d
       0.014401942 -0.08822682 0.1324978 0.08461143
0001e0 6c cb 87 3d 0c c9 1b 3e 83 2d fb 3d 58 c2 e7 bd
       0.066305965 0.15213412 0.1226454 -0.11316365
0001f0 1d 01 01 be ae 8c 29 3d fe d9 25 be 14 d2 ee 3d
       -0.12598081 0.04139393 -0.16196439 0.11661163
000200 09 79 8a 3d 99 2c f8 3d 3b b7 2a be 14 d0 a1 bb
       0.06761367 0.12117881 -0.1667146 -0.004938135
000210 ad b5 f3 bd 3a c1 1c be c3 67 ae bd 0b 13 20 be
       -0.11899886 -0.15308085 -0.08515885 -0.15632264
000220 86 40 c6 3d 01 44 d7 bd 5f 70 36 be b2 23 19 be
       0.096802756 -0.105110176 -0.17816304 -0.14955023
000230 6c ce b4 bc 36 06 df bd 9a 85 67 3d da cd b1 3c
       -0.022071086 -0.108898565 0.056523897 0.021704603
000240 5f 27 08 3e 9a fc a7 bd 67 27 08 be 9f df c0 bc
       0.13296269 -0.08202477 -0.13296281 -0.02354413
000250 ca b0 84 bc b6 89 5f 3d 87 df 3e 3d a3 d3 98 3d
       -0.01619758 0.05457469 0.04659989 0.074622415
000260 21 58 f1 bd 41 48 14 3e 7e f9 1b 3d a5 9a 33 be
       -0.117843874 0.14480688 0.03807973 -0.17539461
000270 e3 d1 ec bd 8f 33 c9 3d 3c a2 48 bd 0f 1b ee 3d
       -0.1156347 0.09824287 -0.048982844 0.11626255
000280 01 31 c2 bd ee 50 5c bd 5d 87 06 be ec c5 ea bd
       -0.09482003 -0.053788118 -0.13137574 -0.11463532
000290 40 e4 00 3e 06 43 25 be 0d cd db 3d a5 54 b0 bd
       0.1258707 -0.16138849 0.1073247 -0.08609895
0002a0 f0 19 9c bc d5 cd b9 3d 75 eb 09 3e 5b 4d 0a 3e
       -0.019055337 0.090724625 0.13468726 0.13506071
0002b0 fd fb aa 3d 30 8e 17 be 08 de 2a 3e 67 3d 13 bd
       0.08348844 -0.14800334 0.1668626 -0.03594723
0002c0 ea 9d 39 3c 42 bd 8b bc b6 9f bc bd 58 f6 bd bd
       0.011329154 -0.017058019 -0.0921015 -0.09275502
0002d0 b8 e8 65 3d 17 30 18 3e 51 a5 74 3c f6 b2 11 3e
       0.05613014 0.14862095 0.014931993 0.14228424
0002e0 7a 3e 37 3e ec 6d 13 be 23 79 bd bd c8 a8 a6 bd
       0.17894927 -0.143974 -0.092516206 -0.08137661
0002f0 b5 e9 94 bd e7 6e 7a 3d e8 74 ec 3d fb e4 92 3b
       -0.072711386 0.06114092 0.115457356 0.004482863
000300 b6 df 86 bb b1 29 d1 3d e4 d6 cd bd d7 cc 8c bd
       -0.004116024 0.1021303 -0.10050753 -0.068750076
000310 70 f2 35 3e 48 09 1c 3e b8 73 b1 3d fa 1a ec bd
       0.17768264 0.15237916 0.0866465 -0.11528583
000320 d4 a5 af 3d 87 bc 1d be 2e 99 ee bd 46 1a 30 bd
       0.08576551 -0.15403949 -0.116503105 -0.042993806
000330 fb 42 cb bb 31 53 fe 3d 7d ef aa 3d e3 55 2d 3e
       -0.006203053 0.12418211 0.0834646 0.16927294
000340 58 b1 8b bd 43 19 a4 bd 0e 56 20 be ad 01 87 3d
       -0.06820935 -0.08012631 -0.15657827 0.065921165
000350 2f e9 cb 3d cc bd 14 3e b2 71 1c be 4a b2 14 be
       0.099565856 0.14525527 -0.15277746 -0.14521137
000360 93 45 94 bc e2 8b 34 be 0b 3b 09 3e 95 d5 b7 3c
       -0.018099582 -0.17631486 0.1340143 0.022440711
000370 f9 39 03 be 2a 1a d7 3d 2e 55 c6 3c 01 ce 5a 3d
       -0.12815084 0.10503037 0.024210539 0.053419117
000380 6e 72 2f be 87 3c 27 3d c4 b1 77 3d 6b 41 f0 3d
       -0.17133495 0.040829208 0.060472265 0.117312275
000390 17 23 11 3d 9b 31 80 3d 26 54 01 3e 11 2a de 3d
       0.035433855 0.062594615 0.12629756 0.10847867
0003a0 99 92 ed bc 28 d1 38 be 2d 4c b8 3c c1 d3 df 3d
       -0.029000567 -0.18048537 0.022497261 0.10929061
0003b0 c4 03 5b be d3 cd 1b 3e e0 e6 2c bd b9 de 0f 3e
       -0.21388155 0.15215234 -0.042212367 0.14049806
0003c0 86 18 9d bd ae 97 a2 3d 93 b9 5f bc 82 30 66 3d
       -0.07670693 0.07939087 -0.013655084 0.056198604
0003d0 cd ab 30 3c 23 b3 4c 3d 96 b7 ad 3d d8 35 ca bb
       0.010783148 0.049975526 0.08482282 -0.0061709695
0003e0 c8 c2 1b be fc 62 17 3e 29 0c 36 be c9 a0 ec bc
       -0.15211022 0.14783853 -0.17778076 -0.028885262
0003f0 20 ed d6 3d 3e db 68 bd f7 b0 42 be 81 2f 86 bd
       0.10494447 -0.05684971 -0.19012819 -0.065520294

mlp1_xi_init.network.4.bias f4 [32]
000000 dd d1 4e be de 61 51 be 0c 8c b4 3d cc 2c 00 be
       -0.20197244 -0.2044749 0.08815774 -0.12517089
000010 0b eb 58 3d 8f 58 23 3e 2b 91 41 be f6 04 82 bd
       0.05295853 0.15951751 -0.18903033 -0.063486025
000020 b2 40 02 3e 57 d6 85 bc 98 fa ab bd 8f d7 44 3d
       0.12719992 -0.016337557 -0.08397406 0.048057135
000030 fe 87 08 bb cc b2 10 3e 20 ad f0 bd 87 9b 03 be
       -0.002083301 0.14130706 -0.11751771 -0.12852298
000040 5d 64 2e be d9 f3 e7 3d 48 9b 1e 3d 01 1a 44 be
       -0.17030473 0.11325807 0.038722306 -0.19150545
000050 42 bd 14 be df 6e 99 bc ee 8a 08 be 9f a9 4f 3d
       -0.14525321 -0.018729625 -0.13334247 0.050698873
000060 74 fb 63 bd 7c 08 3a bd 40 d6 fd bc 00 5b 8f bd
       -0.055659726 -0.045418248 -0.030985951 -0.06999779
000070 fd fd 24 be 68 b9 fb 3c 3a fd dc bd b5 31 8a 3d
       -0.16112514 0.030728057 -0.10790487 0.06747762

mlp1_xi_init.network.6.weight f4 [4, 32]
000000 67 a9 91 3d 93 d5 b7 3d a6 d6 30 3e 04 f8 88 bd
       0.07112389 0.08976283 0.17269382 -0.0668793
000010 f9 ff b1 bd cc c5 b2 3c 5e 47 63 bd 08 a6 26 be
       -0.08691401 0.021822833 -0.055487983 -0.16274273
000020 4f 2f 09 be aa 63 ab 3c 4d 14 e1 bd 81 65 4a 3e
       -0.13396953 0.020921547 -0.109902 0.19765283
000030 70 16 03 be 9a 04 22 3d e8 c5 b8 bd 98 c9 0b be
       -0.12801528 0.03955517 -0.090221226 -0.1365112
000040 f5 c7 c4 bb d7 55 4b 3e f1 40 f1 3b c2 5e 08 3e
       -0.006005282 0.19856964 0.007362478 0.13317397
000050 35 69 69 bd 26 43 fc bd 3d 3c c8 bd c1 02 04 be
       -0.0569851 -0.12317495 -0.097771145 -0.12891676
000060 3a 48 dd bd 93 5a 3e 3d 61 ca 77 3c 78 91 92 3c
       -0.10804792 0.046473097 0.0151239345 0.01789163
000070 55 97 85 3c 74 46 12 3e 8c 2e d8 bd 23 51 f4 3b
       0.016307512 0.14284688 -0.10555753 0.0074559613
000080 c6 70 44 be 4c 65 99 bd cb c8 df bd d3 4b 33 bd
       -0.19183645 -0.07490024 -0.1092697 -0.043773483
000090 e5 fa b0 bd 39 c8 00 bd 5f a6 a8 bc 53 cf e6 bd
       -0.08641604 -0.031440947 -0.020587144 -0.11270013
0000a0 11 97 89 3b 9f 74 47 bd 23 d1 ba 3b 80 f6 3e bd
       0.0041989167 -0.048695203 0.0057012006 -0.0466218
0000b0 84 18 e1 bd ca c4 3d be 35 f7 50 3d 07 2e 20 be
       -0.10991004 -0.185321 0.051017005 -0.15642558
0000c0 55 54 28 bd 0d 82 59 bd f6 17 e6 3d 33 cb 0c 3e
       -0.04109605 -0.05310254 0.11235039 0.1374939
0000d0 d2 77 48 3d 3c 67 53 3d f7 53 e3 3c e3 36 94 3d
       0.048942395 0.051612124 0.027749998 0.07237031
0000e0 b2 8b 02 be a7 cd ad bb 49 3a 45 3d 77 2a 3d 3e
       -0.12748602 -0.0053040567 0.04815129 0.1847323
0000f0 cc b1 ac bd 84 1e 15 bd 10 90 22 be 47 ed 85 bd
       -0.084323496 -0.036406055 -0.15875268 -0.06539398
000100 99 0b 48 3d d8 0a 4e bd 67 32 d4 bd 69 1f d0 3c
       0.048839185 -0.05030331 -0.10361176 0.025405603
000110 3b 1f 24 bd 38 39 1d 3e e5 0f eb bd 44 79 07 3e
       -0.040068846 0.15353858 -0.11477641 0.13229853
000120 7d 2a b4 3d 11 12 6a 3c 22 82 fe 3d be 38 11 bd
       0.087971665 0.014286534 0.124271646 -0.035454504
000130 cc c1 80 b8 b6 e0 a5 3d ca 49 eb 3c ce e7 48 3d
       -6.139613e-05 0.08099501 0.028721709 0.04904919
000140 c2 34 d9 3d 40 1a 3a bb 00 7b 99 3c 1c 9b 38 bd
       0.10605766 -0.0028396994 0.018735409 -0.0450698
000150 f8 33 bc bd 39 6b 4e 3d c3 c9 66 3d 5e 01 dd 3d
       -0.091896 0.050395224 0.05634476 0.107912764
000160 a3 2b 61 bd c8 81 b1 bc f7 42 09 be 91 a6 9f bd
       -0.054973256 -0.02166833 -0.13404451 -0.07795442
000170 03 70 bb bd 90 c7 b0 bd 4d 23 7e 3d 3b 20 6f bd
       -0.09152224 -0.086318135 0.062045384 -0.058380347
000180 29 48 6b bd c4 ff 3f 3e 98 13 6b bd 40 f0 04 3e
       -0.057441864 0.1874991 -0.057391733 0.12982273
000190 cf 6b 41 3e 2b c6 be 3d 16 cb da bd 1f e4 c0 bd
       0.18888782 0.09315141 -0.10683267 -0.09418511
0001a0 e8 4c c2 bc 38 0a 67 3b f5 44 aa 3d 91 3d 86 3b
       -0.023718312 0.0035253894 0.08313934 0.0040966948
0001b0 21 66 08 be 38 0c 70 3b 10 32 a8 bd 4b 9c 07 3e
       -0.13320209 0.0036628377 -0.08212674 0.13243215
0001c0 09 af df bb 6e ac 9f 3c 10 9c cd 39 f9 d1 76 3d
       -0.0068262857 0.0194914 0.00039216923 0.06025884
0001d0 ad 82 5c 3e 53 5a 9a 3c 25 52 8f bd f6 b8 15 3d
       0.21534224 0.018841898 -0.0699809 0.036553346
0001e0 8c d0 ef bd c7 53 56 3d 42 c4 ec 3d 41 b4 22 3e
       -0.11709699 0.05232599 0.11560871 0.15889074
0001f0 19 b4 5b bd b6 6f 52 3d d2 34 b0 3d 31 57 48 3d
       -0.05363855 0.051376067 0.08603825 0.048911277

mlp1_xi_init.network.6.bias f4 [4]
000000 7c 66 c8 3d ee 32 27 3e 2d 42 ca 3d 86 0e 1a 3e
       0.09785172 0.16328022 0.09875903 0.15044603

mlp2_q_dynamics.network.0.weight f4 [32, 4]
000000 98 0c e2 be 3a 58 ba 3e 08 82 87 bd ec f4 a2 be
       -0.44150233 0.36395437 -0.06616598 -0.31827486
000010 d0 33 b4 be a2 0a ae 3e d0 89 c9 be 64 e2 26 3e
       -0.3519578 0.33992487 -0.39362955 0.16297299
000020 e4 f6 a8 3e 3c b7 a9 be 88 dc 31 3e c8 f1 a7 be
       0.33000863 -0.3314761 0.17369282 -0.32801652
000030 52 eb cc 3e 08 ba c2 3d 12 a5 f7 3e ca f3 95 3e
       0.40023285 0.09508139 0.48368126 0.2928756
000040 76 a5 81 3e 52 50 dd 3e 04 47 ed be c4 e2 30 be
       0.2532155 0.43225342 -0.46343243 -0.17274004
000050 30 f3 7f bd 4a 26 f2 be 80 63 d4 3e 08 68 25 3e
       -0.06248778 -0.47294837 0.41482162 0.16152966
000060 ec 63 92 3e e0 6d 35 be 4c 19 48 be 86 10 bf 3e
       0.2859186 -0.17717695 -0.195409 0.37317294
000070 60 3b 5e 3e 3e 58 96 be b4 47 24 3e 8c e0 2e 3e
       0.21702337 -0.29364198 0.16042978 0.17077845
000080 4e 02 dd 3e 9e 36 88 3e 18 c6 58 3e 50 9c dd be
       0.4316582 0.2660417 0.21169317 -0.4328332
000090 aa f5 ee be 00 c1 94 bb d0 00 10 3e 7c 9a bb be
       -0.46671802 -0.004539609 0.1406281 -0.366413
0000a0 b4 fa b0 be a8 f7 d1 3d 00 15 8e bd 1a fc cb be
       -0.3456627 0.10252315 -0.06937599 -0.39840776
0000b0 60 e6 a2 3d 98 e2 1e be a0 fe ce 3d cc 7b a4 3e
       0.07954097 -0.15516126 0.101071596 0.321257
0000c0 ee 93 cd 3e 3c 64 2e 3e 5e 37 99 be 00 1d df be
       0.40151924 0.17030424 -0.29925054 -0.43576813
0000d0 36 dd aa be cc 0a 31 be 14 91 12 3e 74 d8 47 be
       -0.33371896 -0.17289275 0.14313155 -0.19516164
0000e0 e0 af fd 3e 38 b6 bc 3e 80 28 ad be c2 10 aa be
       0.49548244 0.36857772 -0.33819962 -0.3321591
0000f0 f0 c4 ef bd 90 27 1c 3d 38 b5 c1 bd 6c 01 25 be
       -0.11707485 0.038123667 -0.09458393 -0.16113824
000100 f0 e6 12 3d 1e c0 9e be a0 c2 ca bd 02 ae 9d be
       0.03586477 -0.3100595 -0.09900403 -0.3079682
000110 86 d3 99 be 24 29 22 3e b2 af b5 be 22 b6 fe 3e
       -0.30044192 0.15836006 -0.35485607 0.4974833
000120 36 83 a0 3e ae aa fb be 68 d3 be 3e 2e 72 a7 be
       0.31350106 -0.49153656 0.37270665 -0.327043
000130 fc c8 12 3e 30 c0 3e be bc db 7e 3e 02 2c bb be
       0.14334482 -0.18628001 0.2488851 -0.36557013
000140 1e 6b 85 3e dc 7d e3 be e8 2f 8d be 38 47 db 3e
       0.26058286 -0.4443196 -0.27575612 0.42827773
000150 e0 aa d6 be 40 e5 e5 be 80 32 0e 3d b0 cd c5 3e
       -0.41927242 -0.44901466 0.03471613 0.3863349
000160 42 9a 85 be 28 bf 74 3e ea c4 aa 3e 80 0d 20 bc
       -0.26094252 0.23901045 0.33353359 -0.009768844
000170 6c 72 95 3e c0 d4 75 3d ee 2d e6 3e 38 2a 80 3d
       0.2918886 0.060017347 0.44956917 0.062580526
000180 74 12 d4 3e 9c 38 e0 3e 84 41 07 3e 94 57 99 be
       0.4142033 0.4379319 0.13208586 -0.2994963
000190 e0 df d9 3e c8 68 d2 3e ec 56 ee be e0 c9 84 bc
       0.42553616 0.41095567 -0.4655069 -0.016209543
0001a0 10 37 f6 3e 5c f1 99 3e d8 af f4 3e 44 e1 bb 3e
       0.48088884 0.30066955 0.47790408 0.36695302
0001b0 00 cc ac bc 9c 87 2d be 94 78 df be 08 29 d6 3e
       -0.021093369 -0.16946262 -0.4364668 0.4182818
0001c0 08 fd d0 bd 70 14 87 3d 46 d0 b7 3e f8 70 c3 3d
       -0.10204512 0.06595695 0.35901088 0.095430315
0001d0 00 c4 80 3c be 13 ab be 22 94 de 3e 10 f5 2d be
       0.01571846 -0.334135 0.4347239 -0.16988015
0001e0 7a cd be 3e 00 cf 80 bb 78 fe a9 bd 18 ef 5c be
       0.3726614 -0.0039309263 -0.08300489 -0.21575582
0001f0 10 e9 f8 3d 0a 2f e4 3e 9c fc 94 3e 92 6c a7 3e
       0.12153828 0.44567138 0.29098976 0.3270002

mlp2_q_dynamics.network.2.weight f4 [32, 32]
000000 bc 92 04 3e 56 72 f1 bd 8b 05 29 bc 4b 67 13 be
       0.129466 -0.11789386 -0.010316263 -0.14394872
000010 2f 86 48 bb 83 1a 10 be e0 b6 28 3e cc 92 49 3c
       -0.0030597558 -0.14072613 0.16476011 0.0123030655
000020 8e c4 17 3e 21 fe 84 bb 88 4f de 3c d9 34 9d 3c
       0.14821073 -0.004058615 0.027137533 0.019190239
000030 8e 64 e3 3d 2a 2c 2d be e8 10 d4 bd e2 72 f0 3b
       0.11103164 -0.16911379 -0.10354787 0.007337914
000040 7b 05 82 3d 30 1f 33 bd ba 70 0b be 99 4e 0b 3d
       0.063487016 -0.043730915 -0.1361722 0.034010503
000050 3d 7b 3d bd 3b d3 b4 bc 0d 63 48 3d ea 91 b6 bd
       -0.046260107 -0.022073379 0.048922587 -0.0891455
000060 25 8e b4 bd 18 aa 54 3d f6 51 97 bc df d2 5b 3d
       -0.088161744 0.051920027 -0.0184717 0.0536679
000070 39 68 11 bc b5 6c 0e 3e ca 03 d9 3c 62 5c 8a bd
       -0.008874946 0.13908656 0.026491065 -0.06755902
000080 c8 72 0b be e8 cd 1f bd 87 e8 08 3e 5d 12 cc 3d
       -0.13618004 -0.039014727 0.13369952 0.0996444
000090 a7 ae d1 3d 7d ac 33 3e 30 48 75 3d cf 57 00 3e
       0.102383904 0.17546268 0.059883296 0.12533496
0000a0 08 f7 40 bd a4 f1 51 bd 0f b8 54 3c 2c 61 a0 bd
       -0.047110587 -0.051255837 0.012983336 -0.07831034
0000b0 ac 03 07 be ec df 0d 3d 72 9e d5 3d 11 51 1c 3e
       -0.13184994 0.034637377 0.10430612 0.152653
0000c0 6e 41 cc bd 03 9e 29 bc 4e 87 e0 bd 47 21 c2 3c
       -0.09973417 -0.010352614 -0.10963307 0.023697508
0000d0 d5 01 ab bd 3a 10 81 3d 6d 26 ee bd ef a3 f7 3d
       -0.08349959 0.06301923 -0.11628423 0.12091815
0000e0 9c df 2a 3e 54 a2 32 3e f4 17 d9 3d 1f 4d 15 3e
       0.16686863 0.17444736 0.10600272 0.145802
0000f0 cd 54 b0 bd ad 53 8a bd 4c db 26 be 17 35 22 bd
       -0.086099245 -0.06754241 -0.16294593 -0.03960141
000100 16 ed 90 bd c0 eb 24 be 10 7d 5c bd 19 41 28 bd
       -0.070764706 -0.16105556 -0.053830206 -0.041077707
000110 4a bf e4 bd 56 f6 33 3e 0d cd bd bd 13 f5 21 bd
       -0.11169298 0.17574438 -0.09267626 -0.03954036
000120 f8 cf 0f be fa 43 10 3e 38 92 eb 3d 48 25 d2 3d
       -0.14044178 0.14088431 0.115024984 0.10261017
000130 f4 39 69 3d a5 c7 c8 bd ab 28 df bd ed de 37 3d
       0.056940034 -0.09803704 -0.10896429 0.044890333
000140 59 eb 43 3c 7a df 9a 3a 56 fc 9a bc f9 3a 3a 3d
       0.011957967 0.0011815869 -0.018919151 0.045466397
000150 7b 2c c8 bd 20 be 86 3c 98 ee 22 3d 64 ee 2b bc
       -0.09774109 0.01644808 0.039778322 -0.0104938485
000160 ec aa 4a 3d 31 4e 04 3d 38 e8 17 be fe 72 0f be
       0.04947941 0.03230113 -0.14834678 -0.1400871
000170 7d 75 29 bd 2d 90 1e 3e 15 f2 66 3d f4 d0 dc 3d
       -0.04137181 0.15484686 0.05638321 0.10782042
000180 9f 48 89 3b 91 57 12 be 2a 9c b0 bd e8 3d 2a bc
       0.0041895653 -0.14291216 -0.08623536 -0.010390736
000190 21 de 89 3c f7 ae bb 3d f9 20 34 be d5 f9 17 bd
       0.016829552 0.09164231 -0.17590703 -0.037103493
0001a0 77 f6 9d bd f6 a6 d3 bd df c6 70 3d a2 da e0 bd
       -0.07713025 -0.1033458 0.05878341 -0.10979201
0001b0 6b 98 dc 3c 3d b8 84 3d e7 51 5d 3d 7f 1d 75 3d
       0.026928147 0.06480453 0.054033186 0.059842583
0001c0 88 99 1f 3e d7 35 b3 3c d2 28 02 3e 84 aa a1 bd
       0.15585911 0.021876259 0.12710884 -0.078938514
0001d0 c2 da 03 3e 63 0a 99 bd 43 bd f6 3d 09 c7 2c 3e
       0.12876418 -0.07472684 0.120478176 0.16872801
0001e0 bd f5 f9 3d 3b bd 1a 3e 93 00 30 3e 88 23 26 3e
       0.12205074 0.15111248 0.17187719 0.16224492
0001f0 e0 46 e8 3d 88 b2 02 be b6 2a 15 be a8 13 e9 3d
       0.11341643 -0.12763417 -0.14567074 0.11380702
000200 a4 f0 31 be fa 83 04 bd 1f 01 0a be 52 48 06 be
       -0.17376953 -0.032352425 -0.1347699 -0.13113526
000210 1d ea 14 bd 05 64 94 3d d9 62 24 be ef c1 df 3d
       -0.03635608 0.0724564 -0.16053332 0.10925662
000220 66 c3 12 be 0a ef 1d bc 83 07 2d 3e 29 03 31 be
       -0.14332351 -0.009639511 0.16897397 -0.17286362
000230 ca 2d 22 be a7 75 62 bc cf 42 09 bd b0 26 29 be
       -0.1583778 -0.013821996 -0.03351098 -0.16518664
000240 84 0a 14 3d 96 11 07 be df 66 37 bd ba 94 19 3d
       0.03614284 -0.13190302 -0.04477584 0.037495352
000250 a1 1f 03 3e 7e 00 b6 3d 31 92 9e bd 88 24 77 3d
       0.12805034 0.088868126 -0.077427275 0.060337573
000260 b0 5c f6 3d 28 a2 85 3d 6d 02 cb 3d 95 75 2c 3d
       0.120293975 0.065250695 0.09912572 0.042104322
000270 25 28 09 be 5b 8b f4 3d 7b 7d eb bd a1 fe 88 3d
       -0.1339422 0.119406424 -0.11498543 0.066891916
000280 a6 2d ba bc 08 30 15 be d2 e0 86 3d e2 47 e1 bd
       -0.022726845 -0.14569104 0.0658585 -0.11000039
000290 73 a4 19 3e b0 47 cb bd c1 ee e4 3d 0d 36 bf bd
       0.15004139 -0.09925783 0.11178351 -0.09336481
0002a0 01 21 d0 bd da ee 2b 3e 51 ed 31 be bd 00 83 3d
       -0.10162545 0.16790333 -0.17375685 0.06396625
0002b0 c9 b4 0c be e0 8e 13 be e3 19 95 bd c9 4c fb 3d
       -0.13740839 -0.14409971 -0.07280328 0.12270505
0002c0 e4 c9 df bd 9d 10 a9 bd 04 cc 58 3c aa 05 2d be
       -0.109271795 -0.08255122 0.013232235 -0.16896692
0002d0 66 31 8d bd 74 9c f7 bd 6d b3 19 3e f7 1a 51 bd
       -0.06894188 -0.12090388 0.15009852 -0.051051106
0002e0 61 51 e0 3b 5b a6 94 bd ac 8c e3 3d 03 c8 07 3e
       0.0068456386 -0.07258292 0.111108154 0.13259892
0002f0 cb ec dd 3d d0 b6 07 be 5e 12 4d bd 15 f9 5a 3d
       0.1083618 -0.13253331 -0.050066344 0.0534602
000300 d0 ab 7b 3d 48 2f f3 bd 0a 05 b5 bc 9a 22 1a be
       0.06144315 -0.118742526 -0.02209713 -0.15052262
000310 a7 16 30 3e 76 b3 9a 3c 6f 8c 0e 3e f9 e2 2a bd
       0.17196141 0.018884402 0.13920759 -0.041720364
000320 0f b8 d4 bd 76 13 0d be 86 3f 12 3e f8 2e 61 3c
       -0.10386669 -0.13776955 0.14282045 0.013744108
000330 f1 73 f0 3b 10 c6 f1 bd 05 92 2c 3e 39 59 b8 3d
       0.00733804 -0.118053555 0.16852577 0.09001393
000340 ca 9a dd bd 94 0b 24 bd ce 65 1b 3e 6c ad ef bb
       -0.10820539 -0.040050104 0.15175554 -0.0073143747
000350 d2 d6 47 bc 22 85 d7 bd da 36 b4 bd 94 61 f9 bc
       -0.012197213 -0.1052344 -0.087995246 -0.030442037
000360 22 39 28 be e6 d0 fe bd fa f7 45 3d bc db e3 3d
       -0.16428044 -0.12442188 0.048332192 0.111258954
000370 7a 68 17 3d 6e e1 02 be 19 37 40 bd 66 a9 31 3e
       0.03696487 -0.12781307 -0.046927545 0.17349777
000380 27 a6 41 bd f5 54 19 be 13 9f ab 3d 20 bf f5 3d
       -0.047277596 -0.14973815 0.083799504 0.11999345
000390 18 46 c1 bd df a7 e1 3d 8b b7 1d 3e 99 23 ff 3d
       -0.094371974 0.11018347 0.15402047 0.124579616
0003a0 df a9 a2 3b 02 c1 a6 3d e0 bf 32 3e e8 d0 26 3e
       0.004964098 0.08142282 0.17456007 0.16290629
0003b0 37 b6 13 3d 44 37 82 3d 0d 7f 9f bd ca 08 f1 3d
       0.036062445 0.06358197 -0.07787905 0.117692545
0003c0 4d 20 a3 3d 92 6e bc 3d 66 b5 08 3e 5b 2e 92 3d
       0.07965145 0.09200777 0.13350448 0.07137748
0003d0 fc 0d 08 3e 95 2c f6 3d 1e a3 83 bc 97 91 a1 bd
       0.13286585 0.12020222 -0.016068991 -0.07889097
0003e0 3d 8e 8d 3d b7 55 e1 bd 8c 29 c5 bd 0e 27 a9 3d
       0.069118954 -0.11002677 -0.09627065 0.08259402
0003f0 0d 1d c5 bd f5 01 22 3e 54 e2 1a be c3 6d 23 bd
       -0.096246816 0.15821059 -0.151254 -0.0398996

mlp2_q_dynamics.network.4.weight f4 [32, 32]
000000 e1 41 55 3d b7 75 06 3d d6 52 1a be 12 a7 cb bc
       0.05206478 0.032827105 -0.15070662 -0.024859939
000010 cc df f9 bd 36 6b ad bc d8 2f 56 3d a4 36 10 bd
       -0.12200889 -0.021169286 0.05229172 -0.03520836
000020 48 b9 b1 bc a5 8a 08 3e 15 17 16 be fb 64 ee bd
       -0.021694794 0.13334139 -0.14657243 -0.11640354
000030 7e 04 22 3e 73 98 0f 3c d5 8f 4e 3d 1e 0a 2c 3e
       0.15822026 0.008764374 0.050430138 0.16800734
000040 f0 45 e1 bd 1e ab 9a 3d 92 0e 12 3d ff a2 26 be
       -0.10999668 0.07552169 0.035658427 -0.16273116
000050 06 ee 25 bc d3 64 27 be c9 c2 8f 3b 66 43 ae 3d
       -0.01012755 -0.16347055 0.004387234 0.08508949
000060 6f fd f8 bd 87 5e f5 bd bb 38 94 3d 4b 7a b8 bc
       -0.121577136 -0.1198092 0.07237383 -0.022519251
000070 7f ca 32 3e 0f 82 24 be 9a 01 d7 bd 9e d7 f7 3d
       0.17460059 -0.16065238 -0.10498352 0.121016726
000080 2f c7 3d 3c 84 e1 43 3d 58 f0 c3 bc 24 7a 22 bd
       0.011583134 0.04782249 -0.023918316 -0.039667264
000090 18 5e 1b 3d 5b da 02 be 57 1d 14 be 10 18 ff bd
       0.03793153 -0.12778609 -0.14464317 -0.124557614
0000a0 d0 23 71 bd 78 e6 6c 3d 78 fa f2 bd 2e 20 13 3e
       -0.058872044 0.05783698 -0.118641794 0.14367744
0000b0 e0 29 39 bd 95 67 95 bc 6a 27 fe bc ef 99 0b 3e
       -0.04520595 -0.018237868 -0.031024653 0.1363294
0000c0 45 b0 c1 3c 37 14 3a bd 36 82 21 bc 22 bd b4 bc
       0.023643622 -0.045429435 -0.009857705 -0.022062842
0000d0 a4 c2 6a bd 5e 1d 28 bd 1c aa cf 3d a8 41 73 3d
       -0.05731453 -0.04104363 0.10139868 0.059388787
0000e0 4f 28 5e 3d db 96 07 3d 13 f8 8f bd 92 f7 ef 3d
       0.05423766 0.03310285 -0.07029738 0.11717142
0000f0 bd 89 16 3e 6b d2 1e be 5a b7 0e be e2 96 ac 3d
       0.1470098 -0.15509956 -0.1393713 0.08427216
000100 15 bc 9d 3c 19 24 2d be 83 49 12 3e dc e7 60 bd
       0.019254724 -0.16908301 0.14285855 -0.05490862
000110 f4 ba 76 3d 04 58 2e 3e 6f 60 d8 3d 27 23 4b 3d
       0.060236886 0.17025763 0.10565268 0.04959407
000120 72 4f fb 3c f4 98 29 bd 58 6c 02 3d 5e 6f 0b 3d
       0.03067753 -0.041405633 0.031841606 0.034041755
000130 cb 7f 09 be bb d4 28 3e 98 84 c8 3d 4c 23 ec bd
       -0.13427655 0.164874 0.09790915 -0.1153017
000140 2e b5 cb bd b7 23 dc bd 30 e0 58 bd 10 f6 e5 bd
       -0.09946667 -0.107489996 -0.052948177 -0.11228573
000150 da c5 92 3d 04 9d d8 3d c4 12 12 bd 37 57 c2 bd
       0.071666434 0.10576823 -0.035662428 -0.09489291
000160 fc ef c6 3d 75 b8 9b 3d 35 8e eb 3d ef e3 63 bc
       0.09713742 0.07603542 0.11501733 -0.013909324
000170 54 3b fd 3c 92 5b 8f bd a9 c0 23 3e 59 9b ef bd
       0.030912079 -0.069998875 0.15991463 -0.11699552
000180 c9 29 e1 bd d8 e1 76 3d c6 f2 c9 3d a7 83 81 bd
       -0.10994298 0.060273975 0.098607585 -0.06323939
000190 bc 2f f3 bd 65 70 9c 3d 06 8e 49 bd 14 f4 4f 3d
       -0.11874339 0.07638625 -0.04920771 0.05076988
0001a0 a2 ee 51 3d 6f 5f 1c bd 6a 31 9f 3d 1d ba cc 3d
       0.05125297 -0.03817695 0.07773097 0.09996436
0001b0 4e 36 fc 3d 0d 44 50 bd e0 d9 a0 3c 83 bc 16 be
       0.12315045 -0.05084615 0.01963514 -0.14720349
0001c0 28 c6 e1 3d 64 10 47 bd c6 c2 d5 bd 30 0f 55 bd
       0.110241234 -0.048599616 -0.10437541 -0.052016437
0001d0 e5 4a 06 be e7 b9 9c 3c 7b 36 ca bd 1c 8e 07 3e
       -0.13114507 0.019131614 -0.098736726 0.13237804
0001e0 28 82 f3 bd 89 5b 8d 3d ae c8 88 bd 37 55 08 be
       -0.1189006 0.069022246 -0.066789016 -0.13313757
0001f0 ac 0f 4d 3d e8 99 0e 3e 49 d7 f3 bd ad 9f 91 bd
       0.050063774 0.13925898 -0.11906297 -0.07110534
000200 2b d8 b0 bd 7e 5a 25 3e 68 bb 11 3e 4b f1 69 3d
       -0.08634981 0.16147801 0.14231646 0.05711488
000210 70 6c f5 bd 61 06 a1 3c 1f cb 06 be a6 95 02 be
       -0.119835734 0.019656362 -0.13163422 -0.12752399
000220 34 0a 90 bc 18 18 2d be 29 c6 1a 3e a1 ab 63 bb
       -0.01758299 -0.16903722 0.15114655 -0.003473975
000230 6f bf fb 3c e4 56 6f 3c 38 a4 86 3d 50 a0 c2 bd
       0.030730931 0.014608119 0.06574291 -0.095032334
000240 7c cc ea bd 2e 11 8d bc 4e d6 19 3e d6 ba 9b bd
       -0.114647835 -0.017220106 0.15023157 -0.076039955
000250 cb 5d 23 be a1 b4 1b 3e 32 03 58 3d e6 77 df 3d
       -0.15953748 0.15205623 0.052737422 0.10911541
000260 2e 85 5b 3d 44 30 b8 3d 1f 8a 21 be f4 a3 dc bc
       0.053593807 0.08993581 -0.15775345 -0.026933648
000270 91 bd 27 3e 9a 78 29 3e 91 86 d1 3d 0a 95 14 be
       0.16380908 0.16549912 0.10230745 -0.14509979
000280 2a ef 94 bd c0 5e 20 be af ef 9c 3d 03 2c 71 3d
       -0.072721794 -0.15661144 0.076629035 0.058879863
000290 bf 1e 01 bd 11 75 ba bc 29 ca 1e 3e f0 4d fc 3d
       -0.031523462 -0.0227609 0.15506805 0.12319553
0002a0 5d a9 db 3d d9 69 99 bd a0 33 a3 3d 8d 48 81 3d
       0.10725663 -0.07490892 0.07968831 0.06312666
0002b0 0c 1a 07 be ce d5 b0 3d 3c 0b 1e 3b eb f8 a9 3d
       -0.1319353 0.0863453 0.0024115583 0.082994305
0002c0 cf 9b ac bc 17 4e d7 bd a9 e8 8f bc 50 ef fe 3d
       -0.02107039 -0.10512941 -0.017566996 0.12447989
0002d0 12 9e df 3d 06 0c 06 bd 79 f5 8e 3d 10 df 19 3d
       0.109188214 -0.03272631 0.06980414 0.037566245
0002e0 31 0f 4c bd 3d 22 ad bd 30 7a 80 3d be 9c 44 bc
       -0.049819175 -0.08453796 0.062733054 -0.012000261
0002f0 43 f3 cf 3d 32 33 06 3e a2 be 0f 3d 00 0c 8f bd
       0.1015382 0.13105467 0.03509391 -0.06984711
000300 1b 29 b8 3b e7 64 0f be 66 1a 0d be 79 e8 9e bc
       0.0056201345 -0.14003335 -0.13779601 -0.019397961
000310 71 5d 1c be e1 a9 27 3e 2b eb b3 3c 9e 72 78 bd
       -0.1527002 0.16373397 0.021962723 -0.060656182
000320 fe 0b ed bd 31 41 6f bd 9e b9 9b 3b 41 9f 63 bd
       -0.11574553 -0.05841178 0.004752352 -0.0555718
000330 62 99 15 3e 05 2c 9b 3d d1 20 19 be 94 07 1c bd
       0.14609292 0.075767554 -0.14953925 -0.038093165
000340 0d e1 27 be 8b ff b9 3d 78 68 2f be ac eb 90 bd
       -0.16394444 0.09081944 -0.17129695 -0.07076201
000350 24 2b 1a bd c8 1a ca bd 81 01 04 3e 30 e8 ce 3d
       -0.0376388 -0.09868389 0.12891199 0.1010288
000360 90 36 9b bd b0 98 83 bb ef f7 88 3d fd d5 b5 bc
       -0.07578766 -0.0040160045 0.066879146 -0.022196764
000370 0b f8 07 be 5e 3b 6d 3d 81 93 f3 bd dd 77 c6 bd
       -0.13278215 0.057917945 -0.118933685 -0.09690831
000380 e5 b2 ad bc 6e 8b 64 3b de 14 01 3b 3e 79 e8 3d
       -0.021203468 0.0034873146 0.0019696276 0.1135125
000390 ad f2 0e bd e9 48 29 3e 85 d6 f4 bc 6a c4 10 3d
       -0.034899402 0.1653172 -0.029887447 0.035343565
0003a0 35 a4 fc 3d c5 e7 54 bd c9 ae 96 bd fd ff 10 be
       0.123360075 -0.051978845 -0.073575564 -0.14160152
0003b0 a3 26 e3 3d a8 8f 97 ba 61 b5 2b be 09 43 ac 3d
       0.11091354 -0.0011563199 -0.1676841 0.084112234
0003c0 f6 bb 13 bd 2d 5c d9 3b ea bf e3 3d c6 b8 c8 bd
       -0.036067925 0.0066333027 0.11120589 -0.09800868
0003d0 5e 42 f0 bd c7 af 5c 3d 96 53 c7 bd 61 1b e3 bb
       -0.117314085 0.05387857 -0.097327396 -0.006930754
0003e0 33 fb c4 3d 16 c5 63 bb 01 eb b9 3c b7 f1 1d 3e
       0.09618225 -0.0034754924 0.022695066 0.15424238
0003f0 1f 04 35 be 2a 70 bb 3d 7d 44 59 3c 6f 7a e2 bd
       -0.17677353 0.09152253 0.013260958 -0.110585086

mlp2_q_dynamics.network.6.weight f4 [10, 32]
000000 36 87 24 bd 25 1d 08 be 11 bb 15 bd c8 70 0b bc
       -0.04016801 -0.13292368 -0.036555354 -0.008510776
000010 53 f7 30 3e 8d 80 4c bd 9d 53 2e be 18 86 33 bd
       0.17281847 -0.049927283 -0.17024083 -0.043829054
000020 77 30 11 be b8 46 01 3d eb 8b c2 3d 7a cc 2b be
       -0.14178644 0.031561583 0.094993435 -0.1677722
000030 f4 a9 c7 bd 9d 6f 20 3e c7 a5 c5 3c 86 a1 2e be
       -0.09749213 0.15667577 0.0241269 -0.17053804
000040 c4 d8 fe bc fc b2 0b 3e f1 74 56 3d 54 c8 e8 bd
       -0.031109221 0.13642496 0.052357618 -0.113663346
000050 13 8f 03 3d e5 d0 50 3d a6 a1 66 bc ad b0 30 3e
       0.032118868 0.050980467 -0.014076626 0.17254896
000060 cd 72 81 3d 7d 6a 2c 3d 8c 43 ad 3d 73 3b a5 bd
       0.06320725 0.042093743 0.08460149 -0.0806798
000070 71 9f 1c be c5 25 c9 bc 42 f5 1a be 3d 10 30 3e
       -0.15295197 -0.024554143 -0.15132621 0.17193694
000080 ce 32 c1 bd 77 fa 29 3d 40 6e 10 be 15 43 1f be
       -0.09433518 0.041498628 -0.14104557 -0.15552934
000090 c4 99 bb bd 66 4e 18 3c 15 3b f7 bd cd c4 30 bc
       -0.09160188 0.009296035 -0.12071816 -0.010789108
0000a0 de 8a 2f 3e 90 a2 08 3e d8 9a 4c 3d 3f f2 e8 bd
       0.17142817 0.13343263 0.049952358 -0.1137433
0000b0 c1 39 1a 3e cd 1e 1b 3e 0f 82 d1 3d 94 76 e2 3d
       0.15061094 0.15148468 0.10229885 0.11057773
0000c0 7d 6b f9 bd 2d 69 9d bc db 76 03 be fc f7 a8 bd
       -0.12178705 -0.01921519 -0.12838309 -0.08250424
0000d0 d3 71 d6 3b 60 31 55 3d cf 86 b0 bd 6d 76 15 3e
       0.0065443306 0.05204904 -0.08619463 0.14595957
0000e0 36 56 1a be fd 04 b2 bd 4a df 30 be 95 b2 3a 3c
       -0.1507195 -0.08692358 -0.17272678 0.011395116
0000f0 c9 ea 16 be 4f 0a f0 bd 6c c2 27 3e 7b 59 1a be
       -0.14738001 -0.11720716 0.1638276 -0.15073197
000100 8f 73 e5 3d 49 a5 89 bd 93 d8 bb 3d 0b c4 e4 bc
       0.11203682 -0.06720979 0.09172168 -0.027925512
000110 80 4f 14 bd e5 75 8e 3d 54 58 34 3c 54 48 ef 3d
       -0.03620863 0.0695608 0.011007387 0.11683717
000120 6e 5a 0a be f6 0f ea 3c 8f 34 e9 bd 08 3d b5 bc
       -0.13511059 0.028572064 -0.11386978 -0.022123829
000130 5f 1c 0f 3e b0 3f fc 3d a9 5b e9 3d 85 c8 bb bd
       0.13975666 0.12316835 0.11394436 -0.091691054
000140 60 63 06 be 1b 9a e3 3d 38 b5 bb bd 68 00 6a 3c
       -0.13123846 0.11113378 -0.09165424 0.014282323
000150 14 a8 2a 3e 72 d9 9e 3d 1e 55 a2 3d 7c b0 e0 bb
       0.16665679 0.07756318 0.07926391 -0.006856976
000160 bf 58 1b bb 7f c1 65 3d c0 c8 18 3d 13 52 f5 bd
       -0.002370402 0.056092735 0.037300825 -0.11978545
000170 17 02 10 be 09 35 93 bd 3a 8f 10 3c 00 88 71 3d
       -0.14063297 -0.0718785 0.00882321 0.05896759
000180 6e bf 7c 3d 9e f0 f6 bd 9c 5f a1 bc 7a 10 c7 ba
       0.061706 -0.12057613 -0.01969891 -0.0015187406
000190 7d 44 fd 3d dc 9c 71 bd 65 aa 0e 3e e3 40 48 3b
       0.12366579 -0.058987483 0.13932188 0.0030556254
0001a0 c2 73 84 bd 19 7a f0 3d 99 f3 a2 3d ad 8a dc bd
       -0.064673916 0.11742038 0.07956619 -0.10768638
0001b0 18 3e 0b 3d 6b 48 14 3e c6 76 27 3e 7c 28 fc ba
       0.033994764 0.1448075 0.16353902 -0.001923814
0001c0 9d c7 2d 3e 02 9d 2b bd 50 7e 34 3e 50 ee 3a bd
       0.16970678 -0.04189778 0.1762631 -0.04563743
0001d0 12 c3 32 be 63 57 99 3d 70 87 2f 3e 66 24 19 3e
       -0.17457226 0.07487371 0.17141509 0.14955291
0001e0 9f d5 0c 3e 60 ef 1d 3e eb de 97 bd 9d ff 11 3e
       0.13753365 0.15423346 -0.07415565 0.14257665
0001f0 8e c3 f3 3d 62 ab ad 3c c3 af e5 bd 12 30 c8 3d
       0.119025335 0.021199886 -0.112151645 0.09774794
000200 81 af 51 3d fe f4 07 3e 8a b7 22 be c9 48 bc bd
       0.051192764 0.13277051 -0.15890327 -0.0919357
000210 86 1e 01 3e e0 ae e1 3d 0a eb 15 bd 0c a6 9e 3d
       0.126093 0.11019683 -0.036601104 0.07746515
000220 c7 35 0c 3e 06 34 02 3e 39 9b 50 bd 15 b2 97 3c
       0.1369239 0.12715158 -0.05092928 0.018517533
000230 88 7d 2d bd ac c1 69 bd 92 84 fd bd a8 e9 df bc
       -0.042356044 -0.057069466 -0.123788014 -0.027333096
000240 4d 2f 9b bd 50 4f 0e 3d c9 d7 1a be db e3 06 be
       -0.07577381 0.034743607 -0.15121378 -0.13172857
000250 cf 44 c8 3d 30 35 f8 3d fa b7 bc 3d ad c1 68 3c
       0.09778749 0.1211952 0.09214778 0.014206332
000260 e7 95 ff bd 8c 59 ea bc 36 81 89 3d a6 b8 b0 bc
       -0.124797635 -0.028607152 0.06714098 -0.021572422
000270 f0 d4 22 be 38 32 93 bd d8 d3 70 bd ab b9 16 bc
       -0.15901542 -0.07187313 -0.05879578 -0.00919954
000280 61 d0 dc bd b7 a4 3d 3d 28 57 27 be fe 1b 92 3d
       -0.107819326 0.046299662 -0.16341841 0.07134245
000290 d7 1a 03 3e 3d 92 13 bd be 61 15 3e d0 4a 8a 3d
       0.12803207 -0.036028136 0.14588067 0.067525506
0002a0 af 68 6a 3d 6b 85 8c bd e6 da 12 3e cb 53 2b 3e
       0.05722874 -0.06861385 0.14341316 0.16731183
0002b0 da f6 8a bc 7c 51 a6 bd 0a 1c e8 bc b9 54 0a 3e
       -0.016963411 -0.08121011 -0.028333683 0.13508882
0002c0 fc 40 05 be 6a 7e 96 bd c2 9c cc bd f1 3e 09 be
       -0.13013071 -0.0734833 -0.09990837 -0.13402916
0002d0 0f 28 13 3e 6d 23 2f 3e f8 75 02 3e f9 1a 08 bd
       0.1437075 0.17103358 0.12740314 -0.033228848
0002e0 f5 06 cf bd 09 6f 04 3e ca f8 e8 bd ca b1 60 bd
       -0.10108749 0.12932982 -0.11375578 -0.054857053
0002f0 40 95 4d 3d cb 94 11 3d e1 ff b2 bc 2a 00 18 3e
       0.050191164 0.03554229 -0.021850528 0.14843813
000300 b0 10 fe bd d5 06 0f be f9 7c 88 bc f2 2d 77 3d
       -0.12405527 -0.1396745 -0.016661154 0.06034655
000310 93 91 d5 3d 0c 79 4a bd 28 47 e7 3c a4 62 c2 3c
       0.10428157 -0.049431846 0.028232172 0.023728676
000320 75 56 19 3d e6 eb 8f bd df db 27 be 81 9e 8d 3d
       0.037435967 -0.07027416 -0.16392468 0.06914998
000330 09 54 0c be ba 8b 0d be 7e 8e 9e 3d 37 8d 2e 3e
       -0.13703932 -0.13822833 0.07742022 0.17046057
000340 6a 0e 19 be 23 b1 29 3e 85 dd ab 3d 95 98 ce bb
       -0.14946905 0.16571479 0.08391861 -0.0063048103
000350 e9 25 05 3e 3f c1 13 3e a9 06 22 3d 52 91 48 3d
       0.13002743 0.14429186 0.039557133 0.048966713
000360 25 77 03 3e b9 c0 80 3b 49 13 a9 3d da 4f c1 bd
       0.12838419 0.0039292243 0.082556315 -0.094390586
000370 c9 2d 14 3e f6 02 8d bd a4 13 30 be 06 5f 01 be
       0.1447059 -0.068853304 -0.17194992 -0.12633905
000380 14 40 9c 3d 57 6e 2f 3e c0 d6 f2 bc f1 41 1d be
       0.076294094 0.17131935 -0.029643416 -0.15357186
000390 a6 62 81 bc b3 ca 28 3d d6 d7 50 bd e6 07 5d 3d
       -0.01579411 0.041208934 -0.050987087 0.05396261
0003a0 15 49 23 be d2 45 88 3b b5 9d f6 bd 0f 44 63 bd
       -0.15945847 0.004158714 -0.12041799 -0.055484828
0003b0 28 a5 fe bd d2 da 84 bc 1f 52 81 3c dc 00 0c 3e
       -0.12433845 -0.016217623 0.015786229 0.13672203
0003c0 7f 6e 72 3c df aa 28 be 6b 14 00 3e b2 57 18 be
       0.014796852 -0.16471432 0.12507789 -0.14877203
0003d0 80 ee a3 bd 7e 7e 27 be 64 cb d5 3d 09 91 50 3d
       -0.08004475 -0.16356847 0.10439184 0.050919566
0003e0 1f e8 91 bc fa d3 11 3e d7 e6 95 3d 00 f7 6c bd
       -0.01781088 0.14241019 0.0731942 -0.057852745
0003f0 46 d2 8b 3b 95 42 fa bd 86 48 00 be 11 ca f8 bd
       0.00426701 -0.12219731 -0.12527665 -0.12147916
