models/augmented_controller_seed_1011.pt (torch, 54405 bytes, 29 tensors)

B_q f4 [10, 4]
00000000: eac8 b03d 87ae 4abd ded3 a3bb b0c6 b63d
00000010: 40c8 ca3b d87c 63bd 0957 313e 8b15 cb3c
00000020: 076f d0bd 2d12 94bd 2085 c43d 41e6 ea3d
00000030: 040d 053e 4629 c9bd f986 883e d6a7 c7bd
00000040: dbba bd3d 2d2f 1fbe d62e ac3e c711 13be
00000050: 3765 27bd fe52 d63d 0e27 cabc 2640 19bc
00000060: 131e a1bd aa5f babd a3e6 893d 57a2 dc3d
00000070: aeaa 8abe 11af 493d a355 643d 6fb4 3a3d
00000080: f78e d5bd df83 c63d 3471 033b 551c 1dbe
00000090: 0850 7d3d 410b 2abd 9742 163c c8b1 b3bd
0.08632071 -0.04948285 -0.004999622 0.089246154 0.0061884224 -0.055538982 0.17318358 0.024790546
-0.10177427 -0.07230029 0.09595704 0.11469699 0.12993246 -0.098223254 0.26665476 -0.09748809
0.092641555 -0.1554534 0.33629483 -0.1436225 -0.04086801 0.10465048 -0.024676826 -0.009353673
-0.07867064 -0.09100278 0.067334436 0.10773151 -0.27083343 0.049239222 0.055745732 0.04558223
-0.10427659 0.09693121 0.0020056488 -0.15342839 0.061843902 -0.04151464 0.00917115 -0.087741435

lambda_xi_diag f4 [4]
00000000: 7ecf e4be 2df6 f5be 5882 f0be da35 0bbf
-0.44689554 -0.4803938 -0.46974444 -0.54379046

lambda_q_real f4 [5]
00000000: 15d8 debe 192b eebe bda3 0cbf a1f8 06bf
00000010: 4654 b0be
-0.43524233 -0.46517256 -0.54937345 -0.5272313 -0.34439296

lambda_q_imag f4 [5]
00000000: 0000 803f 0000 803f 0000 803f 0000 803f
00000010: 0000 803f
1.0 1.0 1.0 1.0 1.0

q0_scale f4 [10]
00000000: 0000 a040 0000 a040 0000 a040 0000 a040
00000010: 0000 a040 0000 a040 0000 a040 0000 a040
00000020: 0000 a040 0000 a040
5.0 5.0 5.0 5.0 5.0 5.0 5.0 5.0
5.0 5.0

mlp1_xi_init.network.0.weight f4 [32, 4]
00000000: d21a c7be 8070 bdbe a536 20be ca7a fc3e
00000010: 9997 c03d f4a3 15be 7561 003e 05e8 b5be
00000020: a965 5ebe a775 e8be c57f 143f 35a7 373f
00000030: 170f 91be 4a29 9b3d 686d 113f 6f6e e23d
00000040: 9bc8 5dbe c572 a13d ae5b a9be 5e53 eabe
00000050: 084e 87bc a114 e2be 89c1 7abe b465 723d
00000060: 88cd 88be eb61 0dbe 11fa 803f fb28 043f
00000070: ee12 b43e 63c3 013e ec46 1bbf d541 c93d
00000080: 6fc3 993e e200 773e 9426 a23d c1b1 dabc
00000090: efcd 55be 197d 113f 0aa9 dabd 6f0b 83be
000000a0: 00b1 903e 342d 1c3d 3ef7 53be d2ec b03d
000000b0: 9098 8bbd 49a7 5cbe d3a3 cbbe 6fda 983c
000000c0: d84b b43e ab03 79bd 6f9f 813e d8ad bb3e
000000d0: 395e 4c3b 9e60 bdbe a7fb 28bb f8e8 b9be
000000e0: 7bcd 313e 2e0c 773c ad3a 633e 854a f8be
000000f0: 7040 98bd d7dc 9fbe 9853 b93e b0d1 b7be
00000100: a5fb a7be b84f 0c3c 5bce 4d3f d4d3 c5be
00000110: 68b8 753d 8626 4fbe 1c82 b2bd 5f52 a23d
00000120: cf55 9bbd 5850 b73e 2a93 8c3d 54ac 453d
00000130: c3a8 c03e dc57 8bbd 48f2 90bd dd1c acbe
00000140: 854b e53e 8498 c03e 2848 01be 143f 663e
00000150: 888c a73e 9176 d73d 8045 393f 28d8 e6bd
00000160: 92ac 973e 380a 82be c363 e43e 8943 c23e
00000170: 9120 c83d ab40 57be 8567 053f 526d 063f
00000180: 332f 93be 68f6 d5bd 8aa8 fa3e f8cc e2bd
00000190: ebc3 56be 1958 d73d 1c17 483f f520 a1be
000001a0: 0632 323e 9616 333f b591 bbbf fbdf 00bf
000001b0: 1ea8 e03e 6f04 a9be b5f8 163c 177b cb3c
000001c0: 90bc 25bd c964 c53e bb38 503f e1d8 123f
000001d0: d08d e63e 32df d4be 693e 9dbe 78a0 6dbe
000001e0: 639b 9ebe d9f1 4a3e 26d9 113f cbaa 89bd
000001f0: 4e10 f93e 8520 ebbe f72b 4dbe 3b11 9dbe
-0.3888765 -0.36999893 -0.15645845 0.4931243 0.09403915 -0.14613324 0.12537177 -0.3552858
-0.21718468 -0.45402262 0.5800746 0.7173951 -0.28331825 0.07576235 0.56807566 0.1105622
-0.21658556 0.07883219 -0.3307776 -0.4576673 -0.0165167 -0.44156364 -0.2448789 0.059179023
-0.26719308 -0.13806884 1.0076314 0.5162503 0.35170692 0.1267219 -0.60655093 0.098270096
0.30031916 0.2412143 0.079175144 -0.026696088 -0.20879339 0.5683151 -0.10676773 -0.2559466
0.2826004 0.038129047 -0.20699784 0.0863892 -0.06816208 -0.21548189 -0.39773425 0.018658845
0.35214114 -0.060794514 0.2531695 0.3665607 0.003118409 -0.36987776 -0.0025784762 -0.36310554
0.17363541 0.015078587 0.22190352 -0.48494354 -0.074341655 -0.31223175 0.3619659 -0.35902166
-0.32809177 0.008563928 0.80393 -0.38638175 0.059990317 -0.2022954 -0.08716223 0.07925867
-0.07584726 0.35803485 0.06864007 0.048260048 0.37628755 -0.06803867 -0.070774615 -0.3361577
0.4478418 0.3761636 -0.12625182 0.22485 0.32724404 0.105206616 0.72371674 -0.11271697
0.29623848 -0.2539842 0.44607362 0.3794215 0.097718365 -0.21020763 0.52111083 0.5251056
-0.28746948 -0.10447389 0.4895671 -0.11074251 -0.20973174 0.1051485 0.7816026 -0.31470457
0.17401895 0.6995634 -1.4653841 -0.5034177 0.43878263 -0.33011195 0.00921457 0.024838967
-0.04046303 0.38553455 0.81336564 0.5736218 0.4503007 -0.41576535 -0.30711678 -0.23205745
-0.30977926 0.1981882 0.5697197 -0.06722029 0.48645252 -0.45923248 -0.20036303 -0.30677208

mlp1_xi_init.network.0.bias f4 [32]
00000000: 2d5e fdbe 2f9f b9bd 8e95 023e 007f a63e
00000010: c9e1 30be 71d9 81be 05ed b03e b261 97be
00000020: 4039 01bf 71b5 9cbd e211 1abc 2545 38bb
00000030: acff 923c 0cad a13e 2318 acbe 67d5 ea3e
00000040: 1a80 91be 4388 f03d 2f37 ca3e 5fdc a2be
00000050: 8d23 6ebd acd4 043e 0633 2f3d a5db d23e
00000060: d27a 91be 5871 e1bd e631 ef3e fa23 e1be
00000070: 0a2e 463e 79b1 f6be e446 19be 0c0e 863e
-0.49485913 -0.09063565 0.12752363 0.32518768 -0.1727363 -0.25361207 0.34555832 -0.29566723
-0.5047798 -0.07651795 -0.009403678 -0.0028117385 0.01794418 0.31577337 -0.33612165 0.45865938
-0.28418046 0.1174474 0.39495227 -0.31808755 -0.058139373 0.12971753 0.04277327 0.411832
-0.28414017 -0.11007947 0.46717757 -0.4397276 0.193535 -0.48182276 -0.14968449 0.26182592

mlp1_xi_init.network.2.weight f4 [32, 32]
00000000: c94c 663d 98a9 39bd f847 2abd bf6c 21bd
00000010: 2d68 26be 014b 17bc a3ea 5cbd 1bfb b8bd
00000020: 6e5b cfbc 6267 aabc db79 90bd c5ee 81bc
00000030: e748 14be fe49 9ebd eb11 19be 179b 0e3d
00000040: 768b 4ebe 8d53 603b e9ab bfbd d69e a83c
00000050: c6ca 603c 50fc 8a3d 65f1 823d 8572 83bc
00000060: bbda 993d e56a 64be ab2d babd 0289 49bc
00000070: f105 d3bc ea4f b93d cd61 af3d 0fe8 75bd
00000080: f6a3 fe3c 9464 eabd 9829 5a3d 79c2 8dbb
00000090: c0ec a1be 05a0 8abd 8a11 783d eecf 203d
000000a0: 8c1e 763d 848e b3bd fb4a 20be feed 63be
000000b0: 3155 28bd 0e40 6bbc 28f2 53be 62cd 5abd
000000c0: 0a65 e2bd 186d ddbb 375a 363d 6dfa f7bc
000000d0: 7203 7ebd 8146 f03d 3ebb 563d 4a48 2ebc
000000e0: cfb4 babc 1122 1abe fb4f b4bd fe29 383c
000000f0: 9208 32bd 9cc9 243d 27c1 6b3d e23c 5fbd
00000100: 48b0 99bd 8ef5 92bd 5e5a e43d 99b3 b03d
00000110: c293 ae3c 69ce 1abe 87ba 71bd 4cb6 f6bd
00000120: 8b7c ff3d 270d aabd 9673 b6bd fc9d 193d
00000130: 4797 143c a6b7 f0bc 72a1 5dbd a57d a5bc
00000140: 97d9 4dbe f00b 2c3d a6f1 81bd 61b3 e2bd
00000150: 5600 d73d ff4f 5e3d 014f 163e 5b8b 9d3d
00000160: b3fc c0bd 4492 a1bd 5234 4b3e e9dc 903d
00000170: ab9d 2bbd 5e3b 2abe 2b3e 19bd e035 09be
00000180: 61da 4f3d 77fc bd3d 81a8 0bbe 8589 2abe
00000190: d0f9 c9bd 2a8c 32be cf12 83bd dc1d 1f3e
000001a0: 6847 f1bc eeaa 9b3d b211 bcbd a507 bc3d
000001b0: 59c1 d6bd c6e7 95bd 2aeb ae3d 4152 3b3d
000001c0: dc2c d7bd 74de 1cbd 5983 e2bd 3eec e1bb
000001d0: a7f1 01be 83c3 323e 4b35 b6bd 0b39 eebc
000001e0: 2068 7b3d cbc8 eb3c fe24 8ebe 9a23 913d
000001f0: 711a d2bd 8cab b33d 5134 0f3e 2297 3fbe
00000200: b409 39be 56d4 63bd 206e d7bd 2f76 913d
00000210: 3abf 6e3c bd4f 293c a9c8 3d3d d236 dbbd
00000220: afef 7a3d dcc4 1bbe 9c62 37be fb5d 98bc
00000230: 0291 0cbe 0f83 fdbd 3813 7a3b 674f 6abd
00000240: 3c7f b2bd 43de 813d 72e1 37be 6a7f 55bd
00000250: db77 c6bc a1e6 d4bc 347b 1fbd 9b67 e63d
00000260: aea3 ac3d 1b19 49bd 8a6f 3abd f44a 44bd
00000270: a60e 06bd 26a9 f6bd 222f 0c3d 0125 27be
00000280: 7675 87bd 3cea 98bd 0698 1b3e 156f a03d
00000290: b536 50be b25f 893d b39a 533d 3f42 07be
000002a0: 3cfe 5e3c 2c66 3abe 6a34 24be a31f 54be
000002b0: bb35 123e 1b57 1dbd de43 cd3c 487c 12be
000002c0: a96d 0c3e 85a6 773d 4fe8 1f3c ed98 27be
000002d0: 4541 6abd 4839 b3bd 2a20 753c 52a2 04be
000002e0: 966e 2a3e 7a04 cd3d 8227 97be 4e2d 93bc
000002f0: ce0c d2bd 45cc 813d f9cf 573d 36e5 f1bd
00000300: f523 0dbe 88ab 553d c1d9 213d 516a 09be
00000310: 048f 23be b850 d8bc 28bd 813d 8ea6 003e
00000320: 0754 253e e5de 633d 5cde 233e e9ce 093d
00000330: 8e1c d23d 9167 4ebd 0c39 f7bd 54d5 03be
00000340: c81f 8a3d 3063 12bc fd26 26bd e84e 343d
00000350: 2d3c 03be 3406 6b3e 4b1d 5c3d f091 dc3d
00000360: 5ce9 ec3d dc42 debd 79fd 6cbd ba6a e4bd
00000370: e760 5cbd 5576 953c 189f 53bd 0509 0d3e
00000380: e69f 943d 3824 003e 2967 47bd edbd 173e
00000390: 9af8 e5bc ae00 97bd b52b 26be de81 5ebd
000003a0: e5b3 0b3e d986 6bbd 2118 96bd b930 2dbe
000003b0: 2ddc 163c 3bd2 093e 8ea2 1bbe 094b c8bd
000003c0: 2c26 723d 78fa 343d 9bb5 063e 2eea 42bd
000003d0: 1b80 b13d 7f3d ab3d 24ac b53c 55fd d8bd
000003e0: 0d82 21be 9eb3 0c3d 8555 fcbd b183 dc3b
000003f0: 25c0 ecbd 2517 a7bd 2472 f03d 7e99 30be
0.05622557 -0.045327753 -0.04157254 -0.03941035 -0.16250677 -0.009234191 -0.053934705 -0.090322696
-0.025312152 -0.02080125 -0.07054492 -0.015860924 -0.14480935 -0.07728957 -0.14948241 0.034815874
-0.20170388 0.0034229488 -0.09358961 0.020583551 0.01372022 0.06786406 0.063936986 -0.016045818
0.07512423 -0.22306402 -0.09090742 -0.012300732 -0.025759669 0.090484455 0.08563576 -0.06003576
0.031084042 -0.11444965 0.053262323 -0.0043261615 -0.31625938 -0.067688026 0.0605636 0.039260797
0.060087726 -0.08767417 -0.15653603 -0.22258756 -0.04109687 -0.014358534 -0.20697844 -0.053418525
-0.11054428 -0.0067573898 0.04451963 -0.03027078 -0.062015004 0.117321976 0.05242466 -0.010637352
-0.022791294 -0.15052058 -0.088043176 0.0112404805 -0.043465205 0.040231332 0.05755725 -0.05450142
-0.07504326 -0.07175742 0.11150049 0.086280055 0.02131069 -0.15117802 -0.059015777 -0.12046489
0.124749266 -0.0830329 -0.08908765 0.03750418 0.00906927 -0.029384445 -0.054109044 -0.020201514
-0.20102535 0.042003572 -0.06344919 -0.1106937 0.10498111 0.05427551 0.14678575 0.076925956
-0.094231986 -0.07889226 0.19844177 0.07073385 -0.04189841 -0.1662421 -0.037412804 -0.13399458
0.05074537 0.092766695 -0.13638498 -0.16654022 -0.09862101 -0.17436281 -0.06400072 0.15538734
-0.029452994 0.076009616 -0.091830626 0.091811456 -0.10486097 -0.07319598 0.08540948 0.04573274
-0.10506603 -0.038298085 -0.11060209 -0.0068946173 -0.1268984 0.17457394 -0.088968836 -0.029079935
0.0613786 0.028782269 -0.27762598 0.070868686 -0.102589495 0.08772954 0.13984801 -0.18709996
-0.18070108 -0.05562242 -0.105190516 0.0710262 0.014571959 0.0103339525 0.046333943 -0.107038155
0.061263736 -0.15211815 -0.1790871 -0.0185995 -0.13727191 -0.12378513 0.0038158428 -0.05720463
-0.08715674 0.06341221 -0.17957094 -0.052123465 -0.024227073 -0.025988879 -0.038935855 0.1125023
0.08429657 -0.049096208 -0.04551653 -0.047923043 -0.032728814 -0.12043981 0.034224637 -0.1632271
-0.06614201 -0.07466552 0.15194711 0.07833687 -0.20333369 0.067077056 0.051661205 -0.13208865
0.013610419 -0.18203038 -0.1603562 -0.20715193 0.14278309 -0.03841315 0.025056776 -0.14305222
0.13713707 0.06046154 0.0097599765 -0.1636693 -0.057191152 -0.0875116 0.014961282 -0.12952545
0.16643748 0.100106195 -0.2952233 -0.017965939 -0.102563486 0.063377894 0.052688573 -0.11811297
-0.13783248 0.052165538 0.039514307 -0.13419463 -0.15972525 -0.026405677 0.06334907 0.12563536
0.16145335 0.05563249 0.16002792 0.03364459 0.102593526 -0.050391737 -0.12071428 -0.12874347
0.06744343 -0.008934781 -0.040564526 0.044020563 -0.12815924 0.22951585 0.053738873 0.10770023
0.11567947 -0.10852596 -0.057858918 -0.11153169 -0.05380335 0.018244902 -0.051665395 0.13772972
0.07257061 0.12513816 -0.048682366 0.14818545 -0.028072644 -0.073731765 -0.1622761 -0.05432307
0.13642843 -0.057501648 -0.07328821 -0.16913117 0.009207767 0.13459103 -0.15198728 -0.09779937
0.059118435 0.044184178 0.13155214 -0.047586612 0.08667012 0.08361339 0.02217681 -0.10595194
-0.15772267 0.034350984 -0.12320999 0.006729566 -0.11560086 -0.08158711 0.117405206 -0.17246053

mlp1_xi_init.network.2.bias f4 [32]
00000000: 5dcd 1e3d c7b5 d63b 278a 3c3c de48 e3bd
00000010: e199 9b3c d206 ec3d 564b af3d 0e81 34be
00000020: 6f16 53bd a235 29be f909 e93d 7e7d 653d
00000030: d474 37be 2737 28be a67d 0fbe 133b 49be
00000040: ec14 c0bd 67d5 0b3e 8ce3 63bd 218c 073d
00000050: a5c7 013e a45d fa3d cb13 43be a925 213e
00000060: 88ac 30be afb4 15be b989 db3d b81b 26be
00000070: 5d25 ca3d ccf0 00bd f60e 02be 960b 10bd
0.03877007 0.0065524313 0.011507547 -0.11097883 0.018994274 0.11524738 0.08559291 -0.17627355
-0.051535066 -0.16524366 0.11378855 0.05602788 -0.1791566 -0.16427289 -0.14012775 -0.19651441
-0.093789905 0.13655625 -0.055636927 0.03309262 0.12673815 0.12224892 -0.19050519 0.15737022
-0.17253315 -0.14619707 0.10719628 -0.16221511 0.09870408 -0.03147964 -0.1270102 -0.0351673

mlp1_xi_init.network.4.weight f4 [32, 32]
00000000: 8ccd efbd 67bd 09bd 40cf 14be 79d4 433d
00000010: ecc1 d7bd ea94 e8bd c572 b43d cd5f 1ebd
00000020: 656e 183e 2e49 1dbd f20f cebd ad2c 4d3b
00000030: 846e cfbc 6456 27be 2e72 8fbd 6f64 e8bd
00000040: c42e 933c 60dc 923d 168c 0abe 020c 223e
00000050: d11b c4bc fb14 1dbe b6fe 7b3d 982b c1bd
00000060: ec8c e7bc 34c4 00bc 8f38 023d f433 f93c
00000070: 8aa3 37bb b124 5d3d 2819 433e 2226 2ebd
00000080: a27f d43d 5b98 a0bd 147d 2abe 97c5 0b3e
00000090: 9a29 ff3d 0b00 213e 03da 82bd 733d 243d
000000a0: 69ce 263d 3faa f93d e257 093e 0b63 2cbe
000000b0: b8dc b2bd d62c 2cbe e980 39be e738 ffbd
000000c0: ab74 9e3d d5fa 4d3b 947b e03d fb35 8e3d
000000d0: 27dd ccbd ebcc 2ebd b12d c03d 719f 0b3e
000000e0: 7996 b6bb ff25 d23d 1c6e 8e3d 6faa e93d
000000f0: 384d 073e b46d 803d 97cb 68bc bcc4 35bd
00000100: 63d2 133e 0a2d 4d3d bbaa 9c3d 39fc eebc
00000110: f690 80bc 592e 98bd 0b21 bcbc 6274 d83d
00000120: 747d 12be 85b8 ad3d 2cf6 bdbd 8f20 043e
00000130: bff3 fabd 2e01 bebd a7e7 123e 7c99 66bd
00000140: cef7 3ebd a7d7 c5bd 987b 0bbe f73c cb3d
00000150: 5683 113e fb0e 0bbe 6218 203e 4d35 d1bd
00000160: c03f ee3d 64ac d0bd 1757 d33a 4434 fd3d
00000170: 3aa5 523c bedd cf3c 8ffa 78bd 3737 0c3e
00000180: e3a8 463d a724 1fbe 498f f63d d208 1ebe
00000190: 7824 4d3d af6d 063e de46 c0bd 23db b33d
000001a0: e45e 82bc 39e0 43be df71 72bc 9bce 4dbd
000001b0: 80fd 31be 871b a0bc d997 0ebe 55a5 8fba
000001c0: 770b 49bc 60c7 253c ad35 d6bb 2f7e 92bd
000001d0: 8888 043e da6e 863b dbec 063b 39b6 3a3a
000001e0: db49 44be 27da 08bc 6c14 af3d 8899 18be
000001f0: 0ca8 17be 5796 2dbe 06e2 f63d 6617 123e
00000200: ffc7 4fbe c26c 1ebe 3cbd ff3d 82f0 c43b
00000210: f4b6 1ebd 5147 b33d 3c55 28bc f627 aabc
00000220: b082 733d a8ae e3bd 8a96 45be 4fc0 943b
00000230: cc9a 603c ecf7 61be 244e 22be 07a9 b7bd
00000240: 977a 02bd a64d 783d a5df 18be 9432 893d
00000250: d3fa ec3d 69b5 433d 8486 47be 2c61 753d
00000260: 8318 eabd 1f86 aebd 96f2 383c 35fd 6bbd
00000270: 63ff 03be 2e95 99be 1d1e 4cbd 8e03 c1bd
00000280: 16fd e33c d00f f43a 5d2a b33d d533 53be
00000290: d97a 8dbd 900c 113e e7aa 083e 4dfe ce3d
000002a0: 6457 133e cdc6 32be 0743 23be d0ca d9bd
000002b0: 05d6 62bd c1e3 04be a74f 24be 7fc7 a23d
000002c0: 4868 193d 38fe 453d 8443 2c3d 3267 3d3a
000002d0: e06c 9f3d ef6b 18bd 0a45 1fbd ec32 25be
000002e0: c247 19be 260f 54bd 14a4 c93d e249 8ebc
000002f0: 84f4 f83d 3a26 0d3e 1db7 2fbe 9517 0c3e
00000300: 84af 02be 5b48 163e 6ea2 173e 6f42 16be
00000310: 1b43 d43c 1a5d 25be ee59 ec3d 95f5 2abd
00000320: 2f86 0f3e 6080 bb3c 8a42 09bc bca7 e93d
00000330: d5dd 123e c405 a03d 0b54 e33d ef50 813d
00000340: a342 18be 9f2b 33be 64ee 6ebd b0c0 09be
00000350: d7aa 553d 28dd 0dbe 8e4e 54bc b486 a0bd
00000360: b241 ff3d 7fa3 c9bd 9eb7 ebbd 17d2 f33d
00000370: ead5 0a3e 6931 0e3d e879 b23d 4bcc 893d
00000380: 9675 073e 254c f0bd e5ad cc3d 8855 163e
00000390: 66e1 57bd 0694 103d 2ed6 873d 2068 7c3d
000003a0: e391 0abe 1c7a 983d 818d f1bd 063c 2fbd
000003b0: 7277 eb3d d357 c63d 124f 48bd 668c ee3d
000003c0: 0189 1f3e fd80 37bd ca53 4f3e b986 b53d
000003d0: b950 e5bd 4c55 373d d2a7 093d f49d f23d
000003e0: 26ea 92bc 60b0 acbd 68f5 1bbe bbef d2bd
000003f0: 9f79 73bd 3159 423d 2b50 3e3e 7006 473d
-0.11709127 -0.033627894 -0.14532185 0.04781005 -0.105350345 -0.11356528 0.08810953 -0.03866558
0.14885862 -0.038399868 -0.10061635 0.0031307146 -0.025321253 -0.16341549 -0.070042 -0.11347281
0.017966636 0.071709394 -0.13530001 0.15824893 -0.023939045 -0.15340035 0.06152221 -0.09432143
-0.028265439 -0.0078592785 0.03179222 0.030420281 -0.002802106 0.05399007 0.19052565 -0.042516835
0.103759065 -0.078415595 -0.16649276 0.13649593 0.12459107 0.15722673 -0.06389239 0.040097665
0.04072419 0.12190675 0.13412431 -0.16834657 -0.08733505 -0.16813979 -0.18115582 -0.12462025
0.077370964 0.0031430025 0.10961071 0.0694389 -0.10003119 -0.042675894 0.09383715 0.13635041
-0.005572137 0.102611534 0.069545954 0.11409461 0.1321305 0.06270924 -0.014208696 -0.044377074
0.14435725 0.05009178 0.07649752 -0.029173004 -0.015694123 -0.07430715 -0.022964975 0.10569073
-0.14305669 0.0848246 -0.09275469 0.12903045 -0.12253522 -0.09277569 0.14346181 -0.056298718
-0.046623044 -0.09660273 -0.13621366 0.099237375 0.14210257 -0.13579933 0.15634301 -0.102152444
0.11633253 -0.10189131 0.0016123977 0.123634845 0.012856776 0.02537429 -0.060785826 0.13692938
0.048500907 -0.15541326 0.12039048 -0.15433052 0.050083607 0.13127778 -0.09388517 0.087820314
-0.015914388 -0.19128503 -0.014797657 -0.050245862 -0.17381859 -0.019544376 -0.13925113 -0.0010959307
-0.0122708 0.0101183355 -0.0065371604 -0.07152974 0.12942708 0.00410257 0.0020587954 0.000712249
-0.19168799 -0.008352793 0.08548817 -0.14902318 -0.14810199 -0.16951881 0.12054829 0.14266738
-0.20291136 -0.15471175 0.124872655 0.006010116 -0.038748696 0.08753837 -0.010274228 -0.020771008
0.059450805 -0.111172974 -0.19295707 0.0045395265 0.013708781 -0.22067231 -0.15850121 -0.08967786
-0.031855192 0.060620926 -0.14929064 0.066991 0.115712784 0.047780428 -0.19484907 0.059907123
-0.114304565 -0.08521675 0.011288306 -0.057614524 -0.12890391 -0.29996628 -0.049833406 -0.09424506
0.027830642 0.0018620435 0.087483145 -0.20625241 -0.06908197 0.14164948 0.13346444 0.10107098
0.14388806 -0.17458649 -0.15943538 -0.106343865 -0.055379886 -0.12977506 -0.1604601 0.07948207
0.037452966 0.048338145 0.042056575 0.0007225155 0.07784438 -0.03721231 -0.0388842 -0.16132706
-0.1496878 -0.05177226 0.098457485 -0.017369214 0.12156013 0.13784114 -0.17159696 0.13680871
-0.12762266 0.14676039 0.14808056 -0.1467378 0.025910905 -0.16148797 0.1154059 -0.04173811
0.1401603 0.022888362 -0.008377681 0.11408946 0.14342435 0.078136 0.11100014 0.06314265
-0.1486917 -0.17497109 -0.058332816 -0.1345241 0.05216488 -0.13853896 -0.012958182 -0.078381926
0.12463702 -0.098456375 -0.115096316 0.11905306 0.13558164 0.03471509 0.08714658 0.06728419
0.13228449 -0.117332734 0.09994105 0.14681065 -0.05270519 0.035297416 0.066326484 0.06162274
-0.13532214 0.074451655 -0.11794568 -0.042781852 0.11497392 0.0968472 -0.048903532 0.116478726
0.15579607 -0.044800747 0.20246807 0.08863587 -0.11197037 0.04475908 0.03360731 0.118465334
-0.017933916 -0.08432078 -0.15230334 -0.10299631 -0.05944216 0.04744834 0.18585269 0.048590124

mlp1_xi_init.network.4.bias f4 [32]
00000000: b2df 25be 7935 023e f4ea ec3d 108a 2dbe
00000010: d709 8d3d 2aa4 efbd e51f 9dbd 03eb 043d
00000020: c32d 9c3d 87a7 833d 3160 aebd c7e7 15be
00000030: 6bde 03be fdb1 ea3c 480d 28bd 235e b8bd
00000040: f0f6 b93c f183 793d 33a9 933c c221 c9bd
00000050: 6d81 20be 8a49 723d cec4 163e 192d ac3c
00000060: a8b9 dfbc 8311 51be 1d42 c63d 586c 983d
00000070: 86b1 243d ad99 33be 7db4 43be 185f 113e
-0.16198614 0.1271571 0.11568251 -0.16947198 0.068866424 -0.11701234 -0.07672099 0.032450687
0.07625916 0.06428438 -0.08514441 -0.14639197 -0.12877814 0.028649325 -0.04102829 -0.0900233
0.022700757 0.060916845 0.018025016 -0.09820892 -0.15674372 0.059152164 0.14723513 0.021017598
-0.027310207 -0.20416836 0.09680579 0.0744254 0.040208362 -0.17539091 -0.1911182 0.14196432

mlp1_xi_init.network.6.weight f4 [4, 32]
00000000: 1331 593e b9d0 0fbd 7c19 90bd 1626 e73c
00000010: 80f8 5d3d ab6e ec3d 2a5a f63c 4591 a2bd
00000020: 11cc 39bd adff a7bd 6717 fcbd b74b 2fbe
00000030: 690a 023e 3a02 173e 944a 4abd 37ca 42bd
00000040: 8c32 743d 695d 223e bec1 ffbd 4c6f 253e
00000050: 339c 50ba b4a2 d8bd c2d7 1dbe cb9e 7d3d
00000060: a520 773c 8243 2dbe 943c e3bd 3d07 523e
00000070: 6109 95bd cafc be3d 9650 e03d 0ca7 5d3d
00000080: b0cf 07be 7e54 cc3d 128d d0bd 671b dfbd
00000090: 09a5 7a3d 80e9 e3bd 6626 643d 2c7c 9c3d
000000a0: 416d 1cbe cb83 05bd ad56 133e 05ac 3fbd
000000b0: 708e bbbd 8e7b b53d 6e1b dfbd f426 8abd
000000c0: 9f81 dfbd d3c9 1b3e 7f13 d73d 923b a8bd
000000d0: 072d d73d cd71 773c 7d2c 38bc 69ea a03d
000000e0: 049c 35be b180 ad3d 8fb5 31bd 13cc 203d
000000f0: 5bca 21be 59cd a4bd 8c72 3a3b 988a 5f3b
00000100: f790 36bd eeea 243e f795 1fbe 5968 653d
00000110: 1f6f 233d cd86 053d dbf7 203d 55e0 28bd
00000120: 2ae4 d73d 9029 1cbd a482 4fbc 6675 083e
00000130: b49e 043e 3acf 09bd 5087 a43b e907 e63d
00000140: 1afb 2dbb 8345 b3bd a1b9 3ebd 8008 8dbd
00000150: e489 4fbd 4d92 b6bc 51ec 643d 31d8 9f3d
00000160: 72e9 903d e0cb 23bd e2e6 933c 9b17 5f3d
00000170: 5d25 eb3d e1a3 e83d 9ddf 4abc e87b 75bd
00000180: 1c71 1a3e 90cc 143e 57c6 283e 5831 1abe
00000190: d3b0 f73d 0acd 1c3c 1548 6bbc 3f83 ff3d
000001a0: e9ff 013e 175f 47bd be57 ee3d 37c0 183e
000001b0: 6114 02bc 031a 193c b049 a8bd b21f fc3d
000001c0: ec0e 64bd 4017 91bd cb98 d03d b66c 07bd
000001d0: 330e 463d 2ccb 40bd e518 0ebd d26c 1cbe
000001e0: 9173 db3c 4e6e 9b3d 7603 0a3e c5eb 4f3e
000001f0: 4071 96bd c9be 72bd 5612 093d 593b ba3d
0.21210127 -0.035111163 -0.07036111 0.028216403 0.054192066 0.11544546 0.03007229 -0.07937864
-0.04536063 -0.08203063 -0.12309151 -0.17118727 0.12699284 0.14746943 -0.04938753 -0.04755613
0.059618518 0.15855946 -0.12488125 0.16155738 -0.0007957846 -0.10577908 -0.15414336 0.061919015
0.015083467 -0.16920283 -0.11095539 0.20510574 -0.072771795 0.093255594 0.109528705 0.054114386
-0.1326282 0.09977053 -0.10183157 -0.108938985 0.061192546 -0.11128521 0.055700682 0.076408714
-0.15276052 -0.03259639 0.14388533 -0.04679491 -0.09158027 0.08861457 -0.10893904 -0.06745711
-0.10913395 0.15213709 0.105017655 -0.08214487 0.10506635 0.015102816 -0.011241076 0.0785721
-0.17735296 0.084718116 -0.04338604 0.03925712 -0.15799849 -0.080469795 0.0028449623 0.0034109708
-0.044571843 0.16105244 -0.15584551 0.056007717 0.039900895 0.03259926 0.039298873 -0.041229565
0.10541566 -0.038125575 -0.0126654245 0.13326034 0.12951165 -0.033644892 0.0050210133 0.112319775
-0.0026547373 -0.08753493 -0.04656375 -0.06886387 -0.050668612 -0.022286559 0.05588943 0.07804907
0.07075776 -0.039989352 0.01805443 0.05446587 0.11481736 0.113593824 -0.012382415 -0.05993262
0.1508221 0.1453116 0.1648191 -0.15057886 0.120942734 0.0095703695 -0.014360447 0.12476205
0.12695278 -0.04867467 0.11637829 0.14917074 -0.007939429 0.009344581 -0.0821718 0.12310733
-0.055678293 -0.07084513 0.10185393 -0.03306266 0.048353385 -0.04706876 -0.03469171 -0.15275887
0.026788505 0.07589398 0.13477883 0.20304783 -0.073458195 -0.05926398 0.033464752 0.09093351

mlp1_xi_init.network.6.bias f4 [4]
00000000: 41c7 99bd 5af5 de3d 33b3 a9bc 93ae 3a3e
-0.07508708 0.10886641 -0.020715332 0.18230657

mlp2_q_dynamics.network.0.weight f4 [32, 4]
00000000: d2a4 f6be 4c75 85be 44fd 8c3e 8ccf a6be
00000010: 0876 833e 28ac 9b3d d882 1fbe e877 eabd
00000020: d066 1fbe 8c9c 503e e844 e0bd be16 c5be
00000030: 7c4b 4a3e f00b cebd a0f2 1fbe 506d 303e
00000040: 807c 9e3b 6c79 f3be 60d5 423d 581a b73d
00000050: 94d4 eebe 46ff b93e e04d b33c 9c9e 4a3e
00000060: d019 cc3d c017 253c 4677 913e 5c7a af3e
00000070: a8b4 2d3e 32be 9abe 58fc 61be 345b 173e
00000080: b6e0 92be 2057 9cbd 5c73 7e3e 10d2 d43d
00000090: 4815 993e 2026 213d c2e2 b7be 10ac 6bbe
000000a0: 7076 823e 102b 053e 7602 b5be d468 adbe
000000b0: a4c3 e1be a872 7d3e 1ee5 a93e 6835 553e
000000c0: 8c66 21be e08a a2be 6063 d03d 60b8 6d3d
000000d0: 5222 cfbe f048 2f3d 286d 5fbe cc4f a4be
000000e0: 504b d73e a084 b0bc 40e4 32be 8efb eabe
000000f0: 8480 88be 6814 58be b886 df3e f8cb 9d3d
00000100: 7e8c 8dbe 2845 24be ca29 fa3e 582f 4ebe
00000110: b2f4 9fbe 42c8 a7be 58ea 82be 18fa aa3e
00000120: 546a 59be 30f0 a5bd 9ca6 f3be 0030 b73b
00000130: 5cd7 1bbe 641e 69be dc97 4b3e 203b 313e
00000140: 48e1 563e be25 bd3e 38f7 88bd 009b e83e
00000150: 6839 bcbe 90e8 a3bd a0f3 0bbe f002 fc3e
00000160: 4ef3 88be 6040 3c3e 2834 5d3e 30ea 4ebe
00000170: f857 053e 3cbd 52be c048 dc3e 2096 80be
00000180: c004 1d3c 8081 943e e06f 7ebd 7852 ce3d
00000190: e012 2cbd b8bc d3bd 5e34 d03e 6819 8dbd
000001a0: 10d0 47bd 04a5 abbe 1894 febd 8842 533e
000001b0: 5055 5e3d 20ed 85bd 0056 233e 4ad6 aa3e
000001c0: 18a6 133e 0e17 bfbe a4b2 f0be b448 4fbe
000001d0: 6888 ad3d dea7 d1be b00a e3be 9862 f9be
000001e0: ec0b a0be 58f2 f03e 5021 f0be 7e7f cfbe
000001f0: 92e5 c23e dc05 593e a431 a4be 7276 e6be
-0.48172623 -0.26066053 0.27536976 -0.3258022 0.25675988 0.076011956 -0.15577257 -0.114486516
-0.15566564 0.20372218 -0.10950643 -0.38493913 0.19755358 -0.10060871 -0.15619898 0.172292
0.004836619 -0.47553575 0.04756677 0.089405715 -0.4664656 0.3632757 0.02188772 0.19787067
0.09965861 0.010076463 0.2841131 0.3427304 0.16963446 -0.30223233 -0.22068918 0.14780885
-0.28687066 -0.07633805 0.24848694 0.10391629 0.2989905 0.039343 -0.3591519 -0.23014855
0.25480986 0.13004708 -0.3535344 -0.3386904 -0.44094574 0.24750769 0.33182615 0.20821154
-0.15761775 -0.31746578 0.10175204 0.05803716 -0.40455872 0.042794168 -0.21818984 -0.3209213
0.42049646 -0.021547616 -0.17469883 -0.45895046 -0.2666055 -0.21101534 0.4365747 0.077049196
-0.2764625 -0.16042006 0.48860008 -0.20135248 -0.31241375 -0.32769972 -0.25569415 0.3339393
-0.21231967 -0.08102453 -0.4758805 0.005590439 -0.15218872 -0.227655 0.19882149 0.1730771
0.20984375 0.36942858 -0.06687778 0.45430756 -0.36762547 -0.08003342 -0.13667154 0.4922099
-0.26748127 0.18383932 0.21601927 -0.20206523 0.13021839 -0.2058 0.43024254 -0.25114536
0.009583652 0.2900505 -0.06211841 0.100743234 -0.042010188 -0.103387296 0.40664953 -0.068896115
-0.04878241 -0.33524334 -0.124305904 0.20630848 0.05428058 -0.06539369 0.15950775 0.33366615
0.14418828 -0.37322277 -0.47011292 -0.20242578 0.08473283 -0.40948385 -0.4434409 -0.48708034
-0.31259096 0.47059894 -0.46900415 -0.40526956 0.38065773 0.21193641 -0.32069123 -0.45012242

mlp2_q_dynamics.network.2.weight f4 [32, 32]
00000000: 86e8 a9bc 4a7e 10be da52 833d 367b 6cbd
00000010: 5b67 66bd dfff 223d 64a9 c73c 8e0a 0d3e
00000020: 2f2c 21be 0058 cc3d 16f0 24bc 84cd 823d
00000030: 7c85 d5bd 67e2 e2bd ce2c 1a3e 6e43 7a3d
00000040: 15a7 e63d 9149 b63d 0c9c ad3d 7645 03be
00000050: 31c8 02be 3195 e93d 0320 043e 2e29 b9bd
00000060: cb28 0f3d b7bf 523c 8c79 2fbe 7486 363d
00000070: ff4a 20bd 415e c4bd 342a 1abe fd8c 05bd
00000080: e0dc 323d 89c8 09be 795e 283e dbcd 24be
00000090: e2cd e03d f9ab 1a3e aecc c73d 27dd c73d
000000a0: 419d 1ebe c565 cc3c 402c 203e c624 413d
000000b0: 3327 8b3d 844d a23d d3cc 2abe c8dd b6bd
000000c0: 5718 93bd 401a 1cbe 1143 ccbd 5c3c 973d
000000d0: 2e85 a43c 0b5d 193c e6b6 0bbd 4273 f43c
000000e0: da37 f6bd 5ef7 373d 5e15 703d f67f 03bd
000000f0: cb05 9f3d b594 713d 6b94 d83b d5c1 183a
00000100: 136b c5bd 51f9 2b3e 1bf0 a03d ee48 c83c
00000110: e4ca 13be 7c7b b4bd 5b3c 283e c2f3 453d
00000120: a7a9 08be 3d2a 93bd 1931 98bd 6c5b 01bd
00000130: d6fe 723c 1a5e d2bd 8843 2bbe f6b5 693d
00000140: 2daf 54bd dfdf 73bc 61e7 283e 461b 26be
00000150: 007a aa3d 1518 1a3e 6e32 33be a1eb 98bd
00000160: 7763 ba3d cbf7 cf3c 9c36 053c eb87 39bd
00000170: c48c a93d 0482 00be a1fe 563c f0f0 aa3c
00000180: d988 db39 24dd b23d 0827 90bd fe3d 2fbd
00000190: 17f7 20bc 10b1 ad3d 13a1 943d 2174 afbb
000001a0: 175f c93c a8b5 bebd 0598 803d 67c1 d53c
000001b0: 4faa 73bd 252a e2bd 34f2 923d 23ca 32bc
000001c0: d156 d5bd 612d 43bd adc2 3d3d 87d0 68bc
000001d0: 3d89 18be 60e3 e8bd 1adb 053b d0aa 9b3c
000001e0: e3eb 133d 6edb 143e 7e2a f63d 42bb 2bbd
000001f0: 508e 623d ee2b fc3c 92fb cbbc 0c0a 8cbd
00000200: ded3 34be 5c1c 30be 7f28 d03c 3a90 24bd
00000210: 8f8f 863d 7c61 d03d a020 d5bd 9440 cc3d
00000220: 335e d7bd 7b7d 883d 6849 323e 3088 933d
00000230: 8e29 a83d c2ea 223e 0600 56bd 3e97 1cbe
00000240: aa4c 89bd d739 e3bd 7371 1c3e 5f34 15be
00000250: 1fec 1d3a b6f1 433c 0e09 10be 8d5f 1ebe
00000260: cdb1 6e3d e61d f23d 7423 d33d 2657 d9bd
00000270: 7292 eabd 74d8 e93d c90e d63d 53f8 9a3d
00000280: 6a77 13be 1445 da3c f432 703d 8089 2cbe
00000290: e5ed 003e 755c fcbd fa3b 313e 3857 563c
000002a0: f66f b8bd 0969 2c3e 44f8 c53d 0545 eebc
000002b0: aefc 1f3e 9d9a 25be 4ba5 0c3e cd2c ea3d
000002c0: 282a c7bd 9f32 a7bd 86df a0bd 32dd e7bc
000002d0: 7ea6 763d c7e3 11be 4ef6 303e a5a6 ecbd
000002e0: f21c ca3b 4051 b1bb 122b dabd 3466 c1bd
000002f0: 7a0d adbb c1e5 bb3d 7d9c babd 7502 c33d
00000300: 979c 6a3b a761 08be fd7b d63c fbdb 0e3d
00000310: 63a7 ebbd 111b c6bc c566 d33d 92c3 f4bd
00000320: e048 0d3e 2b0f dd38 9d6d f83d c419 95bd
00000330: c6ed 283e 8b60 a63d 6c39 09be 4ac7 cbbc
00000340: 97f4 163e a7e9 4a3d 58db 6a3d c089 ba3a
00000350: 880c 13be 30c9 083e d658 c53c 3fa3 17be
00000360: e0dc d6bd fac8 2b3e f3ef 08be a709 be3a
00000370: a9bd fc3d 65c8 223e 1942 273d ab7c 793d
00000380: a077 653d a2cb 83bd dc4f 353d 1815 65bd
00000390: 8dd6 05bd 4b7d 163e 7ed0 7bbd da58 2dbd
000003a0: 3c96 f7bd e1b0 653d 7640 333e 13cb 4e3d
000003b0: 0870 87bd 35de 253e fc19 70bd 4dd8 2a3e
000003c0: cd75 aabd a0a5 1c3e 5db1 113d 6110 08be
000003d0: 4130 a1bd fd76 cd3d 095d 7b3d 4a2b 4e3d
000003e0: 2f8e c6bd de01 bbbd f9fa ba3c 6e86 bfbd
000003f0: ecf2 32be ffa4 703c c055 1a3e 9fe7 083e
-0.020740759 -0.14110675 0.06412287 -0.05773469 -0.05625091 0.0397948 0.024372764 0.13773558
-0.15739511 0.09977722 -0.010067007 0.06386855 -0.10425851 -0.11078339 0.15056154 0.061099462
0.11262337 0.089007504 0.08477029 -0.12819466 -0.1277168 0.11405409 0.12902837 -0.090410575
0.034951013 0.012863091 -0.1713621 0.04456182 -0.03913402 -0.0958829 -0.15055162 -0.03260516
0.043667674 -0.13455404 0.16442288 -0.16094153 0.10976769 0.15104665 0.097558364 0.09758978
-0.15489675 0.024950871 0.1564188 0.04715421 0.06794586 0.07924941 -0.16679697 -0.0892902
-0.07182377 -0.15244389 -0.099737294 0.073845595 0.020083036 0.009360562 -0.034109972 0.029840115
-0.120223716 0.044913642 0.058614127 -0.032104455 0.07764777 0.05897971 0.0066094897 0.0005827223
-0.096395634 0.16794325 0.078582965 0.024448838 -0.14432865 -0.08812615 0.16429274 0.04832817
-0.13345967 -0.07185791 -0.0743124 -0.031581327 0.014831265 -0.10271855 -0.1672498 0.057058297
-0.051924873 -0.014884918 0.16494514 -0.16221341 0.08324051 0.15048249 -0.17499706 -0.07466818
0.09101003 0.025386712 0.008130696 -0.045295637 0.08278802 -0.12549597 0.013122232 0.020866841
0.00041872895 0.087335855 -0.070386946 -0.04278373 -0.009824536 0.084810376 0.07257285 -0.00535442
0.024581475 -0.09311992 0.062789954 0.026093198 -0.05948859 -0.11043195 0.07175103 -0.010912451
-0.104169495 -0.0476507 0.046328235 -0.014209873 -0.14896102 -0.11371493 0.0020424784 0.019002348
0.03611363 0.14536831 0.120198235 -0.04192663 0.0553115 0.030782666 -0.024900232 -0.06837854
-0.17658946 -0.17198318 0.025409935 -0.040176608 0.065703504 0.10174844 -0.10406613 0.09973255
-0.10516014 0.066645585 0.17410815 0.0720371 0.08211051 0.15909865 -0.052246116 -0.1529207
-0.06704076 -0.110950164 0.15277652 -0.14570759 0.00060242595 0.011959484 -0.14065954 -0.15466137
0.058275033 0.11822109 0.103094965 -0.10612325 -0.114537135 0.11418238 0.10452039 0.07566895
-0.14401022 0.026644267 0.058642343 -0.16849327 0.1259075 -0.12322322 0.17308035 0.013082318
-0.0900573 0.16836943 0.096664935 -0.029085645 0.15623733 -0.16172262 0.1373493 0.11434326
-0.097248375 -0.08163952 -0.07855134 -0.028303716 0.060217373 -0.14247046 0.17281458 -0.115552224
0.0061680013 -0.005411297 -0.10652746 -0.09443322 -0.0052811475 0.091746815 -0.09111879 0.09521953
0.0035798901 -0.13318501 0.02618217 0.03487776 -0.11506536 -0.024182828 0.10322336 -0.119513646
0.13797331 0.000105409265 0.12130282 -0.07280305 0.16496953 0.08123883 -0.13400811 -0.024875302
0.14741741 0.049539234 0.05733809 0.0014231727 -0.14360249 0.13357997 0.024090212 -0.14808367
-0.10491347 0.16775885 -0.13372783 0.0014498726 0.12340862 0.15896757 0.04083452 0.06090991
0.056022286 -0.06435324 0.044265613 -0.05592832 -0.032675315 0.14696233 -0.06147813 -0.042321064
-0.12089202 0.056076888 0.17505059 0.050486635 -0.06613165 0.16198047 -0.05861853 0.16684075
-0.0832325 0.15297556 0.035569537 -0.13287498 -0.07870532 0.10032461 0.061368022 0.050334252
-0.09695088 -0.091312155 0.022824751 -0.09351812 -0.1747548 0.014687776 0.15071774 0.13369606

mlp2_q_dynamics.network.4.weight f4 [32, 32]
00000000: 8006 293e 30b1 c3bd f17a 693c fefc efbd
00000010: 25a5 29be a88f c33d b6af 5c3d e0f4 173e
00000020: a7a1 503d efb7 8b3c 24ba 96bd 343d 0abe
00000030: 27db 103c 567f 843c 3a0f 253e 3bb0 10be
00000040: 1a6e 3b3d 5c14 163e fc56 a63d 4c6b a3bd
00000050: d2e5 1bbe f859 263e db8c 96ba c7c8 30bc
00000060: cc99 12be e9ab 29bd 787d 2dbe 8278 223e
00000070: 5b12 86bd 21b6 86bd 0fb8 0dbd f3f1 ee3c
00000080: e1bf ec3d 54a3 85bc 5836 013e 7256 0e3e
00000090: ad0c c7bc 1d40 f4bd 6106 1d3d d3bf 08be
000000a0: 84b2 693d 358f 813d 4df5 2a3e cb20 34be
000000b0: 1c24 02be 0425 f1bd dfc6 0b3e 5c80 fb3d
000000c0: 7e0e 14bd 29ee 2c3e f3f7 3eba a55e 1c3e
000000d0: d72c a33d 02a7 2dbc 47e9 5bbc 2ab7 8dbd
000000e0: 00c3 213a 2a2e 18be ef81 2e3e 8016 f53d
000000f0: 7f34 dcbb f9e7 53bd d90b d2bc e563 aeba
00000100: 4f7d af3d 37b2 d6bd 127b 823d 4506 923d
00000110: a2ed c8bd f4ba 91ba a33c 453c 3e4a ff3d
00000120: 7492 6d3d 315f 6cbc d62f de3d 185c 08be
00000130: e9a0 85bd c659 cb3d 023a ae3d 6790 00be
00000140: 1a3c b3bd 0a6f 10be db9f f53d 54cb e1bb
00000150: e80c 63bd 67d6 29bd 7b4f 2fbe 01f7 933a
00000160: 6387 07bd 039c c03d c341 aabd c4a2 2d3e
00000170: 35cb 253e ee63 2a3e 3fe1 f63c 7583 03be
00000180: 474a c03d ef0c 9a3c 91ea 8abc 876a ec3d
00000190: af9b e13d 4032 24bd 943a 9ebd 1a86 8c3d
000001a0: 85ab ccbd b615 22bd f4e7 27be b171 933d
000001b0: e95e 03be 6a80 e6bc e76f e5bd 406c d7bd
000001c0: 9d12 cd3b 40fc 2cbe 526f d1bd eca1 12be
000001d0: e4be f53c a74d 13bd b926 6a3d f196 bc3d
000001e0: 46b8 f73d 09b4 eebc 6382 053e d43c f5bc
000001f0: 2432 5a3d 66b8 9cbd 4740 31bc 4f08 8d3d
00000200: e401 113e 0ad7 54bd f5ee 08be 8dc7 313e
00000210: 57a6 b03d 4d9b 06be 4849 383c 4017 b8bb
00000220: 13bf ac3c 083c 0bbe fbfc 07be e87a 263e
00000230: 1f43 b7bb 50d5 083e 1bae 41bd 09d9 2fbe
00000240: 389c 303e f846 f13c f5f6 5fbc 741c 47bd
00000250: 6f34 3a3d c796 1c3e 7773 4d3d c593 f5bd
00000260: b476 d73c 1979 efbd 68aa febd 9677 423d
00000270: 780b 8b3d ce4f c8bd 6267 7a3d 666a 84bd
00000280: e8c7 cbbd eb8c b63d 525a 34be 75f7 ac3d
00000290: 6ae0 e23d 77a7 30be 50e3 39bd 76e0 9cbd
000002a0: 9969 0cbc 71e7 033e 4613 0e3c e12b 233e
000002b0: b8a2 793d a2f7 e53d 89d9 d0bc 3a61 0a3e
000002c0: aa71 03bd 18eb 1f3e 94de 273e 0e9e cf3d
000002d0: c5f3 94bd 8f2b 27be 3e40 0abd cd49 e43d
000002e0: d9c5 d43b c947 1abe 41b4 c43d 9680 9b3d
000002f0: 8f32 32be 1cc1 1abe fad8 8ebd 2f39 cbbd
00000300: 128f 193c 5280 0a3e 2228 9bbc 9e5b 1c3e
00000310: f56b 18be c49a 1f3e da81 c6bd b2bf 883d
00000320: 9557 763d d41a 053e a42a f53d d398 91bd
00000330: 0f1e 13be 11a3 0cbe 9a11 e53d fcef 61bd
00000340: 3407 743c 29bb 83bd ef1a 003e 1da4 2ebe
00000350: fab1 eabc 4217 263d bfda cd3d ec80 263e
00000360: 11bb 4b3d 3e58 143e c7d3 8bbd a80f 3b3c
00000370: f22c 803d dcf6 d43c 20aa 1f3e 1671 0b3e
00000380: 14a7 e3bd e7b2 38bd a8d2 efbd d1f4 273e
00000390: ed29 fd3d cfae f0bc c97b 85bd c292 26be
000003a0: e4d7 803d 9c3b 25be f898 febd c1d5 163e
000003b0: e942 28be f454 763d add2 06bd b2eb 29be
000003c0: 0d39 533d 2f55 1c3d 5252 6ebc 7de0 17be
000003d0: 4dd1 3ebd f42c 7bbd a056 5ebd be7f 04be
000003e0: 9461 853d 1a68 013e c2f2 cc3d 485b b73d
000003f0: 7ed7 fa3d 629d 163c 220d 123e ce5e 14be
0.16506386 -0.0955528 0.014250503 -0.11718176 -0.16566904 0.09548885 0.05387851 0.14839506
0.050935414 0.01705548 -0.07359722 -0.1349991 0.0088413125 0.016174 0.1611909 -0.14129727
0.045759298 0.14656204 0.0812206 -0.0797945 -0.15224388 0.16245258 -0.001148607 -0.010790057
-0.14316481 -0.041423712 -0.16942394 0.15866283 -0.0654647 -0.06577707 -0.03459936 0.029168105
0.115600355 -0.016313232 0.12618387 0.13900164 -0.024298036 -0.11926291 0.03833616 -0.13354425
0.05705501 0.06326143 0.16695137 -0.17590635 -0.12709087 -0.11774638 0.13650082 0.12280342
-0.036146633 0.16887726 -0.0007284872 0.15270479 0.07967537 -0.0105989 -0.013422317 -0.069197014
0.000617072 -0.1486136 0.17041753 0.11967182 -0.006720125 -0.0517349 -0.025640415 -0.0013304917
0.085688226 -0.104832105 0.0637113 0.07130102 -0.0981095 -0.0011118338 0.012038383 0.124653324
0.058000997 -0.014426992 0.10848968 -0.13316381 -0.06524832 0.09929232 0.08507158 -0.12555085
-0.08751698 -0.14104858 0.11993381 -0.0068906937 -0.05543223 -0.041464236 -0.17120163 0.0011288823
-0.0330881 0.09404757 -0.08313324 0.16956621 0.16190799 0.16639683 0.030136703 -0.12843116
0.09389167 0.018804995 -0.016957553 0.11543756 0.110160224 -0.040086985 -0.07726017 0.06861515
-0.09993652 -0.039571486 -0.16397077 0.07199419 -0.12829174 -0.028137404 -0.11202984 -0.10518694
0.0062583224 -0.168931 -0.10226311 -0.14319581 0.02999825 -0.035962727 0.057165835 0.09208477
0.12095694 -0.029138582 0.1303802 -0.029936232 0.053270474 -0.07652359 -0.010818548 0.0688635
0.14160877 -0.05196289 -0.13372405 0.17361279 0.08625477 -0.1314518 0.01124794 -0.005618006
0.021087205 -0.13597119 -0.13280098 0.16257823 -0.0055927183 0.13362622 -0.04728518 -0.17172636
0.17247093 0.029452786 -0.013669719 -0.04861112 0.04546016 0.15291892 0.050158944 -0.119910754
0.02630172 -0.116930194 -0.12434846 0.047477327 0.06789297 -0.097808465 0.06113375 -0.064656064
-0.099502385 0.08913597 -0.1761258 0.08445636 0.1107796 -0.17251383 -0.045382798 -0.0766
-0.008570098 0.12881257 0.008671587 0.15934707 0.060946196 0.11228873 -0.025494354 0.13513651
-0.03209082 0.15617025 0.163935 0.101375684 -0.07273058 -0.1632521 -0.033752672 0.11146889
0.006493312 -0.15066446 0.09604693 0.07592885 -0.17402099 -0.15112728 -0.06974979 -0.09923016
0.0093724895 0.13525513 -0.018940035 0.15269324 -0.14884932 0.15586382 -0.09692736 0.06677188
0.06014212 0.12998515 0.11971024 -0.07109227 -0.14366935 -0.1373408 0.11184998 -0.055160508
0.0148942955 -0.06432182 0.12510274 -0.17054792 -0.028649319 0.040549524 0.10051488 0.16260117
0.049738947 0.14486787 -0.06827503 0.011417307 0.06258573 0.025996618 0.15592241 0.13617358
-0.11115852 -0.04509249 -0.11710101 0.16401984 0.12361512 -0.02938023 -0.06517751 -0.16266921
0.06291178 -0.1613602 -0.1243152 0.14729978 -0.16431774 0.06013961 -0.03291576 -0.16593817
0.05156808 0.038167175 -0.014545994 -0.14831729 -0.046586324 -0.061322168 -0.05428183 -0.12939355
0.06512752 0.12637368 0.1000724 0.089529574 0.12248133 0.009192796 0.14262822 -0.1448929

mlp2_q_dynamics.network.6.weight f4 [10, 32]
00000000: 22c0 22be 34f1 18be fe55 e13c e017 8bbd
00000010: b978 0d3e 335f cfbd dcf8 13bc 1787 853d
00000020: 576e 01be d887 b73d b9e1 bf3d fe9d 06be
00000030: 20d0 cb3d cdd0 e4bd 2eb2 8bbd e74e 903d
00000040: 5bda 1d3d 8804 f83a c8b9 203e 8390 a7bd
00000050: 313d 8e3d e6bc 91bb 95f0 a83d 5534 a53d
00000060: 2476 48bd 01c5 12bc 2e6f 1abd 7d84 debd
00000070: 4c92 2dbe d7eb e83b fa3d 1b3e 54b1 22be
00000080: 1db7 1d3d 59ce 303c 84e4 b73d 730f 1f3c
00000090: 122d 6dbd d8f2 10be 935f e2bd 3172 c73c
000000a0: 59b1 03bc 7303 13be d10e 313e c840 323d
000000b0: 0013 f93c 77fc 1fbd 7b6d 8bbd 7243 453b
000000c0: efd9 11be dae9 f03a 4831 1f3e 84eb b03d
000000d0: b3ad cf3d 856a a6bc 566b b33d 3514 093c
000000e0: 51a7 18be 2de8 a23d 0708 923a 2fe8 2cbe
000000f0: e61e c2bd b616 90bc 687e 483d 0dd2 133e
00000100: 618b 82bd 910b af3d 69f0 0f3e 5474 33be
00000110: fd11 cabb 7391 f13d 5ca9 3cbd e689 c33c
00000120: 0d95 92bd c348 cb3d 77e7 ddbd 4a86 12be
00000130: 84fa a43c 5333 f1bd 8e5d 85bd 66f6 f53d
00000140: 34aa a23d d502 0ebe 8293 213e 54d9 bf3d
00000150: 16bb 223e f4f9 d4bc e3f7 0d3e 3831 093e
00000160: f5a8 e5bd 1b16 abbc 19a4 23be 07da 533d
00000170: aec5 b53c dddb 70bd f4e4 303d baf8 5f3d
00000180: 9079 293e 23f9 d83d dbd8 253e 26e4 033e
00000190: b10d 97bd eb10 00be b799 28be 4d22 e23b
000001a0: 768b 66bc fc36 7bbd 5552 98bc 2af5 143d
000001b0: fb27 f53d 0eb3 1b3d 81f5 31be 351b f93d
000001c0: 813e ebbd 7002 85bd 262f 1b3e b035 1dbe
000001d0: 9b95 04be decc 453d 8721 90bd a868 a13d
000001e0: b4fa a4bd 7659 27be 2924 8b3d cfca ac3d
000001f0: 7135 1ebd c4cb 98bd 52e0 edbd 0bb9 d8bd
00000200: 3046 123e f482 96bd c192 fdbd 9289 08be
00000210: 7708 86bd 6f08 9d3d 39fa 2cbe 6fa3 9dbd
00000220: 8af8 3fbc af7d f9bd a955 33bd 106b 2abe
00000230: bd4c debd 4edc c03d fd9e b7bd dadb 033e
00000240: 7a45 56bd ddb6 40bd 077d 053e fef0 fcbd
00000250: 8d6f f13d 729a 15be a715 923d b104 273e
00000260: 998b 33be 63d1 233e d649 373d b7c3 e3bd
00000270: 2c6f f43d 9f8c 0f3e e20c 333e ec1d 9dbd
00000280: d63f 83bd 9176 32be 524a eebd 2b2c 75bd
00000290: cb6d cb3d b9a8 dbbd 4de2 253e 9b76 853c
000002a0: 8227 2cbe e7a1 fd3c 792b 1b3e f733 ae3d
000002b0: bcba 9dbd 7061 b93d 8bf2 ba3d c623 5b3d
000002c0: f4a8 1ebe d00c bcbd df6e 203e 4483 b33d
000002d0: 247a d5bd a36e 98bd 3719 003e 3be4 d03c
000002e0: eb45 143e 9107 183e 12f2 bcbd b31a 16be
000002f0: d5a6 0bbd f783 f6bd f45f 133e 54a6 06be
00000300: 1ccb e9bc a357 093e 2740 5ebd 8a53 15bd
00000310: 6b54 293e 68a7 a0bd c608 97bd b869 f33d
00000320: ba09 ef3a bf4c 313e 241b a33c 9a0d 343e
00000330: 0d6e b83c 365c b93c fb4d 46bd bc43 e23d
00000340: 0087 0dbe 7ef5 71bb 7f6a 5dbd 20fd 28bd
00000350: 08d0 9a3d a2b8 143e ed42 4fbd a06c ff3d
00000360: 5f95 f7bd 7e54 c13d f6c4 dfbd 211f a73d
00000370: 6f1b e1bc 0c3d 843d daeb 44bc cc86 31be
00000380: 381a d0bd 14d5 a1bd dbdb dfbd 3f5b 3cbd
00000390: 0983 223e 215f 523d 5605 443d f188 31be
000003a0: d56f 213e 2f04 66bd c428 113e 8f8d 8ebc
000003b0: dcf3 0d3e 8c15 a8bd 046a 3a3c d90d 19bd
000003c0: e924 093c ee0b 6cbc e444 123e e9e2 96bd
000003d0: fbd4 d33d 3b14 c83d 823a 533d 3b49 003e
000003e0: d04a d4ba 4dd2 e73d a399 683d 5baa be3d
000003f0: 1cc0 cfbc 3595 fbbd 8c6c f73d 74b1 b9bd
-0.15893605 -0.14935762 0.027506825 -0.06791663 0.13815583 -0.1012558 -0.009031501 0.06519907
-0.12639748 0.08961457 0.09369225 -0.13146207 0.09951806 -0.11172638 -0.068210945 0.070462994
0.038538318 0.0018922249 0.1569587 -0.0818186 0.06945265 -0.0044475673 0.082490124 0.08066622
-0.048940793 -0.008958102 -0.037703685 -0.10865114 -0.16950339 0.0071081924 0.15160361 -0.15887958
0.03850471 0.010791385 0.08979133 0.009708273 -0.05790431 -0.14155138 -0.110533856 0.024346443
-0.008037888 -0.14356785 0.17290808 0.04351881 0.030404568 -0.03905913 -0.06807991 0.0030100015
-0.14243291 0.001838024 0.15546143 0.08638671 0.10140552 -0.020314464 0.08760707 0.008366634
-0.14907576 0.0795444 0.0011141308 -0.16885446 -0.0947855 -0.017588954 0.048948675 0.14435597
-0.06374241 0.08547128 0.14056553 -0.17524844 -0.006166695 0.1179532 -0.04605995 0.023869466
-0.071573354 0.099259876 -0.10835164 -0.1430904 0.020138986 -0.117773674 -0.06511985 0.120098874
0.0794262 -0.13868268 0.15778926 0.09367624 0.1589168 -0.025998093 0.13864093 0.13397682
-0.112138666 -0.020884564 -0.15980567 0.0517216 0.022188988 -0.058803428 0.043187097 0.054680564
0.16550279 0.10594394 0.16196005 0.1288 -0.07375658 -0.12506454 -0.16464888 0.0069010616
-0.014071336 -0.061331734 -0.018593946 0.03636662 0.11970516 0.038012557 -0.17378809 0.121633925
-0.11486531 -0.064946055 0.15154704 -0.15352511 -0.12947695 0.04829108 -0.07037645 0.0788129
-0.0805563 -0.1634272 0.067940064 0.0843712 -0.038625184 -0.0746074 -0.11615051 -0.10582169
0.14284587 -0.07349196 -0.12381507 -0.13333729 -0.06544583 0.07667624 -0.16892327 -0.07697188
-0.011716971 -0.12182175 -0.043782864 -0.16642404 -0.108544804 0.0941702 -0.089658715 0.12876835
-0.05231235 -0.047049392 0.13035975 -0.12350653 0.11788855 -0.14609697 0.07133036 0.16310383
-0.17533721 0.15997843 0.04474815 -0.11121314 0.11935267 0.14018486 0.17485383 -0.07671723
-0.0640866 -0.17428042 -0.11635269 -0.059856575 0.09933051 -0.10725541 0.16199608 0.016291907
-0.16811946 0.03096099 0.15153302 0.08506005 -0.077016324 0.09051788 0.09128293 0.053500913
-0.15494138 -0.09182131 0.15667294 0.08765271 -0.10423687 -0.07442977 0.12509619 0.025499454
0.14479797 0.14846636 -0.09225859 -0.14658622 -0.03409465 -0.12036889 0.14392072 -0.13149387
-0.028539233 0.13412337 -0.0542604 -0.036456622 0.16536109 -0.0784443 -0.0737472 0.118853986
0.0018237152 0.17314433 0.019910403 0.17583314 0.022513414 0.022626977 -0.04841421 0.110480756
-0.1382103 -0.0036920006 -0.05405664 -0.041257024 0.0755921 0.14523557 -0.050600935 0.124718904
-0.12089037 0.09439944 -0.10926239 0.08160234 -0.027478902 0.06456956 -0.012019122 -0.17336577
-0.10161251 -0.079019696 -0.10930606 -0.045985457 0.15870298 0.051360253 0.04785665 -0.17337395
0.15765317 -0.056156334 0.14175707 -0.017401485 0.13862556 -0.08207235 0.011377815 -0.03736672
0.0083706165 -0.014407141 0.14284092 -0.073674984 0.10343357 0.09769484 0.05156947 0.12527935
-0.0016196612 0.113194086 0.056787144 0.093098365 -0.02536016 -0.12284318 0.120812505 -0.090670496

mlp3_q_init.network.0.weight f4 [32, 4]
00000000: 005b 51be 9287 aabd d524 b53e a2c6 6bbc
00000010: 51c1 0bbf 9500 cf3c 00b1 4c3e dfe1 493e
00000020: 05c4 59be 2c93 50bd a80e d23e 02c9 dabe
00000030: b484 f1bc afb4 16bf b8cb ad3e 12c9 353e
00000040: 8e27 4f3e 5575 c43d bd51 c8bd e0d3 ca3e
00000050: a18e 6ebe b1a3 943d ed65 993e 9305 c2bd
00000060: 3629 87be 8494 723e 539e 9cbd 6f97 7abe
00000070: 417b ffbe 513b 79be 7e5c c2be c719 8b3e
00000080: ea70 dd3d 510c 90bd d70e e03d 358c 0a3e
00000090: 5d8f 8b3e d1f1 f9be 09f7 243f 2a21 cb3e
000000a0: 25da d0be c4ea dc3d 982d 0fbf 60f1 15be
000000b0: 6b29 47be f10d b43e b3f4 a9be 81dc 403d
000000c0: 3886 a53d add5 1abf 96cf 513f 65cf 933e
000000d0: 5900 42be c775 eebd 12eb 71bb 101d c2bd
000000e0: f442 b7bd 83af b4be d123 a5be 4b68 c1bc
000000f0: 5fc7 1d3e 9c8e e43d 3fe2 59bf a142 5b3b
00000100: 887d da3d 9dda 9fbe 94a1 b9be 7d7b 393e
00000110: c24c 513e 8646 69bd 7258 a3bd 91da 1d3e
00000120: 6edc 80be 7544 24be 321a a33e a099 f93e
00000130: e16f 8bbe eabf 2dbf 951f ed3d e244 e23e
00000140: 6654 603d 5acb 2b3d 254d 42be 541e 553d
00000150: 07af e2bd 068f 4fbe b678 d83d df12 b3be
00000160: 99a3 b23e 36db b13e c792 f7bd d7b1 ad3e
00000170: 217e 9fbe 5353 1dbf 0a70 163e 4306 d13e
00000180: ca1b 323e 54b2 c93d 8475 cabe 5656 b93d
00000190: 296a 07bf 0558 07bf b74d 0bbf 0c36 ec3d
000001a0: d875 0d3e fa02 5abc 2dd0 1a3f a22d 873c
000001b0: b519 adbe 20be 2cbe 70e8 fdbc 36e7 d0be
000001c0: 778d 47be 310a 04bf cdcf 2bbd 7c41 aebe
000001d0: eceb 4e3e d4a3 9c3e 9bbb 0dbf 73aa 84bc
000001e0: 6bc5 493e 240a 56be 15d5 fcbe 9ff5 74be
000001f0: 1f64 a8be e4ad f7bd 1d2d dbbe b5a3 e4bb
-0.2044487 -0.08326639 0.35379663 -0.0143906195 -0.5459185 0.025268832 0.19989395 0.19715069
-0.21266182 -0.050921604 0.41026807 -0.42731482 -0.029482223 -0.5886945 0.33944488 0.17752483
0.20229933 0.09592692 -0.09781215 0.39614773 -0.23296596 0.07257784 0.29960576 -0.094737194
-0.2639863 0.23689467 -0.076473854 -0.2447183 -0.49898723 -0.24339034 -0.3796119 0.27168104
0.10812552 -0.07033599 0.109403305 0.13530047 0.27257815 -0.48817304 0.64439446 0.3967374
-0.4079143 0.107869655 -0.55928946 -0.14642859 -0.19449393 0.35166886 -0.33194503 0.04708529
0.08082241 -0.60482293 0.81957376 0.28869167 -0.18945445 -0.11643558 -0.0036913794 -0.094781995
-0.08948317 -0.35290155 -0.32253888 -0.023609301 0.15408085 0.11160013 -0.8511085 0.0033456462
0.106684744 -0.31221476 -0.36256087 0.18113513 0.20439437 -0.056952022 -0.07975854 0.15415408
-0.25168175 -0.1604174 0.31855923 0.4875002 -0.27233794 -0.6787096 0.115782894 0.44193178
0.05476799 0.041941978 -0.18974741 0.052030876 -0.1106854 -0.20269403 0.10569899 -0.34975335
0.3489044 0.34737557 -0.120885424 0.33924744 -0.31150916 -0.6145527 0.14691177 0.4082509
0.17393413 0.098484665 -0.39542782 0.090496704 -0.5289636 -0.5286868 -0.5441546 0.11533746
0.13814485 -0.013306374 0.604739 0.016501252 -0.33808675 -0.16869402 -0.030994624 -0.408014
-0.19487558 -0.5157805 -0.04194622 -0.34034336 0.20207185 0.3059374 -0.5536439 -0.016194558
0.19704215 -0.20902306 -0.4938132 -0.23921822 -0.32888886 -0.12093714 -0.42807856 -0.006977523

mlp3_q_init.network.0.bias f4 [32]
00000000: 2790 bcbd 4ba1 92be 55fc 873e 9867 303e
00000010: f2ad 81be d6d6 883e d07a 823e 19c6 2fbe
00000020: 9730 f2be 2c8b f83d 5ba2 95be 041e c93e
00000030: 5e9f b33d ea30 fbbd 64e0 cbbe 9172 4b3e
00000040: 333c fcbe 4cfc db3e a102 aabe 1a0e b5be
00000050: 6cc8 063f df64 513e 2655 893e eadb cf3e
00000060: 86db 3ebe b23a c2be ecb0 a03d b1d8 b83e
00000070: 7172 da3e 1b31 c33e 5817 063f c6d4 cdbd
-0.092071824 -0.28638682 0.26559702 0.17227018 -0.25328022 0.26726407 0.25484324 -0.17165412
-0.47302696 0.1213592 -0.2922543 0.39280713 0.08770631 -0.12265189 -0.39819634 0.19867922
-0.49264678 0.42965925 -0.3320513 -0.3536232 0.5264957 0.20448636 0.26822776 0.4059747
-0.18638429 -0.37935406 0.07846245 0.36102822 0.42665437 0.38123402 0.5237937 -0.10050349
