models/augmented_controller_seed_43.pt (torch, 54333 bytes, 29 tensors)

B_q f4 [10, 4]
0.025011487 -0.11087455 0.052611943 0.07874805 0.09265824 -0.22733587 -0.3006104 0.1209071
-0.13890421 0.0070140157 0.03401053 0.045349274 -0.18293288 0.19306678 0.14912716 -0.19552936
0.14795607 -0.06165383 -0.29986742 0.009856732 0.21049522 -0.22526416 -0.0967183 0.07063901
0.17616631 -0.06137583 -0.3102707 0.103507265 0.27861154 -0.04562316 -0.18625683 0.12137318
0.12433924 -0.29375616 -0.065250285 -0.042118844 0.27972 -0.26211372 -0.13222441 0.17455332
00000000: e4e4 cc3c 3212 e3bd 9f7f 573d a846 a13d
00000010: 9ac3 bd3d bcca 68be 9be9 99be 249e f73d
00000020: e83c 0ebe d4d5 e53b a04e 0b3d 29c0 393d
00000030: c252 3bbe 4cb3 453e cab4 183e d938 48be
00000040: cc81 173e ba88 7cbd 3988 99be 217e 213c
00000050: 0f8c 573e a6ab 66be 3e14 c6bd 2fab 903d
00000060: f164 343e 3965 7bbd cddb 9ebe 9efb d33d
00000070: 2ca6 8e3e 5adf 3abd 1cba 3ebe 8092 f83d
00000080: 92a5 fe3d 3567 96be f1a1 85bd cf84 2cbd
00000090: 7637 8f3e c533 86be d665 07be 1bbe 323e

lambda_xi_diag f4 [4]
-0.53627586 -0.48477554 -0.5484272 -0.53465605
00000000: 6049 09bf 8034 f8be ba65 0cbf 38df 08bf

lambda_q_real f4 [5]
-0.50149894 -0.49790168 -0.69431365 -0.6344236 -0.7863904
00000000: 3c62 00bf f8ec febe 8abe 31bf 9669 22bf
00000010: e250 49bf

lambda_q_imag f4 [5]
1.0 1.0 1.0 1.0 1.0
00000000: 0000 803f 0000 803f 0000 803f 0000 803f
00000010: 0000 803f

q0_scale f4 [10]
5.0 5.0 5.0 5.0 5.0 5.0 5.0 5.0
5.0 5.0
00000000: 0000 a040 0000 a040 0000 a040 0000 a040
00000010: 0000 a040 0000 a040 0000 a040 0000 a040
00000020: 0000 a040 0000 a040

mlp1_xi_init.network.0.weight f4 [32, 4]
-0.20144783 -0.039451033 -0.26033482 -0.3130213 -0.27617732 0.20955421 -0.6598252 0.36669624
0.3413745 -0.3240919 0.4242284 0.038294267 -0.08786903 0.09492079 0.21508366 0.432686
0.5226829 0.13412789 -0.031189244 0.041894905 0.15094794 -0.11358297 0.0012002101 -0.45722666
0.51274115 -0.21427388 -0.04087634 -0.4267131 -0.0477127 0.3503079 -0.5283531 0.09563664
0.5012898 -0.44374463 0.019716633 0.20245263 0.09567787 0.054515604 0.47115323 0.33385366
0.06365379 0.23838255 -0.21515642 -0.20607391 -0.2099268 0.32216978 0.17120494 0.3253365
0.049337894 0.1309906 -0.19865611 -0.19438638 -0.37371105 0.15946181 -0.35820854 0.36790824
0.17880417 0.17909749 -0.42332083 -0.0044400124 -0.39692655 -0.43212152 -0.22986896 0.360359
0.27650806 0.31115636 0.6189947 0.12343402 0.08149749 0.11954812 0.61968845 0.24583456
0.2961127 -0.14206073 0.5010344 -0.1127548 0.28663334 0.27262786 0.61297005 -0.10591324
-0.04028367 0.4501445 -0.24070758 0.27208066 0.07672885 0.37473488 0.30812111 -0.40985414
0.02624303 0.05555164 0.006397258 0.28608793 0.49613956 -0.36709148 0.043651886 0.38568676
-0.03285524 0.5447569 1.6205969 0.13242905 -0.108009 -0.51107496 0.24478285 -0.26501307
-0.27961344 -0.46676856 -0.593599 -0.010955985 0.18378717 0.067608126 -0.13268958 -0.5809305
-0.27436587 -0.2571591 0.33574584 0.3504135 -0.16533636 -0.4833824 0.32768717 0.09655919
-0.20724407 -0.2233052 -0.047811776 -0.32089868 0.29330587 0.12793414 -0.2573238 -0.37216863
00000000: 5748 4ebe 6897 21bd 9b4a 85be 5444 a0be
00000010: 1d67 8dbe 6195 563e 4eea 28bf 9cbf bb3e
00000020: a3c8 ae3e 60ef a5be 7734 d93e 73da 1c3d
00000030: aef4 b3bd d565 c23d e43e 5c3e 0589 dd3e
00000040: 8cce 053f d258 093e 9680 ffbc fe99 2b3d
00000050: 1992 1a3e 309e e8bd 5e50 9d3a 9d19 eabe
00000060: 0143 033f 9d6a 5bbe f36d 27bd 247a dabe
00000070: 646e 43bd 8f5b b33e 2642 07bf 25dd c33d
00000080: 8754 003f 7f32 e3be c784 a13c be4f 4f3e
00000090: c2f2 c33d c14b 5f3d ff3a f13e deee aa3e
000000a0: eb5c 823d 8e1a 743e f751 5cbe 0a05 53be
000000b0: 0df7 56be 70f3 a43e 5950 2f3e 8192 a63e
000000c0: 8816 4a3d 6622 063e 826c 4bbe 390d 47be
000000d0: 0e57 bfbe f549 233e 1c67 b7be 785e bc3e
000000e0: 7118 373e 5565 373e 82bd d8be 867d 91bb
000000f0: f539 cbbe 083f ddbe c562 6bbe fa80 b83e
00000100: 7792 8d3e e34f 9f3e 7076 1e3f faca fc3d
00000110: 28e8 a63d a5d5 f43d e7a3 1e3f 0ebc 7b3e
00000120: 159c 973e 5e78 11be ca43 003f fdeb e6bd
00000130: 9bc1 923e e195 8b3e 9beb 1c3f 0ae9 d8bd
00000140: 7d00 25bd 5779 e63e 0c7c 76be 284e 8b3e
00000150: 0424 9d3d 40dd bf3e 0dc2 9d3e 67d8 d1be
00000160: 9ffb d63c 1e8a 633d 17a0 d13b 1e7a 923e
00000170: 0106 fe3e 6af3 bbbe 52cc 323d bc78 c53e
00000180: 3793 06bd 3075 0b3f b86f cf3f 7b9b 073e
00000190: d333 ddbd cfd5 02bf 5ba8 7a3e cbaf 87be
000001a0: 7e29 8fbe 4afc eebe 1bf6 17bf bb80 33bc
000001b0: b432 3c3e 2176 8a3d c7df 07be dcb7 14bf
000001c0: af79 8cbe 5caa 83be e1e6 ab3e 6669 b33e
000001d0: ef4d 29be e67d f7be 9dc6 a73e d3c0 c53d
000001e0: ca37 54be 1eaa 64be 48d6 43bd d54c a4be
000001f0: 302c 963e 2b01 033e f2bf 83be e38c bebe

mlp1_xi_init.network.0.bias f4 [32]
-0.20098032 -0.32241943 -0.17946467 -0.0922276 -0.22250147 0.0485986 -0.24315752 0.2729215
0.25799716 -0.15906893 -0.24576841 -0.41569495 -0.029760914 -0.41717398 0.3029595 0.19698964
-0.05227017 0.10585122 0.1114509 0.68110037 -0.08940447 0.06708823 0.18724383 0.23821867
0.18894774 0.30998293 -0.38148087 0.14379258 -0.46741906 0.29499152 0.39278406 -0.10111113
00000000: c9cd 4dbe 2914 a5be 96c5 37be d3e1 bcbd
00000010: 6dd7 63be 530f 473d 49fe 78be 5ebc 8b3e
00000020: 3418 843e f7e2 22be b7aa 7bbe f8d5 d4be
00000030: 29cd f3bc d497 d5be 821d 9b3e a7b7 493e
00000040: 3f19 56bd 86c8 d83d 5f40 e43d 985c 2e3f
00000050: b119 b7bd 8e65 893d d9bc 3f3e 98ef 733e
00000060: 847b 413e 15b6 9e3e 7651 c3be 5d3e 133e
00000070: 8d51 efbe 2109 973e fe1a c93e 5a13 cfbd

mlp1_xi_init.network.2.weight f4 [32, 32]
-0.18233567 -0.18731499 0.08748525 -0.17983453 -0.039821032 -0.023982836 -0.06535472 0.056157507
-0.088183455 0.055900395 -0.097618684 -0.07515457 0.09896514 -0.20824693 -0.15853968 0.054713663
0.094131805 -0.24212465 0.072812594 -0.2831442 -0.19583243 -0.1056462 0.080396615 0.030169925
-0.0030438155 0.027368579 -0.085628435 0.16484164 0.021977339 0.0067723943 -0.2149891 -0.08206979
0.10337527 0.17099094 0.015214521 0.0527303 -0.13130295 -0.07401858 -0.018386744 -0.11750225
0.11067553 -0.18676947 0.1146216 -0.09382551 -0.052277144 0.10595459 0.11246196 -0.1345882
0.06275379 -0.22382034 -0.1667155 -0.23080495 -0.017210336 -0.07922223 -0.024040218 -0.1963272
0.034802925 -0.17504415 0.08903611 -0.06533912 0.0079383105 -0.122931734 0.02515739 0.023326412
0.11710764 -0.057949275 0.09516625 -0.13304608 0.049172822 -0.17387442 0.119863175 -0.18586732
-0.04147332 0.11828803 0.13005738 -0.076115854 -0.15319358 0.007522214 0.13112517 0.0670787
0.111146696 -0.012448642 -0.141959 0.018159812 -0.025011996 0.021836434 0.115627915 -0.14289556
0.008479425 -0.1595269 0.024418702 -0.12345424 -0.0007363388 -0.18970078 0.024822587 0.10702516
-0.025341634 -0.22467256 0.09304623 -0.17619987 0.09277667 0.1664164 0.09140664 -0.173858
0.14854164 0.08377988 0.010203258 0.026512463 -0.024516547 -0.1795804 -0.11801929 0.12823182
0.15923679 0.042810384 -0.05642217 -0.17356911 -0.16850013 0.11297356 0.05869032 0.14170587
-0.027881775 0.06550846 -0.110966526 -0.014420512 -0.07989349 -0.046368957 -0.1272264 0.03133951
-0.13945337 -0.17110766 0.0968717 0.07496244 0.1697605 0.059531685 -0.011983985 -0.053522274
0.023583869 0.13240193 0.11636502 -0.05270877 -0.114025906 -0.20275022 0.043656986 -0.21325807
0.1307875 -0.18678449 0.00407408 0.021849582 -0.07224864 0.064348385 0.13536751 -0.049660813
-0.23994754 0.05507898 -0.030194478 -0.021007009 0.013973917 -0.1843662 0.0031239614 -0.00046070036
-0.12876062 0.054891773 0.18665288 -0.06714773 0.13265078 0.19673188 0.16865161 0.117568664
0.08632591 0.16253178 -0.08858378 0.07130956 0.15285113 0.05073026 0.06005716 -0.15905038
-0.10633963 -0.0014407459 0.24262755 0.1339894 0.049658634 0.006932471 0.05983664 0.04197704
0.16003747 0.041956857 -0.09095024 -0.049308687 0.08160218 0.17222069 -0.028599525 0.042570394
0.05158735 -0.2549776 -0.17068979 -0.065439366 -0.04562021 0.04918888 -0.14520599 -0.0029173095
-0.002155054 -0.22541225 0.095334016 -0.24762554 -0.16038522 -0.13738172 0.014949477 -0.028171934
-0.06153839 0.039676182 0.11275432 -0.029584223 -0.05986732 -0.24045911 -0.25485763 0.09769128
-0.10497257 -0.030997667 -0.045501288 -0.031086659 -0.31291354 -0.11253727 0.027108314 0.03854441
-0.13123211 0.093576625 0.1808208 -0.13377653 0.08353661 -0.15195255 0.029829754 0.14630494
0.0154909035 -0.05436001 0.08812929 -0.025780277 0.13412613 0.10447738 0.14361359 0.037109636
-0.024481863 -0.24896392 -0.29020235 -0.34841654 0.002595558 0.03007638 -0.06967548 -0.0642633
-0.32436657 0.07866465 0.14873469 -0.1508158 -0.16025399 0.074004665 0.08848683 -0.121420525
00000000: 34b6 3abe 80cf 3fbe 772b b33d 8b26 38be
00000010: 611b 23bd a777 c4bc b2d8 85bd 6a05 663d
00000020: 8799 b4bd d0f7 643d 4eec c7bd a4ea 99bd
00000030: 3cae ca3d af3e 55be 3a58 22be 6f1b 603d
00000040: 2dc8 c03d 86ef 77be c51e 953d 47f8 90be
00000050: 4c88 48be 095d d8bd fba6 a43d eb26 f73c
00000060: c07a 47bb 1234 e03c f65d afbd 3fcc 283e
00000070: d209 b43c f6ea dd3b 1a26 5cbe 3514 a8bd
00000080: 6ab6 d33d 4018 2f3e 5446 793c bafb 573d
00000090: 4874 06be 0e97 97bd cc9f 96bc 05a5 f0bd
000000a0: daa9 e23d 7f40 3fbe bbbe ea3d 9727 c0bd
000000b0: 8f20 56bd b8fe d83d 7552 e63d 7dd1 09be
000000c0: 0f85 803d 2931 65be 78b7 2abe 2258 6cbe
000000d0: b1fc 8cbc 443f a2bd feef c4bc ff09 49be
000000e0: 838d 0e3d c63e 33be 9058 b63d 84d0 85bd
000000f0: b00f 023c a2c3 fbbd df16 ce3c 0817 bf3c
00000100: 21d6 ef3d 385c 6dbd 86e6 c23d 3b3d 08be
00000110: 7169 493d 230c 32be d37a f53d 0154 3ebe
00000120: eedf 29bd ff40 f23d c32d 053e a1e2 9bbd
00000130: c7de 1cbe e87c f63b ad45 063e 8f60 893d
00000140: e1a0 e33d 64f5 4bbc b35d 11be e3c3 943c
00000150: f5e5 ccbc 52e2 b23c 54ce ec3d 3753 12be
00000160: 49ed 0a3c 055b 23be bb09 c83c 94d5 fcbd
00000170: dc06 41ba ec40 42be bd58 cb3c 0230 db3d
00000180: 4299 cfbc 9010 66be 068f be3d bd6d 34be
00000190: b201 be3d 1069 2a3e 6833 bb3d d507 32be
000001a0: 4d1b 183e c994 ab3d 912b 273c aa30 d93c
000001b0: edd6 c8bc ede3 37be 19b4 f1bd 344f 033e
000001c0: f80e 233e f159 2f3d ef1a 67bd 1abc 31be
000001d0: 4c8b 2cbe af5e e73d 4365 703d 581b 113e
000001e0: 5268 e4bc 4d29 863d 6b42 e3bd 0344 6cbc
000001f0: 339f a3bd 60ed 3dbd a347 02be dc5d 003d
00000200: ddcc 0ebe d936 2fbe ab64 c63d e885 993d
00000210: b2d5 2d3e 7fd7 733d 7a58 44bc 2c3a 5bbd
00000220: f532 c13c 5f94 073e c950 ee3d 27e5 57bd
00000230: 6a86 e9bd c19d 4fbe abd1 323d 5360 5abe
00000240: 29ed 053e 6f44 3fbe dc7f 853b e5fd b23c
00000250: 18f7 93bd 16c9 833d c89d 0a3e 2369 4bbd
00000260: cfb4 75be 7f9a 613d 695a f7bc e416 acbc
00000270: dbf2 643c 7eca 3cbe 60bb 4c3b 288a f1b9
00000280: d3d9 03be 32d6 603d ef21 3f3e c084 89bd
00000290: 9bd5 073e 1574 493e 02b3 2c3e d7c7 f03d
000002a0: a4cb b03d bb6e 263e 6a6b b5bd bf0a 923d
000002b0: 0285 1c3e 88ca 4f3d 7ffe 753d 1ade 22be
000002c0: 98c8 d9bd 69d7 bcba 5b73 783e 8434 093e
000002d0: da66 4b3d c829 e33b 4417 753d 1ef0 2b3d
000002e0: dde0 233e f4da 2b3d 1f44 babd e8f7 49bd
000002f0: 0b1f a73d 9f5a 303e 8d49 eabc 4b5e 2e3d
00000300: 424d 533d 6d8c 82be 4ec9 2ebe 1305 86bd
00000310: 42dc 3abd 477a 493d e1b0 14be 5530 3fbb
00000320: ce3b 0dbb 78d2 66be 7b3e c33d 8d91 7dbe
00000330: 063c 24be cbad 0cbe a7ee 743c d4c8 e6bc
00000340: ae0f 7cbd 7e83 223d bdeb e63d 9d5a f2bc
00000350: 6f37 75bd ea3a 76be b37c 82be 5e12 c83d
00000360: dcfb d6bd d2ee fdbc 8f5f 3abd 73a9 febc
00000370: 3436 a0be f179 e6bd 4112 de3c bee0 1d3d
00000380: b661 06be 1aa5 bf3d 1629 393e b7fc 08be
00000390: 3e15 ab3d 7399 1bbe 875d f43c f6d0 153e
000003a0: 8fcd 7d3c 9aa8 5ebd 217d b43d 2931 d3bc
000003b0: 5c58 093e 3df8 d53d 710f 133e 4600 183d
000003c0: 308e c8bc 66f0 7ebe 6795 94be a763 b2be
000003d0: 3d1a 2a3b be62 f63c 05b2 8ebd 7a9c 83bd
000003e0: 6013 a6be ef1a a13d e84d 183e 756f 1abe
000003f0: 9f19 24be c28f 973d 9538 b53d 53ab f8bd

mlp1_xi_init.network.2.bias f4 [32]
0.023566803 -0.12155327 -0.09597447 -0.15191917 0.12959816 -0.10030404 -0.060687385 0.13487503
-0.18255544 -0.1270082 -0.1931686 0.12811534 0.037048608 -0.12340271 0.015290963 -0.009381683
0.009295958 0.06088626 -0.05251207 -0.06951228 0.0054563875 0.048337664 0.07982882 -0.1778305
-0.124305084 -0.060139634 0.00088608946 0.04823566 -0.16663681 -0.11537439 0.05579869 -0.10466248
00000000: 2b0f c13c ecf0 f8bd 438e c4bd b390 1bbe
00000010: 61b5 043e 346c cdbd 5693 78bd ae1c 0a3e
00000020: d0ef 3abe 700e 02be fdcd 45be ab30 033e
00000030: 48c0 173d 8fba fcbd f386 7a3c a1b5 19bc
00000040: 134e 183c df63 793d e516 57bd 745c 8ebd
00000050: 7fcb b23b b7fd 453d 4b7d a33d 3319 36be
00000060: aa93 febd fa54 76bd 7548 683a c192 453d
00000070: d7a2 2abe 6849 ecbd 2b8d 643d 4859 d6bd

mlp1_xi_init.network.4.weight f4 [32, 32]
0.11759859 0.09516159 0.19410752 0.03531932 -0.18231013 0.035979535 0.056371823 0.08771534
-0.121208675 -0.06362611 0.053401414 0.098790765 0.0193401 -0.15379843 -0.15178728 0.10068514
0.15442859 -0.12900752 -0.063502915 0.08165552 -0.07869894 -0.111505434 0.13799551 0.13678905
0.030535521 -0.13267535 -0.031783402 -0.1099633 -0.057828072 0.024546694 0.15995395 -0.03893147
0.05867672 -0.050409567 0.07423262 0.022867795 -0.13637236 -0.15194817 0.17858468 -0.15604725
-0.04755364 -0.005963902 0.111234434 0.083427556 0.18851967 -0.052956488 0.061709814 -0.023491444
-0.05165947 0.101880774 0.08197928 -0.041263532 -0.050913304 0.14037424 -0.018850567 -0.040698852
0.06406943 0.062118035 -0.074953936 -0.11130268 0.076464035 0.04552154 -0.079353936 -0.1092113
0.107738435 0.12927046 -0.059554122 0.04319296 0.083007134 0.05386707 0.09466267 0.03453231
0.15004839 0.1725342 -0.12430388 -0.02357751 0.18501848 -0.037780106 0.055644307 -0.15678601
-0.032944914 0.108292535 0.17202176 0.14279006 -0.09809439 -0.090310335 -0.13123284 -0.149837
0.047338936 -0.023158373 -0.1528482 0.07940384 0.007016992 -0.042995956 -0.02589597 -0.10087191
-0.03920336 0.008197181 -0.06993997 0.14377289 -0.11662963 -0.031773232 0.10543138 -6.335036e-05
-0.06707279 0.08803149 0.06993834 0.0440794 -0.04645674 -0.22444566 0.070880555 -0.0002348502
0.04960559 0.15699904 0.13980824 -0.1310426 -0.1277373 0.007917874 0.071952984 0.015569406
0.07966506 -0.06344381 0.12147531 0.0008617055 -0.14372674 -0.065941036 -0.14384642 0.100276925
0.119088754 -0.1455173 -0.0368337 0.07182068 0.14873621 -0.053600993 -0.089721076 0.005817311
-0.055138547 -0.1470241 -0.12119646 -0.026337763 -0.09746186 0.1025086 0.0980769 -0.21504536
0.18177824 -0.15530124 -0.12752289 -0.0857433 -0.180273 -0.03543144 0.15242779 -0.07540729
0.08328853 -0.0958582 0.017662218 -0.09436317 -0.13409679 -0.16242442 -0.12663764 0.040274102
-0.15349784 0.014252489 0.116658315 0.11533821 -0.08254732 -0.016571093 0.14447773 -0.17798741
0.07683939 0.12094016 0.044941507 -0.08311169 0.0241374 -0.09181297 0.022910489 -0.0883215
-0.14859146 0.12066151 -0.008739269 -0.050332796 -0.023875007 0.08158975 0.13309395 0.03501519
-0.053671323 0.11292402 0.09989562 -0.042659603 -0.01919486 0.14669828 -0.063232034 0.09338477
0.0859432 -0.1478259 0.02955304 0.036165785 -0.014949917 -0.23863664 0.038078588 0.01846318
-0.120518506 0.03839881 -0.093686946 0.15597619 -0.14050205 -0.014014191 0.10626813 -0.25556386
-0.08109967 0.20033935 -0.12886469 0.005101112 -0.03709451 -0.117173985 0.037207223 0.11984118
-0.20936397 -0.13785933 -0.16353887 -0.17653733 -0.10755901 -0.018129423 -0.11155048 0.17653337
0.06038681 -0.0858783 -0.09108844 -0.19056334 0.0066880914 0.09685735 0.029391944 -0.23403111
0.008139288 0.14101064 0.18467619 0.04211749 -0.0035560408 0.041029382 -0.13944829 -0.08136139
0.081668645 0.17501561 -0.11303662 -0.034537602 -0.026958724 0.06906399 0.16528717 -0.0788157
0.1409419 0.14362869 0.14165305 0.12013347 0.09364538 -0.01877847 0.11612184 -0.14259216
00000000: 88d7 f03d 14e4 c23d 1fc4 463e feaa 103d
00000010: 82af 3abe 475f 133d 24e6 663d 1aa4 b33d
00000020: 413c f8bd 684e 82bd 71bb 5a3d d052 ca3d
00000030: 216f 9e3c 567d 1dbe 206e 1bbe 0334 ce3d
00000040: 8722 1e3e 8c1a 04be d10d 82bd 023b a73d
00000050: e92c a1bd f65c e4bd b24e 0d3e 6e12 0c3e
00000060: a125 fa3c 0cdc 07be 502f 02bd 7034 e1bd
00000070: 21dd 6cbd 2616 c93c f8ca 233e 9b76 1fbd
00000080: 0057 703d 437a 4ebd 4607 983d 3e55 bb3c
00000090: 32a5 0bbe 4d98 1bbe e7de 363e daca 1fbe
000000a0: 9bc7 42bd d66c c3bb e1ce e33d 11dc aa3d
000000b0: 4d0b 413e e7e8 58bd 6ec3 7c3d 2171 c0bc
000000c0: e198 53bd dea6 d03d c1e4 a73d f303 29bd
000000d0: 788a 50bd 44be 0f3e 816c 9abc d7b3 26bd
000000e0: d536 833d 7b6f 7e3d 7381 99bd a9f2 e3bd
000000f0: 2d99 9c3d cb74 3a3d 5184 a2bd 2daa dfbd
00000100: f8a5 dc3d 7a5f 043e 06ef 73bd 1aeb 303d
00000110: a5ff a93d b7a3 5c3d 80de c13d c071 0d3d
00000120: 49a6 193e ceac 303e 0893 febd 9f25 c1bc
00000130: 7c75 3d3e 50bf 1abd 49eb 633d 838c 20be
00000140: 3ff1 06bd 7ac8 dd3d 7926 303e 8f37 123e
00000150: b6e5 c8bd a0f4 b8bd e761 06be df6e 19be
00000160: 79e6 413d a1b6 bdbc 3d84 1cbe 7b9e a23d
00000170: ccee e53b 871c 30bd c923 d4bc ef95 cebd
00000180: b493 20bd 784d 063c b03c 8fbd 3339 133e
00000190: 84db eebd a624 02bd 68ec d73d f7da 84b8
000001a0: 755d 89bd db49 b43d d53b 8f3d 9a8c 343d
000001b0: 6c49 3ebd 15d5 65be d329 913d 1f42 76b9
000001c0: 3b2f 4b3d 5bc4 203e e429 0f3e 0830 06be
000001d0: 91cd 02be f8b9 013c 165c 933d d216 7f3c
000001e0: 6f27 a33d d4ee 81bd 0cc8 f83d 14e4 613a
000001f0: 1a2d 13be 180c 87bd 7a4c 13be fd5d cd3d
00000200: cee4 f33d 7d02 15be efde 16bd b816 933d
00000210: 4e4e 183e b78c 5bbd afbf b7bd 249f be3b
00000220: f5d8 61bd 7c8d 16be da35 f8bd 4bc2 d7bc
00000230: 159a c7bd 07f0 d13d 8bdc c83d da34 5cbe
00000240: 1324 3a3e 4a07 1fbe 5c95 02be 2f9a afbd
00000250: 7c99 38be 8f20 11bd 0816 1c3e 236f 9abd
00000260: 2d93 aa3d 4e51 c4bd 5bb0 903c 7a41 c1bd
00000270: ab50 09be 9652 26be 4cad 01be 75f6 243d
00000280: 8a2e 1dbe 4683 693c 8eea ee3d 7036 ec3d
00000290: 920e a9bd 1ac0 87bc f8f1 133e 5542 36be
000002a0: f85d 9d3d 79af f73d 9614 383d 7636 aabd
000002b0: ccbb c53c 7008 bcbd c7ae bb3c e7e1 b4bd
000002c0: 5c28 18be 621d f73d 272f 0fbc c329 4ebd
000002d0: 8595 c3bc 8718 a73d c849 083e 166c 0f3d
000002e0: 76d6 5bbd b544 e73d 1396 cc3d d6bb 2ebd
000002f0: 8a3e 9dbc 1338 163e cc7f 81bd 8440 bf3d
00000300: fd02 b03d ac5f 17be 3819 f23c 9322 143d
00000310: 7ff0 74bc 2a5d 74be 4bf8 1b3d 1840 973c
00000320: 68d2 f6bd 1248 1d3d f1de bfbd 39b8 1f3e
00000330: c5df 0fbe c79b 65bc 1ba3 d93d 44d9 82be
00000340: 9517 a6bd c225 4d3e 1bf5 03be 3b27 a73b
00000350: 6af0 17bd eaf8 efbd 9a66 183d 4b6f f53d
00000360: 8263 56be ff2a 0dbe bc76 27be 34c6 34be
00000370: e647 dcbd 2884 94bc 9474 e4bd 2ac5 343e
00000380: 2958 773d f6e0 afbd 938c babd 0923 43be
00000390: c727 db3b 255d c63d 60c7 f03c daa5 6fbe
000003a0: a65a 053c 1865 103e c11b 3d3e 6483 2c3d
000003b0: 770c 69bb 6d0e 283d 88cb 0ebe cda0 a6bd
000003c0: e441 a73d 4b37 333e be7f e7bd 4d77 0dbd
000003d0: 8bd8 dcbc 6c71 8d3d 0a41 293e 206a a1bd
000003e0: 1353 103e 6613 133e 7f0d 113e 8908 f63d
000003f0: 26c9 bf3d 4ed5 99bc 4ad1 ed3d ae03 12be

mlp1_xi_init.network.4.bias f4 [32]
-0.11544488 -0.043404542 0.094689175 0.024484236 -0.21687375 0.16352318 0.08630993 0.039635923
0.13254213 -0.15839516 0.01456499 -0.05871836 -0.20490773 -0.08625678 0.06785578 -0.1385584
-0.0068377764 0.022363996 0.13209456 -0.21940058 -0.16791926 0.06683152 0.008613708 0.057233367
-0.09978286 -0.13142152 -0.15059045 0.046311647 -0.1907919 0.15434134 -0.086077444 0.07216366
00000000: 5e6e ecbd f6c8 31bd 66ec c13d 2a93 c83c
00000010: 2714 5ebe 9f72 273e 43c3 b03d 4759 223d
00000020: 20b9 073e 5732 22be ffa1 6e3c aa82 70bd
00000030: 55d3 51be 65a7 b0bd f9f7 8a3d 41e2 0dbe
00000040: 6d0f e0bb b334 b73c cc43 073e 8caa 60be
00000050: 07f3 2bbe f7de 883d 8320 0d3c 896d 6a3d
00000060: f55a ccbd 5d93 06be 6234 1abe 48b1 3d3d
00000070: f45e 43be a80b 1e3e 5f49 b0bd 8aca 933d

mlp1_xi_init.network.6.weight f4 [4, 32]
-0.017738247 -0.12012478 0.025586996 -0.05612061 0.1457699 -0.036998436 0.059530105 0.03696749
-0.03286324 0.0047875945 0.023689365 -0.08546861 -0.14998421 -0.079350255 0.008156911 0.08564686
0.19222313 0.16249429 -0.039653253 0.20450777 -0.063409954 0.013575638 0.13869639 -0.047536954
0.10219265 -0.11798759 -0.039058276 0.019377787 0.06640802 0.053333387 0.08305767 0.111722335
0.0040056086 0.16174495 0.059062645 0.10098141 -0.07575617 0.04690725 -0.036884647 0.07497347
-0.037383452 -0.071263626 -0.05101618 0.09829943 0.064472914 -0.05236534 0.0791412 0.044893567
0.09497858 -0.03539726 0.15392703 0.071492456 0.11496101 0.054092165 0.1458244 -0.15367815
-0.13548489 0.15698257 -0.081708565 -0.09677134 0.03814333 0.05329299 -0.1702012 0.14556098
-0.07469947 0.0016470745 -0.08534761 -0.06869408 0.036840696 0.14862223 -0.010400521 0.03649494
-0.12755224 0.012988422 -0.07438341 -0.07975469 0.010206507 0.079361424 -0.07333698 0.054554198
-0.048521426 0.091143034 0.03142092 -0.08801909 -0.06847189 -0.056473415 -0.040611807 0.11261206
0.0010884829 -0.031404696 -0.13633835 0.15508594 -0.08810336 0.072814375 0.07417977 0.03822681
-0.109623216 -0.12508872 -0.0011759016 0.06492763 -0.093092255 0.13914615 0.04704044 -0.13761379
0.15985453 0.025971815 0.05567476 0.1342168 -0.12681289 -0.14649144 -0.054324042 0.021148961
-0.101545 -0.058358308 -0.018682467 -0.051930357 0.17034487 0.15471463 0.18554637 0.049173336
-0.034506693 0.030470688 0.07719831 -0.026282812 0.13445899 -0.112293646 -0.023416536 0.012825698
00000000: cd4f 91bc fb03 f6bd d29b d13c bade 65bd
00000010: b444 153e ac8b 17bd d7d5 733d 396b 173d
00000020: 9b9b 06bd 41e1 9c3b 3310 c23c 2b0a afbd
00000030: 7695 19be 6382 a2bd 90a4 053c 9f67 af3d
00000040: 24d6 443e e764 263e 736b 22bd 7c6a 513e
00000050: 14dd 81bd 5a6c 5e3c 6d06 0e3e 1cb6 42bd
00000060: 614a d13d 7aa3 f1bd 92fb 1fbd 2abe 9e3c
00000070: ee00 883d 1c74 5a3d 241a aa3d aece e43d
00000080: 7b41 833b 78a0 253e aceb 713d 57cf ce3d
00000090: 0d26 9bbd d121 403d 5b14 17bd b18b 993d
000000a0: 641f 19bd aaf2 91bd 58f6 50bd 3651 c93d
000000b0: 600a 843d 0a7d 56bd c814 a23d 51e2 373d
000000c0: 2184 c23d b8fc 10bd 0c9f 1d3e a36a 923d
000000d0: ae70 eb3d bf8f 5d3d fe52 153e ce5d 1dbe
000000e0: 8dbc 0abe 0ac0 203e d256 a7bd 0d30 c6bd
000000f0: 2e3c 1c3d c049 5a3d 3949 2ebe f00d 153e
00000100: 09fc 98bd a6e2 d73a baca aebd 7baf 8cbd
00000110: 45e6 163d 6d30 183e f266 2abc b87b 153d
00000120: 0e9d 02be 64cd 543c 5456 98bd 6d56 a3bd
00000130: 3139 273c 3e88 a23d b331 96bd 3974 5f3d
00000140: 67be 46bd 33a9 ba3d 39b3 003d 5a43 b4bd
00000150: fe3a 8cbd ab50 67bd 9158 26bd 27a1 e63d
00000160: 6dab 8e3a 36a2 00bd 489c 0bbe d9ce 1e3e
00000170: 896f b4bd b41f 953d 90eb 973d b793 1c3d
00000180: 2382 e0bd 4217 00be b620 9aba c7f8 843d
00000190: 27a7 bebd 547c 0e3e 7aad 403d a1ea 0cbe
000001a0: e8b0 233e d8c2 d43c 380b 643d 2170 093e
000001b0: 3ddb 01be da01 16be e382 5ebd 9640 ad3c
000001c0: d3f6 cfbd 1f09 6fbd f90b 99bc edb4 54bd
000001d0: e36e 2e3e 836d 1e3e deff 3d3e fb69 493d
000001e0: e456 0dbd aa9d f93c 261a 9e3d 0d4f d7bc
000001f0: 9eaf 093e 36fa e5bd 09d4 bfbc e022 523c

mlp1_xi_init.network.6.bias f4 [4]
0.18112704 -0.10623902 0.11584489 0.15583493
00000000: 5e79 393e d893 d9bd 1640 ed3d 3193 1f3e

mlp2_q_dynamics.network.0.weight f4 [32, 4]
0.45751423 0.13707358 0.105452836 -0.41431677 -0.014454305 -0.35531867 0.4482113 -0.28599787
0.31731611 -0.25293088 -0.06450647 0.19385445 -0.17401147 -0.25126624 0.3132596 0.34813994
-0.14566237 0.01322943 -0.46517235 -0.20195395 0.07830274 -0.2247709 -0.17174393 -0.22403532
-0.00030606985 -0.25121504 -0.14023656 0.39616865 -0.28863555 0.31896335 0.22248143 -0.2505408
-0.2846542 0.44208133 0.14170074 0.09174526 -0.49995035 -0.20385104 -0.3134551 0.21565926
-0.47096276 0.14626873 0.18706673 0.31342804 -0.27593386 -0.06324136 -0.10739297 0.37815028
-0.35171795 -0.46041548 -0.39076948 0.06260371 -0.11459452 0.28546542 0.4948917 0.22434855
-0.35608912 0.049562395 -0.49498975 -0.41469854 0.2855432 -0.15423441 0.0033494234 0.40447533
0.33506984 0.037123203 0.13707274 -0.27890515 -0.48952514 -0.14193684 0.49468613 0.1565221
-0.1237154 -0.314834 0.3002122 0.27997023 -0.10776889 -0.11583775 -0.12334794 -0.09030515
0.0967381 -0.36287946 0.42330658 -0.4692945 -0.47085726 0.07754928 0.027216256 0.3599586
0.3012461 0.43115014 0.042178094 -0.12553883 -0.44839317 0.0822742 0.48273504 -0.22684115
0.34215277 0.33791614 -0.15267074 -0.22377276 -0.30297917 0.37149346 0.30247205 -0.20506388
-0.005615592 0.19205463 0.37384492 0.30988318 0.49173272 0.34439152 -0.30312353 -0.34840286
0.27685 0.33500892 0.46141392 -0.20432407 -0.14851928 0.4385864 -0.17817217 0.43320817
0.37388444 -0.2674895 0.12001932 -0.4923585 0.29261678 0.09783965 -0.3656903 -0.11944741
00000000: 4e3f ea3e 045d 0c3e a8f7 d73d 5421 d4be
00000010: c0d1 6cbc 54ec b5be f47b e53e 506e 92be
00000020: 4277 a23e 2880 81be f81b 84bd c881 463e
00000030: 1030 32be f8a5 80be 9063 a03e 663f b23e
00000040: 8428 15be 40c0 583c 122b eebe 04cd 4ebe
00000050: 305d a03d 582a 66be a4dd 2fbe 8469 65be
00000060: 0078 a0b9 429f 80be 2c9a 0fbe 9ed6 ca3e
00000070: 0ac8 93be 2a4f a33e 2cd2 633e e246 80be
00000080: 32be 91be 7c58 e23e 001a 113e f0e4 bb3d
00000090: 7ef9 ffbe 54be 50be 307d a0be c8d5 5c3e
000000a0: 0822 f1be 78c7 153e 6c8e 3f3e a479 a03e
000000b0: 3447 8dbe b084 81bd d8f0 dbbd ea9c c13e
000000c0: 6014 b4be 94bb ebbe f012 c8be 6036 803d
000000d0: 88b0 eabd 8628 923e 7262 fd3e a0bb 653e
000000e0: 5051 b6be f001 4b3d 4c6f fdbe 5e53 d4be
000000f0: b832 923e a0ef 1dbe 0082 5b3b 6417 cf3e
00000100: 468e ab3e 800e 183d cc5c 0c3e a8cc 8ebe
00000110: 0aa3 fabe e457 11be 8047 fd3e 5447 203e
00000120: 805e fdbd ec31 a1be 6ab5 993e 4258 8f3e
00000130: f0b5 dcbd 583c edbd d89d fcbd e8f1 b8bd
00000140: a01e c63d 56cb b9be a4bb d83e 5e47 f0be
00000150: 3414 f1be 28d2 9e3d a0f4 de3c 7e4c b83e
00000160: ee3c 9a3e b6bf dc3e f0c2 2c3d 408d 00be
00000170: ca93 e5be 607f a83d 0c29 f73e 0c49 68be
00000180: a62e af3e 5803 ad3e b855 1cbe b024 65be
00000190: 1620 9bbe 6434 be3e 9edd 9a3e 44fc 51be
000001a0: 0003 b8bb f8a9 443e 9a68 bf3e 02a9 9e3e
000001b0: 64c4 fb3e 1654 b03e 0233 9bbe dc61 b2be
000001c0: 48bf 8d3e 4a86 ab3e 723e ec3e 543a 51be
000001d0: 7015 18be 668e e03e c472 36be 76cd dd3e
000001e0: c86d bf3e 62f4 88be b0cc f53d 6a16 fcbe
000001f0: ded1 953e 2860 c83d c23b bbbe d8a0 f4bd

mlp2_q_dynamics.network.2.weight f4 [32, 32]
0.06527952 0.1592899 -0.08308496 0.08813883 0.028846208 -0.0537099 0.10441361 -0.044128783
0.07452298 -0.09836101 -0.17211051 -0.058350455 -0.0721832 0.09423896 -0.14968902 0.004357078
0.16909617 0.0025046607 0.14283936 -0.103192024 -0.09912338 0.025868112 0.09797614 0.13075699
0.006780311 0.11094066 0.1152647 0.17501447 0.1689264 0.078461185 0.011337881 0.15073247
0.056778863 -0.10278621 0.16700454 -0.10948118 -0.076055065 0.10204976 0.02435894 -0.086624585
0.0071411724 -0.14815862 0.15890552 0.1336746 -0.15787794 0.16676246 -0.17279893 -0.0037413335
0.10366226 -0.17052071 0.10989624 0.04479055 -0.15288864 0.16033685 -0.13083792 -0.009131853
0.010184828 -0.12413549 -0.13206312 0.049832452 -0.14895692 -0.097721346 0.068663225 0.006809139
0.17521699 0.036181405 -0.011553125 -0.047038622 0.00068054517 0.15763086 0.07900696 0.0992161
0.11762433 -0.009501691 -0.085380726 0.1372596 0.16300108 0.049798187 -0.07665409 -0.055487696
-0.049036384 -0.085065365 -0.17362851 -0.025554983 -0.01770705 -0.06742059 -0.05516702 0.056502275
0.045151602 -0.14460763 0.06709125 -0.06876349 0.062482048 -0.14991784 0.15537587 -0.14230946
-0.09934617 -0.034334633 0.046450548 0.0077738594 0.036345396 -0.12513264 -0.10665839 0.13696325
-0.02675585 -0.08094917 0.06498736 0.14592713 -0.07223049 -0.0074617835 -0.032315105 0.12460176
0.1605197 0.046456046 -0.13916518 -0.014929446 0.092057586 0.044054687 -0.10409338 -0.05602338
0.021432599 0.009770061 0.14675227 -0.08137347 0.09502205 0.03904739 -0.085429005 0.13164766
-0.1486445 -0.11835956 -0.115904674 -0.17379898 0.10547181 0.15811954 0.14187118 0.06462494
0.10919924 0.0049238056 -0.07048622 -0.01090792 0.014492889 0.060895663 0.15498696 0.14625868
-0.031685367 -0.15402633 -0.10639561 -0.14497684 -0.036275182 0.08741227 0.08752412 0.04248086
-0.09402205 -0.12792814 -0.15394318 0.06092765 0.113359384 0.12394663 -0.0065384093 0.030776534
-0.1705906 0.09605397 -0.0827531 -0.10988762 -0.027253902 -0.112980545 -0.12378517 -0.0641632
-0.14872243 0.09302707 0.032143608 -0.083941475 -0.1381178 0.070799075 0.14495881 0.15014884
0.069160365 -0.09402582 0.048816692 -0.118561946 0.17020115 -0.0031064756 -0.06277284 -0.015074536
-0.12757632 0.022059364 -0.112007 -0.06529524 0.06564717 0.00855895 0.05545834 0.12962519
0.009672217 0.063905075 0.14973462 0.15584637 -0.16665742 -0.05077241 -0.074332856 0.0026300054
0.15913895 0.06152506 0.056508828 0.1132742 -0.09849657 0.00902326 0.14681846 -0.08385191
-0.088513754 0.019165035 0.101264104 -0.07796058 0.13914508 0.026278645 -0.14339869 0.044085793
-0.096599 0.002390485 0.09943771 -0.060223166 0.12228147 0.15123418 0.06389098 -0.118521675
0.16725226 0.14235465 0.022146188 0.0018743336 0.04891228 0.13021186 0.035606775 -0.1469004
0.14307043 -0.14017093 0.110259674 -0.018914346 0.05886806 -0.1716882 -0.024204766 0.13980469
-0.047550075 0.1609287 0.09688734 -0.05836097 -0.1430592 0.12733588 -0.15250523 -0.11515113
0.007934966 -0.09283749 0.09360823 -0.05886136 0.01030973 -0.038228054 0.018501496 0.045465596
00000000: 45b1 853d e41c 233e 7328 aabd 2282 b43d
00000010: e24e ec3c e9fe 5bbd ced6 d53d 62c0 34bd
00000020: 819f 983d 7f71 c9bd bd3d 30be e300 6fbd
00000030: c9d4 93bd 5b00 c13d 1448 19be d2c5 8e3b
00000040: 8c27 2d3e 3c25 243b 7b44 123e 5756 d3bd
00000050: 3301 cbbd 5de9 d33c b7a7 c83d 29e5 053e
00000060: 5f2d de3b db34 e33d e60f ec3d fe36 333e
00000070: 0bfb 2c3e 42b0 a03d 85c2 393c 9d59 1a3e
00000080: f490 683d 9481 d2bd 3d03 2b3e ab37 e0bd
00000090: c2c2 9bbd 77ff d03d 668c c73c 3b68 b1bd
000000a0: 7f00 ea3b e5b6 17be 21b8 223e ffe1 083e
000000b0: c1aa 21be c7c3 2a3e 34f2 30be 2931 75bb
000000c0: e14c d43d fb9c 2ebe 4811 e13d 4c76 373d
000000d0: d78e 1cbe 582f 243e 60fa 05be c49d 15bc
000000e0: 44de 263c bf3a febd 8e3b 07be 1d1d 4c3d
000000f0: 2a88 18be 2122 c8bd 4e9f 8c3d 331f df3b
00000100: 156c 333e f432 143d 5249 3dbc 92ab 40bd
00000110: 9d66 323a fc69 213e 67ce a13d d031 cb3d
00000120: 06e5 f03d fbac 1bbc 17dc aebd c88d 0c3e
00000130: c1e9 263e 2ff9 4b3d d2fc 9cbd 1147 63bd
00000140: 60da 48bd c036 aebd accb 31be af58 d1bc
00000150: 600e 91bc ce13 8abd d0f6 61bd ee6e 673d
00000160: e3f0 383d 0614 14be 2367 893d dfd3 8cbd
00000170: 2ded 7f3d 1084 19be da1a 1f3e 92b9 11be
00000180: 0176 cbbd 79a2 0cbd ee42 3e3d dcbb fe3b
00000190: e9de 143d c522 00be b76f dabd 1840 0c3e
000001a0: 162f dbbc aec8 a5bd 1818 853d ec6d 153e
000001b0: 94ed 93bd fa81 f4bb d85c 04bd 352f ff3d
000001c0: 475f 243e b248 3e3d 5181 0ebe a39a 74bc
000001d0: b088 bc3d b072 343d e92e d5bd c678 65bd
000001e0: 6b93 af3c 9b12 203c 3a46 163e 22a7 a6bd
000001f0: ec9a c23d 28f0 1f3d 67f5 aebd a5ce 063e
00000200: 4436 18be 7f66 f2bd 6e5f edbd 5cf8 31be
00000210: 9b01 d83d 17ea 213e ae46 113e 155a 843d
00000220: daa3 df3d e057 a13b 145b 90bd 22b7 32bc
00000230: 9573 6d3c bb6d 793d e7b4 1e3e d6c4 153e
00000240: 84c8 01bd 14b9 1dbe f1e5 d9bd cf74 14be
00000250: 4995 14bd 3405 b33d d93f b33d 6900 2e3d
00000260: a28e c0bd 98ff 02be 48a3 1dbe 468f 793d
00000270: f728 e83d bbd7 fd3d 2740 d6bb 121f fc3c
00000280: 4daf 2ebe f2b7 c43d 757a a9bd c30c e1bd
00000290: 9343 dfbc 5862 e7bd 1483 fdbd ff67 83bd
000002a0: b14a 18be fa84 be3d 04a9 033d 82e9 abbd
000002b0: c16e 0dbe 1bff 903d 1570 143e 9ec0 193e
000002c0: f3a3 8d3d 9c90 c0bd 03f4 473d 9bd0 f2bd
000002d0: 3649 2e3e 0396 4bbb 0c8f 80bd 30fb 76bc
000002e0: 5ea3 02be d7b5 b43c ed63 e5bd 83b9 85bd
000002f0: 0672 863d d73a 0c3c 4928 633d 77bc 043e
00000300: 3878 1e3c aae0 823d 0854 193e 3196 1f3e
00000310: 3ea8 2abe bbf6 4fbd d33b 98bd 2b5c 2c3b
00000320: 52f5 223e b401 7c3d cd75 673d 4efc e73d
00000330: 92b8 c9bd 4cd6 133c 9457 163e 8dba abbd
00000340: b346 b5bd feff 9c3c 8e63 cf3d cca9 9fbd
00000350: 0c7c 0e3e 5046 d73c 1bd7 12be 4e93 343d
00000360: b2d5 c5bd afa9 1c3b 00a6 cb3d 91ac 76bd
00000370: b56e fa3d 22dd 1a3e 46d9 823d 7ebb f2bd
00000380: 2d44 2b3e 6bc5 113e ec6b b53c 33ac f53a
00000390: 3e58 483d 4256 053e 69d8 113d 0f6d 16be
000003a0: 0e81 123e f888 0fbe d3cf e13d 42f2 9abc
000003b0: a31f 713d 08cf 2fbe 1349 c6bc f628 0f3e
000003c0: dec3 42bd 7eca 243e df6c c63d ea0b 6fbd
000003d0: 1c7e 12be 5664 023e 552a 1cbe 5bd4 ebbd
000003e0: a901 023c 9521 bebd acb5 bf3d 9c18 71bd
000003f0: 24ea 283c 0595 1cbd 7390 973c 223a 3a3d

mlp2_q_dynamics.network.4.weight f4 [32, 32]
-0.13563353 -0.1347734 -0.052462056 0.13726482 0.093315795 -0.114661425 0.013699854 -0.13003053
0.075942405 0.08362147 0.04727637 -0.043456625 -0.1761589 0.034711786 -0.062165756 0.010120153
-0.13093266 0.17409489 0.11320144 0.021731842 -0.102341756 -0.16129944 -0.11509569 0.16010827
-0.09859534 0.10993497 0.061449386 -0.050583657 -0.048507188 0.13179612 0.03290242 -0.032085657
-0.008866095 0.024788838 -0.0007265906 0.09026101 -0.015053041 -0.10837396 -0.15216574 0.09691467
-0.015684782 -0.108061254 -0.0072485204 0.12563343 -0.15386155 -0.053887695 0.008768356 -0.021019286
0.1187467 -0.10760979 -0.06408569 -0.08940263 -0.0799304 0.110407695 -0.08943336 0.11962692
0.10132188 -0.0656082 -0.056492474 -0.024948763 0.0172989 0.09309921 -0.041861556 0.12211495
-0.0064925114 0.1279173 -0.16809176 0.022290457 0.045736138 0.0012514242 -0.044316147 -0.10474752
-0.10685708 0.14190443 -0.025785737 0.15564536 0.15479715 -0.16050673 0.15664826 0.169368
-0.062034577 -0.16407815 -0.07280073 -0.027546737 0.06513289 -0.005665042 0.1251398 -0.07357333
0.062864386 0.028573098 -0.07911168 0.008132508 -0.06964187 0.0067865066 0.097356625 0.13634914
0.0653163 0.07752173 0.16130275 0.16566348 0.05513341 -0.084238105 -0.030362569 -0.060803212
0.17633207 -0.1307553 0.10774367 0.082753964 0.08649022 -0.085865796 0.13233632 -0.07958429
0.14243719 -0.1421799 0.046277743 0.11254057 0.051408913 -0.049913544 0.006476685 -0.06714747
-0.0009743719 -0.07612287 -0.028560665 -0.121839754 0.08034698 -0.1001003 -0.16117558 0.05587317
-0.08277065 -0.02971534 0.13484675 0.11066437 0.047224425 -0.07680321 -0.08033141 0.028245594
0.07424496 0.11071952 0.076395124 0.15686752 -0.046235282 0.17255017 -0.032093436 0.0406264
0.08149694 -0.069782495 -0.14777787 0.07305374 -0.16520016 -0.056876097 0.10938291 0.15822957
0.113371566 0.054741632 -0.046186812 0.11206923 -0.12982138 -0.035646286 -0.010981151 -0.05202567
-0.13773954 -0.040658243 -0.06401602 -0.07887201 0.08263406 0.12936716 0.16856472 0.021799615
0.14397019 0.09765859 0.07924682 -0.094690606 -0.07746609 -0.077298835 -0.09744248 -0.014988367
-0.16721937 0.02013692 0.026233442 -0.12939407 -0.02306503 -0.05630349 0.027671935 -0.07994911
-0.022676796 -0.17547688 0.049989343 0.04911077 -0.1660204 0.015551006 0.16348328 -0.020870846
-0.028650269 0.121619724 -0.1221469 0.08540886 0.16421658 -0.16134323 0.12125471 0.118198834
-0.060198955 0.102130264 -0.12172861 0.15441345 0.14090395 0.14685854 -0.13585263 0.031564303
-0.061194103 -0.08143844 -0.0140871 0.091128714 -0.143989 0.04595886 0.1484573 -0.052974246
0.14665687 -0.1258142 0.07292092 0.09951861 0.035142377 0.02327351 -0.11710843 0.06394138
0.042191606 0.051755298 0.13302873 -0.16692428 0.035075177 -0.16120423 0.051193923 -0.030267168
0.011537931 -0.12983434 -0.12048749 0.043518707 -0.025074024 -0.10050141 -0.042584755 0.108744346
-0.053306952 -0.06345373 -0.008016267 0.13950609 0.04273644 -0.119778536 0.06781554 -0.07891877
-0.08771739 0.0683632 -0.14211221 -0.081181765 -0.090611465 0.1435581 -0.018805819 -0.06516908
00000000: 84e3 0abe 0a02 0abe 74e2 56bd 268f 0c3e
00000010: 5a1c bf3d 9cd3 eabd 5a75 603c b926 05be
00000020: b187 9b3d bc41 ab3d dea4 413d 93ff 31bd
00000030: 0063 34be f22d 0e3d 85a1 7ebd 00cf 253c
00000040: 3613 06be ee45 323e 28d6 e73d fa06 b23c
00000050: 8e98 d1bd ae2b 25be 4ab7 ebbd 6cf3 233e
00000060: 5bec c9bd 9625 e13d 5ab2 7b3d cf30 4fbd
00000070: 79af 46bd 90f5 063e b0c4 063d 406c 03bd
00000080: 1943 11bc f611 cb3c ab78 3eba c4da b83d
00000090: 08a1 76bc 2bf3 ddbd 56d1 1bbe 337b c63d
000000a0: 5f7d 80bc 384f ddbd ff84 edbb 0da6 003e
000000b0: e28d 1dbe 58b9 5cbd 27a9 0f3c a330 acbc
000000c0: 7831 f33d 8662 dcbd 5c3f 83bd ba18 b7bd
000000d0: 8db2 a3bd 6e1d e23d d628 b7bd f5fe f43d
000000e0: d981 cf3d 985d 86bd a764 67bd 5961 ccbc
000000f0: 6cb6 8d3c ccaa be3d 0677 2bbd 6717 fa3d
00000100: 22bf d4bb c1fc 023e 3f20 2cbe 7a9a b63c
00000110: d155 3b3d d406 a43a d984 35bd de85 d6bd
00000120: e2d7 dabd 654f 113e 9c3c d3bc 7f61 1f3e
00000130: 2583 1e3e e05b 24be 6768 203e ce6e 2d3e
00000140: f817 7ebd 1a04 28be 8d18 95bd b2a9 e1bc
00000150: 6564 853d d1a1 b9bb a624 003e 9dad 96bd
00000160: 0bbf 803d 2112 ea3c 4e05 a2bd 363e 053c
00000170: 66a0 8ebd 5861 de3b e962 c73d 1c9f 0b3e
00000180: 8dc4 853d b6c3 9e3d 8c2c 253e b0a3 293e
00000190: 92d3 613d 0785 acbd ecba f8bc ca0c 79bd
000001a0: 6590 343e b8e4 05be b7a8 dc3d e97a a93d
000001b0: c921 b13d 68da afbd 2c83 073e 17fd a2bd
000001c0: 0edb 113e 9c97 11be bb8d 3d3d ac7b e63d
000001d0: 2792 523d 2572 4cbd 5f3a d43b 9d84 89bd
000001e0: fe6c 7fba 4fe6 9bbd 0ef8 e9bc 1f87 f9bd
000001f0: f58c a43d 6301 cdbd 360b 25be 44db 643d
00000200: a983 a9bd 966d f3bc 4415 0a3e 00a4 e23d
00000210: 666e 413d 004b 9dbd cb84 a4bd 4e63 e73c
00000220: be0d 983d eac0 e23d 0c75 9c3d e1a1 203e
00000230: 3561 3dbd feb0 303e 6874 03bd de67 263d
00000240: dee7 a63d 20ea 8ebd 1553 17be 339d 953d
00000250: 3b2a 29be e9f6 68bd 2604 e03d ef06 223e
00000260: 5a2f e83d c338 603d 622e 3dbd 8d84 e53d
00000270: e5ef 04be d701 12bd 49ea 33bc de18 55bd
00000280: 980b 0dbe 4289 26bd d51a 83bd a687 a1bd
00000290: 0c3c a93d d378 043e 3b9c 2c3e 1b95 b23c
000002a0: ec6c 133e 3a01 c83d 284c a23d 26ed c1bd
000002b0: 8ba6 9ebd da4e 9ebd ec8f c7bd c591 75bc
000002c0: 8e3b 2bbe 2ff6 a43c 84e7 d63c e17f 04be
000002d0: e0f2 bcbc 7d9e 66bd 41b0 e23c 5cbc a3bd
000002e0: b0c4 b9bc 36b0 33be a0c1 4c3d 6028 493d
000002f0: 4001 2abe a6c9 7e3c 2968 273e 56f9 aabc
00000300: f8b3 eabc c313 f93d 2728 fabd d7ea ae3d
00000310: 6428 283e 2937 25be 6454 f83d 3b12 f23d
00000320: 2e93 76bd ac29 d13d d94c f9bd 8f1e 1e3e
00000330: 2049 103e 1662 163e f41c 0bbe 9249 013d
00000340: aba6 7abd 32c9 a6bd 94cd 66bc b1a1 ba3d
00000350: da71 13be 5c3f 3c3d 3105 183e 86fb 58bd
00000360: 382d 163e 70d5 00be 9057 953d 6ad0 cb3d
00000370: 74f1 0f3d 17a8 be3c 8bd6 efbd b3f3 823d
00000380: 1bd1 2c3d 5dfd 533d af38 083e 33ee 2abe
00000390: fdaa 0f3d b912 25be b8b0 513d daf2 f7bc
000003a0: 9709 3d3c 4bf3 04be 25c2 f6bd ac40 323d
000003b0: 0a68 cdbc afd3 cdbd 5a6d 2ebd 5bb5 de3d
000003c0: 6458 5abd 07f4 81bd a956 03bc afda 0e3e
000003d0: 680c 2f3d 734e f5bd e0e2 8a3d 2aa0 a1bd
000003e0: 2da5 b3bd 0102 8c3d dd85 11be a042 a6bd
000003f0: 8192 b9bd e500 133e a90e 9abc 5e77 85bd

mlp2_q_dynamics.network.6.weight f4 [10, 32]
0.119760856 -0.02045315 0.10340664 0.08735048 0.060660694 0.025686417 -0.12822995 0.064631134
-0.031202238 -0.16352138 -0.048239365 -0.073402315 0.0032775917 0.10679853 0.01897841 -0.14854303
-0.15942276 -0.13589397 0.08515461 -0.0047433325 -0.040472016 0.14219035 0.0030608939 -0.012821598
0.10849001 0.03685881 -0.12633042 -0.077135116 -0.05321149 -0.035811964 0.12763143 0.16325442
0.14641649 0.09856281 0.15701558 0.054521773 -0.14287528 -0.029137507 -0.042932887 0.16423978
0.014983773 -0.012429464 -0.012588905 0.13408552 -0.15702946 -0.059760902 0.019569457 -0.09590897
0.11363353 0.15529442 0.08685538 -0.07928914 0.08242246 0.08139964 -0.045174636 -0.08368948
0.16740479 0.16851395 0.17633164 -0.07703776 0.040442955 0.1308529 0.08752394 0.16641356
0.14523932 -0.032366354 0.046831574 0.047849465 0.12716947 0.0588189 0.16096202 0.16205554
0.15503459 -0.09076602 -0.08075372 -0.13903911 0.15554492 -0.07712966 0.086830705 -0.15742616
-0.13730682 -0.026925998 -0.1387856 -0.06046113 -0.14876191 -0.15833083 0.08179449 0.054721422
-0.04447639 0.059958823 0.021096436 -0.0048567075 0.14337839 -0.14381038 0.13277946 -0.09273234
0.06621843 -0.047897067 0.17284437 0.01198747 0.09960607 0.15232581 -0.07156682 0.110120885
0.088026725 -0.058136392 0.17518552 -0.14099401 -0.09913649 -0.07908076 -0.024484769 0.10325447
-0.041676488 0.08871515 -0.1710553 0.04365385 0.0772404 0.14475231 -0.05231153 -0.122945495
-0.11013926 0.10951783 -0.15417075 0.059910942 -0.02626937 0.040608108 -0.07714932 0.053737525
0.09854169 -0.06620587 -0.13621882 0.01129801 -0.15826896 -0.01411538 0.014225678 0.06573121
-0.05702024 0.14184627 0.08367123 -0.1755195 -0.08774209 -0.033982478 -0.058573414 -0.017150985
-0.07122712 0.035927616 -0.11378171 0.14845604 0.09767958 0.012928018 0.15486416 -0.13374482
-0.0084121525 0.067277685 -0.09389905 -0.07523826 0.09922316 -0.09799884 0.14094067 0.024899915
0.15601584 -0.0032720284 -0.13114211 -0.16041937 -0.13225453 -0.17003788 0.10155974 -0.018457875
-0.09062879 -0.17231572 -0.017586488 -0.07087749 0.096522965 0.10199495 -0.12335906 -0.16664189
-0.10328349 0.022004511 -0.1534152 0.040117666 0.050353114 0.15782578 -0.09815718 -0.1266334
-0.052682612 -0.04687627 -0.08613555 -0.09055596 -0.1382922 0.09351102 -0.059445243 0.11496014
-0.119453125 0.005677581 -0.016620947 -0.13092405 0.14981061 -0.06071011 0.10251609 0.084925056
-0.05480365 -0.052412514 0.00621411 -0.043338783 -0.09118239 0.08167562 0.0064381 -0.07196317
-0.09107963 -0.11842963 -0.00797471 0.13579679 0.023237728 0.027052902 0.052697595 -0.0898222
-0.16363095 0.05720893 0.14357446 -0.111391716 0.09172033 -0.08033006 -0.026145691 -0.08713937
0.008970345 0.08085991 0.06675578 0.09102775 0.08695784 0.10865304 0.17113362 -0.08004818
0.120981835 -0.16681585 0.10195405 -0.17250161 -0.078660935 -0.015369754 -0.10727052 -0.08424002
0.06652144 -0.10384752 -0.037100922 0.010286823 -0.17173211 0.057949282 0.06617786 0.09732462
-0.08788233 -0.1654254 -0.107287474 -0.048614997 0.0765227 0.065821975 -0.059957493 0.07290787
00000000: 2e45 f53d 5d8d a7bc dcc6 d33d cfe4 b23d
00000010: 5977 783d 526c d23c b64e 03be 545d 843d
00000020: d69b ffbc 2672 27be a496 45bd f453 96bd
00000030: ddcc 563b 30b9 da3d 9c78 9b3c aa1b 18be
00000040: b83f 23be ca27 0bbe 8a65 ae3d f56d 9bbb
00000050: fcc5 25bd 599a 113e 4799 483b ae11 52bc
00000060: 0330 de3d 43f9 163d c35c 01be 04f9 9dbd
00000070: 4bf4 59bd 91af 12bd d0b1 023e 2b2c 273e
00000080: 34ee 153e 4cdb c93d b1c8 203e 3952 5f3d
00000090: e64d 12be c8b1 eebc 65da 2fbd 792e 283e
000000a0: 807e 753c f3a4 4bbc b241 4ebc b74d 093e
000000b0: 55cc 20be d9c7 74bd 2050 a03c ec6b c4bd
000000c0: b2b8 e83d 8005 1f3e 3ce1 b13d 5862 a2bd
000000d0: 1bcd a83d dbb4 a63d 0a09 39bd 6465 abbd
000000e0: 296c 2b3e ec8e 2c3e 4890 343e f9c5 9dbd
000000f0: 83a7 253d 4dfe 053e c03f b33d 5168 2a3e
00000100: 9eb9 143e 9592 04bd 77d2 3f3d cdfd 433d
00000110: b738 023e 16ec 703d 3ad3 243e e3f1 253e
00000120: 63c1 1e3e 89e3 b9bd 3562 a5bd 4560 0ebe
00000130: 2b47 1f3e 28f6 9dbd 4cd4 b13d 5334 21be
00000140: 299a 0cbe e993 dcbc d01d 0ebe 17a6 77bd
00000150: 0b55 18be 7a21 22be df83 a73d 9223 603d
00000160: e02c 36bd 6297 753d 6fd2 ac3c 0425 9fbb
00000170: c9d1 123e 0743 13be 57f7 073e 74ea bdbd
00000180: 879d 873d b72f 44bd 1dfe 303e 1867 443c
00000190: 44fe cb3d 4cfb 1b3e a091 92bd 0f87 e13d
000001a0: 5b47 b43d 6d20 6ebd d563 333e bc60 10be
000001b0: 1208 cbbd 18f5 a1bd 4894 c8bc 1477 d33d
000001c0: f7b4 2abd 4ab0 b53d 1f29 2fbe 61ce 323d
000001d0: 3730 9e3d f339 143e 9d44 56bd d9ca fbbd
000001e0: b190 e1bd e24a e03d f0de 1dbe 2d65 753d
000001f0: dd32 d7bc b054 263d 7600 9ebd e11b 5c3d
00000200: 3ad0 c93d f196 87bd f27c 0bbe 4a1b 393c
00000210: 4211 22be 3244 67bc d112 693c 169e 863d
00000220: 0e8e 69bd 2640 113e d25b ab3d 62bb 33be
00000230: 20b2 b3bd 3631 0bbd adea 6fbd 3980 8cbc
00000240: 86df 91bd d628 133d 6306 e9bd dc04 183e
00000250: 3b0c c83d 0ad0 533c b694 1e3e 67f4 08be
00000260: 20d3 09bc e2c8 893d 254e c0bd 8416 9abd
00000270: 8335 cb3d 9eb3 c8bd c052 103e e8fa cb3c
00000280: 9ec2 1f3e 876f 56bb 1e4a 06be fa44 24be
00000290: bb6d 07be 691e 2ebe 8efe cf3d f834 97bc
000002a0: 969b b9bd 8873 30be 8a11 90bc 3828 91bd
000002b0: d5ad c53d bae2 d03d ada3 fcbd 2ca4 2abe
000002c0: 4b86 d3bd ce42 b43c e018 1dbe 6c52 243d
000002d0: 113f 4e3d 159d 213e a206 c9bd 30ac 01be
000002e0: b9c9 57bd 5501 40bd d667 b0bd 6775 b9bd
000002f0: 789c 0dbe b582 bf3d db7c 73bd 3970 eb3d
00000300: d7a3 f4bd 000b ba3b a728 88bc f410 06be
00000310: f467 193e 2aab 78bd f5f3 d13d 30ed ad3d
00000320: cb79 60bd 81ae 56bd bc9f cb3b 0284 31bd
00000330: d5bd babd 8c45 a73d b2f6 d23b 6d61 93bd
00000340: f587 babd 3c8b f2bd 5ca8 02bc 500e 0b3e
00000350: 0c5d be3c 0c9e dd3c 6fd9 573d b4f4 b7bd
00000360: df8e 27be e953 6a3d 2f05 133e 5721 e4bd
00000370: ded7 bb3d 1684 a4bd 7d2f d6bc 2076 b2bd
00000380: 5bf8 123c e199 a53d 41b7 883d c26c ba3d
00000390: f416 b23d 7c85 de3d a73d 2f3e 4df0 a3bd
000003a0: 53c5 f73d c6d1 2abe 49cd d03d 43a4 30be
000003b0: fc18 a1bd 6cd1 7bbc a5b0 dbbd 0886 acbd
000003c0: 653c 883d 02ae d4bd 23f7 17bd 108a 283c
000003d0: 8bda 2fbe 3a5c 6d3d 4288 873d 2152 c73d
000003e0: a7fb b3bd 4765 29be 89b9 dbbd 8520 47bd
000003f0: efb7 9c3d accd 863d fd95 75bd b950 953d

mlp3_q_init.network.0.weight f4 [32, 4]
0.17578517 0.28447133 -0.2524229 0.39960322 -0.1539169 0.30389947 -0.4142669 0.19809775
0.28056782 -0.35974598 -0.059928775 -0.27661604 0.17476249 0.12289201 0.33498487 -0.102943875
0.14242071 0.3563708 -0.88307685 -0.54428625 0.16215011 -0.30334643 -0.2304495 -0.18020079
-0.2196378 0.42611718 -0.013357701 0.062500976 0.23386462 -0.15767135 -0.33070034 -0.05576688
-0.36746237 0.24758203 -0.13301547 0.37188652 0.5563837 -0.06465329 -0.30380118 -0.15288064
0.009366953 -0.05646199 -0.2697389 0.26115918 -0.31302878 -0.445084 -0.21221676 -0.13041425
-0.04893798 0.2335945 0.34182715 -0.3291685 -0.0012889255 -0.14469187 0.18139514 0.12677023
0.27587354 0.1738704 0.48980123 -0.17570415 -0.42162395 -0.2404485 -0.16604714 -0.23132853
-0.36317685 0.19533655 0.0064089666 -0.22934373 0.019930018 0.22249804 0.06574723 0.009400107
0.022233218 0.30659047 -0.106882624 0.24741712 0.22726204 0.0066412883 0.17592931 -0.1848573
-0.37370697 -0.47779924 0.0302117 -0.5898532 -0.457538 -0.01751871 -0.26620263 -0.003935854
0.31172225 0.2741122 -0.06989896 -0.17843619 0.17630659 -0.10210863 -0.22496912 -0.48406655
-0.3481296 -0.4717336 0.44853655 0.28369647 0.08756305 -0.10656862 0.10861932 0.36682916
-0.16626236 0.17394756 0.26849538 0.31261435 -0.5840344 -0.048543103 0.320126 -0.5004854
0.15123592 -0.34836084 -0.07679122 -0.27968666 -0.39434695 0.23441002 -0.07171415 0.29720694
-0.24347563 -0.28888732 -0.11931496 0.005315696 0.16733424 -0.47865143 -0.28436837 -0.11430994
00000000: 0701 343e 3aa6 913e 933d 81be cb98 cc3e
00000010: 649c 1dbe b698 9b3e cb1a d4be 23da 4a3e
00000020: 96a6 8f3e a030 b8be e077 75bd 9ea0 8dbe
00000030: f0f4 323e ceae fb3d 2383 ab3e 3dd4 d2bd
00000040: bcd6 113e 3c76 b63e 5311 62bf 5856 0bbf
00000050: ae0a 263e 3950 9bbe f4fa 6bbe 8e86 38be
00000060: bbe8 60be 082c da3e 42da 5abc 8300 803d
00000070: 357a 6f3e 9974 21be 8e51 a9be d06b 64bd
00000080: 0724 bcbe 2586 7d3e 3535 08be e967 be3e
00000090: 2a6f 0e3f f268 84bd d48b 9bbe be8c 1cbe
000000a0: d977 193c b044 67bd 381b 8abe a8b6 853e
000000b0: 4f45 a0be 0de2 e3be 5a4f 59be 508b 05be
000000c0: 3173 48bd 6633 6f3e f803 af3e c688 a8be
000000d0: 2af1 a8ba 1b2a 14be a6bf 393e 0ed0 013e
000000e0: 4c3f 8d3e 150b 323e 3ac7 fa3e caeb 33be
000000f0: 18df d7be 2238 76be 4308 2abe 63e1 6cbe
00000100: 51f2 b9be 4e06 483e 4f02 d23b 15d9 6abe
00000110: 4744 a33c 87d6 633e 7ca6 863d e802 1a3c
00000120: 7022 b63c 6df9 9c3e 47e5 dabd ea5a 7d3e
00000130: 61b7 683e 2a9f d93b d026 343e 3b4b 3dbe
00000140: 8556 bfbe 1aa2 f4be 877e f73c 9f00 17bf
00000150: 6c42 eabe 6683 8fbc b64b 88be 56f8 80bb
00000160: 0f9a 9f3e 6f58 8c3e 3027 8fbd fab7 36be
00000170: b789 343e 541e d1bd 4e5e 66be 92d7 f7be
00000180: 0b3e b2be 1187 f1be 95a6 e53e aa40 913e
00000190: 4254 b33d a640 dabd ce73 de3d 08d1 bb3e
000001a0: ae40 2abe 4f1f 323e 3a78 893e fd0e a03e
000001b0: 4783 15bf 22d5 46bd 8ee7 a33e d01f 00bf
000001c0: 97dd 1a3e 5a5c b2be b744 9dbd 1733 8fbe
000001d0: d8e7 c9be 2e09 703e dede 92bd 822b 983e
000001e0: ad51 79be 0ae9 93be 675b f4bd 4a2f ae3b
000001f0: ab59 2b3e cd11 f5be bb98 91be 541b eabd

mlp3_q_init.network.0.bias f4 [32]
0.44769615 0.49488735 -0.34338972 0.16123901 0.2897874 0.2640617 0.04404956 0.25720155
0.20296194 -0.08393606 -0.34767902 0.4799361 -0.34091553 -0.30036053 0.59674466 0.038819384
-0.075575046 -0.42889866 -0.11490269 0.16753681 -0.056601804 0.545137 -0.046287574 0.26645756
-0.3043159 0.28437808 0.08340909 0.26851228 -0.33094412 0.44969845 0.28746235 0.45050982
00000000: 6e38 e53e e061 fd3e c7d0 afbe d71b 253e
00000010: 045f 943e 1833 873e 506d 343d ecaf 833e
00000020: 41d5 4f3e abe6 abbd fc02 b2be 2fba f53e
00000030: 7b8c aebe dbc8 99be 42c4 183f 1301 1f3d
00000040: 17c7 9abd 9b98 dbbe 1a52 ebbd c58e 2b3e
00000050: 4bd7 67bd 198e 0b3f 0a98 3dbd 206d 883e
00000060: 4bcf 9bbe 019a 913e 63d2 aa3d 717a 893e
00000070: 8271 a9be e03e e63e 442e 933e 39a9 e63e
