models/augmented_controller_seed_789.pt (torch, 54369 bytes, 29 tensors)

B_q f4 [10, 4]
-0.17188957 0.009322937 -0.19349965 -0.042408943 -0.025212487 0.20758228 -0.21469413 -0.091453075
-0.045697335 -0.35984877 0.36567086 0.16479023 0.03089078 -0.006833847 0.3548094 0.17150809
0.01243721 -0.1769522 0.020302348 0.08568919 0.029266076 -0.062856905 0.2317497 0.14952476
-0.24100752 0.09130508 -0.2048518 -0.060321636 0.1437802 0.073038906 -0.014417651 -0.12996002
0.17728281 -0.12320134 0.03789452 -0.025498914 0.028280841 -0.3076038 0.09055107 0.13965772
00000000: d203 30be 3bbf 183c c624 46be 00b5 2dbd
00000010: 6b8a cebc 7390 543e c7d8 5bbe c04b bbbd
00000020: 212d 3bbd 193e b8be 3639 bb3e c5be 283e
00000030: a90e fd3c 77ee dfbb 94a9 b53e d19f 2f3e
00000040: 71c5 4b3c f532 35be 1c51 a63c d07d af3d
00000050: 69bf ef3c 1fbb 80bd cb4f 6d3e 051d 193e
00000060: adca 76be 28fe ba3d acc4 51be d213 77bd
00000070: 1e3b 133e 6c95 953d 0338 6cbc 3d14 05be
00000080: a089 353e fc50 fcbd 4937 1b3d 19e3 d0bc
00000090: 39ad e73c 3f7e 9dbe d772 b93d 6f02 0f3e

lambda_xi_diag f4 [4]
-0.49072897 -0.5340058 -0.52270657 -0.53018814
00000000: d440 fbbe 9bb4 08bf 19d0 05bf 69ba 07bf

lambda_q_real f4 [5]
-0.6732364 -0.6952655 -0.49551925 -0.4468857 -0.7655489
00000000: 3959 2cbf ebfc 31bf b3b4 fdbe 34ce e4be
00000010: 03fb 43bf

lambda_q_imag f4 [5]
1.0 1.0 1.0 1.0 1.0
00000000: 0000 803f 0000 803f 0000 803f 0000 803f
00000010: 0000 803f

q0_scale f4 [10]
5.0 5.0 5.0 5.0 5.0 5.0 5.0 5.0
5.0 5.0
00000000: 0000 a040 0000 a040 0000 a040 0000 a040
00000010: 0000 a040 0000 a040 0000 a040 0000 a040
00000020: 0000 a040 0000 a040

mlp1_xi_init.network.0.weight f4 [32, 4]
-0.23529325 0.15212676 -0.6366047 0.046396505 -0.13269046 0.39054167 0.599779 -0.4055512
0.095223576 0.41647115 -0.11150875 -0.35091853 -0.32647642 0.20574217 0.38275385 0.24552967
-0.1120438 -0.573126 0.036175326 0.0031427005 0.0447643 0.27028558 0.57335 0.07001916
-0.040894747 -0.051936045 0.25074428 -0.23274736 -0.22094736 0.016142644 0.44384897 0.114642926
0.38138944 0.28596255 -0.13041662 -0.22676566 -0.0072109946 0.22666281 -0.39534175 0.27537802
-0.22819993 -0.4190569 -0.30518788 -0.27955028 0.2814141 0.86916566 0.48403695 -0.7213555
-0.1707729 0.2473292 -0.053527467 0.34351635 0.43984514 0.417266 0.2944755 0.4185294
-0.0856803 -0.17128363 0.4739245 0.15071934 0.15704282 0.56645495 1.1871457 0.5527962
0.2898739 0.14187992 -0.26156145 -0.013387553 0.25824577 -0.37575385 0.41993162 -0.3373208
0.35495484 -0.45589516 -0.20962457 0.33207694 -0.40052378 0.31521928 -0.66198796 -0.4306756
-0.1665579 -0.55245596 -0.24615754 0.092699625 0.22605205 -0.09011461 0.056630377 0.13978747
0.1325031 -0.2370778 -0.017507838 -0.327468 -0.23352715 -0.34912977 -0.09181322 0.19700716
-0.2045591 -0.32239977 0.5007811 0.33504486 -0.18742648 0.23141569 0.252112 -0.09268154
-0.3546048 -0.32091272 -0.6333718 -0.4759099 -0.029663036 0.4772314 0.34868428 -0.059094336
-0.390326 0.37406957 0.24489339 -0.26939037 0.26763228 0.061161216 -0.45950523 -0.33122095
-0.49754447 -0.06968644 0.22303352 0.46062368 -0.04464937 0.12589869 -0.5190087 -0.37208903
00000000: b7f0 70be 1ec7 1b3e 87f8 22bf 430a 3e3d
00000010: 02e0 07be 14f5 c73e 1e8b 193f 68a4 cfbe
00000020: 9404 c33d b53b d53e b35e e4bd 98ab b3be
00000030: eb27 a7be 13ae 523e 50f8 c33e 216c 7b3e
00000040: 3877 e5bd 63b8 12bf 942c 143d c4f5 4d3b
00000050: c55a 373d df62 8a3e 11c7 123f 3566 8f3d
00000060: 4081 27bd e4ba 54bd 8e61 803e 5355 6ebe
00000070: 0640 62be 943d 843c 2c40 e33e e9c9 ea3d
00000080: 7a45 c33e af69 923e ef8b 05be 4235 68be
00000090: 354a ecbb 4c1a 683e 3c6a cabe 59fe 8c3e
000000a0: 3ead 69be a08e d6be 9641 9cbe 3721 8fbe
000000b0: 8215 903e a481 5e3f b1d3 f73e c1aa 38bf
000000c0: 17df 2ebe de43 7d3e 9e3f 5bbd 60e1 af3e
000000d0: 6233 e13e e4a3 d53e 7ec5 963e 7c49 d63e
000000e0: 2779 afbd fa64 2fbe 3ba6 f23e 2c56 1a3e
000000f0: d5cf 203e 3103 113f 64f4 973f 0d84 0d3f
00000100: 5a6a 943e f848 113e 62eb 85be 7857 5bbc
00000110: ca38 843e cf62 c0be 4701 d73e 50b5 acbe
00000120: a4bc b53e 176b e9be d3a7 56be fd05 aa3e
00000130: 7411 cdbe 6c64 a13e 0b78 29bf 8381 dcbe
00000140: 278e 2abe c16d 0dbf b910 7cbe 4dd9 bd3d
00000150: 307a 673e 028e b8bd 41f5 673d 7224 0f3e
00000160: e5ae 073e 86c4 72be 996c 8fbc e3a9 a7be
00000170: be21 6fbe 23c1 b2be 9208 bcbd 3fbc 493e
00000180: f177 51be 9511 a5be 3133 003f 008b ab3e
00000190: baec 3fbe 3cf8 6c3e d314 813e d2cf bdbd
000001a0: c38e b5be ac4e a4be a724 22bf 76aa f3be
000001b0: e5ff f2bc ad57 f43e bf86 b23e e70c 72bd
000001c0: cfd8 c7be 0c86 bf3e 55c5 7a3e 89ed 89be
000001d0: 1907 893e 2f84 7a3d 4544 ebbe cb95 a9be
000001e0: 26be febe c4b7 8ebd e662 643e ded6 eb3e
000001f0: 42e2 36bd 96eb 003e c1dd 04bf 7482 bebe

mlp1_xi_init.network.0.bias f4 [32]
-0.3028227 -0.35369778 0.104605176 0.16432609 -0.1815231 0.52564543 -0.42596743 0.1341237
-0.0820846 0.20367827 0.15988092 0.4617291 -0.26334605 -0.15518236 0.11523065 0.33547023
-0.3427368 -0.31064114 -0.46653342 -0.3790912 0.097809084 0.07256205 0.14584887 -0.38348532
-0.39002043 -0.4007967 -0.234362 -0.15119575 -0.050809223 -0.36771357 0.3557759 -0.01684386
00000000: 940b 9bbe e017 b5be 3d3b d63d 1945 283e
00000010: 31e1 39be b390 063f 6718 dabe b957 093e
00000020: f91b a8bd 0991 503e d3b7 233e c267 ec3e
00000030: 4bd5 86be 20e8 1ebe 0cfe eb3d c1c2 ab3e
00000040: 337b afbe 5b0c 9fbe 78dd eebe 3e18 c2be
00000050: 2150 c83d 699b 943d 6859 153e 3058 c4be
00000060: c2b0 c7be 3a35 cdbe 98fc 6fbe 0fd3 1abe
00000070: 551d 50bd f444 bcbe 4228 b63e 22fc 89bc

mlp1_xi_init.network.2.weight f4 [32, 32]
-0.0732661 -0.12308698 0.130932 -0.021285677 -0.14164044 -0.17783435 -0.015044656 0.09466178
0.08383773 0.08683808 0.12044151 -0.1669148 -0.12610337 -0.07207035 -0.019246418 -0.47455856
0.05395817 -0.12929283 0.12596641 -0.15003031 0.096258044 -0.12235088 0.10464845 -0.22526029
0.012234437 0.09380053 -0.21773797 0.0060144193 -0.03175481 -0.019397674 -0.10365013 -0.09637436
-0.11448105 -0.17545937 0.14069495 -0.025696808 -0.16947915 0.042602103 0.1062239 0.016247375
0.012208968 0.03400382 -0.009074859 -0.21586083 0.08401113 -0.015932187 -0.034454037 -0.34981623
0.13049094 -0.12936118 -0.17641412 -0.19040503 0.008516361 -0.05197209 -0.123855926 -0.19918801
0.02654431 -0.019156083 -0.07242337 -0.000110818255 -0.095042154 0.1788713 -0.16285542 0.059236687
0.027732618 0.027238162 -0.21473008 0.035320725 -0.120012276 0.08734599 -0.20433398 -0.109679826
0.014213824 -0.12880994 -0.096137755 0.2597546 -0.1553074 0.008726739 0.026038818 0.2687273
0.09997966 -0.07405289 -0.13794763 -0.2162889 -0.20451373 0.014743527 -0.21916857 0.029040897
-0.29198825 -0.27523708 -0.13696334 0.03650938 -0.0063559236 -0.19587761 -0.24374434 -0.13059653
-0.03595985 -0.11631519 -0.19943714 -0.20725662 -0.1274078 -0.2131352 0.017722985 -0.18478924
0.11218163 -0.12523478 -0.0641465 -0.17517805 -0.10157985 0.16669975 -0.02603945 -0.20210208
0.111055836 0.12503849 -0.033900615 -0.049206503 0.03890411 -0.06034097 -0.00520636 -0.13019614
-0.13127889 0.016308744 -0.16012742 0.040417984 0.13370404 0.10484267 0.017391799 -0.17027739
-0.010467905 -0.0471586 -0.011284118 0.020440636 -0.14601177 0.09082872 -0.21853705 -0.23415901
0.051981896 -0.26047412 -0.16630818 0.22391288 0.02989685 0.029113738 -0.116181046 0.16265146
-0.056471765 -0.1040267 0.1576986 -0.14328672 -0.10142723 -0.092314385 -0.030250337 -0.011829533
-0.22841667 -0.24261618 -0.19503368 0.069141604 -0.1304613 0.061123617 -0.05606046 -0.15875347
-0.05416962 0.03577073 0.13041362 0.07504322 0.10269349 -0.1307302 0.10675128 0.093534745
0.08252856 -0.11858934 0.018262928 -0.15674773 0.008707891 -0.0006083677 -0.027830984 -0.40855157
0.09517743 0.022794617 0.118436426 -0.22747757 -0.17106919 0.12794062 -0.077920444 0.13234301
-0.1266099 -0.033654522 -0.16195415 0.057179946 0.040183194 0.16916712 -0.010321208 0.003978035
-0.25867 -0.06524884 -0.08472745 -0.11312889 -0.12831935 0.022901006 -0.086094745 0.12086102
0.10066817 0.095606 -0.16198684 0.29754627 -0.06488874 0.038691994 0.08802177 0.23781458
0.10379652 -0.070370935 -0.11877455 -0.09333276 0.0039158496 0.0066722496 -0.19177896 0.09042668
0.04199529 -0.04757804 -0.21636705 -0.0049320497 0.023805866 0.02474425 -0.0023196393 -0.08509598
0.15827127 0.06161297 -0.16155979 -0.12491419 -0.011369028 -0.021040032 -0.06981213 -0.14984451
-0.29375508 -0.17301284 -0.076299936 -0.18875125 -0.21857622 -0.16167594 -0.090943426 -0.46119434
-0.06442087 -0.06700508 0.12866405 0.108792335 0.056167237 -0.27202302 0.016215393 0.13222316
0.07144463 -0.20336299 0.10013618 0.06194637 0.07816617 -0.069148816 -0.11362506 -0.18314052
00000000: 890c 96bd 0715 fcbd 0a13 063e 4d5f aebc
00000010: 310a 11be 351a 36be dc7d 76bc 09de c13d
00000020: 1eb3 ab3d 2ad8 b13d 0aaa f63d b7eb 2abe
00000030: 3e21 01be 9f99 93bd aaaa 9dbc 57f9 f2be
00000040: 3e03 5d3d 5765 04be 57fd 003e 8ca1 19be
00000050: f022 c53d 1993 fabd ed51 d63d a2aa 66be
00000060: f372 483c 7e1a c03d b4f6 5ebe 9b14 c53b
00000070: 5511 02bd dfe7 9ebc 8546 d4bd ec5f c5bd
00000080: 0a75 eabd 9fab 33be 5612 103e 1d82 d2bc
00000090: f18b 2dbe 8b7f 2e3d eb8b d93d 3719 853c
000000a0: 2008 483c 9747 0b3d b8ae 14bc 9f0a 5dbe
000000b0: 070e ac3d 3884 82bc ad1f 0dbd 1d1b b3be
000000c0: 6b9f 053e 4277 04be e7a5 34be 89f9 42be
000000d0: 3588 0b3c b0e0 54bd 2da8 fdbd f1f7 4bbe
000000e0: 7473 d93c 38ed 9cbc b452 94bd 1967 e8b8
000000f0: 76a5 c2bd 0a2a 373e 92c3 26be 2ba2 723d
00000100: 842f e33c 9122 df3c 34e2 5bbe 77ac 103d
00000110: ffc8 f5bd 74e2 b23d ed3c 51be d19f e0bd
00000120: 19e1 683c c1e6 03be dfe3 c4bd 8efe 843e
00000130: e708 1fbe 99fa 0e3c 5c4f d53c a096 893e
00000140: 23c2 cc3d 0ba9 97bd 2542 0dbe d67a 5dbe
00000150: 0c6c 51be d68e 713c ba6d 60be 2de7 ed3c
00000160: 7c7f 95be e0eb 8cbe 1e40 0cbe dc8a 153d
00000170: 5a45 d0bb 2494 48be 1e98 79be 19bb 05be
00000180: a34a 13bd a936 eebd 4039 4cbe 143b 54be
00000190: 3177 02be 1d40 5abe cb2f 913c 6439 3dbe
000001a0: 7cbf e53d 8c3d 00be 3d5f 83bd e061 33be
000001b0: 1909 d0bd 57b3 2a3e af50 d5bc d9f3 4ebe
000001c0: 3e71 e33d 170a 003e 5fdb 0abd c28c 49bd
000001d0: eb59 1f3d 1828 77bd 1d9a aabb 2352 05be
000001e0: f96d 06be ea99 853c 71f8 23be 548d 253d
000001f0: b6e9 083e c1b7 d63d 3f79 8e3c 325d 2ebe
00000200: 9381 2bbc 6029 41bd 05e1 38bc 1f73 a73c
00000210: 1c84 15be 6804 ba3d 2dc8 5fbe 61c7 6fbe
00000220: f8ea 543d dd5c 85be b14c 2abe 6b49 653e
00000230: 3dea f43c ef7f ee3c 54f0 edbd 1b8e 263e
00000240: f04e 67bd f30b d5bd be7b 213e c1b9 12be
00000250: 14b9 cfbd 530f bdbd 8ecf f7bc a8d0 41bc
00000260: 0fe6 69be 6070 78be e9b6 47be 1d9a 8d3d
00000270: a697 05be c25c 7a3d a79f 65bd 4590 22be
00000280: f7e0 5dbd 5484 123d 268b 053e 42b0 993d
00000290: f750 d23d 23de 05be 6aa0 da3d 258f bf3d
000002a0: bc04 a93d f8de f2bd 239c 953c 7a82 20be
000002b0: 8bab 0e3c de7a 1fba cefd e3bc ac2d d1be
000002c0: 62ec c23d c7bb ba3c cc8e f23d e1ef 68be
000002d0: c32c 2fbe de02 033e c194 9fbd ed84 073e
000002e0: 07a6 01be 53d9 09bd 4fd7 25be 8535 6a3d
000002f0: 2297 243d 253a 2d3e 491a 29bc 2d5a 823b
00000300: 6570 84be 2fa1 85bd 9685 adbd 1fb0 e7bd
00000310: 2666 03be e49a bb3c 7152 b0bd fc85 f73d
00000320: 1d2b ce3d 14cd c33d e1df 25be fc57 983e
00000330: 63e4 84bd 7f7b 1e3d c244 b43d aa85 733e
00000340: 4593 d43d a31e 90bd 1240 f3bd 3f25 bfbd
00000350: 8750 803b e3a2 da3b b461 44be a031 b93d
00000360: 4103 2c3d 31e1 42bd 538f 5dbe 089d a1bb
00000370: 8504 c33c 74b4 ca3c 1705 18bb cd46 aebd
00000380: dd11 223e e25d 7c3d ee6f 25be 03d3 ffbd
00000390: 2945 3abc 255c acbc a9f9 8ebd d770 19be
000003a0: 1167 96be 472a 31be 2443 9cbd 0248 41be
000003b0: 72d2 5fbe 618e 25be 8c40 babd aa21 ecbe
000003c0: 17ef 83bd f639 89bd 82c0 033e 84ce de3d
000003d0: 9e0f 663d 9a46 8bbe 25d6 843c 8265 073e
000003e0: 9051 923d 633e 50be 3314 cd3d 7abb 7d3d
000003f0: 9615 a03d e59d 8dbd 41b4 e8bd 3089 3bbe

mlp1_xi_init.network.2.bias f4 [32]
0.104791835 -0.1732075 -0.09549841 0.016350644 -0.21626338 -0.113416865 -0.043059614 -0.061549213
0.06484043 -0.19237399 0.034566898 -0.15071753 0.063602224 0.12379167 -0.033607207 -0.22196019
0.013458196 0.006831263 -0.016955486 0.0021702477 -0.15519282 -0.003197955 -0.017674832 -0.1043271
-0.1319895 -0.15249377 -0.10144427 0.10441039 -0.15331693 0.042411875 -0.12123435 0.054675113
00000000: 1a9d d63d 4f5d 31be ac94 c3bd c9f1 853c
00000010: 2674 5dbe 1a47 e8bd 475f 30bd 071b 7cbd
00000020: 0fcb 843d b0fd 44be 0596 0d3d b255 1abe
00000030: e241 823d 7d86 fd3d b6a7 09bd 8849 63be
00000040: c47f 5c3c cad8 df3b 3be6 8abc b73a 0e3b
00000050: deea 1ebe c894 51bb cfca 90bc 72a9 d5bd
00000060: 4128 07be 5427 1cbe 03c2 cfbd 1dd5 d53d
00000070: 1dff 1cbe 13b8 2d3d b749 f8bd 03f3 5f3d

mlp1_xi_init.network.4.weight f4 [32, 32]
-0.14920378 -0.097007334 -0.140561 -0.099614784 -0.037900835 0.034286015 0.026030708 0.04744223
0.04733035 -0.22797942 -0.017671982 -0.038939122 -0.063633725 -0.014845183 -0.062030625 0.057909474
-0.18746182 -0.07013676 0.015078951 -0.032766275 -0.23976208 -0.18818915 -0.2544558 -0.22383055
0.010940202 -0.08156117 -0.10873685 -0.02672801 -0.27532282 -0.110335134 -0.19359642 -0.18361895
-0.007964154 -0.07544359 -0.17243713 0.0530069 0.029678939 0.11414385 -0.08802532 -0.005910275
0.020898337 0.014219062 -0.07573574 0.004592475 -0.05001834 -0.032629196 -0.040273022 0.09530867
0.07400344 0.014683305 -0.14716029 -0.111973345 0.07033784 -0.020108333 -0.037506547 -0.04181052
-0.07483006 0.055710845 0.02309811 0.070626475 -0.18110582 0.061224576 -0.057526704 -0.061679076
0.15786943 -0.12243274 0.1704759 0.10713563 0.05940155 0.1062521 -0.10976572 0.011419709
0.12006011 -0.17133321 0.13198638 0.033459913 -0.1075009 -0.030486811 0.18141839 -0.09405703
-0.026896235 -0.16011691 -0.02830174 -0.09777487 0.031364582 0.014744687 0.12969285 -0.1180138
0.09671133 -0.102514856 -0.09482815 -0.06945053 0.02395383 0.109663054 0.10132032 0.12935363
-0.1053484 -0.023068681 0.0356771 0.09450042 -0.1446979 -0.07206312 -0.117958814 -0.02595815
0.060968287 -0.077097505 -0.058207776 0.12716138 0.0735725 -0.0072212145 -0.0700769 -0.048776496
-0.12926617 -0.07322079 -0.1889965 0.108223364 0.010280535 0.080796055 0.019486606 -0.04554079
0.075851865 0.099215224 -0.18070804 0.107483454 -0.14686413 -0.10957477 0.10721398 -0.09924341
0.04847904 0.12012208 -0.15591122 -0.14529374 -0.117126554 0.009302146 0.11421453 -0.013818971
0.013106096 0.018595265 -0.01776398 0.17560554 0.098063916 0.03993912 -0.1727669 0.047940068
-0.02346417 -0.10164288 -0.2060823 -0.09296186 -0.08822107 -0.07314319 -0.06817364 -0.13188462
0.032405913 -0.024700146 0.011579568 0.07136631 0.13424496 -0.16331473 0.09839771 -0.18119843
0.111684345 0.17099048 -0.024010222 -0.079902925 -0.091762334 -0.013463543 -0.0060643693 -0.18640424
0.12046355 0.10728213 -0.19166476 -0.16304077 0.07570626 -0.07722381 0.09849607 0.03774764
0.01463614 -0.20037648 -0.064463116 -0.15269576 -0.021664232 -0.04818837 -0.03983722 -0.13419636
-0.12928818 0.062089775 0.12333472 -0.06323456 0.09465192 -0.07936638 -0.12092847 -0.014451606
-0.14657961 -0.15708755 0.10220315 -0.06728981 -0.04039031 -0.180507 -0.19769776 -0.040002707
0.08093544 0.02267543 -0.091652706 -0.06779083 -0.19035326 0.016654635 0.1110991 -0.1799251
0.11160402 -0.021612484 0.06627356 -0.06475586 0.069106355 0.10758373 0.10742789 -0.0468687
-0.19900452 0.05772705 0.047102317 -0.07183652 -0.049013983 0.07788333 0.15017544 -0.10984615
-0.094660684 0.031084187 0.064352736 0.056166 -0.14576778 0.014869753 -0.26080763 -0.07264663
-0.050456304 -0.06332637 -0.18766743 -0.13986862 -0.019236274 -0.15356284 0.13192183 -0.059444096
-0.15660997 -0.21206824 -0.1948248 0.08010752 -0.18479474 -0.19208723 -0.04339232 0.08470625
-0.092909746 -0.0655155 -0.25473782 0.061692327 -0.246551 0.049700882 -0.26655182 0.10220427
00000000: e0c8 18be c8ab c6bd 39ef 0fbe d602 ccbd
00000010: e83d 1bbd 7e6f 0c3d 5a3e d53c c952 423d
00000020: 78dd 413d 7073 69be d5c4 90bc a17e 1fbd
00000030: 6652 82bd 3639 73bc d313 7ebd 7c32 6d3d
00000040: fef5 3fbe dda3 8fbd b40d 773c ee35 06bd
00000050: 3184 75be a8b4 40be 0848 82be d633 65be
00000060: 883e 333c 8b09 a7bd 6db1 debd b3f4 dabc
00000070: 1df7 8cbe 63f7 e1bd 243e 46be 9b06 3cbe
00000080: 157c 02bc 2b82 9abd 5c93 30be c31d 593d
00000090: 3f21 f33c 40c4 e93d 9e46 b4bd fbaa c1bb
000000a0: fd32 ab3c 12f7 683c 571b 9bbd 797c 963b
000000b0: 08e0 4cbd 31a6 05bd 53f5 24bd 3131 c33d
000000c0: 1e8f 973d 3f92 703c 30b1 16be 4852 e5bd
000000d0: 490d 903d 3bba a4bc 77a0 19bd 8241 2bbd
000000e0: 8140 99bd 0e31 643d 3f38 bd3c 9da4 903d
000000f0: ce73 39be 9fc6 7a3d 1fa1 6bbd 33a3 7cbd
00000100: 86a8 213e 04be fabd 3c91 2e3e ed69 db3d
00000110: 0a4f 733d b39a d93d dacc e0bd bb19 3b3c
00000120: 13e2 f53d f971 2fbe 7027 073e 430d 093d
00000130: 6f29 dcbd 7abf f9bc bec5 393e f9a0 c0bd
00000140: 7e55 dcbc b0f5 23be 0dd9 e7bc 313e c8bd
00000150: 2678 003d b393 713c 34ce 043e 38b1 f1bd
00000160: 9710 c63d 4ff3 d1bd 4335 c2bd 143c 8ebd
00000170: d33a c43c 0697 e03d 0781 cf3d 4775 043e
00000180: e7c0 d7bd 88fa bcbc 2722 123d 7089 c13d
00000190: b02b 14be d495 93bd 6494 f1bd 30a6 d4bc
000001a0: e2b9 793d 4ce5 9dbd 476b 6ebd 9836 023e
000001b0: 2ead 963d f09f ecbb 7a84 8fbd ddc9 47bd
000001c0: 5a5e 04be c8f4 95bd 4c88 41be 36a4 dd3d
000001d0: b06f 283c 6778 a53d 60a2 9f3c fb88 3abd
000001e0: 3958 9b3d 5a31 cb3d 870b 39be 4920 dc3d
000001f0: 8d63 16be bd68 e0bd 0193 db3d 2140 cbbd
00000200: f591 463d 9102 f63d 31a7 1fbe e2c7 14be
00000210: 0ce0 efbd 0768 183c 4fe9 e93d f768 62bc
00000220: f3ba 563c 1955 983c c485 91bc f0d1 333e
00000230: bcd5 c83d 3497 233d cee9 30be ce5c 443d
00000240: ee37 c0bc 242a d0bd 3d07 53be ca62 bebd
00000250: 40ad b4bd 19cc 95bd 9f9e 8bbd c30c 07be
00000260: 10bc 043d f657 cabc 3ab8 3d3c 8028 923d
00000270: 8377 093e fa3b 27be bd84 c93d 158c 39be
00000280: c3ba e43d 2118 2f3e 16b1 c4bc 25a4 a3bd
00000290: e4ed bbbd 3196 5cbc 9eb7 c6bb c1e0 3ebe
000002a0: 98b5 f63d bcb6 db3d c443 44be 29f4 26be
000002b0: e20b 9b3d 8427 9ebd 4fb8 c93d 459d 1a3d
000002c0: 6ccc 6f3c 7e2f 4dbe 3d05 84bd 475c 1cbe
000002d0: 3079 b1bc 2b61 45bd 5a2c 23bd c56a 09be
000002e0: 1f64 04be d951 7e3d ea96 fc3d 1f81 81bd
000002f0: ded8 c13d d78a a2bd 58a9 f7bd 6ec6 6cbc
00000300: f718 16be 8fdb 20be e34f d13d 3dcf 89bd
00000310: 4f70 25bd d4d6 38be 4871 4abe e1d9 23bd
00000320: 7bc1 a53d d3c1 b93c 6ab4 bbbd ebd5 8abd
00000330: f7eb 42be 4d6f 883c ed87 e33d 493e 38be
00000340: a690 e43d aa0c b1bc 6fba 873d b89e 84bd
00000350: a287 8d3d dc54 dc3d 2703 dc3d 65f9 3fbd
00000360: d7c7 4bbe 3373 6c3d 5cee 403d 071f 93bd
00000370: e3c2 48bd 4c81 9f3d 97c7 193e 05f7 e0bd
00000380: 76dd c1bd 44a4 fe3c 5ecb 833d 520e 663d
00000390: 2644 15be 44a0 733c 9488 85be c2c7 94bd
000003a0: 45ab 4ebd 42b1 81bd e42b 40be b839 0fbe
000003b0: 6495 9dbc 943f 1dbe 8416 073e a77b 73bd
000003c0: 5d5e 20be 6b28 59be 2780 47be 690f a43d
000003d0: d53a 3dbe 84b2 44be 25bc 31bd 787a ad3d
000003e0: 7747 bebd fe2c 86bd ff6c 82be 18b1 7c3d
000003f0: de77 7cbe 2793 4b3d 7b79 88be 7950 d13d

mlp1_xi_init.network.4.bias f4 [32]
-0.23004952 -0.12125503 -0.09126873 -0.13867559 -0.002674443 -0.043708485 0.09369295 -0.03709964
-0.15856768 -0.0015591689 0.015703192 -0.06265586 0.16017887 -0.042434663 -0.06649251 -0.17150499
0.13408953 0.10938318 -0.16165411 -0.2297867 -0.102134384 0.030985093 -0.066884734 0.013902995
-0.074820325 0.033996034 0.06363857 0.092239 -0.07014362 -0.16359918 0.022275044 0.06795865
00000000: 1a92 6bbe 8f54 f8bd 1aeb babd f900 0ebe
00000010: b545 2fbb ab07 33bd 17e2 bf3d cbf5 17bd
00000020: 915f 22be 075d ccba fba3 803c b751 80bd
00000030: ee05 243e f8cf 2dbd 3a2d 88bd 019f 2fbe
00000040: c44e 093e 4a04 e03d a888 25be 344d 6bbe
00000050: d52b d1bd 73d4 fd3c ddfa 88bd 63c9 633c
00000060: 663b 99bd 6d3f 0b3d f054 823d cde7 bc3d
00000070: 75a7 8fbd 8b86 27be 277a b63c e82d 8b3d

mlp1_xi_init.network.6.weight f4 [4, 32]
-0.050423503 -0.073844776 0.090947874 -0.09987299 0.072458364 -0.04796258 -0.05075006 -0.1489573
0.0764333 -0.12441401 -0.054533992 -0.011454615 -0.11428374 -0.09227147 -0.0077627264 0.023456838
-0.0055008777 0.06274711 0.057518408 -0.096271016 0.104092285 0.02080122 0.026155995 -0.14378747
-0.0023935721 0.09847614 0.041760217 0.1787207 0.025843218 0.099575765 0.17454985 0.21127942
-0.1169282 0.15492693 0.19857644 0.07389722 0.15677395 0.17789215 0.14464967 0.027012916
-0.085102595 0.21291518 0.04179453 -0.07613945 -0.0010272551 0.014565509 -0.061604325 -0.14853175
0.07563417 0.17298633 0.058416724 -0.059049502 0.008782823 -0.12285968 0.02302946 -0.048531614
-0.12831978 -0.14220665 0.066732235 0.19220376 0.063643195 0.08347722 0.080675095 0.070778765
0.03722619 -0.015821302 -0.10757201 0.0965187 0.048905868 -0.012293302 0.044020962 0.06306395
0.0630478 -0.0029722452 0.016126644 0.049164012 0.1209246 -0.11486459 0.06769311 0.14496018
0.06516094 -0.10674022 0.15124719 0.0074728513 0.05530751 -0.04639912 0.14063321 0.18234554
0.12210066 0.09338908 0.013379021 -0.08912172 0.16760752 -0.12645046 0.027997417 -0.10130739
-0.11074307 0.04460969 -0.102450676 -0.11454722 0.08219711 0.06200702 -0.042466328 -0.040239573
-0.079339065 -0.10109364 -0.06484262 0.07180574 -0.07324893 0.19857848 -0.06693508 0.053416423
-0.13498272 -0.048178773 0.03904835 0.07886704 0.08694025 -0.06914754 0.014875443 0.11728402
0.044946 0.09933519 0.0061281305 -0.080971226 -0.07427537 -0.12283708 -0.14638744 0.14034939
00000000: e088 4ebd ee3b 97bd e142 ba3d 368a ccbd
00000010: 0d65 943d 6974 44bd 4bdf 4fbd 4388 18be
00000020: 1089 9c3d c6cc febd 095f 5fbd 23ac 3bbc
00000030: 980d eabd d3f8 bcbd 785e febb 8e28 c03c
00000040: b540 b4bb 8f81 803d 6c98 6b3d bd29 c5bd
00000050: 562e d53d 5267 aa3c 1945 d63c 063d 13be
00000060: 7add 1cbb dcad c93d c30c 2b3d 8f02 373e
00000070: 28b5 d33c 61ee cb3d 32bd 323e a259 583e
00000080: 0d78 efbd 2aa5 1e3e 9f57 4b3e 6d57 973d
00000090: 5a89 203e 5c29 363e 0b1f 143e 314a dd3c
000000a0: 454a aebd 7006 5a3e be30 2b3d 00ef 9bbd
000000b0: f6a4 86ba 2ca4 6e3c d154 7cbd b518 18be
000000c0: 16e6 9a3d 5423 313e 6046 6f3d e4dd 71bd
000000d0: d4e5 0f3c db9d fbbd 47a8 bc3c 16c9 46bd
000000e0: 4366 03be 9f9e 11be e9aa 883d 10d1 443e
000000f0: 5d57 823d 1bf6 aa3d fc38 a53d 75f4 903d
00000100: 7d7a 183d ad9b 81bc b74e dcbd 99ab c53d
00000110: 8551 483d d969 49bc 534f 343d ac27 813d
00000120: 341f 813d 00ca 42bb 061c 843c 3460 493d
00000130: 51a7 f73d 203e ebbd afa2 8a3d 7170 143e
00000140: 1973 853d 9e9a dabd 8be0 1a3e d2de f43b
00000150: 218a 623d 010d 3ebd 2702 103e cab8 3a3e
00000160: e90f fa3d c642 bf3d ae33 5b3c 7385 b6bd
00000170: 4ea1 2b3e 3b7c 01be d75a e53c 407a cfbd
00000180: 43cd e2bd a6b8 363d a9d1 d1bd bc97 eabd
00000190: f556 a83d 13fb 7d3d 2cf1 2dbd 40d2 24bd
000001a0: 857c a2bd 2f0a cfbd 35cc 84bd e30e 933d
000001b0: 8903 96bd 2858 4b3e 4215 89bd 2ecb 5a3d
000001c0: e938 0abe 1b57 45bd 2af1 1f3d 0b85 a13d
000001d0: bb0d b23d 3a9d 8dbd 21b8 733c 9b32 f03d
000001e0: 4c19 383d 4070 cb3d 7cce c83b 3ed4 a5bd
000001f0: af1d 98bd 0292 fbbd 97e6 15be c0b7 0f3e

mlp1_xi_init.network.6.bias f4 [4]
0.06917013 0.18917638 0.03476032 0.08503756
00000000: 12a9 8d3d 74b7 413e d660 0e3d 2c28 ae3d

mlp2_q_dynamics.network.0.weight f4 [32, 4]
0.34425628 -0.1639576 0.4859159 0.27558178 -0.31614113 -0.14196795 0.20743805 -0.46506912
-0.43408293 -0.16417754 0.09531653 -0.29408395 0.16155005 -0.42966056 -0.27259576 -0.25846463
-0.45247942 0.13892871 0.15820605 0.2222727 -0.23142874 0.1727022 -0.20616966 -0.42181134
0.46776485 0.2738071 -0.2936582 0.02936387 -0.14621061 -0.47235876 -0.06663233 0.2549188
0.34063178 0.4833942 0.23553586 -0.10036498 0.3509556 0.19596761 -0.3112383 -0.18111289
0.36059517 0.4181065 0.3320616 -0.45281905 -0.4919685 0.46082932 0.44798636 0.39292306
0.068459034 -0.009809852 -0.1562882 -0.103244185 0.20399737 -0.16607553 0.12738842 -0.27853787
0.119766414 0.27833742 -0.30293292 0.2955352 0.2826875 0.22691083 -0.3331923 -0.20506412
0.47334236 -0.2669645 0.31706822 -0.34208912 -0.22940212 0.13429892 -0.29116517 -0.45837915
-0.2801296 0.019629896 0.05862564 0.029983878 0.12002736 0.26874936 -0.17750108 -0.46664017
-0.40858757 -0.35864013 0.4667058 0.06519359 -0.0068616867 0.082861066 0.29785413 0.22992408
-0.029175699 0.15525275 -0.0060266852 -0.023254633 0.29049522 -0.4146043 0.41839045 0.26047057
-0.16320294 -0.07526666 0.087509096 -0.39499968 -0.2694937 0.34553587 -0.13724446 -0.11795193
-0.053236544 0.28109413 0.13726163 -0.35702914 0.2021265 0.39822638 0.0604496 -0.2799787
-0.30433095 -0.47882587 0.03261864 0.12726569 -0.3351226 -0.43287915 0.06766456 0.48159212
0.35492206 0.4717828 -0.32090282 -0.4172504 -0.41171312 0.18696702 0.3546074 -0.41052455
00000000: 5c42 b03e 80e4 27be f8c9 f83e 0e19 8d3e
00000010: 40dd a1be 0c60 11be a46a 543e 8a1d eebe
00000020: 1e40 debe 281e 28be 5035 c33d 2c92 96be
00000030: 606d 253e 78fc dbbe ac91 8bbe 7a55 84be
00000040: 62ab e7be 5443 0e3e c400 223e 749b 633e
00000050: a8fb 6cbe d8d8 303e 241e 53be a8f7 d7be
00000060: e07e ef3e 7230 8c3e 5e5a 96be 808c f03c
00000070: 3cb8 15be 02d9 f1be 8876 88bd b884 823e
00000080: 4a67 ae3e 727f f73e 5030 713e 288c cdbd
00000090: 74b0 b33e bcab 483e a05a 9fbe a875 39be
000000a0: ee9f b83e 0e12 d63e fa03 aa3e e6d7 e7be
000000b0: 4ce3 fbbe d2f1 eb3e 785e e53e 362d c93e
000000c0: 4034 8c3d 80b9 20bc 040a 20be b071 d3bd
000000d0: b0e4 503e b40f 2abe 1c72 023e 849c 8ebe
000000e0: 1848 f53d 3e82 8e3e 061a 9bbe 6450 973e
000000f0: 6abc 903e 505b 683e 2e98 aabe 54fc 51be
00000100: ee59 f23e 92af 88be c456 a23e 4e26 afbe
00000110: 64e8 6abe a885 093e 9a13 95be acb0 eabe
00000120: 266d 8fbe e0ce a03c 7021 703d c0a0 f53c
00000130: e8d0 f53d 8499 893e d8c2 35be 76eb eebe
00000140: 6432 d1be ae9f b7be 10f4 ee3e 3884 853d
00000150: 00d8 e0bb 10b3 a93d 5680 983e 3871 6b3e
00000160: e001 efbc 94fa 1e3e 807b c5bb 8080 bebc
00000170: cabb 943e 0447 d4be 4637 d63e 665c 853e
00000180: ac1e 27be 6825 9abd f837 b33d 663d cabe
00000190: 14fb 89be 14ea b03e d089 0cbe c890 f1bd
000001a0: 900e 5abd 92eb 8f3e 508e 0c3e 86cc b6be
000001b0: 40fa 4e3e 54e4 cb3e 009a 773d 5e59 8fbe
000001c0: 44d1 9bbe aa28 f5be 209b 053d f051 023e
000001d0: 3095 abbe 56a2 ddbe b893 8a3d 3e93 f63e
000001e0: 58b8 b53e 848d f13e 604d a4be d8a1 d5be
000001f0: 10cc d2be 4874 3f3e 1a8f b53e 4630 d2be

mlp2_q_dynamics.network.2.weight f4 [32, 32]
-0.039106164 0.027522419 0.06920198 -0.10545009 -0.09218167 -0.15285477 -0.04400923 -0.09693105
-0.16774818 0.06486389 -0.05043431 -0.17245753 -0.033678345 0.16196126 0.10618919 -0.039503567
0.04601772 0.17044716 0.09287429 -0.17443319 0.078954175 -0.09907915 -0.06075175 -0.032101296
0.042285975 -0.085037485 -0.16423705 -0.14604285 -0.07042812 -0.1147308 -0.16344059 0.054214142
-0.08118408 -0.15794584 -0.04367682 0.004230005 -0.04052453 0.1569274 -0.037674475 -0.072681606
-0.14559157 0.00914085 -0.027645297 -0.03692856 -0.118209854 -0.016546179 -0.0132911345 -0.13031563
0.029675912 0.15388577 -0.16163765 -0.07828992 0.12934813 0.011966923 -0.082733124 0.13969451
-0.16473185 0.15098593 -0.095611006 -0.09395301 -0.0039135036 0.05955379 0.017173788 -0.06272454
0.059318822 0.10443222 0.022259604 0.022872567 -0.0138106365 0.06862215 0.027773255 0.0007009653
-0.09961049 -0.07352781 -0.00018553043 -0.011964626 -0.1726795 -0.11174919 -0.041432712 0.127556
0.1280914 0.10393307 -0.1506361 -0.06400528 0.040300332 -0.007830125 -0.069083996 0.04624032
-0.15531139 0.16345493 -0.13970593 -0.087349765 0.072428286 0.052824795 0.013651954 0.01652599
0.08497217 -0.027283004 0.1664942 0.050440125 -0.1328846 -0.090269044 0.053121466 0.030544959
-0.104828775 -0.13554654 -0.10997263 -0.0297126 -0.11140952 0.17549059 -0.16981775 0.04102477
0.046628155 0.17096214 0.033683803 -0.016941326 -0.05247297 0.102017015 0.019601613 0.02646371
0.00263108 -0.0019500714 0.14428727 -0.03332505 -0.025083927 0.064054586 0.04243905 0.15586585
-0.09461464 0.02522354 -0.033796947 0.08736791 -0.053400308 -0.030518364 -0.09863429 -0.056026626
0.10887871 0.12499143 0.13627534 -0.045136746 -0.14451043 0.12556228 0.014114347 0.11356449
0.17634225 0.12360459 0.006321732 -0.02263682 0.04271562 -0.011903766 -0.054572225 -0.05190435
-0.1373538 0.1498191 0.07140224 -0.09263985 -0.0023784097 0.16851828 -0.076429285 0.1259748
0.17327692 -0.06874265 -0.055513192 -0.062367473 -0.11543621 0.0897495 0.12727877 -0.13898847
0.17426123 -0.06511136 0.06773837 -0.1766213 0.0005540625 -0.16170871 -0.04686643 0.096847616
0.115251206 -0.1699073 0.14118479 0.06403425 0.08096829 0.12487447 0.10762745 0.09119193
-0.005035558 -0.0061620376 0.17239976 0.17305233 -0.07884 0.14129223 0.13094124 -0.002765381
0.029427035 -0.09745403 0.15864235 -0.17260909 0.15009785 0.12814263 0.128263 0.007451394
0.12097452 0.037274882 -0.06358942 -0.15544432 -0.011052484 0.08959364 0.10591334 0.01895858
-0.1277808 -0.17382453 0.08976128 0.0928341 0.10185277 0.1117181 -0.16394383 0.09914603
-0.114701405 -0.053161483 -0.059345733 -0.16940542 -0.07280253 -0.13118806 -0.13673116 0.0035808384
0.06723503 -0.011177112 -0.14071906 -0.08907656 -0.03977731 0.054943368 -0.16455981 -0.15990025
0.04033719 0.01705881 -0.17471339 0.16544868 -0.03144176 0.024902107 0.034124028 0.06749736
-0.17380498 0.11322563 0.17160894 -0.092534944 -0.02930209 0.13967638 0.07413131 -0.16798596
-0.082785174 0.04837278 0.07614311 0.018881766 -0.017760998 0.061691795 0.13354033 -0.08210838
00000000: c92d 20bd b276 e13c c5b9 8d3d 37f6 d7bd
00000010: bec9 bcbd f685 1cbe 0643 34bd c983 c6bd
00000020: 2ec6 2bbe 5cd7 843d 3594 4ebd b598 30be
00000030: 4ef2 09bd 2cd9 253e b879 d93d 7ece 21bd
00000040: 147d 3c3d b389 2e3e e034 be3d 9d9e 32be
00000050: bab2 a13d 02ea cabd d4d6 78bd a67c 03bd
00000060: 0f34 2d3d 2228 aebd c22d 28be 428c 15be
00000070: 9e3c 90bd fbf7 eabd f85c 27be a60f 5e3d
00000080: d743 a6bd 8ebc 21be 77e6 32bd db9b 8a3b
00000090: 0dfd 25bd 94b1 203e 8d50 1abd 18da 94bd
000000a0: f515 15be 81c3 153c 6478 e2bc 6742 17bd
000000b0: 0218 f2bd da8b 87bc 0fc3 59bc 7671 05be
000000c0: e61a f33c 3b94 1d3e 5784 25be 7756 a0bd
000000d0: d673 043e ea10 443c fc6f a9bd 140c 0f3e
000000e0: 77af 28be 0e9c 1a3e b4cf c3bd 706a c0bd
000000f0: d93c 80bb adee 733d 0bb0 8c3c b975 80bd
00000100: 4bf8 723d 8fe0 d53d c659 b63c 405f bb3c
00000110: 0246 62bc c589 8c3d bd84 e33c fcc0 373a
00000120: 9600 ccbd c095 96bd f28a 42b9 4707 44bc
00000130: e5d2 30be c2dc e4bd 59b5 29bd 0a9e 023e
00000140: 642a 033e ddda d43d 5a40 1abe 3315 83bd
00000150: f611 253d ed49 00bc e97b 8dbd 7d66 3d3d
00000160: f309 1fbe bb60 273e 120f 0fbe 6fe4 b2bd
00000170: 4855 943d d05e 583d 72ac 5f3c 8361 873c
00000180: e405 ae3d 9b80 dfbc 757d 2a3e 4e9a 4e3d
00000190: e712 08be fade b8bd e595 593d 6c39 fa3c
000001a0: 78b0 d6bd b6cc 0abe 5539 e1bd d767 f3bc
000001b0: ad2a e4bd ceb3 333e b4e4 2dbe 9709 283d
000001c0: 2afd 3e3d b310 2f3e 07f8 093d 89c8 8abc
000001d0: e6ed 56bd 4cee d03d 9093 a03c 6cca d83c
000001e0: 336e 2c3b 8a99 ffba 0bc0 133e d97f 08bd
000001f0: cf7c cdbc 0d2f 833d 92d4 2d3d 4c9b 1f3e
00000200: 52c5 c1bd 99a1 ce3c ab6e 0abd f2ed b23d
00000210: 48ba 5abd a601 fabc c600 cabd 2d7c 65bd
00000220: cdfb de3d 82fb ff3d c38b 0b3e 4fe1 38bd
00000230: 8bfa 13be 6693 003e dd3f 673c 8094 e83d
00000240: 1093 343e 6724 fd3d 8826 cf3b da70 b9bc
00000250: 93f6 2e3d 0308 43bc 2087 5fbd a899 54bd
00000260: 79a6 0cbe 2e6a 193e 563b 923d f6b9 bdbd
00000270: 18df 1bbb 0e90 2c3e f586 9cbd 8aff 003e
00000280: 816f 313e f2c8 8cbd cd61 63bd 0975 7fbd
00000290: d269 ecbd 96ce b73d 5e55 023e fe52 0ebe
000002a0: 8971 323e 1b59 85bd 6aba 8a3d 37dc 34be
000002b0: 813e 113a f896 25be 04f7 3fbd 0b58 c63d
000002c0: d308 ec3d 2efc 2dbe bf92 103e 6424 833d
000002d0: b4d2 a53d 30be ff3d c86b dc3d d6c2 ba3d
000002e0: 5201 a5bb ebea c9bb 9089 303e a134 313e
000002f0: de76 a1bd e9ae 103e 7615 063e 653b 35bb
00000300: f710 f13c fa95 c7bd 2473 223e 70c0 30be
00000310: 40b3 193e d237 033e 6057 033e d32a f43b
00000320: 7dc1 f73d 8cad 183d 2b3b 82bd cc2c 1fbe
00000330: 7a15 35bc df7c b73d 18e9 d83d 064f 9b3c
00000340: f8d8 02be 0fff 31be c3d4 b73d ce1f be3d
00000350: 2f98 d03d 76cc e43d e4e0 27be 130d cb3d
00000360: 92e8 eabd dbbf 59bd 8314 73bd 9d78 2dbe
00000370: 7e19 95bd 2a56 06be 4103 0cbe 80ac 6a3b
00000380: 85b2 893d 3520 37bc a818 10be c66d b6bd
00000390: 88ed 22bd 4c0c 613d 5e82 28be e4bc 23be
000003a0: 9c38 253d ebbe 8b3c 11e8 32be 616b 293e
000003b0: 13c9 00bd 81ff cb3c a3c5 0b3d 0e3c 8a3d
000003c0: eff9 31be d7e2 e73d 41ba 2f3e f682 bdbd
000003d0: f00a f0bc 5307 0f3e 28d2 973d 8304 2cbe
000003e0: 468b a9bd 8922 463d ebf0 9b3d efad 9a3c
000003f0: 837f 91bc 89b0 7c3d ccbe 083e 7028 a8bd

mlp2_q_dynamics.network.4.weight f4 [32, 32]
-0.08134498 0.020901127 0.021350287 -0.118530504 0.0056039505 0.1408627 0.010288256 0.15450913
0.089950375 0.14553973 0.14422496 0.13811015 0.031213028 -0.16233373 -0.117278494 -0.14012429
0.1215258 0.07814053 0.16542362 -0.033445485 0.1146621 -0.0009382099 -0.05831541 -0.1176798
0.11405807 -0.044714686 -0.114817515 0.08389792 0.13252898 0.13458328 0.14702839 0.07594185
0.027789144 -0.0050532804 0.11464379 0.06784243 -0.16871625 -0.14031538 0.16228724 0.14620684
-0.15542546 -0.04916373 0.11769324 0.0021337473 0.027418442 0.15744075 -0.032454357 -0.06339866
0.14422528 0.058612503 0.03860765 0.016814632 0.1615036 -0.09751312 -0.017756615 0.09390689
-0.15905218 -0.036471985 -0.08168369 0.1166045 0.042580012 -0.13625492 -0.046860173 0.0342986
0.06665705 -0.06784795 0.16718599 0.034460295 0.08438041 0.15493251 0.084051244 -0.05952431
0.13578868 -0.03812372 0.12576444 -0.06484394 -0.08558151 -0.092098325 -0.038423702 -0.13090055
0.06050144 -0.11798342 -0.15935877 -0.17395492 -0.09091825 0.008405978 -0.08632521 -0.022720713
-0.17371798 -0.17507333 0.16568221 0.13766015 0.09238983 -0.05983704 0.054968636 0.04722965
0.12972195 -0.10156423 -0.119966514 0.06672257 -0.055181455 0.10461952 0.043077935 0.041342307
0.15643698 -0.086568445 -0.16439594 0.019662874 -0.16585325 0.13078958 -0.122894265 0.11901292
-0.05418066 -0.1664034 -0.106481485 -0.044333406 -0.12891023 -0.04229592 0.17062074 0.04728339
0.1763788 0.11452886 0.0004108264 -0.062914535 -0.13952568 -0.07698697 0.08152781 -0.13121594
0.16190225 0.12884921 -0.12491662 0.12268456 -0.09322533 -0.0055144513 0.001429895 -0.07903345
-0.09675413 0.0444024 0.049983233 0.05434733 -0.09366395 0.068577155 0.1607451 -0.16655938
-0.13054228 0.061602864 0.12976861 -0.0972855 -0.114971206 -0.018265117 -0.13626765 0.036682446
-0.11706704 -0.07122832 -0.076984294 -0.0006630964 -0.10920668 0.15576278 0.15376711 -0.11727504
0.04494369 -0.16961429 0.12349509 0.007090849 0.12318177 0.11435995 -0.05977369 -0.13585958
0.1589647 0.012664116 -0.07370291 0.12398123 0.013089083 0.14831838 0.032735795 0.004059458
-0.08599563 -0.016971925 0.17092624 -0.16261867 -0.05138668 -0.16092725 -0.06683611 0.16401842
0.06531512 0.14113964 0.0370738 -0.0695321 0.030717066 0.07479091 0.17039093 0.09007483
-0.10707681 0.048622184 -0.067170866 0.097259246 0.14278191 -0.067228355 -0.17508945 0.083069205
-0.06185442 -0.03923507 0.14491932 0.11374395 -0.16882996 0.002180657 -0.025039548 0.10810443
-0.10233975 -0.07055085 -0.1665112 0.17547993 0.111920364 0.09051215 -0.12403444 -0.09188255
0.10728868 -0.16601099 -0.0055933716 -0.016519794 0.11709878 0.1443399 0.1456069 -0.024660332
0.15512127 0.043836262 0.08741229 0.06528854 0.115390085 -0.043735698 0.14344625 0.06356512
-0.13545689 0.11871914 -0.13182251 -0.14502905 -0.0962151 0.05814872 0.12608491 -0.15641607
0.026584608 -0.08495901 -0.015438685 -0.037754472 0.17203695 -0.028094098 0.04489065 -0.13595816
0.048388775 -0.09707049 0.12117697 0.15128982 -0.14658818 0.14234373 0.14412233 0.14324193
00000000: 3298 a6bd d738 ab3c cce6 ae3c 1fc0 f2bd
00000010: 58a1 b73b 503e 103e 1390 283c a437 1e3e
00000020: e737 b83d 5e08 153e b5af 133e bf6c 0d3e
00000030: 77b2 ff3c d03a 26be b52f f0bd be7c 0fbe
00000040: 85e2 f83d 2408 a03d cf64 293e 22fe 08bd
00000050: f7d3 ea3d 33f2 75ba 24dc 6ebd 1b02 f1bd
00000060: 4797 e93d bf26 37bd 7225 ebbd acd2 ab3d
00000070: adb5 073e 33d0 093e 9c8e 163e 6787 9b3d
00000080: 0fa6 e33c fd95 a5bb 5dca ea3d f9f0 8a3d
00000090: f4c3 2cbe d6ae 0fbe a02e 263e 3fb7 153e
000000a0: da27 1fbe e85f 49bd 2709 f13d 57d6 0b3b
000000b0: a49c e03c 2638 213e dcee 04bd 28d7 81bd
000000c0: cbaf 133e aa13 703d 0e23 1e3d d7be 893c
000000d0: 3361 253e f5b4 c7bd 5276 91bc 4152 c03d
000000e0: 93de 22be a663 15bd c749 a7bd 57ce ee3d
000000f0: 6168 2e3d 6986 0bbe 74f0 3fbd b07c 0c3d
00000100: 7e83 883d def3 8abd ce32 2b3e 3d26 0d3d
00000110: a3cf ac3d a1a6 1e3e 0f23 ac3d c3cf 73bd
00000120: 300c 0b3e 9e27 1cbd 65c8 003e e6cc 84bd
00000130: 5c45 afbd 0c9e bcbd 2c62 1dbd cb0a 06be
00000140: 5cd0 773d 4ba1 f1bd f22e 23be 3d21 32be
00000150: 5933 babd 3ab9 093c 46cb b0bd ca20 babc
00000160: 20e3 31be 6c46 33be 99a8 293e c8f6 0c3e
00000170: e136 bd3d af17 75bd cb26 613d e173 413d
00000180: d5d5 043e e800 d0bd 01b1 f5bd d8a5 883d
00000190: f305 62bd c242 d63d 7d72 303d 8d56 293d
000001a0: 0431 203e cc4a b1bd 6957 28be 0914 a13c
000001b0: 6fd5 29be b4ed 053e fdaf fbbd 0cbd f33d
000001c0: 8aec 5dbd a765 2abe f712 dabd f296 35bd
000001d0: 0b01 04be 7d3e 2dbd 34b7 2e3e 3aac 413d
000001e0: a59c 343e 1b8e ea3d 3064 d739 56d9 80bd
000001f0: d2df 0ebe 58ab 9dbd 0df8 a63d 795d 06be
00000200: b4c9 253e 0cf1 033e 49d4 ffbd 0b42 fb3d
00000210: ecec bebd 92b2 b4bb 516b bb3a 4adc a1bd
00000220: 0827 c6bd 4adf 353d 38bb 4c3d 4e9b 5e3d
00000230: e3d2 bfbd 2e72 8c3d 5d9a 243e 8b8e 2abe
00000240: e0ac 05be 4953 7c3d 10e2 043e 9f3d c7bd
00000250: 0676 ebbd baa0 95bc bf89 0bbe 5540 163d
00000260: d8c0 efbd 27e0 91bd f1a9 9dbd a5d3 2dba
00000270: c0a7 dfbd 4780 1f3e 2075 1d3e e52d f0bd
00000280: e016 383d 5eaf 2dbe feea fc3d 5a5a e83b
00000290: b946 fc3d 8d35 ea3d 42d5 74bd c61e 0bbe
000002a0: a4c7 223e 277d 4f3c 8df1 96bd dfe9 fd3d
000002b0: 9873 563c c6e0 173e f815 063d 3405 853b
000002c0: 7a1e b0bd b508 8bbc 4a07 2f3e 8285 26be
000002d0: d77a 52bd 1dca 24be 5fe1 88bd 72f4 273e
000002e0: efc3 853d e986 103e b2da 173d d866 8ebd
000002f0: 5ba2 fb3c fa2b 993d f67a 2e3e 2779 b83d
00000300: 164b dbbd 0e28 473d e190 89bd db2f c73d
00000310: 6c35 123e 05af 89bd a64a 33be 3020 aa3d
00000320: 0f5b 7dbd f4b4 20bd bb65 143e 97f2 e83d
00000330: c3e1 2cbe 5ae9 0e3b bd1f cdbc db65 dd3d
00000340: 8197 d1bd f77c 90bd e981 2abe 03b1 333e
00000350: 8136 e53d 6f5e b93d c505 febd eb2c bcbd
00000360: 2bba db3d c9fe 29be 9a48 b7bb 8554 87bc
00000370: 7cd1 ef3d d7cd 133e fa19 153e 7704 cabc
00000380: 1cd8 1e3e a78d 333d 3705 b33d 00b6 853d
00000390: a351 ec3d 3424 33bd 93e3 123e 6e2e 823d
000003a0: 36b5 0abe 0523 f33d 7bfc 06be 7f82 14be
000003b0: 6c0c c5bd 5a2d 6e3d 671c 013e 892b 20be
000003c0: f7c7 d93c fdfe adbd 8af2 7cbc 6fa4 1abd
000003d0: 742a 303e 9825 e6bc 42df 373d 9e38 0bbe
000003e0: 4f33 463d e5cc c6bd a22b f83d b8eb 1a3e
000003f0: 361b 16be 8ec2 113e ce94 133e 03ae 123e

mlp2_q_dynamics.network.6.weight f4 [10, 32]
0.13905017 0.005579758 -0.15807788 0.063344814 0.024475602 0.12335607 -0.072614215 0.17399123
-0.14095771 0.11678938 -0.057498794 -0.10632952 -0.06700601 0.025239998 0.072371155 -0.08381019
0.03019105 -0.00389793 -0.12562628 0.049720764 0.028652228 0.0002535976 0.059848525 0.076195054
-0.13287981 -0.07377361 -0.14305788 0.044976924 0.15996057 0.0059687733 -0.029894654 -0.007284893
0.15490992 0.09428001 0.14093636 0.06607452 0.052477334 -0.14281404 -0.15747927 -0.07343275
0.009131304 0.00030103387 0.071580544 0.081152305 -0.1511781 0.099537894 -0.02423254 0.058948204
0.10433587 -0.008277767 -0.03513235 -0.044345945 -0.01714911 0.11760178 0.16401395 -0.056379247
0.16763952 -0.07957179 -0.06611435 -0.14764488 -0.0064234748 0.105962634 -0.17044403 0.14640291
0.15239893 0.13244261 0.010791679 0.07290741 0.1568796 0.13211708 -0.08394651 0.08961777
-0.08930668 0.056953058 0.14240375 -0.1227367 -0.02986397 -0.14895771 -0.116277926 -0.12441288
-0.046380796 -0.027062237 0.06325873 0.10461558 0.046941135 -0.07018592 0.08527414 -0.063560985
0.12667125 0.16444153 0.15397127 0.11394285 -0.085859895 0.024263097 -0.06996067 0.075882554
0.054492164 0.01975604 0.07108215 0.103023104 -0.08169285 0.13881798 0.009788901 -0.03733214
0.10854931 -0.072592065 0.05892102 -0.03749333 -0.09149929 -0.0707411 -0.08144248 0.16868743
-0.035468575 0.16855852 -0.15997778 -0.14438923 -0.15666194 -0.02676601 -0.12861156 0.08308674
0.13255426 0.12992486 -0.104707584 0.059351254 -0.13400686 -0.10936572 0.026527416 0.13282198
0.15781958 -0.07321008 -0.11102645 -0.049556475 -0.031922065 0.14574802 0.08930456 0.030553661
0.02406153 0.06673671 -0.15504658 0.16501677 0.059100922 0.009155813 0.0040248344 -0.018918708
0.15565981 -0.085434146 -0.1289785 0.12542073 0.03627558 0.086476184 0.10609432 -0.028532805
-0.034266334 -0.14195956 0.16689417 -0.14048107 -0.07548694 0.06697581 0.07839179 -0.039586574
-0.13002203 0.098057866 -0.119522035 -0.120632514 0.09767096 -0.13366036 0.0604162 0.0448932
0.035882667 -0.045149516 0.15272695 0.1486894 -0.018590616 0.13894416 -0.025925832 -0.15292981
0.1678725 -0.008605016 0.16879423 0.14359537 0.073261485 0.042629745 -0.03151227 -0.075894
-0.08165204 -0.08222266 -0.020474559 0.06922348 0.13433929 -0.06707947 -0.08059038 0.09292997
0.058524206 0.12354908 -0.01666853 0.103585295 -0.13740547 0.12795277 0.04098821 -0.1672604
0.026014362 0.13546471 -0.16986625 -0.11628598 0.03537073 0.05042139 0.1466041 -0.13959047
-0.13188419 -0.02345687 -0.035140734 0.14673948 -0.12566666 0.08979677 -0.16633338 -0.16318223
-0.0057717157 0.17401063 0.0060227215 -0.061521966 -0.038129833 -0.056327324 -0.009151155 0.14452173
0.026740067 -0.041957546 -0.028704511 -0.007028893 -0.17001733 -0.17121714 -0.17598505 0.1752382
0.16287188 0.026030315 0.08498954 0.08042192 0.021529559 -0.03450714 0.07446783 -0.10860326
-0.02428141 -0.06093802 -0.17654385 -0.08668188 0.040688735 0.09339292 0.053887654 -0.07030583
0.051738355 -0.012847329 0.16567045 0.06014549 -0.1420202 -0.108401015 -0.15271495 0.109464295
00000000: 2b63 0e3e 67d6 b63b 2bdf 21be edba 813d
00000010: 0f81 c83c 1ba2 fc3d c3b6 94bd c22a 323e
00000020: 3857 10be 452f ef3d db83 6bbd 4bc3 d9bd
00000030: 723a 89bd 1dc4 ce3c 5437 943d ada4 abbd
00000040: 3953 f73c 6a74 7fbb 2da4 00be 00a8 4b3d
00000050: 14b8 ea3c 4bf5 8439 ba23 753d 270c 9c3d
00000060: a511 08be 9e16 97bd c47d 12be b939 383d
00000070: b4cc 233e b395 c33b a2e5 f4bc 1db6 eebb
00000080: b5a0 1e3e e115 c13d 9f51 103e 1452 873d
00000090: 79f2 563d d83d 12be 3f42 21be e963 96bd
000000a0: 779b 153c 15d4 9d39 d298 923d 2e33 a63d
000000b0: 6fce 1abe 86da cb3d 5283 c6bc ac73 713d
000000c0: 0bae d53d 799f 07bc f0e6 0fbd 18a4 35bd
000000d0: 4a7c 8cbc 34d9 f03d 46f3 273e eded 66bd
000000e0: b2a9 2b3e 89f6 a2bd f666 87bd 3830 17be
000000f0: 037c d2bb f002 d93d e188 2ebe a5ea 153e
00000100: 770e 1c3e 099f 073e 95cf 303c 7b50 953d
00000110: 0ca5 203e b349 073e 26ec abbd 8589 b73d
00000120: 6ce6 b6bd 9c47 693d 4ad2 113e 615d fbbd
00000130: 49a5 f4bc 5f88 18be 1f23 eebd 2ecc febd
00000140: caf9 3dbd a0b1 ddbc cb8d 813d b140 d63d
00000150: 5945 403d a3bd 8fbd 35a4 ae3d 432c 82bd
00000160: 1cb6 013e 5c63 283e a5aa 1d3e de5a e93d
00000170: 50d7 afbd 67c3 c63c 8a47 8fbd 5068 9b3d
00000180: 2d33 5f3d 6bd7 a13c 8593 913d c7fd d23d
00000190: 954e a7bd 4d26 0e3e a061 203c 96e9 18bd
000001a0: 1a4f de3d 26ab 94bd 2b57 713d 9b92 19bd
000001b0: fb63 bbbd b6e0 90bd 51cb a6bd 66bc 2c3e
000001c0: 7f47 11bd 9b9a 2c3e 37d1 23be c5da 13be
000001d0: fd6b 20be 6444 dbbc c0b2 03be 6129 aa3d
000001e0: 4ebc 073e 060b 053e ee70 d6bd 4d1a 733d
000001f0: 1839 09be 22fb dfbd 0650 d93c 7c02 083e
00000200: 759b 213e 2bef 95bd d661 e3bd bbfb 4abd
00000210: b6c0 02bd f83e 153e 4fe5 b63d ac4b fa3c
00000220: b01c c53c 42ad 883d 88c4 1ebe 28fa 283e
00000230: cf13 723d 4302 163c c2e2 833b 68fb 9abc
00000240: 4965 1f3e 19f8 aebd f112 04be 4b6e 003e
00000250: b495 143d 6d1a b13d fb47 d93d a1bd e9bc
00000260: db5a 0cbd d95d 11be 4ee6 2a3e 45da 0fbe
00000270: e698 9abd 9d2a 893d e08b a03d 8825 22bd
00000280: 7f24 05be 90d2 c83d f8c7 f4bd 2e0e f7bd
00000290: b607 c83d 43de 08be fa76 773d efe1 373d
000002a0: b4f9 123d b3ee 38bd 7464 1c3e 0942 183e
000002b0: 594b 98bc 6147 0e3e 6962 d4bc a299 1cbe
000002c0: c5e6 2b3e 0efc 0cbc 65d8 2c3e aa0a 133e
000002d0: 1e0a 963d 879c 2e3d 0313 01bd 506e 9bbd
000002e0: 2f39 a7bd 5b64 a8bd 43ba a7bc 0ac5 8d3d
000002f0: 3d90 093e f660 89bd 920c a5bd 1152 be3d
00000300: 14b7 6f3d 4d07 fd3d 718c 88bc 8724 d43d
00000310: 05b4 0cbe 0d06 033e 41e3 273d 4f46 2bbe
00000320: 121c d53c 43b7 0a3e 6bf1 2dbe 5827 eebd
00000330: e6e0 103d a986 4e3d 631f 163e cef0 0ebe
00000340: a60c 07be 9f28 c0bc bbef 0fbd e042 163e
00000350: c3ae 00be 5ee7 b73d 4c53 2abe 3e19 27be
00000360: a920 bdbb d82f 323e 405a c53b 75fe 7bbd
00000370: 072e 1cbd 7bb7 66bd baee 15bc 81fd 133e
00000380: fc0d db3c addb 2bbd b925 ebbc a152 e6bb
00000390: 0619 2ebe 8c53 2fbe 6d35 34be a571 333e
000003a0: e3c7 263e 873d d53c ff0e ae3d 3fb4 a43d
000003b0: c25e b03c 5c57 0dbd 9782 983d 636b debd
000003c0: cfe9 c6bc 259a 79bd e9c7 34be 4586 b1bd
000003d0: 3ba9 263d ca44 bf3d 4db9 5c3d 81fc 8fbd
000003e0: 99eb 533d 9a7d 52bc 84a5 293e 1e5b 763d
000003f0: be6d 11be 5a01 debd 4f61 1cbe d12e e03d

mlp3_q_init.network.0.weight f4 [32, 4]
0.13460776 -0.15711488 0.39198348 -0.6721452 -0.3968413 -0.037958056 -0.6302416 0.16490808
0.027630026 0.006997615 0.42250377 0.4898877 -0.20959948 0.10745403 0.2503367 -0.12877706
-0.40329802 0.49809673 0.4015678 -0.4455255 -0.32517606 -0.3573817 -0.39345756 0.025884228
-0.25536937 0.3848975 -0.2316977 -0.4378611 0.094037205 0.28599128 0.29402968 0.16820022
0.07640858 0.52467215 0.40015182 0.1498688 -0.27596402 -0.50197953 -0.3851114 0.22090967
-0.2278037 -0.3848834 -0.3911872 -0.18490063 0.16116774 -0.18100438 -0.47557107 -0.49919474
0.36940193 0.14665492 -0.226254 -0.18100385 0.06721732 -0.47238502 -0.08614583 0.5388886
-0.42112 -0.3708266 0.30870757 0.10421472 -0.088656865 -0.31012043 -0.1190555 -0.39592785
0.49311158 -0.35012648 -0.33410746 0.35122848 0.4672842 -0.25105038 -0.32399252 -0.30809125
-0.5442718 -0.11081356 -0.47552973 0.045625985 0.25218904 0.009316679 -0.026533153 -0.41547775
-0.14650662 -0.07721831 0.138053 -0.79678684 -0.3045482 0.11158415 -0.39408737 -0.21326065
-0.45670798 0.012532502 0.2252454 -0.46488303 0.13809906 -0.4548896 -0.349636 -0.103621684
-0.21376456 -0.49340066 -0.45153323 0.4361943 -0.27259296 0.46847907 0.14156565 0.2748808
0.0987367 0.22516423 -0.38372004 -0.3650825 0.20205891 -0.41714787 -0.29760376 -0.034987222
-0.072568364 -0.7098783 -0.6965752 -0.43600684 -0.460714 -0.5277486 -0.111594364 -0.037211522
0.2668688 0.07247286 0.065476395 0.5207899 -0.42975092 0.2642059 -0.23353942 0.15561381
00000000: 9ed6 093e b9e2 20be 0fb2 c83e b511 2cbf
00000010: c82e cbbe e879 1bbd 8357 21bf aadd 283e
00000020: 5d58 e23c 404c e53b 6a52 d83e 90d2 fa3e
00000030: 3fa1 56be dc10 dc3d 222c 803e 22de 03be
00000040: 147d cebe 8906 ff3e 4b9a cd3e eb1b e4be
00000050: 7a7d a6be bcfa b6be 4573 c9be 290b d43c
00000060: c6bf 82be 4911 c53e 2942 6dbe 552f e0be
00000070: 9496 c03d 736d 923e 0f8b 963e ae3c 2c3e
00000080: 1a7c 9c3d ea50 063f b3e0 cc3e 3577 193e
00000090: 284b 8dbe bb81 00bf 522d c5be 2536 623e
000000a0: 6045 69be 700f c5be b049 c8be 9756 3dbe
000000b0: 2809 253e 3659 39be 0d7e f3be 7496 ffbe
000000c0: 4022 bd3e b52c 163e 21af 67be 1359 39be
000000d0: 3ca9 893d 73dc f1be 3a6d b0bd 9af4 093f
000000e0: 0a9d d7be fcdc bdbe eb0e 9e3e 876e d53d
000000f0: bb91 b5bd 1bc8 9ebe 5fd3 f3bd 0eb7 cabe
00000100: 1f79 fc3e c743 b3be 2210 abbe 38d4 b33e
00000110: e03f ef3e ad89 80be 59e2 a5be 23be 9dbe
00000120: 6655 0bbf 38f2 e2bd a278 f3be 50e2 3a3d
00000130: ec1e 813e fca4 183c 0e5c d9bc 80b9 d4be
00000140: d505 16be a224 9ebd c45d 0d3e 39fa 4bbf
00000150: beed 9bbe 3b86 e43d d2c5 c9be 0061 5abe
00000160: a1d5 e9be 2055 4d3c bba6 663e 2605 eebe
00000170: d769 0d3e 4ae7 e8be 7d03 b3be 9b37 d4bd
00000180: 19e5 5abe 039f fcbe 5d2f e7be dc54 df3e
00000190: 4e91 8bbe 7ddc ef3e 96f6 103e 2dbd 8c3e
000001a0: 7836 ca3d 7491 663e f476 c4be 18ec babe
000001b0: 88e8 4e3e 6894 d5be 855f 98be c34e 0fbd
000001c0: b99e 94bd 96ba 35bf c152 32bf 4a3c dfbe
000001d0: b5e2 ebbe 881a 07bf 968b e4bd 1c6b 18bd
000001e0: 07a3 883e a76c 943d 7d18 863d 7d52 053f
000001f0: 5008 dcbe ff45 873e f524 6fbe 3a59 1f3e

mlp3_q_init.network.0.bias f4 [32]
0.4340746 -0.39727762 -0.19470821 -0.18651836 0.28416908 -0.31287622 0.18055916 0.2142435
0.19508205 0.33468014 -0.07460716 0.18683301 -0.4335696 0.008651754 -0.07740801 -0.013507833
-0.16112591 -0.4299731 0.38723987 0.36681765 -0.37021858 0.21203412 -0.19398136 0.17665242
0.2780096 0.040732883 0.42032075 -0.18552683 -0.47987363 0.06802091 0.5311821 0.22102468
00000000: 073f de3e f967 cbbe 9761 47be abfe 3ebe
00000010: 9c7e 913e 5031 a0be 80e4 383e a662 5b3e
00000020: 97c3 473e 325b ab3e a4cb 98bd 2751 3f3e
00000030: d6fc ddbe 16c0 0d3c 1788 9ebd f54f 5dbc
00000040: 31fe 24be 6f25 dcbe 4e44 c63e 86cf bb3e
00000050: 4a8d bdbe 791f 593e 0da3 46be 5fe4 343e
00000060: 4657 8e3e 86d7 263d 4834 d73e bffa 3dbe
00000070: ffb1 f5be 8c4e 8b3d 8dfb 073f 4b54 623e
