models/augmented_controller_seed_123.pt (torch, 54369 bytes, 29 tensors)

B_q f4 [10, 4]
-0.120586626 0.078792766 -0.29318637 0.083722636 -0.06590905 0.101704724 -0.076320164 0.037152108
0.19504555 -0.12010705 0.23481582 -0.21379392 -0.16238607 0.38593203 -0.030932873 0.18840891
-0.0789364 -0.1030721 -0.09845167 0.13079081 0.18607679 -0.013087453 0.028787337 -0.02933351
-0.07715152 0.06460136 -0.29151005 -0.07089484 -0.046260346 -0.113550596 -0.1502333 0.09014667
-0.17402767 -0.035092227 -0.35390785 -0.052438024 -0.16542415 -0.123102464 -0.030660031 0.1265505
00000000: 1ff6 f6bd 1a5e a13d 861c 96be c676 ab3d
00000010: 53fb 86bd 914a d03d bf4d 9cbd cf2c 183d
00000020: 05ba 473e affa f5bd 8f73 703e cbec 5abe
00000030: 8948 26be e298 c53e f066 fdbc 44ee 403e
00000040: 68a9 a1bd 7717 d3bd 07a1 c9bd 07ee 053e
00000050: ea8a 3e3e c26c 56bc 6cd3 eb3c d44c f0bc
00000060: 9e01 9ebd b84d 843d ce40 95be 5031 91bd
00000070: 7d7b 3dbd 378d e8bd c2d6 19be d19e b83d
00000080: 4f34 32be debc 0fbd 6933 b5be 41c9 56bd
00000090: f364 29be 251d fcbd bf2a fbbc 7496 013e

lambda_xi_diag f4 [4]
-0.469506 -0.5489806 -0.47935843 -0.5771116
00000000: 1763 f0be fe89 0cbf 786e f5be 96bd 13bf

lambda_q_real f4 [5]
-0.5691251 -0.6223124 -0.36275876 -0.379857 -0.62647957
00000000: 2fb2 11bf de4f 1fbf 84bb b9be 9e7c c2be
00000010: f760 20bf

lambda_q_imag f4 [5]
1.0 1.0 1.0 1.0 1.0
00000000: 0000 803f 0000 803f 0000 803f 0000 803f
00000010: 0000 803f

q0_scale f4 [10]
5.0 5.0 5.0 5.0 5.0 5.0 5.0 5.0
5.0 5.0
00000000: 0000 a040 0000 a040 0000 a040 0000 a040
00000010: 0000 a040 0000 a040 0000 a040 0000 a040
00000020: 0000 a040 0000 a040

mlp1_xi_init.network.0.weight f4 [32, 4]
-0.18096831 0.41076797 0.05331737 -0.34782025 0.13349435 0.5554076 -0.39993554 -0.3751048
-0.16451734 0.5119455 0.43421212 -0.09331695 -0.40465987 0.8014768 1.0586238 0.250442
-0.22175455 -0.28669125 0.3402088 0.045194235 0.2551093 -0.41758603 0.099489085 0.331767
0.26634985 0.019326575 0.12196577 -0.0189847 -0.18439248 0.12359567 0.018994011 0.42441338
0.30618483 0.27933058 -0.31375343 0.4565426 0.19426928 0.3497221 -0.17378385 -0.037411474
0.49980503 0.33529985 0.40027755 -0.10477416 0.39402905 -0.37665918 0.05733667 -0.2700847
-0.059827004 0.29476744 0.61378735 0.40612197 -0.05818001 0.5392267 1.3419056 -0.20781714
0.20403 0.18727224 0.17876379 0.0084285885 -0.34838635 0.37128356 0.52184165 0.347703
-0.15664153 0.7326501 1.358688 -0.25836858 0.49415722 -0.20558293 0.3070787 0.18775712
0.15193248 0.42398763 -0.15360424 0.02781104 -0.09816447 -0.36986828 -0.12991868 -0.20035255
-0.07913257 0.65058017 1.0469093 -0.30087903 -0.015166828 0.2580585 0.7211412 0.43768415
0.120940566 -0.012668665 -0.11404546 0.06761979 -0.4260062 -0.15450883 0.0042889826 -0.18448102
-0.058137443 0.8201162 1.0881076 0.41652203 -0.20781969 0.14660557 -0.35491192 0.38481343
0.07483426 0.26659602 -0.6149051 0.5336726 0.4786531 0.3340411 0.0056061284 0.47059834
0.2865971 0.4027694 0.04446764 -0.40479305 0.042626683 0.54193544 0.1486262 -0.35823935
-0.34225088 0.021645349 0.6474249 0.0154054575 -0.0045252265 0.04963763 0.39939722 -0.4105915
00000000: c24f 39be 2e50 d23e 5163 5a3d 7f15 b2be
00000010: beb2 083e 312f 0e3f 5ac4 ccbe bd0d c0be
00000020: 3c77 28be dc0e 033f 0d51 de3e f51c bfbd
00000030: 942f cfbe 952d 4d3f fc80 873f ef39 803e
00000040: a013 63be 32c9 92be d92f ae3e 971d 393d
00000050: b09d 823e d6cd d5be efc0 cb3d 5ddd a93e
00000060: 025f 883e c452 9e3c 31c9 f93d cd85 9bbc
00000070: 62d1 3cbe ba1f fd3d 5499 9b3c b64c d93e
00000080: 42c4 9c3e 6b04 8f3e 4aa4 a0be f4bf e93e
00000090: 87ee 463e c60e b33e 65f4 31be c63c 19bd
000000a0: 72e6 ff3e 6cac ab3e 2ef1 cc3e d693 d6bd
000000b0: 2dbe c93e 79d9 c0be dbd9 6a3d 8b48 8abe
000000c0: 290d 75bd c2eb 963e 2b21 1d3f 38ef cf3e
000000d0: 2a4e 6ebd c30a 0a3f 90c3 ab3f 04ce 54be
000000e0: 3eed 503e 4bc4 3f3e db0d 373e 1018 0a3c
000000f0: b25f b2be e118 be3e 6a97 053f 2106 b23e
00000100: a366 20be f58e 3b3f 7de9 ad3f e348 84be
00000110: 2d02 fd3e 5584 52be 6b39 9d3e 6743 403e
00000120: 3094 1b3e e814 d93e 6e4a 1dbe fad3 e33c
00000130: 740a c9bd 605f bdbe 6709 05be 3829 4dbe
00000140: 4210 a2bd 6c8c 263f 2001 863f d10c 9abe
00000150: 4a7e 78bc 3e20 843e b69c 383f 2318 e03e
00000160: b0af f73d 3b90 4fbc ab90 e9bd 3f7c 8a3d
00000170: 7c1d dabe 9037 1ebe 988a 8c3b 98e8 3cbe
00000180: 8721 6ebd 23f3 513f 1c47 8b3f 6042 d53e
00000190: afce 54be c51f 163e 04b7 b5be 4406 c53e
000001a0: b442 993d 467f 883e 6c6a 1dbf c49e 083f
000001b0: 0512 f53e 6f07 ab3e 9db3 b73b 44f2 f03e
000001c0: dbbc 923e ca37 ce3e b323 363d 0941 cfbe
000001d0: 5199 2e3d 48bc 0a3f 7731 183e 266b b7be
000001e0: 823b afbe 9651 b13c a3bd 253f 2c67 7c3c
000001f0: 5a48 94bb d450 4b3d cb7d cc3e 0d39 d2be

mlp1_xi_init.network.0.bias f4 [32]
-0.5122499 -0.22146308 -0.3182473 0.17917481 0.22124062 -0.53435993 -0.45720652 -0.5766955
0.15693666 0.3684466 -0.3939687 -0.25132725 0.10839624 -0.0061453995 0.47604424 0.082849115
-0.12809587 0.016540177 0.14481407 -0.080633506 -0.07523195 0.026786447 -0.03546552 0.06495183
0.032912116 0.21566224 -0.114472784 -0.10460497 0.25318906 -0.36109236 -0.000637316 -0.1322072
00000000: cf22 03bf 38c7 62be 4ff1 a2be 9a79 373e
00000010: e78c 623e d0cb 08bf f916 eabe 51a2 13bf
00000020: 01b4 203e 08a5 bc3e 44b6 c9be f7ad 80be
00000030: d9fe dd3d 595f c9bb 12bc f33e ccac a93d
00000040: 902b 03be 447f 873c 244a 143e 2e23 a5bd
00000050: 3513 9abd 406f db3c 4b44 11bd 7705 853d
00000060: dbce 063d 90d6 5c3e b570 eabd 213b d6bd
00000070: ffa1 813e 19e1 b8be 8e11 27ba 5361 07be

mlp1_xi_init.network.2.weight f4 [32, 32]
0.058855712 -0.1279145 -0.026311575 -0.012314298 -0.17291306 -0.13369474 0.06378294 -0.08203181
0.07671824 -0.20509608 -0.087383054 -0.14588799 0.040729888 -0.25139108 -0.07659268 -0.06002477
-0.16750143 0.047630806 -0.026231624 -0.22761041 -0.15396975 -0.03415126 -0.2065619 0.06104197
-0.0028843975 -0.06416948 -0.16910858 0.0079714 0.09251958 0.13197534 -0.1635856 -0.10887688
0.11290174 0.053694874 0.07577931 -0.11569087 0.12271062 -0.1726312 -0.027720548 -0.028196089
0.002081167 -0.16271266 0.16232659 0.16894472 -0.15100628 -0.28740862 -0.13200486 0.14081088
0.07106758 0.08949084 0.029734682 -0.09078007 -0.16869043 -0.026628055 -0.10231133 0.058598533
-0.0042319307 -0.075400785 -0.073850885 -0.13902709 -0.09100773 -0.102319665 -0.1252634 -0.18748951
0.13373035 -0.15669002 0.15114437 -0.108249806 -0.029342478 0.12557769 0.059614047 -0.07200406
-0.14071247 -0.09335966 0.14353108 -0.051159266 0.12724939 -0.27729172 -0.037174962 0.05424042
-0.052459225 0.0072938735 0.104844764 -0.052991852 -0.23758148 0.04244449 0.12592708 0.022432046
-0.09888688 0.041876838 0.014899615 -0.09660695 -0.024197824 0.071151204 -0.010690272 0.042222664
-0.14386202 0.13872145 -0.12764141 -0.019250428 -0.14006758 -0.10094121 0.06319266 -0.086870186
-0.13219385 -0.12891302 0.12885764 0.09954641 0.052030876 -0.39067522 0.09662699 -0.00934284
-0.19586247 -0.0090086395 -0.01802642 -0.031554833 -0.24588102 0.073718034 -0.04678238 -0.04846602
-0.20203945 -0.15881297 0.24705026 0.05022645 -0.15282011 0.06999371 -0.14004757 -0.22795296
-0.122040555 0.09673154 0.016355077 0.1678549 0.20841113 0.07681973 0.13715503 0.038364552
0.20842105 -0.020552069 -0.021065824 0.103527516 -0.009642205 0.46765998 0.09941884 0.060594708
0.22749975 0.11935616 -0.01600154 0.16082709 0.27264157 0.27149597 0.20019194 0.21294694
0.40273038 -0.089250274 0.18361592 -0.027718006 0.08761151 0.22026877 -0.04465466 -0.022835849
0.018725988 0.021253427 -0.19684511 -0.011659441 0.063045435 0.05588327 0.08175824 -0.019247565
-0.21471846 0.09943965 -0.13828294 -0.11551178 -0.02420415 0.45867124 0.095648035 -0.048094884
-0.08535108 -0.026827868 0.07172396 -0.13529226 0.25950533 0.06282518 -0.1713555 -0.13120812
0.3439057 -0.14491574 -0.19628736 0.16508758 0.10384204 -0.005858228 0.15034713 -0.048365597
0.13392675 0.10260159 0.100155935 0.01273289 -0.1209954 0.083793655 -0.15113787 -0.13421792
-0.13911256 0.0394304 0.023824926 0.083220355 0.079446636 0.22892508 0.018872831 -0.1705896
-0.1992991 -0.17678173 0.06280521 0.10209585 0.10785921 0.05728491 -0.15981047 -0.048853308
-0.023474365 -0.09256755 -0.20521894 0.046353597 -0.026143087 -0.065022655 0.08317372 -0.15342695
0.063728325 0.19750683 -0.1603656 -0.22097893 -0.024989637 -0.14191855 0.067524604 -0.18722492
-0.16032025 0.014045434 -0.045314383 -0.16008376 -0.0026444583 -0.16681959 0.04772698 0.07034937
-0.17182674 0.15511322 -0.16833319 0.3080515 -0.0085503915 -0.28354627 -0.06524033 -0.12876481
0.06797692 -0.047936834 0.34482414 0.15326874 -0.22897047 0.060249474 -0.20821366 -0.14159086
00000000: b012 713d 05fc 02be 5f8b d7bc e9c1 49bc
00000010: 1f10 31be 46e7 08be a1a0 823d 4b00 a8bd
00000020: 741e 9d3d b504 52be e3f5 b2bd a963 15be
00000030: 62d4 263d 55b6 80be 9fdc 9cbd 89dc 75bd
00000040: 7f85 2bbe 8518 433d b4e3 d6bc b412 69be
00000050: 3faa 1dbe 31e2 0bbd f684 53be 2507 7a3d
00000060: 2908 3dbb 4a6b 83bd cd2a 2dbe 7a9a 023c
00000070: e87a bd3d 8b24 073e fc82 27be d7fa debd
00000080: 0739 e73d 28ef 5b3d 2f32 9b3d 56ef ecbd
00000090: b54f fb3d 3cc6 30be 3416 e3bc 7cfb e6bc
000000a0: 3064 083b 269e 26be f138 263e d8ff 2c3e
000000b0: 64a1 1abe 3927 93be 482c 07be ba30 103e
000000c0: e18b 913d f946 b73d 2696 f33c e7ea b9bd
000000d0: 2fbd 2cbe 1423 dabc 9a88 d1bd 0405 703d
000000e0: 02ac 8abb ba6b 9abd 223f 97bd 1e5d 0ebe
000000f0: 4362 babd f98c d1bd 0c45 00be 40fd 3fbe
00000100: 9cf0 083e 5973 20be 97c5 1a3e 13b2 ddbd
00000110: a35f f0bc 7097 003e dc2d 743d dd76 93bd
00000120: ee16 10be 5933 bfbd d0f9 123e 618c 51bd
00000130: aa4d 023e 2ef9 8dbe c644 18bd 342b 5e3d
00000140: 7cdf 56bd 7201 ef3b dab8 d63d fc0d 59bd
00000150: 8f48 73be 46da 2d3d 07f3 003e 69c3 b73c
00000160: 3485 cabd 0c87 2b3d 841d 743c ddd9 c5bd
00000170: 843a c6bc b9b7 913d 4026 2fbc acf1 2c3d
00000180: 9150 13be ff0c 0e3e 6eb4 02be 13b3 9dbc
00000190: e06d 0fbe 44ba cebd 276b 813d ffe8 b1bd
000001a0: d35d 07be c601 04be 42f3 033e fdde cb3d
000001b0: 541e 553d 9506 c8be 5fe4 c53d b612 19bc
000001c0: 2c90 48be f998 13bc 25ac 93bc a43f 01bd
000001d0: 3cc8 7bbe 7bf9 963d e29e 3fbd 4e84 46bd
000001e0: 6ee3 4ebe de9f 22be befa 7c3e 40ba 4d3d
000001f0: e07c 1cbe dd58 8f3d a168 0fbe 806c 69be
00000200: 66f0 f9bd 301b c63d 15fb 853c 28e2 2b3e
00000210: ba69 553e aa53 9d3d 5e72 0c3e 2624 1d3d
00000220: 546c 553e d05c a8bc 3c92 acbc 3c06 d43d
00000230: 57fa 1dbc 2171 ef3e 1b9c cb3d 2832 783d
00000240: b2f5 683e 0171 f43d a915 83bc dbaf 243e
00000250: ad97 8b3e 8501 8b3e 1eff 4c3e c30e 5a3e
00000260: ad32 ce3e d9c8 b6bd d005 3c3e df10 e3bc
00000270: aa6d b33d 238e 613e cee7 36bd 3f12 bbbc
00000280: 3e67 993c ab1b ae3c c491 49be 3d07 3fbc
00000290: f71d 813d dbe5 643d dd70 a73d 12ad 9dbc
000002a0: 28df 5bbe 04a7 cb3d 0b9a 0dbe 7191 ecbd
000002b0: c847 c6bc f5d6 ea3e 1ee3 c33d 24ff 44bd
000002c0: 8ccc aebd 1ec6 dbbc 03e4 923d 0e8a 0abe
000002d0: e2dd 843e 7daa 803d d177 2fbe 6c5b 06be
000002e0: 6814 b03e cb64 14be 8eff 48be b80c 293e
000002f0: 23ab d43d 61f6 bfbb 99f4 193e 011b 46bd
00000300: 1824 093e c820 d23d 8e1e cd3d 9d9d 503c
00000310: 70cc f7bd 029c ab3d e3c3 1abe 6c70 09be
00000320: 8673 0ebe c581 213d 7e2c c33c 6f6f aa3d
00000330: ebb4 a23d 566b 6a3e 329b 9a3c 0aaf 2ebe
00000340: 1015 4cbe 4506 35be 05a0 803d a117 d13d
00000350: 4ae5 dc3d 95a3 6a3d 5ba5 23be 681a 48bd
00000360: 504d c0bc 0e94 bdbd ea24 52be 45dd 3d3d
00000370: 072a d6bc 992a 85bd fc56 aa3d f41b 1dbe
00000380: ff83 823d 3b3f 4a3e e136 24be 4d48 62be
00000390: 11b7 ccbc 1953 11be 574a 8a3d e4b7 3fbe
000003a0: fe2a 24be d21e 663c 939b 39bd ffec 23be
000003b0: a64e 2dbb c1d2 2abe 5e7d 433d 5513 903d
000003c0: 59f3 2fbe 00d6 1e3e 895f 2cbe edb8 9d3e
000003d0: f116 0cbc fa2c 91be b99c 85bd ecda 03be
000003e0: 7c37 8b3d 6a59 44bd ca8c b03e 7bf2 1c3e
000003f0: 3c77 6abe 27c8 763d f635 55be 32fd 10be

mlp1_xi_init.network.2.bias f4 [32]
-0.14924003 -0.20278747 -0.12582682 0.07784944 -0.038739547 -0.100357905 -0.03646812 -0.12520789
-0.049907513 -0.13452215 -0.13090505 0.116018414 -0.20296237 -0.03645434 0.037989862 -0.15225358
-0.00913999 -0.048806496 0.07897902 0.10550874 -0.061705943 -0.12714687 -0.09453836 0.02840731
0.2110529 -0.042643085 -0.14555499 0.050058804 -0.1956784 -0.19660291 -0.10966295 -0.10574929
00000000: 61d2 18be 85a7 4fbe bfd8 00be 876f 9f3d
00000010: 5cad 1ebd 7288 cdbd 985f 15bd 7f36 00be
00000020: d26b 4cbd 2dc0 09be f90b 06be 109b ed3d
00000030: 5ed5 4fbe 2551 15bd 429b 1b3d 5de8 1bbe
00000040: e6bf 15bc 52e9 47bd c1bf a13d f714 d83d
00000050: 5fbf 7cbd ca32 02be 549d c1bd 72b6 e83c
00000060: 401e 583e 84aa 2ebd 5e0c 15be 760a 4d3d
00000070: eb5f 48be 4652 49be f896 e0bd 1593 d8bd

mlp1_xi_init.network.4.weight f4 [32, 32]
-0.17508894 0.050544467 0.11928209 0.0036974624 -0.047308326 0.12408166 -0.089641206 0.008641658
-0.15449008 -0.002495545 -0.06600207 -0.0011288783 0.10141682 0.021794293 -0.2060359 -0.04276765
-0.099092096 -0.16902606 0.09008367 -0.0031708095 -0.13302846 0.04258372 -0.112403154 0.12977779
-0.22913235 0.18624872 0.029047512 -0.16379777 -0.07866538 0.083960846 0.18592644 0.14523275
0.019650359 0.05444495 0.09606387 0.1851754 -0.26014376 -0.018922837 -0.09015218 -0.10244083
-0.20011733 -0.1695642 0.082799815 -0.003837557 0.06158684 -0.17871752 -0.057035156 0.14295155
0.07387902 0.17515598 0.15283279 -0.19056897 -0.06618755 -0.16384356 0.16169244 -0.037924517
-0.14745736 0.07776741 0.0511715 0.09666145 -0.023624875 -0.07591297 0.10855878 -0.10645041
0.08631455 -0.06442981 0.059868336 -0.09381406 -0.21609752 -0.06781376 0.0389391 -0.079339445
0.09931821 0.042548586 0.03307805 0.14005014 -0.18074547 0.058694243 -0.12875377 0.18094535
0.066905096 0.092381686 0.14570047 -0.049693078 -0.1095229 -0.006517968 0.11908392 0.09712219
-0.2859772 0.0025013955 0.012244826 -0.0904077 -0.08892555 -0.11767139 0.034712136 -0.08937087
0.033732172 -0.02593923 -0.01687927 0.00025853803 -0.00044692907 0.025650486 0.04657502 0.07975868
0.097101614 -0.09072864 0.100318946 -0.15120512 -0.03884483 0.12262583 0.12753436 0.12538292
0.0069401646 -0.08670389 -0.111191444 -0.032032996 0.109338395 -0.0009813771 0.11219981 0.12998387
0.056369524 -0.057775546 -0.08155725 0.105973706 0.059818134 0.17806 0.19022086 -0.14081885
0.14181836 -0.0050424887 -0.10423062 0.06169495 -0.18985659 -0.0909671 0.08225012 0.11652171
-0.1883048 -0.10561318 -0.10217692 -0.14158693 0.06930817 0.0068554454 -0.015882941 0.0951371
-0.09823354 0.03883546 -0.0006737974 -0.14876789 -0.13396849 -0.13674724 0.06885675 -0.14016479
-0.1939504 -0.0690647 -0.14380963 -0.08747104 -0.18981475 0.13466486 0.13277118 -0.21038273
-0.108343355 -0.0020857004 -0.11301308 -0.09393571 -0.092987165 -0.071649835 0.13420877 0.15427712
-0.14536946 -0.15929049 -0.09900677 0.057193037 -0.10179348 0.1466924 -0.02005683 0.05566077
0.081906974 0.09105945 0.08343266 0.19292657 -0.054729532 -0.08951209 0.041816276 0.1388632
-0.010511742 0.14006191 0.12324871 0.09027159 0.113000885 -0.031048298 0.054598775 -0.21081142
-0.016269796 -0.01395702 -0.002205419 0.027702458 -0.20690283 0.06139604 0.13443533 -0.18542361
-0.12904882 -0.01559633 -0.0032350984 -0.13745934 -0.07993522 -0.23120676 -0.19874316 0.08171687
0.06363101 0.06263412 -0.07873048 0.051241204 -0.10205893 -0.017631514 0.092869185 0.062053233
-0.15599103 -0.075804055 -0.046308886 0.013492777 0.07853752 -0.2099937 -0.055815227 -0.11426073
-0.06771579 0.03575846 -0.12908456 -0.09798802 -0.17979638 0.044523172 0.009909216 0.015306256
0.054594822 0.05978004 -0.08667295 0.079786606 -0.1809341 -0.15597779 -0.15814742 -0.023842487
-0.17019735 -0.02222814 -0.031946093 -0.15739009 0.14314775 -0.05486188 0.09489577 0.13014095
-0.05595613 -0.08747646 0.14241327 0.012927719 0.11696172 0.014856794 0.060413457 -0.23659895
00000000: 844a 33be b707 4f3d 2b4a f43d 2051 723b
00000010: 60c6 41bd 861e fe3d cf95 b7bd be95 0d3c
00000020: a632 1ebe 4c8c 23bb 182c 87bd dff6 93ba
00000030: 9fb3 cf3d f289 b23c 13fb 52be 222d 2fbd
00000040: ccf0 cabd 2b15 2dbe ca7d b83d 5bcd 4fbb
00000050: 9d38 08be 446c 2e3d a033 e6bd 78e4 043e
00000060: aca1 6abe fcb7 3e3e 0cf5 ed3c 9aba 27be
00000070: 511b a1bd aaf3 ab3d 8063 3e3e e5b7 143e
00000080: caf9 a03c ab01 5f3d 22bd c43d 9f9e 3d3e
00000090: 9031 85be 1104 9bbc b5a1 b8bd 7fcc d1bd
000000a0: 8feb 4cbe 3da2 2dbe f392 a93d 867f 7bbb
000000b0: 7b42 7c3d ba01 37be b29d 69bd e461 123e
000000c0: e24d 973d 175c 333e 3380 1c3e 8324 43be
000000d0: 578d 87bd 9bc6 27be b492 253e bd56 1bbd
000000e0: 10ff 16be 8544 9f3d 3599 513d 70f6 c53d
000000f0: f488 c1bc 4278 9bbd 1154 de3d ac02 dabd
00000100: afc5 b03d c7f3 83bd 8038 753d 9621 c0bd
00000110: ab48 5dbe f1e1 8abd 9b7e 1f3d b87c a2bd
00000120: 5867 cb3d 6d47 2e3d d97c 073d 4e69 0f3e
00000130: 5715 39be 6069 703d 07d8 03be bd49 393e
00000140: 8a05 893d 9c32 bd3d 8132 153e f88a 4bbd
00000150: 8b4d e0bd ae94 d5bb 45e2 f33d 00e8 c63d
00000160: 9b6b 92be 74ee 233b 869e 483c ac27 b9bd
00000170: 991e b6bd b3fd f0bd 502e 0e3d 1308 b7bd
00000180: bf2a 0a3d 827e d4bc 6546 8abc 638c 8739
00000190: ce51 eab9 f820 d23c 73c5 3e3d 8558 a33d
000001a0: 36dd c63d f0cf b9bd 0574 cd3d 84d5 1abe
000001b0: c21b 1fbd 4023 fb3d 5e98 023e 6164 003e
000001c0: 526a e33b cf91 b1bd 57b8 e3bd 0835 03bd
000001d0: cfec df3d 8da1 80ba 04c9 e53d 7e1a 053e
000001e0: bbe3 663d 0da6 6cbd 7d07 a7bd be08 d93d
000001f0: dc03 753d 5c55 363e 42c9 423e d132 10be
00000200: d538 113e 763b a5bb dd76 d5bd d8b3 7c3d
00000210: c469 42be f54c babd c072 a83d efa2 ee3d
00000220: f9d2 40be b94b d8bd 2242 d1bd 2afc 10be
00000230: 71f1 8d3d a5a3 e03b f11c 82bc 3dd7 c23d
00000240: ab2e c9bd ee11 1f3d c7a1 30ba 9c56 18be
00000250: 092f 09be 7807 0cbe c504 8d3d 5c87 0fbe
00000260: ef9a 46be cb71 8dbd d542 13be 0424 b3bd
00000270: cc5e 42be 96e5 093e 2bf5 073e 926e 57be
00000280: 1fe3 ddbd 3fb0 08bb 6773 e7bd 5e61 c0bd
00000290: 0e70 bebd 26bd 92bd 066e 093e d2fa 1d3e
000002a0: bbdb 14be 0c1d 23be 10c4 cabd 3f43 6a3d
000002b0: 1a79 d0bd 8836 163e 394e a4bc 8cfc 633d
000002c0: d8be a73d 607d ba3d bede aa3d 8b8e 453e
000002d0: 132c 60bd 1d52 b7bd 8b47 2b3d 2832 0e3e
000002e0: 7139 2cbc 646c 0f3e d269 fc3d 50e0 b83d
000002f0: 026d e73d 0059 febc f7a2 5f3d f3de 57be
00000300: 3c48 85bc fcab 64bc ca88 10bb 44f0 e23c
00000310: 56de 53be 6a7a 7b3d 6aa9 093e b0df 3dbe
00000320: 6025 04be c087 7fbc f203 54bb 24c2 0cbe
00000330: 14b5 a3bd 77c1 6cbe 5483 4bbe 2d5b a73d
00000340: fa50 823d 5146 803d 723d a1bd 4ce2 513d
00000350: 4604 d1bd f76f 90bc 3332 be3d 882b 7e3d
00000360: 1dbc 1fbe 283f 9bbd 63ae 3dbd cf10 5d3c
00000370: 47d8 a03d 9708 57be 829e 64bd 8801 eabd
00000380: 93ae 8abd 7777 123d be2e 04be f1ad c8bd
00000390: 8b1c 38be ee5d 363d 445a 223c 17c7 7a3c
000003a0: d29e 5f3d eadb 743d 9681 b1bd 2967 a33d
000003b0: ca46 39be a4b8 1fbe 66f1 21be 5251 c3bc
000003c0: 3748 2ebe ca17 b6bc e8d9 02bd de2a 21be
000003d0: 5395 123e dab6 60bd b758 c23d ab43 053e
000003e0: 4132 65bd dc26 b3bd c9d4 113e c9ce 533c
000003f0: a089 ef3d e969 733c 1a74 773d ff46 72be

mlp1_xi_init.network.4.bias f4 [32]
0.075978324 -0.005317029 0.0224801 -0.12074813 -0.0060476554 0.12687245 -0.063825995 -0.006510312
-0.19976269 0.06084595 0.10867215 0.07171601 0.029119557 -0.117159426 -0.073268615 -0.14191519
-0.12614155 0.12139952 -0.06767402 -0.17266524 -0.07907042 0.03798649 -0.05226483 0.12208258
0.025987852 -0.20355837 -0.0895193 -0.016618831 -0.04234374 0.12403537 0.025176195 -0.224042
00000000: 869a 9b3d 793a aebb 3028 b83c cc4a f7bd
00000010: 692b c6bb daea 013e 34b7 82bd 7554 d5bb
00000020: 978e 4cbe 9a39 793d 818f de3d d8df 923d
00000030: 238c ee3c 48f1 efbd db0d 96bd 3752 11be
00000040: 402b 01be 50a0 f83d ad98 8abd 28cf 30be
00000050: acef a1bd b997 1b3d a513 56bd 6f06 fa3d
00000060: 7ae4 d43c 9b71 50be e555 b7bd 3724 88bc
00000070: a170 2dbd 4206 fe3d 4f3e ce3c 446b 65be

mlp1_xi_init.network.6.weight f4 [4, 32]
0.08728615 -0.085239306 -0.13383555 -0.10423903 -0.020834133 0.041024305 -0.054483503 -0.063103005
0.11840376 0.21697257 0.011779562 0.07019708 0.22857277 0.0327946 0.18418172 0.079876244
0.06584946 0.018841928 0.03628794 -0.0319548 0.103591666 0.008603993 0.121868104 -0.097783275
0.13029891 0.1403662 -0.08396726 0.14722727 0.041872557 -0.06811075 -0.11277788 0.056240804
0.073259115 -0.07094718 -0.11782778 -0.014096193 0.005514201 0.11023049 0.12381389 -0.115293995
0.12605411 -0.056617435 -0.12555633 -0.029471153 0.11088052 -0.050499614 0.11645131 -0.1582678
-0.0558983 -0.14625385 0.039266933 -0.059448816 0.04676876 -0.17819454 -0.003221756 0.16832075
0.0068300953 -0.04954703 -0.065169 -0.10033478 0.018853106 0.11307182 0.09024487 0.0840608
-0.0772685 0.014347512 -0.07284444 -0.11204436 0.037302256 0.15056247 -0.011579784 0.117864914
0.057280928 -0.026311975 -0.00020644648 -0.035667174 -0.07449094 -0.09760622 -0.0036698894 0.017076733
0.09785034 0.030111302 0.040004954 0.12578788 0.119701296 0.06397441 0.07824895 0.106661275
-0.0038683284 -0.034390595 -0.08307202 -0.061831955 0.16551928 0.08063714 -0.0145179825 -0.049389224
0.15024811 -0.008598899 -0.16118154 0.21986675 -0.0069479975 -0.08443915 0.04314909 -0.019495409
-0.122174144 0.108301 0.13887453 0.12102194 0.0041278154 0.083461635 -0.07468822 0.119352594
0.054347873 -0.060426123 -0.110558815 0.13227174 0.11943417 0.021343844 -0.17973812 -0.012064707
0.022019958 0.18973929 0.18532638 0.10606588 0.16234489 0.15987165 0.12795524 0.15298216
00000000: 15c3 b23d f291 aebd 300c 09be 467b d5bd
00000010: 58ac aabc 1a09 283d 182a 5fbd 263c 81bd
00000020: ac7d f23d 0f2e 5e3e 10ff 403c 7dc3 8f3d
00000030: fb0e 6a3e a153 063d 229a 3c3e 2896 a33d
00000040: 15dc 863d 635a 9a3c aaa2 143d 09e3 02bd
00000050: de27 d43d c3f7 0c3c fc95 f93d 9942 c8bd
00000060: 146d 053e 28bc 0f3e 07f7 abbd bfc2 163e
00000070: 8f82 2b3d a67d 8bbd 17f8 e6bd c25c 663d
00000080: e008 963d c14c 91bd b14f f1bd b8f3 66bc
00000090: 78b0 b43b 86c0 e13d 2392 fd3d 421f ecbd
000000a0: 5414 013e afe7 67bd d791 00be 7d6d f1bc
000000b0: 5315 e33d afd8 4ebd 067e ee3d f410 22be
000000c0: 9ef5 64bd 92c3 15be 5dd6 203d 9a80 73bd
000000d0: 9990 3f3d a178 36be 1924 53bb 465c 2c3e
000000e0: fece df3b d4f1 4abd 5377 85bd 527c cdbd
000000f0: d471 9a3c 3392 e73d 4dd2 b83d 1228 ac3d
00000100: f33e 9ebd d411 6b3c 772f 95bd 8377 e5bd
00000110: 40ca 183d 0c2d 1a3e 22b9 3dbc 2963 f13d
00000120: 689f 6a3d 368c d7bc 8e79 58b9 be17 12bd
00000130: b58e 98bd c5e5 c7bd 8782 70bb 81e4 8b3c
00000140: c265 c83d faab f63c 3cdc 233d 8ace 003e
00000150: f425 f53d 0405 833d fc40 a03d 3a71 da3d
00000160: c883 7dbb 27dd 0cbd aa21 aabd 8143 7dbd
00000170: e37d 293e 1625 a53d d5dc 6dbc 5b4c 4abd
00000180: a4da 193e 65e2 0cbc c60c 25be c024 613e
00000190: 07ac e3bb 6fee acbd 1abd 303d d6b4 9fbc
000001a0: 7036 fabd eacc dd3d 2035 0e3e 5ada f73d
000001b0: a042 873b efed aa3d 23f6 98bd 226f f43d
000001c0: e09b 5e3d 6281 77bd a96c e2bd 3e72 073e
000001d0: e799 f43d 49d9 ae3c 450d 38be 0dab 45bc
000001e0: 3363 b43c 044b 423e 33c6 3d3e 1139 d93d
000001f0: bd3d 263e 65b5 233e b306 033e 5ba7 1c3e

mlp1_xi_init.network.6.bias f4 [4]
-0.07800506 0.074846216 -0.041253194 0.16740209
00000000: 1ec1 9fbd f948 993d 1cf9 28bd 746b 2b3e

mlp2_q_dynamics.network.0.weight f4 [32, 4]
-0.4919455 -0.105071425 -0.3088798 0.16101426 0.2718627 0.25831938 0.49187082 -0.35018402
0.057418466 -0.1718126 0.20085716 -0.028281152 -0.2308746 -0.2800281 0.06937915 -0.2645291
-0.37221903 0.3633852 -0.38070828 -0.46660697 -0.42040694 -0.30513394 -0.45093137 -0.0060381293
-0.32658136 -0.03784865 -0.40166777 0.022149622 -0.28755128 0.18509436 0.47976482 -0.24718297
-0.110723615 0.4656855 0.16843241 -0.30252117 -0.122477055 -0.3934232 0.34930933 -0.082417905
0.23508531 0.47330004 -0.20927334 -0.4264943 0.41603112 0.3985492 0.4841979 0.28362525
-0.16648418 0.369152 0.2899114 0.037033916 0.42421287 0.18208301 -0.43139058 0.335172
-0.25432134 -0.28704947 -0.31778258 0.04602462 0.047287583 -0.14108866 -0.40175688 0.18384182
0.26814318 0.054924846 -0.106811166 0.24158496 -0.29327208 0.33250493 0.45210028 -0.33611494
0.36617744 -0.42874736 -0.0034698248 0.17102724 -0.32240254 0.2968918 -0.05823815 0.21802932
-0.14177418 0.43558466 -0.1685456 -0.10223961 -0.3884151 -0.34519267 0.3677153 0.22140634
-0.040772974 0.14733583 0.04647672 -0.32052475 -0.1559717 -0.49876165 -0.45811284 0.40389985
-0.49381387 0.29937756 0.29552352 -0.11698413 0.38505667 -0.41052848 -0.4576471 0.2895968
0.46347898 0.18511736 -0.47134268 -0.48867232 -0.37014216 -0.20913666 0.40710813 -0.36223567
-0.24531853 -0.37758273 0.3482812 0.31341654 0.41127253 0.38197595 0.08186805 -0.05445087
-0.20086735 -0.20587623 0.3645023 0.12771475 -0.37329286 -0.4981023 0.07165527 0.22656661
00000000: 48e0 fbbe b02f d7bd 7e25 9ebe ece0 243e
00000010: 9631 8b3e 7042 843e 7ed6 fb3e 524b b3be
00000020: a02f 6b3d a4ef 2fbe 80ad 4d3e e0ad e7bc
00000030: 646a 6cbe d85f 8fbe a816 8e3d 5c70 87be
00000040: 7e93 bebe a00d ba3e 32ec c2be 1ce7 eebe
00000050: 943f d7be 843a 9cbe 7ae0 e6be 80db c5bb
00000060: ac35 a7be 3007 1bbd 66a7 cdbe 2073 b53c
00000070: ec39 93be 6089 3d3e bca3 f53e 881d 7dbe
00000080: 10c3 e2bd 546e ee3e 8c79 2c3e 0ee4 9abe
00000090: 40d5 fabd c46e c9be acd8 b23e b8ca a8bd
000000a0: 34ba 703e 6254 f23e c04b 56be 765d dabe
000000b0: 0802 d53e a40e cc3e cae8 f73e 5437 913e
000000c0: d47a 2abe 7e01 bd3e 446f 943e e0b0 173d
000000d0: 6e32 d93e f873 3a3e 3adf dcbe aa9b ab3e
000000e0: 6836 82be 26f8 92be 66b4 a2be 5084 3c3d
000000f0: a0b0 413d 8c79 10be 14b3 cdbe 0841 3c3e
00000100: 104a 893e e0f8 603d d0bf dabd 0c62 773e
00000110: c227 96be 163e aa3e b079 e73e 4217 acbe
00000120: 9c7b bb3e c684 dbbe 0066 63bb c421 2f3e
00000130: f211 a5be 3402 983e 208b 6ebd 1443 5f3e
00000140: 402d 11be f404 df3e 3897 2cbe 0063 d1bd
00000150: 58de c6be 18bd b0be 2e45 bc3e 58b8 623e
00000160: 9001 27bd 34df 163e 605e 3e3d d21b a4be
00000170: 0cb7 1fbe b05d ffbe c48d eabe f6cb ce3e
00000180: 2cd5 fcbe 0448 993e dc4e 973e 6095 efbd
00000190: 2626 c53e ca30 d2be b850 eabe 0846 943e
000001a0: 1e4d ed3e 688f 3d3e d453 f1be 4233 fabe
000001b0: 4683 bdbe ec27 56be 7a70 d03e f476 b9be
000001c0: c834 7bbe 8652 c1be ea51 b23e 2278 a03e
000001d0: 5092 d23e 5a92 c33e 70aa a73d e007 5fbd
000001e0: 2cb0 4dbe 38d1 52be 0ca0 ba3e a8c7 023e
000001f0: 3e20 bfbe 4407 ffbe 00c0 923d 1401 683e

mlp2_q_dynamics.network.2.weight f4 [32, 32]
-0.15619421 0.08251942 0.041595273 0.09205303 -0.040217154 -0.14970012 0.14977278 0.07844662
-0.047968023 -0.16136329 0.027641399 -0.039702456 -0.1437416 0.07768111 0.0551391 0.055800024
-0.17480962 0.09835172 -0.10744938 0.044789433 0.11238076 0.09816591 -0.12333055 0.17654657
-0.037792847 -0.013746089 -0.15597537 0.1507541 -0.17169541 0.08610706 -0.017607626 -0.15172714
0.029721873 -0.14370894 0.12203276 0.06477815 0.122646295 -0.05073646 -0.0732398 0.09262227
0.057131715 -0.13187511 0.044833668 0.12335095 -0.0518119 -0.10532769 0.053621117 -0.14116795
0.07439441 0.09163121 -0.01423691 0.110478856 0.122575045 0.1724258 -0.10880413 0.038190924
0.06615622 -0.08116458 0.0399982 -0.050947722 -0.028080843 -0.07453944 -0.15070695 0.099676244
0.00454029 -0.06786928 -0.069812395 -0.020902982 0.09950506 0.039517052 0.06798392 -0.119396396
0.010707112 0.17650175 -0.11480323 0.045401428 -0.03267365 -0.022828082 -0.03746012 0.121265754
0.042457595 -0.005013831 0.11763493 -0.07259689 -0.06534814 -0.034650102 -0.09364547 -0.17085807
-0.049969703 0.045696307 -0.1161356 0.068210185 -0.09237542 -0.003506133 0.01879857 -0.16782835
-0.012293667 0.013058969 -0.16235259 0.01916392 0.06594462 -0.12131648 -0.09900202 0.11930651
0.025431914 -0.16641487 -0.07956149 -0.021408934 -0.16135696 -0.1293607 -0.1355946 -0.06811607
0.16419025 0.124917634 0.03201738 -0.16863033 -0.0862628 0.006772914 0.09099395 0.03810172
0.17340146 0.049827836 0.15740281 0.12857969 0.06662519 0.12284683 -0.101445355 -0.16666202
0.16801044 -0.12842357 0.0040082918 0.08692014 -0.06525466 0.006064826 -0.094537444 0.14924039
0.044400565 0.12631458 -0.17581213 -0.077020265 -0.03428271 0.09912526 -0.03543941 0.17486528
-0.06437552 0.13545303 -0.11986258 -0.025902063 -0.09720176 -0.05021799 0.13401549 0.04081273
-0.018572198 0.020539444 0.11581271 -0.02802013 -0.007900364 0.09407117 -0.07282012 -0.06200423
-0.17011355 0.12225102 0.05976775 -0.12796538 -0.16399431 0.035958532 -0.14869589 0.14951324
0.15528333 -0.07880259 -0.09066999 -0.0604527 -0.11795518 0.085424155 -0.054171216 -0.06748998
-0.12614986 0.08364872 -0.12298014 -0.08044483 0.08292131 -0.08967471 -0.075003244 0.09522381
-0.17411885 -0.16922374 -0.14185709 -0.022997912 0.073131986 0.12529476 0.118300445 0.1447526
-0.09129345 0.015266663 0.1746854 -0.11124102 -0.15723729 -0.042488407 0.1732575 -0.14340964
-0.09945189 -0.011906379 -0.004452604 0.018276326 -0.11957436 -0.15117489 0.026068142 0.07342569
-0.045019515 0.06653813 -0.11770015 0.07819494 -0.033545855 0.14878759 0.10521122 0.17413206
-0.14695105 0.14190277 0.16434155 -0.1304615 -0.08127672 0.0292689 0.051855564 0.15372936
0.14792922 0.056319043 0.09862129 0.10241781 0.14091668 0.045817375 -0.09017699 -0.076639615
-0.17565383 0.10705853 0.077770606 0.10983924 -0.14492099 -0.04363343 -0.10035536 -0.08885038
-0.021821868 0.050277058 -0.09548564 -0.065496795 0.010603831 0.1327909 -0.012921865 0.052664466
0.07950855 -0.06877118 0.1683857 -0.0328557 -0.03455439 -0.042188488 0.15891606 0.06382736
00000000: 60f1 1fbe f1ff a83d ce5f 2a3d 4d86 bc3d
00000010: beba 24bd fd4a 19be 095e 193e 9fa8 a03d
00000020: 1e7a 44bd 6b3c 25be 3770 e23c 0b9f 22bd
00000030: ff30 13be 4617 9f3d 89d9 613d 918e 643d
00000040: 4b01 33be a06c c93d 6c0e dcbd 2075 373d
00000050: e227 e63d 350b c93d ba94 fcbd a0c8 343e
00000060: accc 1abd 4737 61bc 02b8 1fbe 485f 1a3e
00000070: ecd0 2fbe e658 b03d de3d 90bc 5c5e 1bbe
00000080: 497b f33c 7028 13be 50ec f93d 68aa 843d
00000090: fb2d fb3d 09d1 4fbd c0fe 95bd bfb0 bd3d
000000a0: f202 6a3d 450a 07be 82a3 373d 6c9f fc3d
000000b0: b738 54bd 0bb6 d7bd d1a1 5b3d 558e 10be
000000c0: 195c 983d 25a9 bb3d ee41 69bc bd42 e23d
000000d0: a008 fb3d 6490 303e b3d4 debd 166e 1c3d
000000e0: ea7c 873d 9e39 a6bd 27d5 233d 8fae 50bd
000000f0: cc09 e6bc 22a8 98bd ec52 1abe 0f23 cc3d
00000100: b7c6 943b 0dff 8abd cdf9 8ebd bb3c abbc
00000110: 4fc9 cb3d a2dc 213d 273b 8b3d 1986 f4bd
00000120: e26c 2f3c e0bc 343e f51d ebbd d9f6 393d
00000130: ced4 05bd f501 bbbc c86f 19bd 2e5a f83d
00000140: 04e8 2d3d 104b a4bb 95ea f03d aead 94bd
00000150: 3fd5 85bd 44ed 0dbd 32c9 bfbd 6bf5 2ebe
00000160: 08ad 4cbd 0d2c 3b3d 80d8 edbd c8b1 8b3d
00000170: 532f bdbd 27c7 65bb 75ff 993c 32db 2bbe
00000180: 606b 49bc 49f5 553c c23f 26be a7fd 9c3c
00000190: f90d 873d c674 f8bd 92c1 cabd f956 f43d
000001a0: 9756 d03c a968 2abe 22f1 a2bd ca61 afbc
000001b0: c23a 25be 2277 04be 50d9 0abe 7080 8bbd
000001c0: 7d21 283e d1d4 ff3d a824 033d 6ead 2cbe
000001d0: 8daa b0bd 52ef dd3b 095b ba3d 8d10 1c3d
000001e0: 2790 313e 4618 4c3d 342e 213e 65aa 033e
000001f0: ca72 883d 1e97 fb3d 95c2 cfbd 73a9 2abe
00000200: ee0a 2c3e 7881 03be fd57 833b 3003 b23d
00000210: 3ca4 85bd 73bb c63b d99c c1bd 79d2 183e
00000220: 5edd 353d 9c58 013e 1808 34be cdbc 9dbd
00000230: 076c 0cbd 2f02 cb3d ea28 11bd e20f 333e
00000240: 50d7 83bd 33b4 0a3e 837a f5bd 9030 d4bc
00000250: b711 c7bd 61b1 4dbd 5b3b 093e 402b 273d
00000260: b924 98bc 5642 a83c 372f ed3d 798a e5bc
00000270: 8770 01bc 63a8 c03d b722 95bd 26f8 7dbd
00000280: 3f32 2ebe be5e fa3d 07cf 743d 5b09 03be
00000290: 20ee 27be 4149 133d bc43 18be 001a 193e
000002a0: 9802 1f3e 4163 a1bd 30b1 b9bd 409d 77bd
000002b0: 7c92 f1bd dcf2 ae3d a3e2 5dbd 3038 8abd
000002c0: 6e2d 01be 0550 ab3d 03dd fbbd 42c0 a4bd
000002d0: a6d2 a93d 60a7 b7bd 4d9b 99bd b304 c33d
000002e0: 364c 32be fd48 2dbe fc42 11be 1e66 bcbc
000002f0: 39c6 953d 454d 003e 8147 f23d 073a 143e
00000300: 0ff8 babd 0721 7a3c bbe0 323e 55d2 e3bd
00000310: d002 21be 5308 2ebd 6a6a 313e fad9 12be
00000320: 6fad cbbd f912 43bc 26e7 91bb 3cb8 953c
00000330: 67e3 f4bd 97cd 1abe db8c d53c 3560 963d
00000340: 6266 38bd 2545 883d c70c f1bd ab24 a03d
00000350: 6167 09bd c65b 183e fb78 d73d ad4f 323e
00000360: 567a 16be f64e 113e 2749 283e b397 05be
00000370: 6974 a6bd 55c5 ef3c 8066 543d 3b6b 1d3e
00000380: c27a 173e ccae 663d f5f9 c93d 6ec0 d13d
00000390: 764c 103e 00ab 3b3d b7ae b8bd 3bf5 9cbd
000003a0: 99de 33be 8141 db3d 3246 9f3d 65f3 e03d
000003b0: 2b66 14be f8b8 32bd 1c87 cdbd 30f7 b5bd
000003c0: c6c3 b2bc 51ef 4d3d fa8d c3bd 2f23 86bd
000003d0: b1bb 2d3c 56fa 073e 3bb6 53bc b2b6 573d
000003e0: 61d5 a23d e8d7 8cbd 4d6d 2c3e b393 06bd
000003f0: e788 0dbd d6cd 2cbd e4ba 223e ebb7 823d

mlp2_q_dynamics.network.4.weight f4 [32, 32]
0.17607884 0.023785258 -0.111607574 0.15275489 0.1504716 0.10343966 0.118440464 0.1673927
0.118081324 -0.042629767 0.032975927 0.055656556 -0.030997025 -0.051238745 -0.15779792 -0.10399817
0.100606635 0.1299978 0.004888465 0.14391293 -0.031187551 0.08611937 0.06845474 0.07940026
0.053245842 -0.11726244 -0.00993536 -0.17425677 -0.04143284 0.122184135 0.13250598 -0.05753232
-0.13762933 0.1475323 0.055468496 -0.15524068 -0.12031842 0.012232322 -0.015543336 0.01002998
-0.09610278 0.028447036 -0.11279736 -0.1408916 -0.0025111723 0.0704141 -0.055868722 0.0041276305
0.05975759 0.058243867 0.12151693 0.15852496 0.09232575 -0.10414994 -0.037543062 -0.037212655
-0.0983636 -0.00964027 0.12425559 0.03920209 0.04155384 0.027675137 0.08155095 0.00431295
-0.15277612 0.1473905 -0.13983546 -0.0896361 -0.036750175 -0.040327054 -0.16216135 -0.0760322
-0.15313843 0.119432956 0.0932715 0.116800085 -0.093759075 0.041563958 -0.02955472 -0.10385302
0.07888763 0.042716905 -0.015472256 0.14752115 0.013799383 0.09541378 -0.11697725 0.03377897
-0.02534821 0.12796436 -0.06289328 -0.11832715 0.11108453 0.16274889 -0.13475631 0.15477829
0.10573919 -0.1415222 -0.094774984 0.010605706 0.14384224 0.13964121 -0.08264569 -0.013313726
0.029004702 0.05137414 0.04153654 -0.16627325 0.1692678 -0.011758254 -0.10120912 -0.15764512
-0.14785765 -0.02471668 0.13784955 0.015602468 0.16935632 0.07275745 -0.016664295 -0.115830116
0.144671 0.10947945 -0.101784304 0.022776324 -0.17136142 -0.11084267 -0.061213892 0.056956302
0.0018286464 0.15020883 -0.050504863 0.038208246 0.07287613 0.1382993 -0.056469146 0.13558991
0.075034834 0.038687836 -0.038028702 0.16858722 -0.11372857 0.16430388 -0.048048757 -0.06780608
-0.07499391 -0.14842853 -0.17380457 -0.026571859 0.022735106 -0.0993004 0.0029634503 -0.06892754
-0.13388965 -0.04934224 0.050246544 -0.00032944084 -0.013117848 -0.14081936 -0.08726239 -0.09325854
0.1502654 -0.0060864054 0.15394045 0.11827624 -0.11686866 0.12767076 -0.0606887 -0.15405771
-0.035075914 0.062128585 -0.0793858 -0.1525926 0.029355554 -0.10921064 -0.12198351 -0.1334605
-0.046289463 -0.108614385 -0.176521 0.1511375 0.008127366 0.050139472 -0.08968347 0.042508617
-0.105939366 0.122105844 0.05022098 -0.16171433 -0.11343272 -0.12580895 0.11378026 -0.012612803
0.024227673 0.0019096526 -0.06850551 -0.0653034 -0.15446341 -0.05217131 0.17185809 -0.0036386217
-0.14093632 0.16378373 -0.02208126 0.090105176 0.110873185 0.037818283 0.06882667 0.14230384
-0.011207732 0.0053878846 -0.025940541 0.1584718 -0.14433523 0.1402588 0.043616593 -0.035605364
0.1525868 -0.116793044 -0.09836499 -0.061834693 -0.0642201 0.01545253 -0.118614905 -0.122461334
-0.16148737 -0.1598948 -0.015420815 -0.07787239 -0.14369531 -0.09860076 -0.04221209 0.17215355
-0.10157409 0.14596318 -0.09850291 0.06447578 -0.011920561 0.043098714 -0.042572785 -0.028602643
-0.06273735 0.048677586 0.1443574 -0.03952997 -0.04551179 -0.06263374 -0.15044142 -0.010700811
-0.06325018 -0.1100175 -0.0896666 0.13546982 -0.15760413 0.13942778 -0.15336266 -0.17519696
00000000: 034e 343e 4dd9 c23c 8392 e4bd c76b 1c3e
00000010: 3a15 1a3e 2cd8 d33d ea90 f23d fe68 2b3e
00000020: 9fd4 f13d 8d9c 2ebd c411 073d 21f8 633d
00000030: 79ed fdbc b8df 51bd c795 21be fefc d4bd
00000040: da0a ce3d 251e 053e 6b2f a03b e95d 133e
00000050: 097d ffbc 5a5f b03d 0032 8c3d 9a9c a23d
00000060: 5018 5a3d 4a27 f0bd ecc7 22bc 5e70 32be
00000070: 7bb5 29bd ad3b fa3d a6af 073e 03a7 6bbd
00000080: b4ee 0cbe b512 173e ef32 633d 6af7 1ebe
00000090: 8169 f6bd 146a 483c 7aa9 7ebc c954 243c
000000a0: 89d1 c4bd c209 e93c 4d02 e7bd e345 10be
000000b0: 7b92 24bb 4535 903d 9ad6 64bd 1341 873b
000000c0: 60c4 743d 1f91 6e3d dedd f83d 5e54 223e
000000d0: 4815 bd3d 904c d5bd c1c6 19bd 4c6c 18bd
000000e0: db72 c9bd 39f2 1dbc b779 fe3d 5f92 203d
000000f0: 5c34 2a3d f8b6 e23c 2f04 a73d a653 8d3b
00000100: 5871 1cbe 89ed 163e 0731 0fbe 2293 b7bd
00000110: 5a87 16bd fb2d 25bd a00d 26be c5b6 9bbd
00000120: 52d0 1cbe 4499 f43d 2105 bf3d e234 ef3d
00000130: c204 c0bd f83e 2a3d bd1c f2bc e4b0 d4bd
00000140: d68f a13d ecf7 2e3d 587f 7dbc c90f 173e
00000150: cf16 623c 4d68 c33d c591 efbd d15b 0a3d
00000160: 0da7 cfbc 1709 033e 31ce 80bd 8155 f2bd
00000170: 4980 e33d a5a7 263e 8ffd 09be 337e 1e3e
00000180: ca8d d83d 32eb 10be 6319 c2bd 8ec3 2d3c
00000190: 614b 133e 1bfe 0e3e 2542 a9bd d021 5abc
000001a0: 459b ed3c b16d 523d 3822 2a3d 8943 2abe
000001b0: 8a54 2d3e b1a5 40bc ba46 cfbd b96d 21be
000001c0: ff67 17be a37a cabc 6f28 0d3e 7ea1 7f3c
000001d0: be6b 2d3e dc01 953d 8f83 88bc 5738 edbd
000001e0: a224 143e c336 e03d 4a74 d0bd 6a95 ba3c
000001f0: 5e79 2fbe 7b01 e3bd 6bbb 7abd 034b 693d
00000200: 31af ef3a 58d0 193e 30de 4ebd 4080 1c3d
00000210: 1540 953d 559e 0d3e 314c 67bd 15d8 0a3e
00000220: ddab 993d 2377 1e3d fcc3 1bbd 21a2 2c3e
00000230: 86ea e8bd 473f 283e c6ce 44bd eadd 8abd
00000240: 6896 99bd a6fd 17be d3f9 31be 3aad d9bc
00000250: f93e ba3c 025e cbbd 7236 423b e229 8dbd
00000260: 5e1a 09be 171b 4abd 52cf 4d3d cdb8 acb9
00000270: 3eec 56bc f332 10be a0b6 b2bd 55fe bebd
00000280: 2cdf 193e 7870 c7bb 91a2 1d3e d03a f23d
00000290: d658 efbd 20bc 023e b794 78bd 4ec1 1dbe
000002a0: c3ab 0fbd 8b7a 7e3d 0695 a2bd 3c41 1cbe
000002b0: 0f7b f03c d4a9 dfbd 7ed2 f9bd dfa9 08be
000002c0: 059a 3dbd 3871 debd ecc1 34be cac3 1a3e
000002d0: a528 053c 0c5f 4d3d f8ab b7bd 841d 2e3d
000002e0: bdf6 d8bd a112 fa3d 84b4 4d3d 7198 25be
000002f0: 6a4f e8bd 10d4 00be a005 e93d eea5 4ebc
00000300: 1d79 c63c 4f4d fa3a 9e4c 8cbd cabd 85bd
00000310: a82b 1ebe 95b1 55bd 91fb 2f3e f175 6ebb
00000320: 9c51 10be ecb6 273e c2e3 b4bc 1089 b83d
00000330: 7b11 e33d 58e7 1a3d fff4 8c3d 19b8 113e
00000340: a3a0 37bc da8c b03b 4281 d4bc 6e46 223e
00000350: 9dcc 13be 01a0 0f3e 50a7 323d eed6 11bd
00000360: b73f 1c3e 3131 efbd 9573 c9bd 6046 7dbd
00000370: d485 83bd 9c2c 7d3c 5fec f2bd 02cd fabd
00000380: f25c 25be 76bb 23be 96a7 7cbc 8f7b 9fbd
00000390: dd24 13be 32ef c9bd 96e6 2cbd 0549 303e
000003a0: 1406 d0bd 5f77 153e e5bb c9bd e10b 843d
000003b0: 754e 43bc 4788 303d cd60 2ebd 1750 eabc
000003c0: 717c 80bd 2662 473d 6dd2 133e 2eea 21bd
000003d0: 926a 3abd 1e46 80bd 510d 1abe 7452 2fbc
000003e0: 4f89 81bd db50 e1bd 1fa3 b7bd 9ab8 0a3e
000003f0: fa62 21be 28c6 0e3e 1a0b 1dbe d566 33be

mlp2_q_dynamics.network.6.weight f4 [10, 32]
-0.1714185 0.07770433 0.036044028 0.1217065 0.15249842 0.11216966 0.16491872 -0.17659917
-0.035467837 -0.16808046 0.13941456 -0.11852229 0.16328102 -0.12515017 -0.034505792 0.028239232
0.00051147304 -0.00061378453 0.15232201 -0.060080986 0.10713453 0.069099486 0.042713765 -0.08551758
0.13280444 -0.081176475 0.14905258 0.004069173 -0.14679945 -0.1422509 -0.11076354 0.14451247
0.07150971 0.028310796 -0.027091341 0.056023423 0.0061345156 -0.109404996 -0.015753902 -0.12353262
-0.0017996915 -0.117635034 0.13130288 0.12148188 0.018540883 0.14520523 -0.04686093 0.17319946
-0.1716263 0.08986047 -0.016464625 -0.1472799 0.04340255 0.110153906 -0.0143191805 0.17343915
0.12145151 -0.007866161 -0.05772997 0.116570406 -0.15941894 0.11204227 0.0018099542 -0.15764335
0.015436135 0.1663028 0.1417611 0.16215876 0.02038738 -0.16374193 -0.15624663 -0.0775329
0.0052194656 0.15619613 -0.16179404 -0.10562995 0.07567462 0.0017666694 0.10558603 0.1695333
-0.06902362 0.09661707 0.09088291 -0.0037674436 0.0856248 -0.122095436 0.056343548 0.1512204
-0.07181258 -0.104933366 -0.0005712162 -0.08876722 0.1402012 0.07779096 -0.11011797 -0.13807888
0.10694746 0.017998347 -0.121001005 -0.10535342 -0.14297837 0.06458233 0.14962748 0.008056813
0.17066434 -0.10809701 0.043735404 -0.0065113297 0.17052549 0.16766837 0.02973949 -0.16250792
-0.1305179 -0.1660962 -0.14157052 -0.0052670916 0.15253048 -0.026651349 0.07136186 -0.11763636
0.1312803 0.085689366 -0.037527323 0.056860503 0.113962464 -0.12836964 0.17378357 -0.10878418
-0.08108704 0.03792951 -0.008136365 0.0016601011 0.039549675 0.085148856 0.06293964 0.0983675
0.023818132 0.106627814 -0.048883937 -0.028595561 -0.13332637 -0.011959463 -0.11737827 -0.031447638
0.1611269 0.011896706 0.054829065 -0.08920629 -0.09797199 0.1137465 0.0010205859 -0.10287626
-0.1429988 0.09846081 -0.1700699 0.13003713 -0.13542925 -0.12894642 0.08359549 -0.12929605
0.039300207 -0.018650422 -0.083048485 0.10020782 -0.0693621 0.14358117 -0.010641025 0.12990071
0.14591561 0.029915854 0.046286173 0.17604017 -0.11735906 -0.16819008 -0.09410714 0.02099994
0.14596094 0.114571884 -0.0015022401 0.07763542 0.0979277 -0.092410676 -0.03537467 -0.15152395
-0.10329387 -0.12487951 -0.13667595 0.10231721 0.14470203 -0.031486962 0.03379486 0.00086497975
0.06307802 0.005325844 -0.10483512 0.08197568 0.0409177 -0.089110196 -0.15206431 -0.031690005
-0.13962682 -0.11978842 -0.12843637 -0.09874313 0.1313861 -0.046226956 0.040372677 0.14600599
-0.13435473 -0.09857734 0.12154628 0.10141117 0.084881686 0.10873689 -0.01691138 0.07468242
-0.015560574 0.10625631 0.06722469 -0.036465157 -0.10038496 0.12289701 -0.14900862 0.061197687
0.16525225 -0.14493845 0.14927107 0.08012965 -0.10398607 -0.07132844 -0.021685839 -0.11143966
-0.14909534 0.15387778 -0.057713848 -0.16900338 0.026522884 0.010921471 0.16400571 0.1528627
0.08306257 -0.15792717 0.09536548 -0.124468364 -0.014987251 0.11478049 -0.033031516 0.13007468
0.02015475 -0.06157334 -0.056525856 -0.065767504 0.09690749 0.05476353 -0.05640028 0.04578882
00000000: 5588 2fbe 7323 9f3d e7a2 133d 4241 f93d
00000010: 8c28 1c3e 35b9 e53d 74e0 283e 6ad6 34be
00000020: b946 11bd 491d 2cbe b1c2 0e3e d0bb f2bd
00000030: 2433 273e 5e27 00be f255 0dbd f655 e73c
00000040: 6014 063a 62e6 20ba 4dfa 1b3e 7b17 76bd
00000050: 5969 db3d 0884 8d3d a1f4 2e3d d723 afbd
00000060: e3fd 073e da3f a6bd 3da1 183e b256 853b
00000070: 9852 16be 38aa 11be ffd7 e2bd 14fb 133e
00000080: af73 923d 0bec e73c a9ee ddbc d178 653d
00000090: 0c04 c93b ba0f e0bd 540e 81bc acfe fcbd
000000a0: a0e3 ebba a3ea f0bd 4374 063e 7ecb f83d
000000b0: 0de3 973c aeb0 143e 3ff1 3fbd 335b 313e
000000c0: cebe 2fbe c408 b83d d2e0 86bc 8bd0 16be
000000d0: dfc6 313d 5f98 e13d ff9a 6abc 089a 313e
000000e0: 92bb f83d 12e1 00bc 4376 6cbd 77bc ee3d
000000f0: b83e 23be 6b76 e53d fc3b ed3a 426d 21be
00000100: d8e7 7c3c 484b 2a3e d229 113e f20c 263e
00000110: 6f03 a73c f7ab 27be 1eff 1fbe 92c9 9ebd
00000120: 0d08 ab3b e1f1 1f3e 56ad 25be 8454 d8bd
00000130: 4cfb 9a3d 978f e73a 7d3d d83d 239a 2d3e
00000140: 415c 8dbd 2cdf c53d d220 ba3d 37e7 76bb
00000150: 0e5c af3d 2c0d fabd 7ec8 663d 85d9 1a3e
00000160: 7912 93bd 4ee7 d6bd acbd 15ba 97cb b5bd
00000170: e790 0f3e de50 9f3d 8885 e1bd 8d64 0dbe
00000180: 4507 db3d 4571 933c 60cf f7bd 89c3 d7bd
00000190: ec68 12be be43 843d f237 193e b900 043c
000001a0: a2c2 2e3e f761 ddbd e523 333d fe5c d5bb
000001b0: 3c9e 2e3e 42b1 2b3e 3ba0 f33c 7a68 26be
000001c0: 7ca6 05be 1f15 2abe ddf7 10be 9197 acbb
000001d0: f330 1c3e ee53 dabc 2b26 923d 55eb f0bd
000001e0: 586e 063e e87d af3d 40b6 19bd 8fe6 683d
000001f0: 2765 e93d 5573 03be 52f4 313e 3dca debd
00000200: f610 a6bd f95b 1b3d 634e 05bc c097 d93a
00000210: d7fe 213d 8662 ae3d 7fe6 803d e674 c93d
00000220: 3e1e c33c af5f da3d 863a 48bd 3d41 eabc
00000230: b586 08be a0f1 43bc 0564 f0bd 3dcf 00bd
00000240: 73fe 243e 67ea 423c 7194 603d cab1 b6bd
00000250: 8aa5 c8bd edf3 e83d 2ec5 853a cab0 d2bd
00000260: 476e 12be d2a5 c93d ce26 2ebe 7428 053e
00000270: f7ad 0abe 880a 04be 1d34 ab3d 2f66 04be
00000280: 41f9 203d c5c8 98bc 5315 aabd c239 cd3d
00000290: b70d 8ebd f106 133e b257 2ebc b104 053e
000002a0: e76a 153e 1812 f53c 9296 3d3d e043 343e
000002b0: f259 f0bd 053a 2cbe 3fbb c0bd 1108 ac3c
000002c0: c976 153e aaa4 ea3d d0e6 c4ba 52ff 9e3d
000002d0: 518e c83d cf41 bdbd 08e5 10bd 1829 1bbe
000002e0: bd8b d3bd d4c0 ffbd c8f4 0bbe af8b d13d
000002f0: c52c 143e 79f8 00bd 7b6c 0a3d cfbf 623a
00000300: 0d2f 813d 6b84 ae3b ccb3 d6bd dee2 a73d
00000310: 5199 273d 687f b6bd bfb6 1bbe 61cd 01bd
00000320: 55fa 0ebe a253 f5bd d384 03be d739 cabd
00000330: 148a 063e 7a58 3dbd d25d 253d 9882 153e
00000340: 4994 09be ebe2 c9bd 42ed f83d a9b0 cf3d
00000350: 73d6 ad3d 72b1 de3d bc89 8abc 19f3 983d
00000360: c7f1 7ebc e99c d93d 19ad 893d 7d5c 15bd
00000370: a196 cdbd 6db1 fb3d b795 18be 6daa 7a3d
00000380: e337 293e bf6a 14be 84da 183e 041b a43d
00000390: a6f6 d4bd a514 92bd 80a6 b1bc 7a3a e4bd
000003a0: 73ac 18be 2392 1d3e 5b65 6cbd 390f 2dbe
000003b0: 8546 d93c f8ef 323c 1df1 273e 0a88 1c3e
000003c0: b51c aa3d a9b7 21be fa4e c33d 45e9 febd
000003d0: 168d 75bc 0912 eb3d 0e4c 07bd 4c32 053e
000003e0: 931b a53c 5434 7cbd a887 67bd 1db1 86bd
000003f0: 6f77 c63d b94f 603d fb03 67bd 0f8d 3b3d

mlp3_q_init.network.0.weight f4 [32, 4]
-0.42245448 0.3199978 0.18177174 -0.27345014 0.3149307 -0.33063456 0.033637274 -0.17143819
-0.0625322 0.40213886 0.10714368 -0.6066955 -0.31273004 0.068988636 -0.31202978 0.17335808
0.093114756 -0.54614186 0.41057923 -0.0029911518 0.34581056 0.35838506 0.44483703 -0.1528066
0.33398125 -0.15820813 -0.2734417 -0.039999213 -0.40153444 0.36885464 0.40418816 -0.109096475
0.37497 0.502657 -0.15262066 -0.15610339 -0.5485144 -0.19184567 -0.543312 0.0519155
-0.123391345 -0.45964608 -0.6003275 -0.05306038 0.33992144 0.86628115 0.18804309 -0.104272254
-0.44047183 0.5580115 0.60683984 -0.10175561 -0.34326562 0.2826549 -0.36209545 0.2123773
0.3107811 0.99782157 0.7612143 -0.30687428 0.005438199 0.31214878 0.24946778 -0.21117489
-0.31947336 -0.2328003 -0.18044366 -0.045968395 0.23330228 -0.11574564 0.44895536 -0.33299035
0.56925386 0.24421561 -0.055169243 -0.44213644 -0.24580324 0.018960392 -0.13425075 -0.13636674
-0.12332868 0.15444 0.45540097 -0.28138325 -0.07458953 0.060060207 -0.07706989 -0.24797058
-0.14862563 -0.38357925 -0.38973686 0.0161179 -0.433069 -0.37317795 -0.31860307 0.08489107
-0.11945874 0.2722067 -0.029074436 0.3819498 -0.47150287 -0.41635317 0.40103558 -0.006835107
0.4487532 0.2010092 -0.13456607 -0.19923347 0.46352825 0.3650019 0.35743493 -0.044075217
0.00860808 0.20195217 -0.33206603 -0.28258866 -0.12140277 0.5243432 0.3798547 -0.56789035
-0.400386 0.417705 -0.17152072 0.106951185 -0.32560956 0.14627573 0.5659123 -0.31937355
00000000: f44b d8be c0d6 a33e 5f22 3a3e a801 8cbe
00000010: 993e a13e ef48 a9be 3dc7 093d 7e8d 2fbe
00000020: e210 80bd 25e5 cd3e 256e db3d 6550 1bbf
00000030: 271e a0be ea49 8d3d 5ec2 9fbe c884 313e
00000040: f3b2 be3d f4cf 0bbf 7137 d23e 3307 44bb
00000050: 150e b13e 3f7e b73e aec1 e33e 5579 1cbe
00000060: 97ff aa3e 5001 22be 8d00 8cbe 37d6 23bd
00000070: ec95 cdbe 84da bc3e c0f1 ce3e f96d dfbd
00000080: 11fc bf3e 21ae 003f 9748 1cbe 91d9 1fbe
00000090: 716b 0cbf 3173 44be 7f16 0bbf 59a5 543d
000000a0: 9ab4 fcbd bb56 ebbe 10af 19bf d755 59bd
000000b0: 2f0a ae3e 9ac4 5d3f 5e8e 403e b18c d5bd
000000c0: 8685 e1be d7d9 0e3f db59 1b3f 3f65 d0bd
000000d0: 83c0 afbe 25b8 903e 9364 b9be 6f79 593e
000000e0: b31e 9f3e 3c71 7f3f f1de 423f a01e 9dbe
000000f0: eb32 b23b f7d1 9f3e 7b74 7f3e 3b3e 58be
00000100: 0392 a3be 3463 6ebe 39c6 38be 5b49 3cbd
00000110: cbe6 6e3e 0d0c edbd 7add e53e b67d aabe
00000120: 9fba 113f a813 7a3e 25f9 61bd b55f e2be
00000130: d8b3 7bbe d352 9b3c 0779 09be b9a3 0bbe
00000140: bf93 fcbd 8525 1e3e 512a e93e 7711 90be
00000150: 65c2 98bd b101 763d d2d6 9dbd 00ec 7dbe
00000160: 5131 18be 8064 c4be 978b c7be b009 843c
00000170: 38bb ddbe 2e11 bfbe f11f a3be 5fdb ad3d
00000180: c9a6 f4bd ad5e 8b3e 832d eebc ed8e c33e
00000190: d368 f1be 3e2c d5be 8954 cd3e 09f9 dfbb
000001a0: fbc2 e53e 5bd5 4d3e b0cb 09be dc03 4cbe
000001b0: 9353 ed3e 87e1 ba3e b601 b73e 3788 34bd
000001c0: e808 0d3c 8dcc 4e3e 8f04 aabe 76af 90be
000001d0: 04a2 f8bd 5b3b 063f 517c c23e 4361 11bf
000001e0: 65ff ccbe 6edd d53e 21a3 2fbe 3909 db3d
000001f0: 4cb6 a6be 4ec9 153e a1df 103f ee84 a3be

mlp3_q_init.network.0.bias f4 [32]
-0.40297464 -0.49104014 0.17168295 0.14221539 -0.044338584 0.049143806 -0.43162256 0.51477987
0.27838317 0.08394788 0.6002707 0.4411392 -0.4172141 0.24859543 0.67034936 0.47476482
0.19781522 0.029802537 0.044213235 0.25356838 0.37730426 -0.3010297 0.5842548 -0.3092319
0.20558266 0.4285281 0.20881043 0.34772322 0.2202514 0.21130264 0.41597033 0.03422301
00000000: b152 cebe 9d69 fbbe a8cd 2f3e e9a0 113e
00000010: 609c 35bd 044b 493d a2fd dcbe 9dc8 033f
00000020: 3d88 8e3e deec ab3d 57ab 193f ffdc e13e
00000030: 169d d5be cd8f 7e3e 049c 2b3f 6014 f33e
00000040: 1390 4a3e 7324 f43c f018 353d b7d3 813e
00000050: 062e c13e 9120 9abe b991 153f a553 9ebe
00000060: 4384 523e 0968 db3e 67d2 553e c708 b23e
00000070: 9589 613e b85f 583e 10fa d43e 6d2d 0c3d
