models/lstm_pure_seed_111.pt (torch, 50962 bytes, 5 tensors)

lstm.weight_ih_l0 f4 [120, 4]
-0.122022845 -0.13601021 -0.24165894 0.19502278 0.19430102 -0.2694218 0.16788882 -0.2334943
-0.30313396 0.18826681 -0.2280706 0.19779857 -0.10241773 -0.11229081 -0.22849938 0.19329327
0.084532425 -0.23217729 0.053979144 -0.13926569 -0.2507281 0.16233903 -0.21389037 0.19447893
-0.2041294 -0.18471873 -0.27148524 0.22779582 0.08475538 -0.22958004 0.04859944 -0.13716693
0.0830769 -0.2295908 0.056287665 -0.13824464 -0.0040348144 0.056923598 -0.052744325 0.02757603
0.07609629 -0.09482348 0.03636668 -0.03259733 0.084369145 -0.22802232 0.050880183 -0.13772686
-0.578969 0.057067867 -0.75765824 0.16681679 0.085917704 -0.23133859 0.055804525 -0.13844202
0.021792226 -0.021669671 -0.075813346 -0.011082073 -0.08542234 0.09914988 -0.13891181 0.17386527
0.08551213 -0.23141047 0.054335207 -0.1371729 -0.15329273 0.12667051 -0.16639674 0.18017103
0.087331474 -0.06589715 -0.11301051 -0.018841328 0.08005457 -0.05804686 -0.1283978 -0.022115838
0.08022081 -0.22755158 0.05310835 -0.1388735 -0.25130594 0.159149 -0.21133114 0.19114627
0.048844233 0.060961213 -0.049608342 0.13953072 -0.055409145 -0.06075154 -0.1930922 0.18165049
-0.033485733 0.09019781 -0.101918526 0.1673855 0.05047496 0.065734185 -0.04489117 0.13786635
-0.1086099 0.097236626 -0.15150762 0.1757583 0.08610861 -0.22859578 0.054659564 -0.13880624
0.16493794 -0.18039031 0.16581453 -0.1300453 0.0126672285 -0.024238536 -0.0951525 -0.020900425
-0.001977229 0.0006324228 -0.0006897597 -0.00030876131 -0.0007661895 -0.0020898904 0.00046028828 -0.0003057887
5.8645153e-05 -0.0018328404 0.00070884527 0.0010291697 2.8359422e-05 -0.00037355145 0.0005442602 -0.00064920494
0.0015027168 6.3874715e-05 -4.5586585e-05 -0.0018249259 0.0017328633 0.0021573098 -0.0020895363 -0.0020513944
9.0220245e-05 0.00034913563 -0.0015878853 -0.001820644 -4.6381916e-05 -0.0014105381 0.00014396755 -0.00068468036
-0.0017592617 -0.0015741552 0.001569679 0.001884599 -0.0011903547 0.0010505078 0.001827417 0.00068779744
-0.001215458 -0.0011972229 0.0016998247 0.00063973235 0.00064753275 -0.0010276288 -0.00036804524 -0.0021532916
0.0014649659 -0.0013682274 0.0019517001 0.0014052608 0.0019196797 -0.00077293185 -0.00018488966 0.0006204194
0.0019318373 -0.00015981488 0.0018094884 -0.0018575063 0.0007310282 0.00021828854 -8.2647435e-05 -0.0014934152
-0.0005521409 0.0012699291 5.629902e-05 0.0013109393 -0.0006784426 0.00056233886 0.0008498478 -0.00095870445
-0.0004985808 -8.8750996e-05 -0.0018960988 0.002120537 0.0012386991 0.0019796544 0.0012825489 0.0010927066
0.0005699384 0.0016074987 -0.0018163243 0.0016197604 -0.0019434985 -0.0013393853 -7.680479e-05 -0.001706384
0.0004039093 0.0019257562 0.0008420807 0.0016427387 0.001578665 -0.0010786736 0.0008220679 0.0009507503
-0.00035082252 -0.0004634148 0.0005257972 0.0012237119 0.0010863721 0.0011762831 0.00016751986 -0.0010429632
0.0021939757 -0.0017022456 -0.001459194 0.0015136381 0.001537945 -0.0004746719 -0.00087673275 -0.0020188075
-0.0010229641 0.0014742656 -0.0012423872 -0.0015313996 -0.0010173158 -0.0015942577 -0.0018340321 -0.0012995501
-0.016688513 0.31618512 0.11389435 0.033063624 -0.082942076 -0.06244074 0.020637613 0.1366558
0.01072051 -0.45063257 -0.05464102 0.3507651 0.021951169 -0.31643695 -0.10750102 -0.025688719
00000000: 1de7 f9bd 4346 0bbe 7175 77be 0db4 473e
00000010: d9f6 463e a7f1 89be 0ceb 2b3e 2119 6fbe
00000020: 6034 9bbe 04c9 403e 578b 69be b58b 4a3e
00000030: 63c0 d1bd b9f8 e5bd befb 69be acee 453e
00000040: 561f ad3d e2bf 6dbe 3c19 5d3d aa9b 0ebe
00000050: 6f5f 80be 343c 263e 1406 5bbe 7c25 473e
00000060: 4c07 51be e826 3dbe 1d00 8bbe 4f43 693e
00000070: 3b94 ad3d 0817 6bbe 3510 473d 7d75 0cbe
00000080: 3924 aa3d da19 6bbe e58d 663d 0190 0dbe
00000090: 7a36 84bb b828 693d 6f0a 58bd 20e7 e13c
000000a0: 5fd8 9b3d d032 c2bd 3af5 143d c784 05bd
000000b0: bbc9 ac3d af7e 69be bd67 503d 4508 0dbe
000000c0: 5037 14bf ffbf 693d e4f5 41bf 05d2 2a3e
000000d0: 9ff5 af3d 06e4 6cbe 4993 643d bfc3 0dbe
000000e0: 9c85 b23c 9884 b1bc 0744 9bbd 9591 35bc
000000f0: e8f1 aebd 180f cb3d e63e 0ebe bd09 323e
00000100: fc20 af3d def6 6cbe 988e 5e3d 0d77 0cbe
00000110: c5f8 1cbe eab5 013e e863 2abe c17e 383e
00000120: d8da b23d 16f5 86bd 0e72 e7bd 2159 9abc
00000130: a7f3 a33d 8bc2 6dbd b67a 03be 462c b5bc
00000140: cf4a a43d 4803 69be 2488 593d db34 0ebe
00000150: 2cab 80be f5f7 223e 3167 58be d9bb 433e
00000160: e410 483d 77b2 793d 1e32 4bbd 24e1 0e3e
00000170: b3f4 62bd 9bd6 78bd f6b9 45be 9602 3a3e
00000180: 5628 09bd a1b9 b83d a9ba d0bd 1b67 2b3e
00000190: d5be 4e3d a59f 863d cedf 37bd d62c 0d3e
000001a0: de6e debd ff23 c73d d024 1bbe fcf9 333e
000001b0: b659 b03d 0315 6abe b5e2 5f3d 3923 0ebe
000001c0: 7ee5 283e 3db8 38be 49cb 293e 982a 05be
000001d0: 358a 4f3c e58f c6bc 50df c2bd 5e37 abbc
000001e0: 6694 01bb 2dc9 253a fdd0 34ba 3ee1 a1b9
000001f0: 1bda 48ba 8bf6 08bb d952 f139 4452 a0b9
00000200: c1f9 7538 eb3b f0ba cdd1 393a 34e5 863a
00000210: 65e5 ed37 3ad9 c3b9 afac 0e3a 682f 2aba
00000220: cff6 c43a 7af4 8538 3934 3fb8 5a32 efba
00000230: 3e21 e33a a761 0d3b 9af0 08bb b070 06bb
00000240: a034 bd38 310c b739 9720 d0ba ada2 eeba
00000250: 348a 42b8 cee1 b8ba fff5 1639 1f7c 33ba
00000260: 0797 e6ba e253 ceba b0bd cd3a a604 f73a
00000270: ad05 9cba 31b1 893a f185 ef3a 4e4d 343a
00000280: 0150 9fba 22ec 9cba a7cc de3a b6b3 273a
00000290: 30bf 293a 80b1 86ba 32f6 c0b9 3d1e 0dbb
000002a0: 1904 c03a 1856 b3ba 30d0 ff3a ba30 b83a
000002b0: c39d fb3a 949e 4aba f1de 41b9 a4a3 223a
000002c0: b435 fd3a fb93 27b9 5b2c ed3a 9277 f3ba
000002d0: 79a2 3f3a 62e4 6439 0153 adb8 b3be c3ba
000002e0: 8cbd 10ba c073 a63a 9d22 6c38 d3d3 ab3a
000002f0: 83d9 31ba ec69 133a 52c8 5e3a 9151 7bba
00000300: 31b3 02ba d41f bab8 8586 f8ba b5f8 0a3b
00000310: d85b a23a 17bd 013b 331b a83a 2639 8f3a
00000320: eb67 153a b5b2 d23a bb11 eeba 244e d43a
00000330: fdbc feba 508e afba 4212 a1b8 bfa8 dfba
00000340: cac3 d339 a869 fc3a 14bf 5c3a 2a51 d73a
00000350: 35eb ce3a 4862 8dba 0b80 573a c63b 793a
00000360: 9aee b7b9 7bf6 f2b9 a7d5 093a f564 a03a
00000370: 9964 8e3a 832d 9a3a 45a8 2f39 0ab4 88ba
00000380: cec8 0f3b e21d dfba 6d42 bfba 4465 c63a
00000390: df94 c93a 62dd f8b9 8ad4 65ba f84d 04bb
000003a0: fb14 86ba 253c c13a 99d7 a2ba 3eb9 c8ba
000003b0: 7457 85ba 69f6 d0ba e863 f0ba aa55 aaba
000003c0: 59b6 88bc 04e3 a13e 7141 e93d b96d 073d
000003d0: 89dd a9bd ddc1 7fbd 3610 a93c 7fef 0b3e
000003e0: 14a5 2f3c 50b9 e6be 43cf 5fbd 7c97 b33e
000003f0: f0d2 b33c 0604 a2be 7f29 dcbd 2671 d2bc

lstm.weight_hh_l0 f4 [120, 30]
0.00021865297 0.001875286 -0.0016081036 0.0005507338 0.001179277 0.0008777275 0.0010897408 0.00080723694
-0.0013900092 -0.00092413 0.0011902776 -0.00020662595 0.00032606936 0.0016955641 -0.00012745906 0.00075968174
0.0007252322 -0.0014549702 -0.00042400957 -0.0008804529 0.0014242752 -0.0008084002 -0.00012862016 0.000116264826
0.00106409 0.00028283 -0.0013694962 -0.0008466838 0.0011475647 -0.0010409391 0.00013045383 0.00012399984
0.00022373677 -0.0007795327 0.00096013385 0.0017834487 -0.0014820155 0.00026189306 -0.0014994799 -0.0014526006
0.0013330237 -0.0016389743 -0.00029739406 7.56681e-05 -0.0013812534 -0.0014099737 -0.000626519 -0.0014529377
-0.0011480172 -0.001573536 -0.0011523522 0.001168347 -0.0018962546 0.0019699659 -0.0010384262 0.00060449267
-0.001829147 -0.00027380252 0.00028809812 -0.00076231314 -0.0007706409 0.0008730617 0.0013129617 -0.0019807525
-7.900978e-05 -0.001865431 -0.0010388594 0.00031848552 0.00035833003 0.0017154599 0.0014852674 -5.62768e-05
7.240201e-05 0.0013222896 -0.0019699803 0.0017037626 0.00069012144 0.0006056381 -0.0018293706 -0.00083521777
0.0019477087 0.0016444224 0.00032343843 -5.441642e-05 -0.0016328507 0.0015356172 -0.001243136 -0.0009999297
0.0012240075 -0.00018116213 -0.001287122 -0.001991411 -0.00084655744 -0.001830129 -0.0013174844 -0.00039719036
-0.0014952386 -0.0019679882 -0.00046950678 4.6430112e-05 -0.001973932 -1.2123347e-05 0.00036079407 -0.0003423822
-0.0007276619 -0.0016780745 0.00036145284 -0.00042632033 6.963277e-05 -0.00049372844 0.0007518516 -0.00031227662
0.0010435892 0.0003498416 -0.001794294 -0.0008724964 0.00031700757 -0.0013750754 0.001123648 0.0013073948
0.0012360988 -0.00054719835 0.0019852605 0.00066910987 0.0016106234 0.00012725759 -0.0017132856 -0.0013648897
-0.0008001326 -0.0011864568 -0.00020644737 -0.00083224947 -0.00038735988 -0.00171286 -0.0015614555 4.847765e-06
-0.00043529776 0.00040122727 0.00061511376 -0.0016902373 0.0011059655 -0.0006673074 -0.0005014294 -0.0016448711
0.00024742127 0.0007467871 0.001598692 0.001168195 -0.00096909696 0.001700903 -0.0010928966 -0.0017633294
0.0018231171 0.0003458586 0.0017939118 0.0016222445 -3.0694962e-05 -0.0014198506 0.0012814479 0.00033884123
-0.0018812504 0.00086633663 0.00047594143 0.0009422653 1.2990237e-05 -0.0010453606 -0.00060772494 -0.00020635559
-0.0019167622 0.0018756744 -0.000330122 0.0019013601 -0.0018153829 0.00044036843 -0.00087785727 -0.0008429385
-0.00016562844 -0.0013152647 0.0011093814 -0.00091248134 0.0003354154 0.00050032546 0.00076352764 -0.0013808575
-0.0011052612 0.0005240312 -0.00050325255 0.001291886 -0.0012744344 -0.00021530868 -0.0010779916 -3.578353e-05
0.0011115818 -0.0006677707 9.900332e-06 -0.0011225617 -4.4085744e-05 -0.0005136693 0.0016157232 -0.00054512883
-0.00033705833 0.0014985345 -0.00016922904 -0.0010838765 0.0003308599 -0.0018953369 -0.0017174634 0.001140702
-0.00074535876 6.868768e-05 0.001156154 -0.00042527867 0.0003990362 0.0009769645 -0.00090158515 -0.0007194331
-0.00020023156 0.00012883735 8.522916e-05 0.0014238186 0.00061529235 -0.0013521898 0.0005119715 -0.0007215078
-0.00057732896 0.0010467499 -0.00024845076 0.00025533867 -0.000810597 -0.0018266588 -0.0011774021 -0.0012628096
-0.0012165601 -0.000117303374 -0.0012083388 0.0008108685 -0.001631254 -0.0016423891 -0.0018170081 0.0006752115
0.0010363034 -0.0012543945 0.00048557666 0.0007618363 -0.0013642188 0.0013017927 -0.0008175688 0.0012853182
0.0018106077 -0.0009268115 -0.00070431165 0.0002707286 -0.0002456751 -0.00048414065 -0.0019090124 -0.00037915376
00000000: 3646 6539 28cc f53a 01c7 d2ba 1f5f 103a
00000010: f891 9a3a 4c17 663a a2d5 8e3a c19c 533a
00000020: f830 b6ba 5141 72ba 1703 9c3a bba9 58b9
00000030: 4af4 aa39 b13d de3a 88a6 05b9 6125 473a
00000040: 821d 3e3a b3b4 beba 9a4d deb9 32ce 66ba
00000050: bfae ba3a d2ea 53ba 36de 06b9 34d3 f338
00000060: f078 8b3a cd48 9439 ab80 b3ba fdf3 5dba
00000070: e269 963a 1f70 88ba 6fca 0839 f405 0239
00000080: e29a 6a39 8e59 4cba 7eb1 7b3a 9cc2 e93a
00000090: 3040 c2ba b14e 8939 328a c4ba 3065 beba
000000a0: dab8 ae3a dad2 d6ba 8eeb 9bb9 00b0 9e38
000000b0: 2c0b b5ba dece b8ba fa3c 24ba 8070 beba
000000c0: 1179 96ba 1b3f ceba 860a 97ba 3823 993a
000000d0: bf8b f8ba 8b1a 013b cd1b 88ba d176 1e3a
000000e0: fdbf efba 278d 8fb9 e00b 9739 f8d5 47ba
000000f0: d604 4aba 2ede 643a af17 ac3a 83cf 01bb
00000100: 0db2 a5b8 7a81 f4ba 562a 88ba 67fa a639
00000110: 3ede bb39 48d9 e03a 4ead c23a c10a 6cb8
00000120: 88d6 9738 ad50 ad3a c91a 01bb c950 df3a
00000130: 44e9 343a afc3 1e3a 7ec7 efba 84f2 5aba
00000140: 424a ff3a a989 d73a 2c93 a939 303d 64b8
00000150: 6105 d6ba c346 c93a b9f0 a2ba 1310 83ba
00000160: e06e a03a 57f6 3db9 a6b4 a8ba 5582 02bb
00000170: 82eb 5dba f0e0 efba 71af acba fd3d d0b9
00000180: e2fb c3ba 5df9 00bb 2228 f6b9 f4bd 4238
00000190: 155d 01bb 6165 4bb7 f628 bd39 c381 b3b9
000001a0: 90c0 3eba d6f2 dbba 6181 bd39 bf83 dfb9
000001b0: cf07 9238 8e6d 01ba e817 453a 0fb9 a3b9
000001c0: 0bc9 883a f26a b739 842e ebba 3eb8 64ba
000001d0: 0934 a639 e03b b4ba 5f47 933a e45c ab3a
000001e0: 9804 a23a dc71 0fba 251b 023b 3467 2f3a
000001f0: 8e1b d33a 7370 0539 5390 e0ba 19e6 b2ba
00000200: fdbf 51ba e282 9bba cb79 58b9 512b 5aba
00000210: 9016 cbb9 0b82 e0ba c1a9 ccba fca9 a236
00000220: ad38 e4b9 d05b d239 963f 213a f48a ddba
00000230: 0bf6 903a 3eee 2eba 5b72 03ba b798 d7ba
00000240: 52b8 8139 09c4 433a 348b d13a 1f1e 993a
00000250: ff0a 7eba d6f0 de3a 863f 8fba 841f e7ba
00000260: a9f5 ee3a 5b54 b539 b121 eb3a 7ea1 d43a
00000270: 77be 00b8 481a baba 42f6 a73a 80a6 b139
00000280: 4a94 f6ba de1a 633a c787 f939 5b02 773a
00000290: a5f0 5937 7b04 89ba bb4f 1fba 2861 58b9
000002a0: de3b fbba 30d9 f53a 3a14 adb9 0f37 f93a
000002b0: 24f2 edba 40e1 e639 0120 66ba a5f8 5cba
000002c0: 8cac 2db9 f664 acba aa68 913a 9633 6fba
000002d0: b1da af39 4628 033a 7927 483a e4fd b4ba
000002e0: 69de 90ba 235f 093a b5ec 03ba 8054 a93a
000002f0: ec0a a7ba 7cc4 61b9 654b 8dba 4616 16b8
00000300: 7fb2 913a 550d 2fba 9a19 2637 ec22 93ba
00000310: b5e8 38b8 c3a7 06ba adc6 d33a fae6 0eba
00000320: 34b7 b0b9 796a c43a 1373 31b9 dc10 8eba
00000330: 4477 ad39 f46c f8ba 821c e1ba 9c83 953a
00000340: 2e64 43ba 6b0c 9038 178a 973a f0f7 deb9
00000350: bb35 d139 7d0d 803a 5b58 6cba 5798 3cba
00000360: 40f5 51b9 8318 0739 0fbd b238 6d9f ba3a
00000370: 924b 213a f63b b1ba d335 063a 9223 3dba
00000380: e457 17ba 1933 893a 7f42 82b9 fade 8539
00000390: 3e7e 54ba 806c efba 0f53 9aba dc84 a5ba
000003a0: fc74 9fba c500 f6b8 1f61 9eba 7790 543a
000003b0: cdcf d5ba 6f45 d7ba ad28 eeba ad00 313a
000003c0: 92d4 873a 7f6a a4ba ff94 fe39 f8b5 473a
000003d0: 96cf b2ba eaa0 aa3a 1d52 56ba 1f78 a83a
000003e0: ea51 ed3a 44f5 72ba 8ea1 38ba 94f0 8d39
000003f0: f4cd 80b9 42d4 fdb9 d437 faba 28c9 c6b9

lstm.weight_ih_l1 f4 [120, 30]
-0.2650513 0.04446012 -0.04314384 0.23676455 0.046251506 -0.04938287 -0.3830891 0.04759868
-0.089230016 0.026452132 0.05713845 -0.046271622 0.17295131 -0.048625663 -0.044522103 0.06826715
-0.049003907 0.060243044 0.046573367 0.05092694 0.04854423 0.04787229 0.038795933 0.17806946
0.073085725 0.037453763 -0.064035736 -0.0795776 0.04851844 -0.0612857 -0.3168676 0.032895163
-0.03436436 0.28432742 0.037283 -0.036734864 -0.4514442 0.037788548 -0.08083351 0.024087746
0.04721537 -0.038318787 0.23730603 -0.043369573 -0.034867175 0.06288806 -0.041486833 0.056050375
0.039100043 0.04745914 0.038506225 0.039279323 0.0361529 0.21914412 0.070870414 0.031590432
-0.059994556 -0.07254089 0.039052118 -0.056923423 -0.3623584 0.03812701 -0.06953452 0.3165248
0.13167518 -0.0742584 -0.53402466 0.13199943 -0.1292638 0.016070487 0.054732595 -0.13090219
0.39056462 -0.13358083 -0.041144677 0.09484526 -0.13120247 0.090425216 0.042831074 0.053783063
0.13280879 0.07577182 0.064444914 0.22866139 0.10594745 0.06489363 -0.092128865 -0.13207376
0.044024892 -0.06261387 -0.3712444 0.040741358 -0.06591903 0.32518417 0.1376987 -0.07259177
-0.54460484 0.13641617 -0.13575488 0.017403869 0.06413604 -0.13422857 0.40546238 -0.13564849
-0.041628886 0.09330695 -0.13464177 0.09196309 0.051292818 0.05780282 0.13735431 0.074308656
0.063399024 0.23344609 0.10317994 0.06301198 -0.09130027 -0.13519354 0.05110213 -0.06508108
-0.11908164 0.03599058 -0.055017255 0.10172494 0.03798222 -0.055432357 -0.17410628 0.034724493
-0.0751235 0.0049794167 0.04308731 -0.037450295 0.0016574822 -0.037918177 -0.027815599 0.06434932
-0.03560214 0.06120732 0.03073207 0.03563718 0.036915995 0.05509062 0.03627428 0.07326089
0.063292965 0.03499556 -0.063353255 -0.06395303 0.037739757 -0.04477661 -0.41678697 0.030925417
-0.020019567 0.37194806 0.040807586 -0.028955838 -0.58403206 0.040484153 -0.080397725 0.03193618
0.045784425 -0.039246388 0.3601655 -0.04122301 -0.039258216 0.055029113 -0.03845254 0.04871774
0.038690727 0.04665474 0.038759004 0.030509923 0.032515533 0.29016256 0.067996316 0.027851032
-0.05004578 -0.06931951 0.036347765 -0.05634647 -0.2942203 0.04067437 -0.03977422 0.26192307
0.046786606 -0.04520966 -0.42375237 0.046398558 -0.085333474 0.027680779 0.05371722 -0.043198477
0.2119683 -0.046980087 -0.043519035 0.06568388 -0.045456626 0.0603846 0.044164106 0.051141046
0.04363558 0.04406064 0.039227188 0.1999858 0.072896115 0.03496819 -0.06324846 -0.07805308
0.045507234 -0.05915527 -0.3855005 0.054555103 -0.059906997 0.33856627 0.14879097 -0.06270437
-0.5597754 0.14604361 -0.14306773 0.03877777 0.07932388 -0.14696588 0.4501249 -0.14931054
-0.065121055 0.0853181 -0.14604343 0.08272755 0.067297265 0.073985495 0.15118738 0.06634708
0.058224503 0.2474413 0.09216821 0.05388922 -0.08189232 -0.14283226 0.06407149 -0.08114396
-0.38775584 0.06559793 -0.058442846 0.34081495 0.15212819 -0.062396597 -0.56278616 0.15104982
-0.14895864 0.04892359 0.09061915 -0.15220042 0.46352857 -0.1509758 -0.07507656 0.081021905
00000000: ceb4 87be d11b 363d 98b7 30bd 6872 723e
00000010: 3872 3d3d b145 4abd 4124 c4be d5f6 423d
00000020: 3abe b6bd 24b2 d83c 020a 6a3d 5087 3dbd
00000030: 261a 313e b42b 47bd cf5c 36bd a6cf 8b3d
00000040: 52b8 48bd 69c1 763d b7c3 3e3d c498 503d
00000050: 51d6 463d bc15 443d 7ce8 1e3d d757 363e
00000060: f8ad 953d 1e69 193d 2b25 83bd 95f9 a2bd
00000070: 46bb 463d b706 7bbd 783c a2be 14bd 063d
00000080: a5c1 0cbd 5d93 913e 0fb6 183d 4c77 16bd
00000090: b223 e7be 2ac8 1a3d 0a8c a5bd aa53 c53c
000000a0: e764 413d 29f4 1cbd 5a00 733e 4ba4 31bd
000000b0: e2d0 0ebd 75cb 803d 19ee 29bd 1495 653d
000000c0: 5e27 203d 8464 423d b4b8 1d3d 5be3 203d
000000d0: 1015 143d 5167 603e 8224 913d f864 013d
000000e0: dabc 75bd 5190 94bd 1df5 1f3d 8928 69bd
000000f0: 0a87 b9be 112b 1c3d 1d68 8ebd 8a0f a23e
00000100: dcd5 063e ca14 98bd d7b5 08bf dc2a 073e
00000110: bb5d 04be 41a6 833c 492f 603d 390b 06be
00000120: 16f8 c73e 6ac9 08be 5287 28bd 3b3e c23d
00000130: f159 06be db30 b93d a36f 2f3d a14b 5c3d
00000140: 07ff 073e 422e 9b3d b2fb 833d 3626 6a3e
00000150: fafa d83d f4e6 843d 0fae bcbd 583e 07be
00000160: 7253 343d b33b 80bd bf13 bebe 69e0 263d
00000170: 8e00 87bd 8a7e a63e e300 0d3e feaa 94bd
00000180: 396b 0bbf aeb0 0b3e 5403 0bbe 8f92 8e3c
00000190: c259 833d 3773 09be c498 cf3e 70e7 0abe
000001a0: 0d83 2abd b717 bf3d 88df 09be 2557 bc3d
000001b0: 6b18 523d a6c2 6c3d 9ca6 0c3e 232f 983d
000001c0: 59d7 813d 7e0c 6f3e 0150 d33d 6d0c 813d
000001d0: a3fb babd 2d70 0abe 7850 513d 3b49 85bd
000001e0: 13e1 f3bd dc6a 133d c659 61bd 2a55 d03d
000001f0: 3f93 1b3d 0a0d 63bd eb48 32be 453b 0e3d
00000200: 59da 99bd 602a a33b 527c 303d 7b65 19bd
00000210: e03f d93a 1750 1bbd 8add e3bc 94c9 833d
00000220: 8dd3 11bd 87b4 7a3d d2c1 fb3c 4bf8 113d
00000230: 3a35 173d b4a6 613d 5794 143d ce09 963d
00000240: be9f 813d 8157 0f3d 5abf 81bd cef9 82bd
00000250: 0195 1a3d ae67 37bd 1a65 d5be 4d57 fd3c
00000260: 1300 a4bc fa6f be3e db25 273d cb34 edbc
00000270: 2083 15bf b6d2 253d 90a7 a4bd 83cf 023d
00000280: 7388 3b3d d2c0 20bd 9d67 b83e 75d9 28bd
00000290: 39cd 20bd 3566 613d 6980 1dbd 418c 473d
000002a0: 2b7a 1e3d 0a19 3f3d c3c1 1e3d f2ef f93c
000002b0: 022f 053d 3090 943e a741 8b3d d927 e43c
000002c0: cefc 4cbd 63f7 8dbd 65e1 143d 8ecb 66bd
000002d0: 0ba4 96be 2b9a 263d 4bea 22bd c81a 863e
000002e0: 50a3 3f3d c42d 39bd 12f6 d8be 6a0c 3e3d
000002f0: 51c3 aebd cdc2 e23c 9606 5c3d e3f0 30bd
00000300: 380e 593e 316e 40bd 0441 32bd 4585 863d
00000310: ba30 3abd d855 773d 6ce5 343d 4679 513d
00000320: 39bb 323d ee78 343d b0ac 203d 14c9 4c3e
00000330: 8f4a 953d ce3a 0f3d 6988 81bd 4bda 9fbd
00000340: cb65 3a3d cc4c 72bd 5260 c5be 2c75 5f3d
00000350: 0a61 75bd 8f58 ad3e a95c 183e 266b 80bd
00000360: 714d 0fbf 758c 153e 5980 12be 70d5 1e3d
00000370: 8f74 a23d 397e 16be c576 e63e dde4 18be
00000380: 305e 85bd 42bb ae3d 698c 15be 106d a93d
00000390: 26d3 893d b585 973d ddd0 1a3e fae0 873d
000003a0: d17c 6e3d 4161 7d3e b0c2 bc3d f1ba 5c3d
000003b0: 29b7 a7bd 9f42 12be ea37 833d ce2e a6bd
000003c0: ef87 c6be 3558 863d c461 6fbd 4c7f ae3e
000003d0: 7ec7 1b3e 9393 7fbd c112 10bf ceac 1a3e
000003e0: 9d88 18be 1a64 483d 8896 b93d 6dda 1bbe
000003f0: 9e53 ed3e 6699 1abe bdc1 99bd d0ee a53d

lstm.weight_hh_l1 f4 [120, 30]
0.00048030377 0.0016097708 0.00172119 0.001245508 0.0017912715 0.00024505617 0.00022793557 0.0011774047
0.00077228335 -0.0018005155 0.000502301 0.001038949 0.00075284054 0.0005825818 -0.00042629338 0.0018935521
-0.0017044469 -0.0019106999 -0.0008346935 0.0011930707 0.0011599532 -0.00010644627 -0.0016423156 0.0008529928
0.0017083329 -0.001460286 0.0015610943 0.0009937632 0.0011550186 0.001377606 -0.0004033971 -0.00056450965
0.0019475659 -0.0018010798 0.0010993839 0.0018130649 5.0661805e-05 0.001970464 -0.0017199083 0.0017465428
0.00070372154 0.0010845674 0.00042965938 -0.00062721496 0.0016335235 -0.0003492129 0.0005153358 0.0008563614
0.0014248651 -0.0012863639 0.0005621126 0.00045242716 -0.0012766164 0.0018226183 0.00038243583 0.0019529439
0.00054155994 -0.00055283954 0.00077758986 -0.000813345 -0.00043980958 0.001205983 0.00053235225 0.0012276624
-0.00018806697 5.3795342e-05 -0.00034445335 0.0007345517 0.001366082 0.0011428655 0.0014302862 -0.0007946754
-0.0008075743 -0.0004939671 -0.000729579 -0.00025291397 -0.00023760677 0.0013076501 0.0007292588 0.0012576559
0.0012739898 -0.0005438788 0.001115267 0.00010076166 0.0006934231 0.00086461264 0.0015033406 -0.0010656798
-0.001432452 0.001947338 -0.00026660395 0.0014287656 -0.000546372 -0.0017897008 0.000638392 -0.001918429
7.040858e-05 0.00061627437 0.00012343502 0.0017498585 -0.0017181498 -0.0017139192 0.0012474144 0.0011777707
0.0012219131 0.0017675229 -0.00063994864 0.00043872287 0.0017748028 -0.0008493739 0.00038548448 -4.426074e-05
0.0003320532 -0.0003970256 -0.0014248476 0.00040965725 0.00087316014 -9.523774e-05 0.0013254366 0.00075891736
-0.00058846833 0.0012295773 0.0009988594 -0.00041204668 -0.0014186805 -0.00032058908 -0.00011755062 0.00012481309
-0.001408101 -0.0019517327 -0.00075920776 -0.00074865465 0.0006438911 -0.001879035 -0.0016649356 0.0011196643
-0.0005987008 0.00047654987 -0.0009651325 -0.00010340191 0.00093174056 0.00094120123 -0.0016845005 0.0010787674
-0.000254277 0.0011972511 0.0014846073 0.0004913535 0.0016605576 0.0010739563 0.00056223944 0.0011459122
0.00046404148 0.001162195 -0.0011184686 0.00010884357 0.00014898325 0.0011610675 0.0001445005 0.00036937787
0.001939695 -0.0017920671 -0.0013195935 -0.0013923896 -0.0013312479 -0.000112984424 -0.0015756885 -0.0018116651
-0.0008236275 -0.0009015837 -0.00052042847 0.00038915063 0.00034209824 0.00073059683 -0.00027617288 0.0006519764
0.0016467934 0.0002545302 0.00060990005 -0.00063353806 -0.000616777 0.001892229 0.0019743233 0.0008918555
0.0017863102 -0.0011165951 -7.008934e-05 0.0010573347 -0.0010257218 0.0010044167 -0.0011562345 -0.0015043447
0.0018024892 0.00093602494 -0.0009890703 0.0015185727 0.0019295858 -0.0019287914 0.0006793981 -0.0002005434
-0.001876093 0.0018850561 0.0006151996 0.0011967468 0.0012607513 0.00049639656 0.0007518823 -0.0016693383
-0.0008238225 -0.0010517619 0.0005812607 -0.00063911296 0.0017017194 0.0018613251 -0.001699986 0.0006927455
0.00015450598 -0.0011804379 -0.00021317936 -0.0003134196 0.0013993147 -0.001693503 0.0016442111 -0.0015395847
0.00010335875 0.0007203541 0.0018511489 9.402848e-05 0.0009396353 -0.0010073202 0.00026311376 -0.00086010725
-0.0011923449 0.000565109 -0.0011518456 -0.001394343 0.00041635754 0.0015721022 0.0014428009 0.0019041203
0.00086185697 -0.00034471514 0.0014401821 0.00016150642 0.0001424675 0.0010107022 0.0010462801 0.0019766858
0.00070029596 -0.0013415492 -0.00015558052 0.0013106416 -0.0016896358 -0.001955441 -0.0018114911 -0.00024098421
00000000: 48d1 fb39 f2fe d23a 8e99 e13a 5040 a33a
00000010: 19c9 ea3a e27a 8039 fd01 6f39 2553 9a3a
00000020: 0f73 4a3a 46ff ebba d9ac 033a 582d 883a
00000030: 465a 453a 67b8 183a 2180 dfb9 1131 f83a
00000040: bf67 dfba 7370 faba 55cf 5aba cf60 9c3a
00000050: 9209 983a e83b dfb8 f842 d7ba 619b 5f3a
00000060: 24ea df3a 1167 bfba a29d cc3a 2941 823a
00000070: fe63 973a c990 b43a 0b7f d3b9 9afb 13ba
00000080: 7845 ff3a 3612 ecba 3419 903a 5da4 ed3a
00000090: b37d 5438 e622 013b 8c6e e1ba 40ec e43a
000000a0: f479 383a 0b28 8e3a e843 e139 af6b 24ba
000000b0: f41b d63a 9016 b7b9 9a17 073a 717d 603a
000000c0: 8ac2 ba3a 369b a8ba bd5a 133a bf33 ed39
000000d0: 2354 a7ba ece4 ee3a ab81 c839 ecf9 ff3a
000000e0: 79f7 0d3a 6fec 10ba 2cd7 4b3a a936 55ba
000000f0: 3e96 e6b9 1312 9e3a 8e8d 0b3a 84e9 a03a
00000100: d833 45b9 4fa2 6138 bf97 b4b9 ee8e 403a
00000110: 1b0e b33a 34cc 953a 7178 bb3a c351 50ba
00000120: 65b3 53ba 927d 01ba 3841 3fba 8a99 84b9
00000130: 1526 79b9 7565 ab3a bb2b 3f3a eed7 a43a
00000140: 01fc a63a 1793 0eba 272e 923a 0150 d338
00000150: d6c6 353a 2ca7 623a bd0b c53a 48ae 8bba
00000160: 1dc1 bbba d23d ff3a fac6 8bb9 6b45 bb3a
00000170: 673a 0fba 6594 eaba c359 273a cc73 fbba
00000180: 52a8 9338 798d 213a 566e 0139 825b e53a
00000190: 8a33 e1ba 96a5 e0ba 4880 a33a 6d5f 9a3a
000001a0: 9a28 a03a 3aac e73a 3ac2 27ba 6304 e639
000001b0: 80a0 e83a 84a8 5eba da1a ca39 9ca4 39b8
000001c0: 6d17 ae39 e027 d0b9 f4c1 baba 44c7 d639
000001d0: c9e4 643a 5fba c7b8 46ba ad3a 15f2 463a
000001e0: 7143 1aba c529 a13a 29ec 823a f807 d8b9
000001f0: 05f3 b9ba bd14 a8b9 8285 f6b8 42e0 0239
00000200: 0790 b8ba 48d1 ffba 9205 47ba 5d41 44ba
00000210: cdca 283a f449 f6ba f839 daba b3c1 923a
00000220: 21f2 1cba 71d9 f939 f200 7dba 7ad9 d8b8
00000230: 0d40 743a f2ba 763a 75ca dcba 6d65 8d3a
00000240: 7b50 85b9 15ed 9c3a 2897 c23a 2dce 003a
00000250: 11a7 d93a fec3 8c3a 4063 133a 6f32 963a
00000260: 984a f339 cb54 983a 9499 92ba f242 e438
00000270: 6338 1c39 f62e 983a 0f85 1739 0fa9 c139
00000280: 5d3d fe3a cbe3 eaba 36f6 acba d880 b6ba
00000290: 447d aeba 0df2 ecb8 5587 ceba 6575 edba
000002a0: b5e8 57ba 4258 6cba 5d6d 08ba ea06 cc39
000002b0: a65b b339 8685 3f3a 4ccb 90b9 65e9 2a3a
000002c0: 38d9 d73a 7772 8539 b3e1 1f3a 0514 26ba
000002d0: 34af 21ba ab04 f83a a663 013b 69cb 693a
000002e0: a022 ea3a b75a 92ba eefc 92b8 4496 8a3a
000002f0: 8371 86ba a2a6 833a cb8c 97ba 6f2d c5ba
00000300: 8041 ec3a 925f 753a b1a3 81ba d80a c73a
00000310: 28ea fc3a 80cf fcba a219 323a f648 52b9
00000320: 3ce7 f5ba fd13 f73a 5945 213a 29dc 9c3a
00000330: cb3f a53a 9c20 023a f819 453a b3cd daba
00000340: cbf5 57ba 46db 89ba bf5f 183a 258a 27ba
00000350: 3a0c df3a b5f7 f33a 11d2 deba 5d99 353a
00000360: e202 2239 ecb8 9aba e688 5fb9 7752 a4b9
00000370: 3669 b73a 88f8 ddba 9282 d73a e4cb c9ba
00000380: 4ec2 d838 25d6 3c3a 40a2 f23a 2831 c538
00000390: dc51 763a 0f08 84ba 88f2 8939 d278 61ba
000003a0: 7548 9cba d323 143a 86f9 96ba 63c2 b6ba
000003b0: 904a da39 ff0e ce3a 5d1c bd3a ad93 f93a
000003c0: 3eee 613a e2ba b4b9 7ec4 bc3a 0d5a 2939
000003d0: 5463 1539 8a79 843a 5623 893a 498b 013b
000003e0: 1194 373a ecd6 afba 5423 23b9 d6c9 ab3a
000003f0: c576 ddba db26 00bb 8e6f edba b5b0 7cb9

fc.weight f4 [1, 30]
-0.028732939 -0.033080593 -0.0420225 -0.042719632 -0.015638292 0.042073645 -0.031343393 -0.04412461
-0.04511467 0.045342147 0.043976057 -0.042568892 0.021779526 0.030112367 -0.040331174 -0.045192774
0.044542115 0.022584464 -0.021280276 0.045096204 0.027987598 0.04513823 -0.025867721 0.025549276
-0.04623909 0.037778176 -0.02718688 0.043122 0.04443863 0.045576848
00000000: 5761 ebbc 847f 07bd c91f 2cbd c8fa 2ebd
00000010: e01b 80bc 6a55 2c3d ee61 00bd 02bc 34bd
00000020: 29ca 38bd b0b8 393d 3d20 343d b85c 2ebd
00000030: fa6a b23c 36ae f63c 4d32 25bd 0f1c 39bd
00000040: cb71 363d 0e03 b93c f953 aebc ccb6 383d
00000050: 3f46 e53c dde2 383d 8be8 d3bc b74c d13c
00000060: 3365 3dbd 4abd 1a3d 05b7 debc b2a0 303d
00000070: 4805 363d caae 3a3d
