models/lstm_pure_seed_456.pt (torch, 50962 bytes, 5 tensors)

lstm.weight_ih_l0 f4 [120, 4]
00000000: 9826 cf3d 09b1 52be 594f a53d 14aa 28be
00000010: 8158 06be 1ffe 34be 360f 81be 0bc2 6c3e
00000020: f7d2 a3be 6ea5 ecb9 d1ef d5be 16d1 863e
00000030: 95d1 8c3d 275b 44be 08b6 bbbe cbb1 353e
00000040: a1db a93d 5dbc 06be 07f5 9a3d 1ac9 a1bd
00000050: 5b2e b43d ea28 aabd 9ed3 5f3d 0c1f f3bc
00000060: 20c6 da3d 5ce8 51be 047c a43d 1925 29be
00000070: 0a8e 0d3e a61c 54be 0f06 ccbe 07a0 ac3d
00000080: 5b41 0d3e c753 afbe 4eb7 b2be e765 f33d
00000090: dd19 d43d 482e 50be 16f8 a83d 91b2 26be
000000a0: 3e35 8ebe 4fb9 193c b010 6bbe 9a63 023e
000000b0: a425 d33d c31e 52be 0ada a43d f93d 29be
000000c0: 86a3 863e f31f 1ebe 050a 70be 4d69 6bbc
000000d0: 8271 d03d 29f7 4fbe f3f1 a53d bf37 28be
000000e0: 22b8 cf3d 1769 53be 8010 a23d dfd5 26be
000000f0: 25fc d13d dd35 55be fdc9 9a3d c734 27be
00000100: 98b9 f5bb f908 f2bd b39c a6be 68f7 1b3e
00000110: a6c3 ae3d f465 42be fc01 bfbe b80d 303e
00000120: b315 cd3d ae99 54be 3e35 a83d b4b2 28be
00000130: 23a8 d13d 5fbd 51be 53d9 a03d b5e1 24be
00000140: e105 d53d c135 53be 4f64 a53d ace3 25be
00000150: dde9 b93d 773f 34be 2930 bdbe 4ad5 043e
00000160: 06f0 cd3d 1994 4abe 7d73 c2be 8aea 1a3e
00000170: b651 973c fb58 09be 4780 a4be 7f8b 143e
00000180: c038 b33d 83cc b7bd b488 643d 2d4d 06bd
00000190: d60a a23d a1c4 a5bd edc0 763d c87c e4bc
000001a0: 31f9 d0be 8545 13be 75c1 79be 08d1 3f3e
000001b0: d9bf f63d 7775 07bf 0727 ebbe 096a 413d
000001c0: 9ec0 073d 82e8 bc3d b3cd 95bd 8215 a6bc
000001d0: dec2 e8be 3d36 043f dd53 4e3d 5ef3 09bb
000001e0: 16b4 b8b9 9512 39ba 038a 813a b9f5 4a3a
000001f0: 9b92 9cba ad90 0d39 67c6 6b3a c968 0abb
00000200: 549b 6fba 962f fd3a be98 60b9 1a8d f839
00000210: 730d 29ba 9950 e03a dc60 093b ce53 40ba
00000220: 7c9c 96ba ced3 f7ba 253a 52ba 8caf 06bb
00000230: dcbe 743a 2dd0 eab9 16a0 0c3b 2a6a 04ba
00000240: 09dd 89ba 12c2 c0b8 601b 0aba 7c14 daba
00000250: d066 00bb 3a14 0dbb 06cd 65b9 2aa4 9eba
00000260: e390 ec3a de5d 273a 255b c23a 7b7e 9c3a
00000270: 001b 88b9 c8ec f8ba 1fa0 01ba 112c a23a
00000280: 4f98 0cbb 26c7 0c39 2b27 32ba 0d72 eeba
00000290: dacb b9ba af70 1a3a 207e 69ba 76c9 0bbb
000002a0: 3026 8e3a 4813 b1ba e348 20ba fd7f d5b9
000002b0: ca73 87b9 b2d3 f53a f48b c63a f8cc edb9
000002c0: 6586 d538 85d9 913a 516f f43a 15a2 c23a
000002d0: 6ae2 823a 3550 1bb9 48b5 5e3a 25ec 13ba
000002e0: 414b 6bba 65aa 903a 6abe 80ba 7a98 dbb8
000002f0: 218b 94ba c889 143a 91ce e7ba 0e16 adba
00000300: 4958 a038 1d77 8cb9 6bd2 2cba afb7 7bba
00000310: 5f36 c8ba 684b 80ba 8d9b a439 b3cf 743a
00000320: ae26 023b 072f f537 e2c2 b8ba 5cd2 0d3b
00000330: ba66 d639 7511 5ab9 b5ef 853a 941a aeba
00000340: 362e fb39 91bf ed3a d06d c339 f6e9 8aba
00000350: 81dd 223a f4ab cfb9 ae60 16ba b245 9dba
00000360: 454e 6039 31e4 8fba 16ba e73a 5b25 1639
00000370: 1f7a e5ba 5588 e9ba 8b62 9eb9 a322 c4ba
00000380: 08ad b039 a8e0 f5ba fb23 ab3a 38f8 bf3a
00000390: 3d50 c33a c5f4 00bb 504c d63a d0b9 be39
000003a0: 7884 0fbb 23c1 73b9 4186 9e3a 8bba b43a
000003b0: 2fed 10ba d149 99b9 deb0 e5ba 65b1 eeba
000003c0: 4239 cb3d 0f22 46be 9aea 2b3d 8d64 8fbd
000003d0: e70a 063e 97b6 08bf 9628 40be 73d0 183d
000003e0: 238f ddbd f79d 48be a19b 8c3d 3a16 0ebf
000003f0: 2158 65bc d72e c33d aa63 afbd 2888 c53e
0.10114783 -0.20575346 0.08071775 -0.1647113 -0.13119699 -0.17675065 -0.25206918 0.23120897
-0.3199689 -0.00045136682 -0.41784528 0.26331395 0.06875912 -0.19175397 -0.36662316 0.17743604
0.08293844 -0.13157792 0.075662665 -0.07899685 0.08797904 -0.08308585 0.054645173 -0.02967789
0.106823206 -0.20498794 0.080314666 -0.16518058 0.13823715 -0.20714054 -0.39848372 0.0842896
0.13794462 -0.34243605 -0.34905475 0.11884671 0.103564955 -0.20330155 0.08250444 -0.16279055
-0.27774996 0.00938256 -0.22955585 0.12733307 0.10309914 -0.20519547 0.080494 -0.16527547
0.26296633 -0.15441875 -0.23441322 -0.014368367 0.101779 -0.20309128 0.08102789 -0.16427515
0.101425424 -0.20645557 0.079133034 -0.16292523 0.10253171 -0.20821328 0.075580575 -0.16328727
-0.007498931 -0.11818118 -0.32541427 0.15231097 0.08533411 -0.18984205 -0.373062 0.17192733
0.100139044 -0.20761749 0.0821328 -0.1647442 0.10237148 -0.20482396 0.07853951 -0.16101725
0.10401512 -0.20625974 0.08075773 -0.16200131 0.09077809 -0.17602335 -0.36950806 0.12971988
0.100555465 -0.19783057 -0.37978736 0.15128532 0.01847158 -0.1341285 -0.32129118 0.14506339
0.087510586 -0.089745544 0.055794433 -0.032788444 0.07912223 -0.080941446 0.060242582 -0.027891532
-0.40815118 -0.14381988 -0.24390204 0.18732083 0.12048311 -0.5291361 -0.45928213 0.047220264
0.03314268 0.09224035 -0.07314625 -0.020273928 -0.45461172 0.5164526 0.050372947 -0.00210496
-0.0003522939 -0.0007059959 0.000988305 0.0007742304 -0.0011945547 0.00013500704 0.0008994103 -0.0021119586
-0.0009140272 0.001931655 -0.00021419206 0.00047407375 -0.00064488425 0.0017113864 0.0020962274 -0.00073367066
-0.0011490728 -0.0018907727 -0.00080195285 -0.0020551411 0.00093363016 -0.0004478706 0.0021457723 -0.000505122
-0.0010518144 -9.191422e-05 -0.00052683614 -0.0016638185 -0.001959253 -0.0021526949 -0.00021915519 -0.0012103368
0.0018048551 0.0006384532 0.0014828189 0.001193955 -0.00025960058 -0.0018991465 -0.00049448194 0.0012372752
-0.0021453088 0.00013425629 -0.00067959976 -0.0018191949 -0.0014175132 0.0005891425 -0.0008907039 -0.0021329797
0.0010845121 -0.0013509775 -0.00061143766 -0.00040721885 -0.00025835476 0.0018755107 0.001514791 -0.00045356876
0.000101816644 0.0011127448 0.0018648898 0.001484933 0.000998569 -0.00014811831 0.0008495641 -0.0005642793
-0.0008975752 0.001103711 -0.0009822373 -0.00010471135 -0.0011332968 0.0005666283 -0.0017685463 -0.0013205425
7.645839e-05 -0.00026791627 -0.0006592634 -0.0009602261 -0.0015274993 -0.0009788098 0.00031396412 0.0009338811
0.001985948 2.9228175e-05 -0.0014096166 0.0021640277 0.00040893798 -0.00020796603 0.0010218533 -0.0013283067
0.0004790888 0.0018138756 0.00037275115 -0.001059829 0.0006212816 -0.00039610232 -0.00057364523 -0.001199892
0.00021391462 -0.001097804 0.0017679359 0.00014319031 -0.0017507708 -0.0017817119 -0.0003020953 -0.0014963936
0.00033698254 -0.0018758969 0.0013056988 0.0014646119 0.0014901232 -0.0019677144 0.0016349647 0.00036378065
-0.0021899026 -0.00023246235 0.0012094454 0.0013788504 -0.0005528507 -0.00029237432 -0.0017524024 -0.0018210827
0.099230304 -0.1934893 0.04197178 -0.070016004 0.13090096 -0.5340361 -0.18765482 0.037308168
-0.10818317 -0.19591509 0.06865621 -0.55502665 -0.013998062 0.09530418 -0.08563931 0.3858044

lstm.weight_hh_l0 f4 [120, 30]
00000000: e099 af3a d227 d13a 8486 563a 271c a63a
00000010: c3dc aa3a e0bf e9ba bdfd a13a e6d8 0aba
00000020: c79b e03a c9bc 753a 817e 8bba 3a78 18ba
00000030: 32fc 893a 7fe2 813a 4426 8eba d2dd c73a
00000040: 2db2 8538 4be4 00bb 7183 36ba a332 e93a
00000050: b530 cdba 9a25 97b9 581d 83b9 0f51 183a
00000060: eefc 93b8 369a c239 1f20 ad3a 5fc2 ebb9
00000070: 5d0e 013b 44f3 56ba 3823 25ba d407 c83a
00000080: a93c bbba 1556 73ba 277d b83a 99c3 013b
00000090: 1ba3 b4b9 0f43 61ba a7d3 5539 5904 b03a
000000a0: 299b 963a f67b a2ba 0ddc 503a 9a11 cf39
000000b0: 7eb7 4e3a e69b b33a a94e c9b9 cdb0 933a
000000c0: 258a 103a a3ed f8b9 fd23 503a 960b 96ba
000000d0: f976 f0ba 757b 433a 6d31 8eba 57d8 663a
000000e0: ec73 73ba 490f 02bb 6f07 e9ba 5fc7 c1ba
000000f0: 7341 d53a 88ff 8bba 6785 a5ba ab51 523a
00000100: 9454 bd39 923d 04ba 5f96 4d3a 20a2 ffba
00000110: cfa4 91ba 3065 18b9 7bae 3cba eabe be3a
00000120: 9c6e aa3a 7797 a93a 5786 e7b9 ee9c acba
00000130: e65c a8ba 1f6b 553a 1dba 893a a044 3fba
00000140: c369 c0b9 5dfd 143a 7132 9fba 0d52 eb3a
00000150: a0f1 89ba 05c6 c8b8 96ed 9d3a 1f17 17ba
00000160: 19c0 053a 0beb caba af32 e03a 8496 553a
00000170: 6d21 123a ae0e 033b 7bad c3ba 5dad 88ba
00000180: b998 a93a 4eae 56ba ab8d 4c3a 11e0 41ba
00000190: 3250 00bb 8846 973a 344f 9f3a 462f aa3a
000001a0: 3e18 ccba c721 8c3a 9aa8 f1ba 533c 57ba
000001b0: f0c0 02bb 2cd1 b93a bf2b 553a b71a c1ba
000001c0: 2572 25ba 7af5 633a 117e 06ba 2326 8f3a
000001d0: a6f3 3c3a 4242 37ba e4a1 d039 169b 023b
000001e0: ecd1 3e38 98de 2f39 63b0 15ba e0fc db3a
000001f0: 095c 3b3a 44e2 deba 6449 003b 5b86 a13a
00000200: e887 a8ba 3c55 ed3a 7936 b2ba 0741 e8b9
00000210: 420f ebba 7314 8239 7ad1 78b9 ea79 843a
00000220: 59d9 dcb9 e0d0 ecba 2565 a53a 9460 caba
00000230: 590d 4eba cf4c a13a d61f c33a 7503 7339
00000240: 5dba 90ba 1f54 9b3a 4cef c039 4d43 f6ba
00000250: 2c69 673a 9aa9 34ba fecb 8fba d825 a13a
00000260: 9651 e83a f809 01bb 8e0c 87ba 9c2b 003b
00000270: 15a1 ae3a 9ee3 c5ba 0f75 b839 29f2 273a
00000280: f448 80ba 0d36 abb9 cb41 4239 2395 1b3a
00000290: 63ab 9d3a 0b8c c8ba 2aec e638 a01a 803a
000002a0: ab70 d9ba 813b 103a 5051 2fba 38eb 31ba
000002b0: e887 68ba 6325 aeba 1d0a 79b9 46d4 033a
000002c0: 3e4f a5ba e6d2 b63a b186 9339 bdb0 b839
000002d0: 9613 1c3a cb55 61ba 1f09 00bb 1b1d 54ba
000002e0: 7dc7 2bb9 54f9 1eba 757b a939 151e b938
000002f0: 077f 4f3a b757 663a a444 c2ba e660 713a
00000300: abad e839 653b ff36 4696 0138 ea8f 8e3a
00000310: e8b3 a2ba 0769 86ba af27 49b8 a937 c13a
00000320: 2b83 02ba 4224 4e3a 5b22 fcba c58a 0aba
00000330: a0da 66ba a951 e5ba 6d93 b5b9 ea7f e43a
00000340: d654 f6b9 5f84 d7ba 7b1a 3f3a 8c94 df3a
00000350: 982c 2d3a bfc7 76ba 5b5c 18ba 2b8d 083a
00000360: 195c a6ba b1d2 a23a ec03 333a 9a33 91ba
00000370: f246 aeb9 36ae b638 f407 203a 1dc2 6139
00000380: 8a86 ffba f296 893a cf4c c3ba ce50 68ba
00000390: 61b5 d738 4419 e2ba af40 96ba 7b5c 1b3a
000003a0: 15e4 303a e624 9cb9 dc55 1fba 7134 aaba
000003b0: 3055 3a39 3ee5 ff3a d8c3 a2ba 9498 0737
000003c0: 5d2d 213a ecf1 553a 6396 49ba cf97 0db9
000003d0: 5169 d8ba 5769 db3a 94e8 84b8 2e52 1f38
000003e0: 9a12 a53a 672d f9ba 9ec8 933a fb3e f237
000003f0: e2b0 ce3a f435 c8ba 21c2 3f3a 9078 073a
0.0013397299 0.0015957302 0.00081834965 0.0012673185 0.0013035763 -0.0017833672 0.0012358945 -0.00052966026
0.0017136269 0.00093741395 -0.001064256 -0.0005816255 0.001052743 0.000990942 -0.0010845144 0.0015248603
6.375122e-05 -0.0019667323 -0.00069623353 0.001779158 -0.0015654775 -0.0002882898 -0.0002500813 0.00058104185
-7.056618e-05 0.0003711746 0.0013208425 -0.0004496751 0.00196924 -0.00081997016 -0.00062994985 0.0015261122
-0.0014285046 -0.00092825416 0.0014075384 0.0019800423 -0.00034453798 -0.00085930614 0.0002039211 0.001342903
0.0011490333 -0.0012396562 0.00079673604 0.0003949523 0.0007885619 0.0013703078 -0.00038396314 0.0011267901
0.0005513749 -0.000474793 0.0007939933 -0.0011447545 -0.0018346003 0.0007457056 -0.001084847 0.0008806041
-0.0009286988 -0.0019845536 -0.0017778705 -0.0014784149 0.0016270116 -0.0010681013 -0.0012628258 0.0008023034
0.00036111905 -0.0005044575 0.00078425364 -0.0019503273 -0.0011111739 -0.00014533545 -0.00071976305 0.0014552746
0.0013002935 0.0012938817 -0.00044159844 -0.0013169327 -0.0012845069 0.00081412675 0.0010507737 -0.00072962977
-0.00036699892 0.0005683506 -0.001214577 0.001795353 -0.001052428 -9.573627e-05 0.0012048956 -0.0005763638
0.0005102172 -0.0015481425 0.0017104949 0.0008147734 0.0005574439 0.0019997763 -0.001492902 -0.0010427643
0.0012939192 -0.00081894256 0.00078030926 -0.0007395754 -0.001957905 0.0011541406 0.0012154342 0.0012984059
-0.001557119 0.0010691219 -0.0018437088 -0.0008210588 -0.0019951425 0.0014176718 0.0008131824 -0.0014732693
-0.00063112593 0.00086959417 -0.00051304797 0.00109214 0.00072079373 -0.0006990769 0.0003979347 0.0019928864
4.5495035e-05 0.00016772223 -0.00057101826 0.0016783737 0.0007147198 -0.0017004688 0.0019574994 0.0012323366
-0.0012857886 0.0018107067 -0.0013596556 -0.00044298937 -0.0017933624 0.00024810768 -0.00023729159 0.0010107134
-0.00042123607 -0.0018067621 0.0012618644 -0.001544016 -0.00078602653 0.0012306216 0.0014886807 0.00023175574
-0.0011041869 0.0011850632 0.00036799384 -0.0018788368 0.00088276225 -0.00068917277 -0.0010970829 0.0012294604
0.001772451 -0.001968978 -0.0010303424 0.0019557243 0.0013323153 -0.0015097742 0.0003518243 0.0006406629
-0.0009787367 -0.00032655933 0.00018525792 0.0005935004 0.0012029227 -0.0015300525 0.000110112436 0.000977356
-0.0016589364 0.0005502031 -0.0006687837 -0.00067870645 -0.0008870349 -0.0013286289 -0.00023750258 0.00050288846
-0.0012612117 0.0013948351 0.00028138378 0.00035226895 0.0005953846 -0.0008595853 -0.0019536687 -0.0008091495
-0.00016382146 -0.00060643745 0.00032326175 8.827091e-05 0.0007915352 0.0008786874 -0.0014821482 0.00092078594
0.0004437988 7.6065066e-06 3.089595e-05 0.001087663 -0.0012413235 -0.0010254689 -4.7959093e-05 0.001474132
-0.0004978652 0.0007863679 -0.0019236313 -0.00052849605 -0.00088063814 -0.001749565 -0.0003463285 0.0017433141
-0.00046983984 -0.0016442648 0.00072900177 0.001705782 0.0006606071 -0.000941392 -0.0005812102 0.0005209024
-0.0012692242 0.001242241 0.00068288925 -0.0011078 -0.00033240725 8.7108856e-05 0.0006104701 0.00021529985
-0.0019495052 0.0010497256 -0.001490021 -0.00088621385 0.00010285783 -0.0017249961 -0.0011463369 0.00059265614
0.0006747854 -0.0002978213 -0.00060781627 -0.00129856 0.00017770077 0.0019523276 -0.0012417985 8.082152e-06
0.0006148422 0.00081613543 -0.0007689951 -0.00013503361 -0.0016510879 0.0016739768 -6.3375715e-05 3.798509e-05
0.0012594045 -0.0019010723 0.0011274999 2.8877976e-05 0.0015769268 -0.0015274868 0.0007314999 0.00051678065

lstm.weight_ih_l1 f4 [120, 30]
00000000: 0c6f 173e 5810 c33e 7f48 a83d 1ca4 c93d
00000010: 084e f93d c456 ca3d 3a65 163e de70 1bbe
00000020: c0e4 423e 7a24 183e 5038 ae3d 7057 153e
00000030: 5067 19bd 9459 16be 8819 173e d843 13be
00000040: 49e5 83bd 1a2b efbd 6c84 183e 32ad 133e
00000050: eee6 13be 40f6 0cbe 3579 03be c6d9 583d
00000060: 2438 c93d 1176 dcbd 0ed4 b9be 3490 b1be
00000070: a07c 29bd acb0 483e a04d 4d3d bf58 ed3e
00000080: 1606 993d ae7a c53d f05f 853d e61a 7b3d
00000090: bee0 673d da45 0fbe 66fc 573e 8160 753d
000000a0: e663 623d c40d 633d f758 c7bc a0d4 65bd
000000b0: a911 4a3d be8e 4dbd 4287 96bd 6d84 e1bd
000000c0: 8d08 633d fe84 7c3d cd72 71bd a881 fbbd
000000d0: 6104 f1bd 9380 7d3d ef33 833d d986 86bd
000000e0: 95f5 fcbe 1c70 aebe 7a0d c73c e4f7 983c
000000f0: e8bc 6e3d c1e2 e33e 619c b03d bde3 c13d
00000100: 747a 983d 6d6f 873d 7659 7c3d 3d63 0cbe
00000110: c86e 413e 27b5 8b3d 3d9a 823d 042a 853d
00000120: 6557 03bd 69ee 82bd 8748 723d 4dd7 74bd
00000130: 9acf 95bd 3078 dcbd 8330 853d b46f 913d
00000140: a83e 8abd 8091 f7bd 77e4 edbd b707 833d
00000150: c350 8a3d 42fa 95bd e70a f8be 5eb5 a0be
00000160: 7639 0c3d 510a 893a e4e1 713d 6aea e33e
00000170: 323e ae3d 8d1b cb3d 45ff 9c3d ee96 903d
00000180: 7322 843d fb6a 0ebe 5940 463e c8c2 883d
00000190: 2af6 7d3d be17 833d 20c2 f0bc 24ac 87bd
000001a0: e385 6c3d faba 73bd 8737 9abd 3f05 e4bd
000001b0: 0442 833d 3e46 8f3d bd19 88bd c6fb febd
000001c0: c18c f5bd 4099 7f3d 08f1 8b3d 8b1d 97bd
000001d0: d07f f6be abc2 a5be d55d d33c 11c6 ba3c
000001e0: 85af 153e 12e2 c33e 6a1f a93d a479 cf3d
000001f0: 59c1 f23d 912d c23d 4006 183e 349e 1ebe
00000200: 65c7 443e 38ed 183e 424f a43d 8952 193e
00000210: 8ee8 10bd 0969 18be 2fa3 163e 456c 19be
00000220: 2e9b 88bd 65d4 f7bd d3ab 193e 12dc 173e
00000230: b23c 18be e1dc 0dbe d348 07be 9b61 5e3d
00000240: dbda c33d 0c23 ddbd bb59 bcbe 2c66 b1be
00000250: 9df2 37bd 93d5 463e d1c7 663d dae6 e33e
00000260: de4b af3d 68ae bd3d 4774 983d 260c 8b3d
00000270: 01a2 7b3d 871d 0abe fee2 3f3e e412 863d
00000280: 32ce 7a3d b06f 803d 6b14 07bd 775a 82bd
00000290: 8eb5 663d 00d7 6fbd f679 91bd 5289 d4bd
000002a0: e3b8 833d 8cb0 923d b88c 88bd 116d f4bd
000002b0: 6b23 e7bd 2475 773d edeb 873d 2dc6 94bd
000002c0: 53b5 f7be 8353 9ebe 7761 2e3d 3304 2ebc
000002d0: c2c6 153e fb73 c03e 3aed a83d ab79 ca3d
000002e0: 0590 f63d a630 ce3d f86c 143e 1223 1bbe
000002f0: bdfd 403e 943a 163e f77d a33d 5cd1 133e
00000300: c49e 1bbd 0886 15be ec56 153e 7432 14be
00000310: 0391 86bd 0480 f4bd 5bb1 143e 0324 123e
00000320: 6542 13be 819a 09be d8f1 03be c369 553d
00000330: 938e cc3d cc75 e0bd e5ad bbbe 09c3 afbe
00000340: 4e55 27bd df5e 3f3e 207c 0b3e 0b21 cc3e
00000350: 5f10 853d 0678 df3d 6902 d73d 6ccd a93d
00000360: d5fe 093e 2742 1fbe ef2d 3d3e 0ed2 093e
00000370: 58db 6e3d 9917 083e e39e a9bc b88e 0bbe
00000380: 3809 0b3e 9540 07be 9029 9ebd feaf fbbd
00000390: 0ad7 093e 6300 073e 69d8 07be 0b42 11be
000003a0: 18c3 09be 911f 623d f100 b53d cd85 bcbd
000003b0: 24bc cfbe da87 abbe a9df debc 976d e63d
000003c0: 486e 1a3e fbc2 bd3e 6864 b43d b332 d53d
000003d0: f39e 013e fbfd ce3d 89d3 173e 01c5 17be
000003e0: b748 443e a24b 1a3e 3506 ba3d 1745 193e
000003f0: 06e1 23bd ea0b 1cbe 1ac1 173e 98a0 15be
0.14788455 0.38098407 0.082169525 0.098457545 0.121730864 0.098798305 0.14687052 -0.15179774
0.19032574 0.14857665 0.085068345 0.14584136 -0.037452042 -0.14682609 0.14755833 -0.14381349
-0.06440217 -0.11678143 0.14894265 0.14421538 -0.14443561 -0.13765812 -0.12839206 0.05294206
0.09825161 -0.10764707 -0.36294597 -0.3468033 -0.041378617 0.19598645 0.050122857 0.4635677
0.07471864 0.0964254 0.06512439 0.06130495 0.056610815 -0.1399149 0.21092376 0.059906486
0.05527105 0.05543305 -0.024334414 -0.056110978 0.04933325 -0.050184958 -0.07350017 -0.11011586
0.055428077 0.06165027 -0.058947373 -0.12280589 -0.11768413 0.061890196 0.0640639 -0.06568689
-0.49406114 -0.34069908 0.024298418 0.018672891 0.058285624 0.44508937 0.08623577 0.09467266
0.07445231 0.0661305 0.061608754 -0.13709731 0.18889916 0.068216614 0.06377075 0.065021545
-0.032065768 -0.063931294 0.0591512 -0.05977564 -0.073149875 -0.107651114 0.065033935 0.07101384
-0.06750232 -0.12088299 -0.11615842 0.06397956 0.06753685 -0.073231235 -0.48445818 -0.31388372
0.034234487 0.0010455345 0.059053317 0.4451478 0.085079566 0.09917364 0.07665876 0.070600376
0.06451883 -0.13907997 0.19360484 0.066777766 0.06200234 0.06401013 -0.029389441 -0.0662463
0.05774487 -0.059504487 -0.07530122 -0.11133813 0.06409076 0.069958195 -0.06645534 -0.12450366
-0.11989737 0.06240201 0.068330824 -0.07378682 -0.48144388 -0.32375082 0.025801579 0.022799524
0.14617737 0.38258415 0.08257945 0.10130623 0.118532844 0.09481347 0.14846134 -0.15490037
0.19216688 0.14934242 0.0802293 0.14972891 -0.03537803 -0.14883818 0.14710687 -0.14982708
-0.06670223 -0.12101058 0.15006952 0.14830044 -0.14866903 -0.1385379 -0.13211374 0.054292303
0.09563228 -0.107977 -0.3678721 -0.34648263 -0.04490911 0.1941741 0.056342904 0.44512063
0.085593924 0.09261781 0.07444053 0.067894265 0.061433796 -0.13487826 0.18738934 0.06546572
0.0612318 0.06271303 -0.032978456 -0.06364911 0.056325488 -0.05855465 -0.0710334 -0.10377754
0.06431749 0.0716258 -0.06667465 -0.11934865 -0.11286052 0.06041445 0.06636796 -0.072643615
-0.48380527 -0.3092309 0.04257342 -0.010621118 0.14626601 0.37588486 0.082483724 0.098864876
0.12039188 0.10067873 0.14494693 -0.15150097 0.18846793 0.14670783 0.0798301 0.14435333
-0.037993208 -0.1460191 0.1458394 -0.14472371 -0.065706275 -0.119384795 0.1452078 0.1427155
-0.14380796 -0.13437845 -0.12885225 0.052102815 0.099881314 -0.10959968 -0.36656108 -0.34328488
-0.040852837 0.18688534 0.13621569 0.3986896 0.06497263 0.109115645 0.104985066 0.08291134
0.13476117 -0.15552579 0.18474554 0.13459036 0.05831465 0.13290252 -0.020705646 -0.13628662
0.13577735 -0.1320823 -0.07722771 -0.12289427 0.13460937 0.13183741 -0.13266148 -0.1418535
-0.13453329 0.055205885 0.0883807 -0.09205208 -0.40573227 -0.33502084 -0.027206259 0.11251371
0.15081131 0.3706282 0.088082135 0.10410061 0.1265829 0.10107037 0.14826788 -0.14821245
0.19168364 0.15067914 0.09083215 0.14967762 -0.04000952 -0.1523892 0.14819756 -0.14612043

lstm.weight_hh_l1 f4 [120, 30]
00000000: daae c039 86db 0fb9 86c8 efba 2544 953a
00000010: 2b94 98ba dc34 b3ba 4413 4c39 9606 93ba
00000020: 7f36 943a 0178 bf39 505c 9cba 4ad0 193a
00000030: 19e8 173a 0b43 9639 3cd3 7dba bfa5 663a
00000040: 8677 b0ba 384c ff3a d0cf d439 eaa5 be3a
00000050: c349 50ba 9c14 8eb8 254e 15ba c151 daba
00000060: 3e75 eeba 34a3 5c39 55e4 c13a 4856 e7ba
00000070: ff2a f13a 0bb3 1e3a 5089 a1ba e011 7aba
00000080: 7775 803a 154e ebb8 a262 d2ba 1d9a 9eb8
00000090: 71f6 8cba 1911 f2ba 7b4a 163a 4881 be38
000000a0: 7946 a2ba 61ec fe3a bbf9 62b9 5b64 afb7
000000b0: 2688 523a d902 003b 6de7 76ba 9214 d2ba
000000c0: e8b7 8bba 92ed 4b39 556d 543a 9c3f fcba
000000d0: 448f d53a d55f a1ba fcf8 ad3a 3e5a 9a39
000000e0: ad77 d63a 3210 9f3a 487b 9aba ecd1 5c37
000000f0: a2c1 9cb9 40d2 b93a dc95 783a 059c 82ba
00000100: 1754 daba 864d 62ba 23a6 abba 307b 00ba
00000110: de10 89ba bbad 08ba 57c2 55ba 7150 b33a
00000120: f626 2e3a 1f61 e3ba 5ddf 8738 1784 ce3a
00000130: 9e87 c339 f963 ebb8 c9b2 6d3a 7c6c 58ba
00000140: 2174 58ba dc39 32b9 f278 97ba c7e1 f0ba
00000150: 0d3e 503a 40a3 e63a ea8e 543a 8406 d53a
00000160: 96e3 8f39 2a50 c43a b78d 32ba c9fb a7ba
00000170: d680 69ba aed7 803a 0769 ef3a fa86 0c39
00000180: b752 f83a a684 ac3a cbf5 b6b9 409c fa3a
00000190: c94e 43b9 5f9c 53ba 2e4a 0f3a 3aa6 af3a
000001a0: a5c2 61ba 6987 073a 94f8 8039 4de0 fb3a
000001b0: e08f 01b9 53c8 4d39 3065 073a ecbd 9eba
000001c0: a201 c3ba e4bd aeb9 d3cf 903a 5f9a 3cba
000001d0: 5bac eaba 53a0 513a c395 3339 af3f 08b9
000001e0: cd7d ba3a bb09 14ba 53fd bfba 0502 f139
000001f0: 79f0 a93a 13b3 813a 42bc cd3a 981e 2939
00000200: 73c0 72b9 1945 b43a 4877 87ba ea26 19b8
00000210: 731b f03a eaba 873a 77cc ab3a 1904 1539
00000220: fe2e 9eba 2079 fdb9 1ba3 e03a 5d07 4bb9
00000230: 7b44 3a39 7366 82ba b5c8 013b 038f 963a
00000240: eada 89ba ac4e 013b a30d ff3a b37f b33a
00000250: 77d4 c93a 44bb baba 824b caba e20e 88ba
00000260: a8be 1aba 5110 e0ba 15e2 01bb 570e 35b7
00000270: 71ca fc3a ad4c 2a39 a93e 57ba a43a 4dba
00000280: 44d3 f43a 4826 ac3a 1582 f539 3248 d63a
00000290: 40b3 4e3a 4093 6c3a 0d78 a43a 3a2e 24ba
000002a0: 92a5 00b9 7fce 8bb9 79b0 86ba 5d8c cdba
000002b0: 19c8 6d3a 178d fcba 4a81 dd3a c77e beba
000002c0: 982c f4ba 4445 e93a 8e56 833a ea4e 50b9
000002d0: a550 7639 d4c7 683a 8030 313a c70b cfb9
000002e0: e6e0 9dba 1556 2ab9 cd30 a5ba 596b 63ba
000002f0: f8c4 baba 4861 d2b9 e077 263a 51c5 763a
00000300: 487f 6c3a 2e0e 4f3a b134 2dba 0100 7d37
00000310: 6702 34ba d25e 5bba f249 a53a 82d5 a438
00000320: 4eb9 c13a 50bb 17ba 9c0c 47b9 9e0d f23a
00000330: 9e6f bab9 4dcb fdba f4ed 173a 1196 8b3a
00000340: 9420 8639 c527 f33a 15fa ea39 e2dc c23a
00000350: dab4 2aba c3b9 7a3a 9c24 3239 a5a2 f43a
00000360: d42d 4f3a 07a1 19ba c7cb b038 6331 e4ba
00000370: 4407 4cba f2e2 fbba 9846 a4b9 2b13 11ba
00000380: 4880 9fba b518 7ab9 0974 7739 8448 aab9
00000390: 5b12 e63a 945c 773a a932 50ba f82b 05b9
000003a0: 3091 41ba 4c37 2d39 ffab cfba 6384 af39
000003b0: d742 933a 82ad f03a 8ce4 0939 693a d8ba
000003c0: 6746 bd39 6f0a 963a 55cb f43a c16a 99ba
000003d0: 7390 e23a 8ad4 90ba fc4b b83a 7d8d 05ba
000003e0: 3e5f b33a af68 c7ba 4006 d03a a96f ee3a
000003f0: 82cb ae3a 30c7 d6ba 9265 95b9 135f ff3a
0.00036751368 -0.00013719322 -0.0018294014 0.0011388107 -0.0011640837 -0.001367237 0.00019462133 -0.0011217173
0.0011307745 0.0003651977 -0.0011929367 0.00058675243 0.0005794778 0.0002866018 -0.00096826605 0.0008798502
-0.0013463355 0.0019477671 0.00040590623 0.0014545296 -0.00079455617 -6.7749264e-05 -0.00056955434 -0.0016656445
-0.00181929 0.00021041633 0.001479278 -0.0017649615 0.0018399655 0.0006053901 -0.0012324248 -0.0009539407
0.0009800632 -0.00011220217 -0.0016051123 -7.562733e-05 -0.0010754598 -0.001846823 0.00057331444 9.0839865e-05
-0.0012380622 0.0019449109 -0.00021646071 -2.0908357e-05 0.0008031152 0.0019532947 -0.00094186404 -0.0016027859
-0.0010659667 0.0001944809 0.000810345 -0.0019245031 0.0016293307 -0.0012311885 0.0013273056 0.00029440405
0.001636257 0.0012135564 -0.0011786008 1.3161898e-05 -0.00029898906 0.0014177039 0.000948278 -0.000996471
-0.0016657141 -0.0008632768 -0.0013095777 -0.0004901169 -0.0010457297 -0.0005213876 -0.0008154264 0.001368059
0.0006643379 -0.001734767 6.478906e-05 0.0015755919 0.0003729434 -0.000112242946 0.00090674736 -0.00082559115
-0.00082570506 -0.00016996957 -0.001155643 -0.0018377834 0.00079438166 0.001759626 0.0008108454 0.0016252552
0.0002744465 0.0014977504 -0.0006811278 -0.0012816127 -0.00089074427 0.0009829903 0.0018265554 0.00013401723
0.0018945549 0.0013162091 -0.00034896875 0.0019120052 -0.00018625999 -0.00080723123 0.0005466071 0.001340098
-0.0008612073 0.0005170019 0.00024599268 0.0019216627 -0.00012355996 0.0001962495 0.00051649194 -0.0012111044
-0.0014877806 -0.00033329346 0.0011048265 -0.0007194634 -0.0017904149 0.00079966075 0.00017126561 -0.00012993695
0.0014228165 -0.0005647202 -0.001464764 0.00045968607 0.0012965343 0.0009895287 0.0015696364 0.00016128493
-0.00023150611 0.0013753503 -0.0010335231 -3.6514284e-05 0.0018318727 0.0010355387 0.00131072 0.00014211274
-0.0012068448 -0.00048346166 0.0017138453 -0.00019362332 0.00017763853 -0.0009948745 0.0019803469 0.0011486713
-0.0010517512 0.001973073 0.001945902 0.0013694674 0.0015398402 -0.0014246483 -0.001543388 -0.0010380412
-0.0005903044 -0.0017094706 -0.0019818593 -1.07917795e-05 0.0019286406 0.00016241027 -0.0008210936 -0.00078288675
0.0018678685 0.0013133967 0.0004682696 0.001634842 0.00078849867 0.00090246275 0.0012547985 -0.0006262992
-0.00012268711 -0.00026665998 -0.0010275982 -0.001568209 0.00090706494 -0.0019268122 0.0016899493 -0.0014533632
-0.0018629013 0.0017797132 0.0010020302 -0.00019865824 0.0002349043 0.00088798744 0.0006759241 -0.00039490892
-0.0012045174 -0.00016244531 -0.0012603045 -0.0008675359 -0.0014249375 -0.00040126801 0.000635026 0.0009413558
0.0009021652 0.0007898536 -0.0006607278 1.5079976e-05 -0.0006866813 -0.00083683163 0.0012610538 7.859898e-05
0.0014779957 -0.00057881046 -0.00018982816 0.0018467193 -0.00035559846 -0.0019362957 0.00057956506 0.0010649582
0.00025582744 0.0018551281 0.00044818284 0.0014866854 -0.00065119343 0.0009564424 0.00016989041 0.0018664195
0.0007903252 -0.0005860482 8.4302905e-05 -0.0017409738 -0.0007783065 -0.0019217415 -0.00031333114 -0.0005534167
-0.0012168968 -0.00023851062 0.00023598982 -0.00032478955 0.0017553078 0.00094360975 -0.0007942119 -0.00012700248
-0.00073840003 0.00016519165 -0.0015844106 0.00033477237 0.001123513 0.0018362256 0.00013150478 -0.00164969
0.00036101343 0.0011447201 0.001867632 -0.0011704789 0.0017285481 -0.001104967 0.0014060731 -0.0005094631
0.0013685001 -0.0015213693 0.0015871003 0.0018191236 0.0013335797 -0.0016386267 -0.0002849517 0.001948329

fc.weight f4 [1, 30]
00000000: fb04 543d ffc2 3ebd b4be 213d fbf9 273d
00000010: aa8e 573d 9e0d 1ebd b3ed 53bd ea9e 5a3d
00000020: b235 503d c96c 613d 67dd 55bd 55c5 543d
00000030: 4745 56bd f026 623d e8af 363d ef4d 373d
00000040: a5ba 0d3d 45ef 5e3d 23b5 58bd 57e6 16bd
00000050: b146 5f3d 3fa9 2abd 9a78 553d 8d39 5ebd
00000060: d5fe 573d d46b 47bd 634e 53bd e766 5f3d
00000070: 3b07 583d 894c 523d
0.051762562 -0.04657268 0.03948851 0.041009884 0.05262629 -0.038587205 -0.05174036 0.05337421
0.050832458 0.055035386 -0.0522131 0.051946003 -0.05231216 0.055212915 0.04460135 0.044752058
0.034601826 0.054427404 -0.05290712 -0.036840763 0.054510776 -0.041665312 0.052116968 -0.054254103
0.05273326 -0.048686817 -0.051588427 0.054541495 0.05274127 0.05134252
