models/lstm_residual_seed_456.pt (torch, 51070 bytes, 5 tensors)

lstm.weight_ih_l0 f4 [120, 4]
000000 a4 10 e5 be c2 0a 36 3f 51 cc 72 3f 37 61 09 bf
       -0.44739258 0.71110165 0.9484301 -0.53663963
000010 3a 09 3e bf aa 17 f7 3e 78 7f 5a 3f 6f 8e 1e bf
       -0.7423283 0.48260242 0.8535075 -0.61936086
000020 d7 54 08 bf 1d 3f 0b 3f be 67 70 3f f3 12 15 bf
       -0.53254455 0.5439318 0.939083 -0.5823204
000030 fc 75 14 bf 50 59 f0 3e 42 fe 5b 3f 30 6e 1a bf
       -0.5799253 0.4694314 0.8593484 -0.6032438
000040 05 ae 0a bf b5 58 0c 3f 7e 34 6d 3f ce f1 22 bf
       -0.5417178 0.54822856 0.9265822 -0.63650215
000050 1a 07 09 bf 21 af 98 3e ce 9a 70 3f e3 72 15 bf
       -0.5352646 0.29821113 0.93986213 -0.5837843
000060 48 66 0b bf 4f 16 35 3f e9 4d 71 3f 10 3a 53 bf
       -0.54452944 0.70737165 0.94259506 -0.8251047
000070 0f fc 13 bf ae 9d ef 3e bc 73 5c 3f 95 94 18 bf
       -0.57806486 0.46799988 0.86114097 -0.5960172
000080 01 2d 0b bf 10 0e 0c 3f 11 0c 6a 3f eb 09 27 bf
       -0.54365546 0.5470896 0.9142466 -0.6524951
000090 99 70 2c bf 6b 53 d1 3e 98 55 6d 3f f7 b6 0e bf
       -0.6735931 0.40883955 0.9270873 -0.5574793
0000a0 cf 54 18 bf 70 cf df 3e 42 a5 61 3f 94 e7 06 bf
       -0.5950441 0.4371295 0.8814279 -0.5269711
0000b0 95 16 20 bf 87 22 c2 3e 05 8f 65 3f a2 4a 0b bf
       -0.6253446 0.37916967 0.89671355 -0.54410756
0000c0 5a f8 0a bf ba 64 32 3f 1b 31 70 3f 27 e8 07 bf
       -0.54285204 0.69684947 0.9382493 -0.5308861
0000d0 9f 9a 0a bf 61 5e 0d 3f 5f 3c 70 3f 85 84 1f bf
       -0.54142183 0.55222136 0.9384212 -0.62311584
0000e0 6a 2d 0c bf 30 54 34 3f c7 c7 72 3f 28 36 2b bf
       -0.54756796 0.7044096 0.94836086 -0.6687951
0000f0 01 d6 21 bf 6a 48 b8 3e 07 df 65 3f ad 66 12 bf
       -0.6321717 0.35992748 0.8979344 -0.5718792
000100 71 c4 14 bf 59 e0 ed 3e db 8b 5c 3f 84 05 18 bf
       -0.58112246 0.46460226 0.861509 -0.59383416
000110 67 ce cd be 9a 7f 36 3f ca e8 70 3f a8 f7 11 bf
       -0.40196535 0.71288455 0.9410521 -0.5701852
000120 7c e1 1b bf 3a 0f d3 3e 58 c9 62 3f 31 7d a5 be
       -0.60890937 0.41222554 0.88588476 -0.32322076
000130 75 53 0a bf 16 cb 34 3f 86 9e 73 3f 6e 19 17 bf
       -0.54033595 0.70622385 0.9516376 -0.5902318
000140 aa 85 fd be c4 27 35 3f 70 47 75 3f 20 43 e3 be
       -0.4951604 0.707638 0.9581213 -0.4438715
000150 73 4f 04 bf 4b 94 34 3f e3 d2 72 3f 26 bd c1 be
       -0.5168373 0.7053878 0.9485304 -0.3783962
000160 29 de 1a bf 49 69 f2 3e cb c6 5b 3f cc 36 1d bf
       -0.6049524 0.4734595 0.8585021 -0.6141174
000170 9b f6 1a bf aa a6 db 3e 2f ea 5f 3f ca 10 d9 be
       -0.6053254 0.42900592 0.8746671 -0.42395622
000180 85 d4 14 bf 87 67 ec 3e f4 9e 5f 3f ec 06 16 bf
       -0.5813678 0.46172735 0.8735192 -0.5860431
000190 40 98 ea be c9 33 36 3f fb 11 72 3f eb 30 05 bf
       -0.45819283 0.7117277 0.94558686 -0.5202777
0001a0 f0 1f 1c bf 06 2a f5 3e c1 e7 5a 3f fc 4a 1d bf
       -0.6098623 0.47883624 0.8550988 -0.6144254
0001b0 67 a8 18 bf 05 bc 03 3f ec bc 4e 3f c6 f9 25 bf
       -0.5963196 0.5145877 0.8075702 -0.6483425
0001c0 c4 03 08 bf 2a 2c 32 3f 8e a4 73 3f 6b 9d b1 be
       -0.53130746 0.6959864 0.95172966 -0.34690413
0001d0 a7 be 4f bf 26 04 f8 3e 6d e0 5a 3f dd 82 1f bf
       -0.8115029 0.48440665 0.85498697 -0.62309057
0001e0 16 b4 b8 b9 95 12 39 ba 03 8a 81 3a b9 f5 4a 3a
       -0.0003522939 -0.0007059959 0.000988305 0.0007742304
0001f0 9b 92 9c ba ad 90 0d 39 67 c6 6b 3a c9 68 0a bb
       -0.0011945547 0.00013500704 0.0008994103 -0.0021119586
000200 54 9b 6f ba 96 2f fd 3a be 98 60 b9 1a 8d f8 39
       -0.0009140272 0.001931655 -0.00021419206 0.00047407375
000210 73 0d 29 ba 99 50 e0 3a dc 60 09 3b ce 53 40 ba
       -0.00064488425 0.0017113864 0.0020962274 -0.00073367066
000220 7c 9c 96 ba ce d3 f7 ba 25 3a 52 ba 8c af 06 bb
       -0.0011490728 -0.0018907727 -0.00080195285 -0.0020551411
000230 dc be 74 3a 2d d0 ea b9 16 a0 0c 3b 2a 6a 04 ba
       0.00093363016 -0.0004478706 0.0021457723 -0.000505122
000240 09 dd 89 ba 12 c2 c0 b8 60 1b 0a ba 7c 14 da ba
       -0.0010518144 -9.191422e-05 -0.00052683614 -0.0016638185
000250 d0 66 00 bb 3a 14 0d bb 06 cd 65 b9 2a a4 9e ba
       -0.001959253 -0.0021526949 -0.00021915519 -0.0012103368
000260 e3 90 ec 3a de 5d 27 3a 25 5b c2 3a 7b 7e 9c 3a
       0.0018048551 0.0006384532 0.0014828189 0.001193955
000270 00 1b 88 b9 c8 ec f8 ba 1f a0 01 ba 11 2c a2 3a
       -0.00025960058 -0.0018991465 -0.00049448194 0.0012372752
000280 4f 98 0c bb 26 c7 0c 39 2b 27 32 ba 0d 72 ee ba
       -0.0021453088 0.00013425629 -0.00067959976 -0.0018191949
000290 da cb b9 ba af 70 1a 3a 20 7e 69 ba 76 c9 0b bb
       -0.0014175132 0.0005891425 -0.0008907039 -0.0021329797
0002a0 30 26 8e 3a 48 13 b1 ba e3 48 20 ba fd 7f d5 b9
       0.0010845121 -0.0013509775 -0.00061143766 -0.00040721885
0002b0 ca 73 87 b9 b2 d3 f5 3a f4 8b c6 3a f8 cc ed b9
       -0.00025835476 0.0018755107 0.001514791 -0.00045356876
0002c0 65 86 d5 38 85 d9 91 3a 51 6f f4 3a 15 a2 c2 3a
       0.000101816644 0.0011127448 0.0018648898 0.001484933
0002d0 6a e2 82 3a 35 50 1b b9 48 b5 5e 3a 25 ec 13 ba
       0.000998569 -0.00014811831 0.0008495641 -0.0005642793
0002e0 41 4b 6b ba 65 aa 90 3a 6a be 80 ba 7a 98 db b8
       -0.0008975752 0.001103711 -0.0009822373 -0.00010471135
0002f0 21 8b 94 ba c8 89 14 3a 91 ce e7 ba 0e 16 ad ba
       -0.0011332968 0.0005666283 -0.0017685463 -0.0013205425
000300 49 58 a0 38 1d 77 8c b9 6b d2 2c ba af b7 7b ba
       7.645839e-05 -0.00026791627 -0.0006592634 -0.0009602261
000310 5f 36 c8 ba 68 4b 80 ba 8d 9b a4 39 b3 cf 74 3a
       -0.0015274993 -0.0009788098 0.00031396412 0.0009338811
000320 ae 26 02 3b 07 2f f5 37 e2 c2 b8 ba 5c d2 0d 3b
       0.001985948 2.9228175e-05 -0.0014096166 0.0021640277
000330 ba 66 d6 39 75 11 5a b9 b5 ef 85 3a 94 1a ae ba
       0.00040893798 -0.00020796603 0.0010218533 -0.0013283067
000340 36 2e fb 39 91 bf ed 3a d0 6d c3 39 f6 e9 8a ba
       0.0004790888 0.0018138756 0.00037275115 -0.001059829
000350 81 dd 22 3a f4 ab cf b9 ae 60 16 ba b2 45 9d ba
       0.0006212816 -0.00039610232 -0.00057364523 -0.001199892
000360 45 4e 60 39 31 e4 8f ba 16 ba e7 3a 5b 25 16 39
       0.00021391462 -0.001097804 0.0017679359 0.00014319031
000370 1f 7a e5 ba 55 88 e9 ba 8b 62 9e b9 a3 22 c4 ba
       -0.0017507708 -0.0017817119 -0.0003020953 -0.0014963936
000380 08 ad b0 39 a8 e0 f5 ba fb 23 ab 3a 38 f8 bf 3a
       0.00033698254 -0.0018758969 0.0013056988 0.0014646119
000390 3d 50 c3 3a c5 f4 00 bb 50 4c d6 3a d0 b9 be 39
       0.0014901232 -0.0019677144 0.0016349647 0.00036378065
0003a0 78 84 0f bb 23 c1 73 b9 41 86 9e 3a 8b ba b4 3a
       -0.0021899026 -0.00023246235 0.0012094454 0.0013788504
0003b0 2f ed 10 ba d1 49 99 b9 de b0 e5 ba 65 b1 ee ba
       -0.0005528507 -0.00029237432 -0.0017524024 -0.0018210827
0003c0 d3 4e 88 3e 7b ab bd be 82 b1 18 bf d9 ee fe 3b
       0.26622638 -0.37044892 -0.59645855 0.0077799377
0003d0 29 e3 cf bd 6e c7 1c 3f 7a 46 d7 3e d7 14 80 be
       -0.10150749 0.61241806 0.42045957 -0.250159
0003e0 46 9e 8b 3e dd 94 f7 be 35 9e 07 bf c6 58 80 3b
       0.2726919 -0.4835576 -0.5297578 0.0039168326
0003f0 29 59 bc 3d a1 1a 1e bf 10 0c d5 be ea f8 8a 3e
       0.091966935 -0.6175938 -0.41610765 0.2714303

lstm.weight_hh_l0 f4 [120, 30]
000000 e0 99 af 3a d2 27 d1 3a 84 86 56 3a 27 1c a6 3a
       0.0013397299 0.0015957302 0.00081834965 0.0012673185
000010 c3 dc aa 3a e0 bf e9 ba bd fd a1 3a e6 d8 0a ba
       0.0013035763 -0.0017833672 0.0012358945 -0.00052966026
000020 c7 9b e0 3a c9 bc 75 3a 81 7e 8b ba 3a 78 18 ba
       0.0017136269 0.00093741395 -0.001064256 -0.0005816255
000030 32 fc 89 3a 7f e2 81 3a 44 26 8e ba d2 dd c7 3a
       0.001052743 0.000990942 -0.0010845144 0.0015248603
000040 2d b2 85 38 4b e4 00 bb 71 83 36 ba a3 32 e9 3a
       6.375122e-05 -0.0019667323 -0.00069623353 0.001779158
000050 b5 30 cd ba 9a 25 97 b9 58 1d 83 b9 0f 51 18 3a
       -0.0015654775 -0.0002882898 -0.0002500813 0.00058104185
000060 ee fc 93 b8 36 9a c2 39 1f 20 ad 3a 5f c2 eb b9
       -7.056618e-05 0.0003711746 0.0013208425 -0.0004496751
000070 5d 0e 01 3b 44 f3 56 ba 38 23 25 ba d4 07 c8 3a
       0.00196924 -0.00081997016 -0.00062994985 0.0015261122
000080 a9 3c bb ba 15 56 73 ba 27 7d b8 3a 99 c3 01 3b
       -0.0014285046 -0.00092825416 0.0014075384 0.0019800423
000090 1b a3 b4 b9 0f 43 61 ba a7 d3 55 39 59 04 b0 3a
       -0.00034453798 -0.00085930614 0.0002039211 0.001342903
0000a0 29 9b 96 3a f6 7b a2 ba 0d dc 50 3a 9a 11 cf 39
       0.0011490333 -0.0012396562 0.00079673604 0.0003949523
0000b0 7e b7 4e 3a e6 9b b3 3a a9 4e c9 b9 cd b0 93 3a
       0.0007885619 0.0013703078 -0.00038396314 0.0011267901
0000c0 25 8a 10 3a a3 ed f8 b9 fd 23 50 3a 96 0b 96 ba
       0.0005513749 -0.000474793 0.0007939933 -0.0011447545
0000d0 f9 76 f0 ba 75 7b 43 3a 6d 31 8e ba 57 d8 66 3a
       -0.0018346003 0.0007457056 -0.001084847 0.0008806041
0000e0 ec 73 73 ba 49 0f 02 bb 6f 07 e9 ba 5f c7 c1 ba
       -0.0009286988 -0.0019845536 -0.0017778705 -0.0014784149
0000f0 73 41 d5 3a 88 ff 8b ba 67 85 a5 ba ab 51 52 3a
       0.0016270116 -0.0010681013 -0.0012628258 0.0008023034
000100 94 54 bd 39 92 3d 04 ba 5f 96 4d 3a 20 a2 ff ba
       0.00036111905 -0.0005044575 0.00078425364 -0.0019503273
000110 cf a4 91 ba 30 65 18 b9 7b ae 3c ba ea be be 3a
       -0.0011111739 -0.00014533545 -0.00071976305 0.0014552746
000120 9c 6e aa 3a 77 97 a9 3a 57 86 e7 b9 ee 9c ac ba
       0.0013002935 0.0012938817 -0.00044159844 -0.0013169327
000130 e6 5c a8 ba 1f 6b 55 3a 1d ba 89 3a a0 44 3f ba
       -0.0012845069 0.00081412675 0.0010507737 -0.00072962977
000140 c3 69 c0 b9 5d fd 14 3a 71 32 9f ba 0d 52 eb 3a
       -0.00036699892 0.0005683506 -0.001214577 0.001795353
000150 a0 f1 89 ba 05 c6 c8 b8 96 ed 9d 3a 1f 17 17 ba
       -0.001052428 -9.573627e-05 0.0012048956 -0.0005763638
000160 19 c0 05 3a 0b eb ca ba af 32 e0 3a 84 96 55 3a
       0.0005102172 -0.0015481425 0.0017104949 0.0008147734
000170 6d 21 12 3a ae 0e 03 3b 7b ad c3 ba 5d ad 88 ba
       0.0005574439 0.0019997763 -0.001492902 -0.0010427643
000180 b9 98 a9 3a 4e ae 56 ba ab 8d 4c 3a 11 e0 41 ba
       0.0012939192 -0.00081894256 0.00078030926 -0.0007395754
000190 32 50 00 bb 88 46 97 3a 34 4f 9f 3a 46 2f aa 3a
       -0.001957905 0.0011541406 0.0012154342 0.0012984059
0001a0 3e 18 cc ba c7 21 8c 3a 9a a8 f1 ba 53 3c 57 ba
       -0.001557119 0.0010691219 -0.0018437088 -0.0008210588
0001b0 f0 c0 02 bb 2c d1 b9 3a bf 2b 55 3a b7 1a c1 ba
       -0.0019951425 0.0014176718 0.0008131824 -0.0014732693
0001c0 25 72 25 ba 7a f5 63 3a 11 7e 06 ba 23 26 8f 3a
       -0.00063112593 0.00086959417 -0.00051304797 0.00109214
0001d0 a6 f3 3c 3a 42 42 37 ba e4 a1 d0 39 16 9b 02 3b
       0.00072079373 -0.0006990769 0.0003979347 0.0019928864
0001e0 ec d1 3e 38 98 de 2f 39 63 b0 15 ba e0 fc db 3a
       4.5495035e-05 0.00016772223 -0.00057101826 0.0016783737
0001f0 09 5c 3b 3a 44 e2 de ba 64 49 00 3b 5b 86 a1 3a
       0.0007147198 -0.0017004688 0.0019574994 0.0012323366
000200 e8 87 a8 ba 3c 55 ed 3a 79 36 b2 ba 07 41 e8 b9
       -0.0012857886 0.0018107067 -0.0013596556 -0.00044298937
000210 42 0f eb ba 73 14 82 39 7a d1 78 b9 ea 79 84 3a
       -0.0017933624 0.00024810768 -0.00023729159 0.0010107134
000220 59 d9 dc b9 e0 d0 ec ba 25 65 a5 3a 94 60 ca ba
       -0.00042123607 -0.0018067621 0.0012618644 -0.001544016
000230 59 0d 4e ba cf 4c a1 3a d6 1f c3 3a 75 03 73 39
       -0.00078602653 0.0012306216 0.0014886807 0.00023175574
000240 5d ba 90 ba 1f 54 9b 3a 4c ef c0 39 4d 43 f6 ba
       -0.0011041869 0.0011850632 0.00036799384 -0.0018788368
000250 2c 69 67 3a 9a a9 34 ba fe cb 8f ba d8 25 a1 3a
       0.00088276225 -0.00068917277 -0.0010970829 0.0012294604
000260 96 51 e8 3a f8 09 01 bb 8e 0c 87 ba 9c 2b 00 3b
       0.001772451 -0.001968978 -0.0010303424 0.0019557243
000270 15 a1 ae 3a 9e e3 c5 ba 0f 75 b8 39 29 f2 27 3a
       0.0013323153 -0.0015097742 0.0003518243 0.0006406629
000280 f4 48 80 ba 0d 36 ab b9 cb 41 42 39 23 95 1b 3a
       -0.0009787367 -0.00032655933 0.00018525792 0.0005935004
000290 63 ab 9d 3a 0b 8c c8 ba 2a ec e6 38 a0 1a 80 3a
       0.0012029227 -0.0015300525 0.000110112436 0.000977356
0002a0 ab 70 d9 ba 81 3b 10 3a 50 51 2f ba 38 eb 31 ba
       -0.0016589364 0.0005502031 -0.0006687837 -0.00067870645
0002b0 e8 87 68 ba 63 25 ae ba 1d 0a 79 b9 46 d4 03 3a
       -0.0008870349 -0.0013286289 -0.00023750258 0.00050288846
0002c0 3e 4f a5 ba e6 d2 b6 3a b1 86 93 39 bd b0 b8 39
       -0.0012612117 0.0013948351 0.00028138378 0.00035226895
0002d0 96 13 1c 3a cb 55 61 ba 1f 09 00 bb 1b 1d 54 ba
       0.0005953846 -0.0008595853 -0.0019536687 -0.0008091495
0002e0 7d c7 2b b9 54 f9 1e ba 75 7b a9 39 15 1e b9 38
       -0.00016382146 -0.00060643745 0.00032326175 8.827091e-05
0002f0 07 7f 4f 3a b7 57 66 3a a4 44 c2 ba e6 60 71 3a
       0.0007915352 0.0008786874 -0.0014821482 0.00092078594
000300 ab ad e8 39 65 3b ff 36 46 96 01 38 ea 8f 8e 3a
       0.0004437988 7.6065066e-06 3.089595e-05 0.001087663
000310 e8 b3 a2 ba 07 69 86 ba af 27 49 b8 a9 37 c1 3a
       -0.0012413235 -0.0010254689 -4.7959093e-05 0.001474132
000320 2b 83 02 ba 42 24 4e 3a 5b 22 fc ba c5 8a 0a ba
       -0.0004978652 0.0007863679 -0.0019236313 -0.00052849605
000330 a0 da 66 ba a9 51 e5 ba 6d 93 b5 b9 ea 7f e4 3a
       -0.00088063814 -0.001749565 -0.0003463285 0.0017433141
000340 d6 54 f6 b9 5f 84 d7 ba 7b 1a 3f 3a 8c 94 df 3a
       -0.00046983984 -0.0016442648 0.00072900177 0.001705782
000350 98 2c 2d 3a bf c7 76 ba 5b 5c 18 ba 2b 8d 08 3a
       0.0006606071 -0.000941392 -0.0005812102 0.0005209024
000360 19 5c a6 ba b1 d2 a2 3a ec 03 33 3a 9a 33 91 ba
       -0.0012692242 0.001242241 0.00068288925 -0.0011078
000370 f2 46 ae b9 36 ae b6 38 f4 07 20 3a 1d c2 61 39
       -0.00033240725 8.7108856e-05 0.0006104701 0.00021529985
000380 8a 86 ff ba f2 96 89 3a cf 4c c3 ba ce 50 68 ba
       -0.0019495052 0.0010497256 -0.001490021 -0.00088621385
000390 61 b5 d7 38 44 19 e2 ba af 40 96 ba 7b 5c 1b 3a
       0.00010285783 -0.0017249961 -0.0011463369 0.00059265614
0003a0 15 e4 30 3a e6 24 9c b9 dc 55 1f ba 71 34 aa ba
       0.0006747854 -0.0002978213 -0.00060781627 -0.00129856
0003b0 30 55 3a 39 3e e5 ff 3a d8 c3 a2 ba 94 98 07 37
       0.00017770077 0.0019523276 -0.0012417985 8.082152e-06
0003c0 5d 2d 21 3a ec f1 55 3a 63 96 49 ba cf 97 0d b9
       0.0006148422 0.00081613543 -0.0007689951 -0.00013503361
0003d0 51 69 d8 ba 57 69 db 3a 94 e8 84 b8 2e 52 1f 38
       -0.0016510879 0.0016739768 -6.3375715e-05 3.798509e-05
0003e0 9a 12 a5 3a 67 2d f9 ba 9e c8 93 3a fb 3e f2 37
       0.0012594045 -0.0019010723 0.0011274999 2.8877976e-05
0003f0 e2 b0 ce 3a f4 35 c8 ba 21 c2 3f 3a 90 78 07 3a
       0.0015769268 -0.0015274868 0.0007314999 0.00051678065

lstm.weight_ih_l1 f4 [120, 30]
000000 11 bb 24 bf ff 01 ba 3e 66 69 a1 bf 01 39 b0 be
       -0.6434794 0.36329648 -1.261029 -0.3441849
000010 3f 79 04 bf 6f 34 53 bf f9 10 17 3f b0 be ad 3e
       -0.51747507 -0.8250188 0.59010273 0.33934546
000020 1f d7 fd 3e df 32 43 be dd 88 9e be 17 fa 8a be
       0.49578187 -0.19062375 -0.30963793 -0.27143928
000030 65 fb 16 bf da 32 06 bf 34 05 19 3f c7 0d 88 3e
       -0.5897735 -0.52421343 0.59773564 0.2657301
000040 84 34 ae 3e 2c 13 20 3f 99 c3 95 be 5b 4f 1d 3f
       0.3402444 0.62529254 -0.29250792 0.6144921
000050 a5 44 33 bf 95 00 3b 3f c9 dd b5 3e 97 ae 99 be
       -0.7002662 0.73047763 0.3552077 -0.30016014
000060 0e a5 ae be 57 e9 26 3f 7c 30 b5 be 46 43 d4 be
       -0.34110302 0.651998 -0.35388553 -0.41457576
000070 7e 6d 40 3f ac 51 b8 be 9e 2a 24 bf 95 00 ba 3e
       0.7516707 -0.3599981 -0.6412753 0.3632857
000080 0a 65 a9 bf dd 36 b2 be 7c 29 05 bf b8 26 5a bf
       -1.323396 -0.34807482 -0.52016425 -0.8521533
000090 bc f3 16 3f a2 6b af 3e 1a 45 ff 3e 07 20 44 be
       0.5896566 0.34261805 0.49857408 -0.19152842
0000a0 3e 38 9f be 9e f4 8a be 9b f3 16 bf 11 7d 05 bf
       -0.31097597 -0.27139753 -0.5896546 -0.5214396
0000b0 ef a8 18 3f df e6 87 3e a7 37 af 3e 3e 34 1f 3f
       0.5963277 0.26543328 0.34222147 0.6218909
0000c0 a5 be 97 be ae a9 1c 3f be 2b 33 bf 66 a8 3b 3f
       -0.29637638 0.6119641 -0.6998862 0.7330383
0000d0 aa cb b7 3e 16 fe 9b be 60 9e ad be d7 ba 26 3f
       0.3589757 -0.3046729 -0.33909893 0.65128845
0000e0 d5 b4 b7 be 07 4b d5 be ee 59 3f 3f 60 07 b9 be
       -0.3588015 -0.41658804 0.74746597 -0.3613844
0000f0 07 24 25 bf 12 4c b8 3e 11 2a 33 bf a3 58 af be
       -0.645081 0.35995537 -0.69986063 -0.34247312
000100 40 be 04 bf c8 d6 97 bf a8 2c 17 3f 20 56 ad 3e
       -0.518528 -1.1862421 0.59052515 0.3385477
000110 cd ac fd 3e 22 77 40 be af 42 9c be 9d c2 87 be
       0.495459 -0.18795446 -0.30519626 -0.26515666
000120 cb 5c 17 bf f0 ec 05 bf 6d 7d 19 3f d4 ca 85 3e
       -0.59125966 -0.5231466 0.5995701 0.26131308
000130 09 56 ac 3e 5a bd 1f 3f 04 1f 95 be f8 52 1d 3f
       0.3365939 0.623983 -0.29125226 0.61454725
000140 6f 86 34 bf 1d 6c 3c 3f 2f b7 b4 3e 19 ea 98 be
       -0.7051763 0.7360247 0.35296008 -0.29866102
000150 0b 84 ac be 49 2b 27 3f 33 3c b5 be a9 0f d3 be
       -0.3369449 0.6530042 -0.3539749 -0.41222885
000160 5e 5e 40 3f 24 9d b7 be bc 11 25 bf 42 7c b8 3e
       0.7514399 -0.35862076 -0.64480186 0.360323
000170 61 21 38 bf e5 b8 ae be 90 ae 04 bf 2e b3 a5 bf
       -0.7192593 -0.34125438 -0.5182886 -1.2945306
000180 2a c4 17 3f 7f fc ad 3e bd f2 fc 3e 1c 7f 41 be
       0.592837 0.33981702 0.49403945 -0.18896145
000190 84 96 9d be 39 40 88 be 5f 9f 16 bf 47 3d 06 bf
       -0.30778897 -0.26611498 -0.5883693 -0.5243725
0001a0 6f 18 19 3f dd 84 85 3e 30 81 ac 3e 22 da 1f 3f
       0.5980291 0.2607793 0.33692312 0.6244222
0001b0 46 67 95 be 1d 28 1d 3f c8 31 34 bf c7 71 3c 3f
       -0.29180354 0.61389333 -0.7038846 0.7361111
0001c0 fe 8a b4 3e 18 6e 9a be 61 20 ad be 76 77 27 3f
       0.35262293 -0.3016212 -0.33813766 0.6541666
0001d0 41 d9 b5 be bf e3 d2 be c9 dc 40 3f 17 c8 b6 be
       -0.35517314 -0.4118938 0.7533689 -0.3569953
0001e0 f4 74 25 bf 43 fe b7 3e 86 31 97 bf b1 b3 ae be
       -0.6463158 0.35936174 -1.1811988 -0.3412147
0001f0 b6 91 04 bf 92 a5 68 bf 4d 77 17 3f 7e a2 ac 3e
       -0.5178484 -0.9087764 0.59166414 0.33717722
000200 c4 23 fe 3e 67 2c 45 be 89 b2 9e be bd 64 89 be
       0.49636662 -0.1925522 -0.30995587 -0.2683467
000210 ff 59 17 bf 76 ec 06 bf 63 d2 18 3f 0e 09 86 3e
       -0.591217 -0.5270456 0.59696025 0.26178783
000220 d4 54 ad 3e f1 60 1f 3f 0e f5 95 be 40 00 1e 3f
       0.3385378 0.62257296 -0.29288524 0.6171913
000230 0e fd 33 bf 62 3d 3b 3f 9b 59 b4 3e 94 39 99 be
       -0.70308006 0.7314054 0.35224614 -0.2992674
000240 91 f7 ad be 9f 7e 26 3f b5 b8 b4 be 0e 10 d3 be
       -0.3397794 0.6503696 -0.3529717 -0.41223186
000250 a7 c1 3f 3f 23 67 b6 be 04 87 25 bf b8 cf b8 3e
       0.74904865 -0.35625562 -0.6465914 0.36095977
000260 2d 51 33 bf a9 e2 ae be 87 5d 04 bf 23 34 98 bf
       -0.7004574 -0.34157303 -0.5170521 -1.1890911
000270 3e 30 17 3f 5b 06 ad 3e 2a 33 fe 3e 3d 7d 41 be
       0.59057987 0.3379391 0.4964841 -0.18895431
000280 74 2c 9c be bd 43 88 be e8 3e 17 bf 62 c3 05 bf
       -0.30502665 -0.2661418 -0.5908036 -0.52251256
000290 38 07 19 3f 78 59 85 3e 74 c5 ac 3e 96 27 20 3f
       0.5977664 0.26044822 0.33744395 0.62560403
0002a0 da b4 94 be 64 d7 1d 3f 76 66 34 bf 1f 62 3c 3f
       -0.2904423 0.61656785 -0.70468843 0.7358722
0002b0 b3 cb b4 3e d5 cf 99 be 75 ac ac be 45 2f 27 3f
       0.3531166 -0.30041376 -0.33725324 0.653065
0002c0 59 d1 b4 be ad 1d d3 be 6d e2 40 3f db fd b6 be
       -0.3531597 -0.41233578 0.753455 -0.3574055
0002d0 9a ef 24 bf 10 5a b8 3e 58 ad 9f bf 60 1a b0 be
       -0.644281 0.36006212 -1.2474775 -0.34395123
0002e0 49 f6 04 bf fc 59 52 bf e7 f5 16 3f 2a 17 ae 3e
       -0.519383 -0.82168555 0.5896897 0.34002048
0002f0 5a 67 fe 3e 11 3b 44 be c5 98 9e be 72 42 8b be
       0.49688226 -0.19163157 -0.3097593 -0.2719913
000300 62 f7 16 bf a4 6b 06 bf 97 06 19 3f d1 e4 86 3e
       -0.58971226 -0.52507997 0.5977568 0.26346448
000310 fd cf ad 3e ef 60 1f 3f f9 e9 96 be 01 6a 1d 3f
       0.33947745 0.62257284 -0.29475382 0.61489874
000320 32 95 33 bf 86 c6 3b 3f 94 81 b5 3e 44 31 9a be
       -0.7014953 0.733498 0.35450423 -0.30115712
000330 ad 6d ae be 91 77 26 3f 48 5c b6 be 03 5c d4 be
       -0.3406805 0.65026194 -0.3561728 -0.4147645
000340 27 70 3f 3f e9 47 b7 be 60 35 25 bf 25 3b b7 3e
       0.74780506 -0.3579705 -0.6453457 0.3578731
000350 95 e3 24 bf 22 e1 ac be b1 90 04 bf 46 fa 50 bf
       -0.6440976 -0.33765513 -0.5178328 -0.81631887
000360 63 27 18 3f f8 c9 ab 3e 6d af fd 3e 70 78 3d be
       0.594351 0.33552527 0.49547902 -0.18502975
000370 9a f1 9a be 35 db 87 be be 89 16 bf 4d e4 06 bf
       -0.30262452 -0.2653443 -0.5880393 -0.5269211
000380 ec 08 1a 3f 58 47 84 3e 82 59 ab 3e f1 a3 20 3f
       0.60169864 0.2583568 0.33466727 0.62750155
000390 2c 54 93 be de 31 1e 3f b3 90 34 bf 07 c3 3c 3f
       -0.28775156 0.6179484 -0.70533293 0.7373509
0003a0 8a 3e b2 3e dc 48 98 be 3b b5 aa be 22 81 27 3f
       0.3481334 -0.29743087 -0.33341393 0.65431416
0003b0 86 5b b3 be a6 07 d2 be f7 9e 40 3f f0 e1 b4 be
       -0.35030764 -0.4102146 0.7524256 -0.35328627
0003c0 18 ca 24 bf 9f 40 b9 3e c7 11 a0 bf 19 ee af be
       -0.6437087 0.36182114 -1.2505425 -0.34361342
0003d0 86 ce 04 bf f0 4e 53 bf e9 cc 16 3f 09 5e ae 3e
       -0.5187763 -0.82542324 0.5890642 0.34056118
0003e0 1f c8 fe 3e d3 f2 43 be f9 f0 9f be 9f b5 8a be
       0.49762055 -0.19135599 -0.31238535 -0.2709169
0003f0 cf d0 16 bf 30 f5 06 bf 41 68 18 3f d1 92 88 3e
       -0.58912367 -0.52717876 0.5953408 0.26674512

lstm.weight_hh_l1 f4 [120, 30]
000000 da ae c0 39 86 db 0f b9 86 c8 ef ba 25 44 95 3a
       0.00036751368 -0.00013719322 -0.0018294014 0.0011388107
000010 2b 94 98 ba dc 34 b3 ba 44 13 4c 39 96 06 93 ba
       -0.0011640837 -0.001367237 0.00019462133 -0.0011217173
000020 7f 36 94 3a 01 78 bf 39 50 5c 9c ba 4a d0 19 3a
       0.0011307745 0.0003651977 -0.0011929367 0.00058675243
000030 19 e8 17 3a 0b 43 96 39 3c d3 7d ba bf a5 66 3a
       0.0005794778 0.0002866018 -0.00096826605 0.0008798502
000040 86 77 b0 ba 38 4c ff 3a d0 cf d4 39 ea a5 be 3a
       -0.0013463355 0.0019477671 0.00040590623 0.0014545296
000050 c3 49 50 ba 9c 14 8e b8 25 4e 15 ba c1 51 da ba
       -0.00079455617 -6.7749264e-05 -0.00056955434 -0.0016656445
000060 3e 75 ee ba 34 a3 5c 39 55 e4 c1 3a 48 56 e7 ba
       -0.00181929 0.00021041633 0.001479278 -0.0017649615
000070 ff 2a f1 3a 0b b3 1e 3a 50 89 a1 ba e0 11 7a ba
       0.0018399655 0.0006053901 -0.0012324248 -0.0009539407
000080 77 75 80 3a 15 4e eb b8 a2 62 d2 ba 1d 9a 9e b8
       0.0009800632 -0.00011220217 -0.0016051123 -7.562733e-05
000090 71 f6 8c ba 19 11 f2 ba 7b 4a 16 3a 48 81 be 38
       -0.0010754598 -0.001846823 0.00057331444 9.0839865e-05
0000a0 79 46 a2 ba 61 ec fe 3a bb f9 62 b9 5b 64 af b7
       -0.0012380622 0.0019449109 -0.00021646071 -2.0908357e-05
0000b0 26 88 52 3a d9 02 00 3b 6d e7 76 ba 92 14 d2 ba
       0.0008031152 0.0019532947 -0.00094186404 -0.0016027859
0000c0 e8 b7 8b ba 92 ed 4b 39 55 6d 54 3a 9c 3f fc ba
       -0.0010659667 0.0001944809 0.000810345 -0.0019245031
0000d0 44 8f d5 3a d5 5f a1 ba fc f8 ad 3a 3e 5a 9a 39
       0.0016293307 -0.0012311885 0.0013273056 0.00029440405
0000e0 ad 77 d6 3a 32 10 9f 3a 48 7b 9a ba ec d1 5c 37
       0.001636257 0.0012135564 -0.0011786008 1.3161898e-05
0000f0 a2 c1 9c b9 40 d2 b9 3a dc 95 78 3a 05 9c 82 ba
       -0.00029898906 0.0014177039 0.000948278 -0.000996471
000100 17 54 da ba 86 4d 62 ba 23 a6 ab ba 30 7b 00 ba
       -0.0016657141 -0.0008632768 -0.0013095777 -0.0004901169
000110 de 10 89 ba bb ad 08 ba 57 c2 55 ba 71 50 b3 3a
       -0.0010457297 -0.0005213876 -0.0008154264 0.001368059
000120 f6 26 2e 3a 1f 61 e3 ba 5d df 87 38 17 84 ce 3a
       0.0006643379 -0.001734767 6.478906e-05 0.0015755919
000130 9e 87 c3 39 f9 63 eb b8 c9 b2 6d 3a 7c 6c 58 ba
       0.0003729434 -0.000112242946 0.00090674736 -0.00082559115
000140 21 74 58 ba dc 39 32 b9 f2 78 97 ba c7 e1 f0 ba
       -0.00082570506 -0.00016996957 -0.001155643 -0.0018377834
000150 0d 3e 50 3a 40 a3 e6 3a ea 8e 54 3a 84 06 d5 3a
       0.00079438166 0.001759626 0.0008108454 0.0016252552
000160 96 e3 8f 39 2a 50 c4 3a b7 8d 32 ba c9 fb a7 ba
       0.0002744465 0.0014977504 -0.0006811278 -0.0012816127
000170 d6 80 69 ba ae d7 80 3a 07 69 ef 3a fa 86 0c 39
       -0.00089074427 0.0009829903 0.0018265554 0.00013401723
000180 b7 52 f8 3a a6 84 ac 3a cb f5 b6 b9 40 9c fa 3a
       0.0018945549 0.0013162091 -0.00034896875 0.0019120052
000190 c9 4e 43 b9 5f 9c 53 ba 2e 4a 0f 3a 3a a6 af 3a
       -0.00018625999 -0.00080723123 0.0005466071 0.001340098
0001a0 a5 c2 61 ba 69 87 07 3a 94 f8 80 39 4d e0 fb 3a
       -0.0008612073 0.0005170019 0.00024599268 0.0019216627
0001b0 e0 8f 01 b9 53 c8 4d 39 30 65 07 3a ec bd 9e ba
       -0.00012355996 0.0001962495 0.00051649194 -0.0012111044
0001c0 a2 01 c3 ba e4 bd ae b9 d3 cf 90 3a 5f 9a 3c ba
       -0.0014877806 -0.00033329346 0.0011048265 -0.0007194634
0001d0 5b ac ea ba 53 a0 51 3a c3 95 33 39 af 3f 08 b9
       -0.0017904149 0.00079966075 0.00017126561 -0.00012993695
0001e0 cd 7d ba 3a bb 09 14 ba 53 fd bf ba 05 02 f1 39
       0.0014228165 -0.0005647202 -0.001464764 0.00045968607
0001f0 79 f0 a9 3a 13 b3 81 3a 42 bc cd 3a 98 1e 29 39
       0.0012965343 0.0009895287 0.0015696364 0.00016128493
000200 73 c0 72 b9 19 45 b4 3a 48 77 87 ba ea 26 19 b8
       -0.00023150611 0.0013753503 -0.0010335231 -3.6514284e-05
000210 73 1b f0 3a ea ba 87 3a 77 cc ab 3a 19 04 15 39
       0.0018318727 0.0010355387 0.00131072 0.00014211274
000220 fe 2e 9e ba 20 79 fd b9 1b a3 e0 3a 5d 07 4b b9
       -0.0012068448 -0.00048346166 0.0017138453 -0.00019362332
000230 7b 44 3a 39 73 66 82 ba b5 c8 01 3b 03 8f 96 3a
       0.00017763853 -0.0009948745 0.0019803469 0.0011486713
000240 ea da 89 ba ac 4e 01 3b a3 0d ff 3a b3 7f b3 3a
       -0.0010517512 0.001973073 0.001945902 0.0013694674
000250 77 d4 c9 3a 44 bb ba ba 82 4b ca ba e2 0e 88 ba
       0.0015398402 -0.0014246483 -0.001543388 -0.0010380412
000260 a8 be 1a ba 51 10 e0 ba 15 e2 01 bb 57 0e 35 b7
       -0.0005903044 -0.0017094706 -0.0019818593 -1.07917795e-05
000270 71 ca fc 3a ad 4c 2a 39 a9 3e 57 ba a4 3a 4d ba
       0.0019286406 0.00016241027 -0.0008210936 -0.00078288675
000280 44 d3 f4 3a 48 26 ac 3a 15 82 f5 39 32 48 d6 3a
       0.0018678685 0.0013133967 0.0004682696 0.001634842
000290 40 b3 4e 3a 40 93 6c 3a 0d 78 a4 3a 3a 2e 24 ba
       0.00078849867 0.00090246275 0.0012547985 -0.0006262992
0002a0 92 a5 00 b9 7f ce 8b b9 79 b0 86 ba 5d 8c cd ba
       -0.00012268711 -0.00026665998 -0.0010275982 -0.001568209
0002b0 19 c8 6d 3a 17 8d fc ba 4a 81 dd 3a c7 7e be ba
       0.00090706494 -0.0019268122 0.0016899493 -0.0014533632
0002c0 98 2c f4 ba 44 45 e9 3a 8e 56 83 3a ea 4e 50 b9
       -0.0018629013 0.0017797132 0.0010020302 -0.00019865824
0002d0 a5 50 76 39 d4 c7 68 3a 80 30 31 3a c7 0b cf b9
       0.0002349043 0.00088798744 0.0006759241 -0.00039490892
0002e0 e6 e0 9d ba 15 56 2a b9 cd 30 a5 ba 59 6b 63 ba
       -0.0012045174 -0.00016244531 -0.0012603045 -0.0008675359
0002f0 f8 c4 ba ba 48 61 d2 b9 e0 77 26 3a 51 c5 76 3a
       -0.0014249375 -0.00040126801 0.000635026 0.0009413558
000300 48 7f 6c 3a 2e 0e 4f 3a b1 34 2d ba 01 00 7d 37
       0.0009021652 0.0007898536 -0.0006607278 1.5079976e-05
000310 67 02 34 ba d2 5e 5b ba f2 49 a5 3a 82 d5 a4 38
       -0.0006866813 -0.00083683163 0.0012610538 7.859898e-05
000320 4e b9 c1 3a 50 bb 17 ba 9c 0c 47 b9 9e 0d f2 3a
       0.0014779957 -0.00057881046 -0.00018982816 0.0018467193
000330 9e 6f ba b9 4d cb fd ba f4 ed 17 3a 11 96 8b 3a
       -0.00035559846 -0.0019362957 0.00057956506 0.0010649582
000340 94 20 86 39 c5 27 f3 3a 15 fa ea 39 e2 dc c2 3a
       0.00025582744 0.0018551281 0.00044818284 0.0014866854
000350 da b4 2a ba c3 b9 7a 3a 9c 24 32 39 a5 a2 f4 3a
       -0.00065119343 0.0009564424 0.00016989041 0.0018664195
000360 d4 2d 4f 3a 07 a1 19 ba c7 cb b0 38 63 31 e4 ba
       0.0007903252 -0.0005860482 8.4302905e-05 -0.0017409738
000370 44 07 4c ba f2 e2 fb ba 98 46 a4 b9 2b 13 11 ba
       -0.0007783065 -0.0019217415 -0.00031333114 -0.0005534167
000380 48 80 9f ba b5 18 7a b9 09 74 77 39 84 48 aa b9
       -0.0012168968 -0.00023851062 0.00023598982 -0.00032478955
000390 5b 12 e6 3a 94 5c 77 3a a9 32 50 ba f8 2b 05 b9
       0.0017553078 0.00094360975 -0.0007942119 -0.00012700248
0003a0 30 91 41 ba 4c 37 2d 39 ff ab cf ba 63 84 af 39
       -0.00073840003 0.00016519165 -0.0015844106 0.00033477237
0003b0 d7 42 93 3a 82 ad f0 3a 8c e4 09 39 69 3a d8 ba
       0.001123513 0.0018362256 0.00013150478 -0.00164969
0003c0 67 46 bd 39 6f 0a 96 3a 55 cb f4 3a c1 6a 99 ba
       0.00036101343 0.0011447201 0.001867632 -0.0011704789
0003d0 73 90 e2 3a 8a d4 90 ba fc 4b b8 3a 7d 8d 05 ba
       0.0017285481 -0.001104967 0.0014060731 -0.0005094631
0003e0 3e 5f b3 3a af 68 c7 ba 40 06 d0 3a a9 6f ee 3a
       0.0013685001 -0.0015213693 0.0015871003 0.0018191236
0003f0 82 cb ae 3a 30 c7 d6 ba 92 65 95 b9 13 5f ff 3a
       0.0013335797 -0.0016386267 -0.0002849517 0.001948329

fc.weight f4 [1, 30]
000000 1b 50 8a 3f 2d 89 8b bf 16 34 8a 3f 73 55 8a 3f
       1.0805696 -1.0901238 1.0797145 1.0807327
000010 9e b4 89 3f bd 4a 8a bf 26 42 8a bf 51 b4 89 bf
       1.0758245 -1.0804058 -1.0801437 -1.0758153
000020 2b 7c 8a 3f 81 db 8a bf 16 66 8a bf 3c 5d 8a 3f
       1.0819143 -1.0848237 -1.0812404 1.0809703
000030 ca 69 89 bf 0b 14 8a bf 99 75 8b 3f 1d 78 8b 3f
       -1.0735409 -1.0787367 1.0895263 1.0896031
000040 e5 26 8b 3f d6 70 8a bf 06 7b 89 3f 5a 12 8b bf
       1.0871245 -1.0815685 1.0740669 -1.0864975
000050 6d c3 8a bf 3a 23 8a bf c9 3d 8a 3f 0e 2a 8b bf
       -1.0840889 -1.0792 1.0800105 -1.0872209
000060 e7 cb 88 bf 71 8c 8b bf d2 29 89 3f c2 3c 8a bf
       -1.0687226 -1.0902234 1.0715888 -1.0799792
000070 5e 55 8a 3f a0 5f 89 3f
       1.0807302 1.0732307
