models/lstm_pure_seed_1011.pt (torch, 50973 bytes, 5 tensors)

lstm.weight_ih_l0 f4 [120, 4]
0.06618494 0.026150811 -0.06672245 0.016457137 0.062464565 0.010880062 -0.05358255 0.02695564
-0.023045229 -0.13969965 -0.13110888 -0.028731257 0.086322606 0.053959206 -0.12603046 -0.00957603
-0.023032997 -0.13664101 -0.12752795 -0.026964685 0.056297734 0.00061176595 -0.06574588 0.029821213
-0.022831649 -0.14092293 -0.13461703 -0.027508127 0.062457014 0.017706675 -0.06708419 0.025699357
-0.018221822 -0.116640426 -0.13194655 -0.016812814 0.06025372 0.0055241073 -0.05419266 0.026165279
-0.019840268 -0.13361253 -0.1355262 -0.01872311 0.0545936 0.0036481018 -0.07368769 0.028132621
-0.018953616 -0.119545504 -0.13599837 -0.018718671 -0.019065524 -0.13327742 -0.12671192 -0.028864192
-0.020752795 -0.14202674 -0.13512422 -0.029368125 -0.019840099 -0.1386765 -0.1271461 -0.027386956
0.075509526 0.03448168 -0.074486986 -0.0027722586 -0.022965567 -0.14293465 -0.13298848 -0.029220857
-0.019260019 -0.13403437 -0.12321599 -0.027628116 -0.01888278 -0.12632617 -0.13376233 -0.018996444
0.0901243 0.15111004 -0.37335005 -0.046458993 -0.021315832 -0.13431951 -0.13336487 -0.017875139
-0.017149445 -0.13183245 -0.12578973 -0.02778289 0.06414692 0.0143202385 -0.0715199 0.026548166
-0.021121562 -0.13987903 -0.12658958 -0.030036187 -0.02148608 -0.11842537 -0.13784197 -0.015037366
0.06143218 0.015546157 -0.079973765 0.023760587 0.06331844 0.013110755 -0.066702016 0.028978348
-0.017880239 -0.12335104 -0.13663217 -0.017174313 0.06612912 0.022811027 -0.07081314 0.025658261
1.7334938e-05 0.0019166324 -0.00075261045 0.00051461905 -0.00013631214 0.0009410868 0.0020559512 -0.0002638636
0.0011945128 0.0012824178 -0.001282723 0.00014905393 0.002003995 0.00029547748 -0.00067549356 0.0008041102
0.0015934154 -0.0015903545 -0.0011932523 0.0006783442 0.001026871 0.00047933476 0.002070305 0.0014547317
0.0017645862 -0.00020815012 0.0011569603 -0.00016195673 0.0008547386 0.0010395963 -0.0005633597 1.906248e-05
-0.0006563097 -0.0015714912 5.976905e-06 0.0015282792 0.001345274 -0.0015474429 0.002007529 0.00060096465
-0.00043745738 0.001112312 -0.00091154134 -0.0006208521 -0.0011588818 -0.001136545 0.00048171813 -0.0010494206
0.002027169 0.00085755094 -0.0006928204 -0.0013218201 0.0006067664 0.0009895965 0.0010586834 0.0009584351
0.0010667867 -0.0014508344 -0.0013400542 0.0017872155 0.0015210805 0.0017064215 -0.0002314339 -0.0016880934
0.0016013283 -0.0015201976 0.00039437896 0.0010742632 -0.0010570838 0.0004869986 -0.00201691 -0.002106587
-0.002155956 0.00032651133 0.00061155617 0.00010007625 0.00042169448 -0.0020023752 7.6871656e-05 -0.001822431
-0.0017708733 0.00019548803 0.00092548545 -0.0003255314 0.0013325687 -0.0020941987 0.0010123025 0.00065402495
-5.1210536e-05 -0.0016315222 0.0020367426 -0.00040990062 -0.0018528966 -0.0018632512 0.0020021081 -0.0014216
0.001538986 0.001519181 0.0011210773 -0.0016561539 0.0015775418 0.0017661066 -0.0020411608 -0.00067068514
-0.00053403736 -0.0013314867 -0.0020123355 0.0005571963 0.000713387 -0.0017479226 -0.0005669401 -0.00023417284
0.0009203904 0.0019725543 0.0006114484 -0.0014308749 0.00042481732 0.001475683 0.0012562831 -0.0012091969
0.0055592414 0.09170336 -0.014961851 -0.041399863 -0.0025568155 -0.086677775 0.010639398 0.039508164
-0.09587636 -0.22715718 -0.027353205 0.035690274 -0.010208407 -0.101002894 0.03335246 0.040022273
00000000: f88b 873d 3a3a d63c c8a5 88bd 1ed1 863c
00000010: d8da 7f3d 4a42 323c 6079 5bbd 13d2 dc3c
00000020: 59c9 bcbc 6d0d 0fbe 6841 06be d05d ebbc
00000030: e8c9 b03d 5404 5d3d 210e 01be c8e4 1cbc
00000040: b2af bcbc 9feb 0bbe b096 02be 0be5 dcbc
00000050: 7498 663d eb5e 203a c7a5 86bd 9e4b f43c
00000060: 7009 bbbc 1a4e 10be 0cd9 09be b958 e1bc
00000070: edd2 7f3d 970d 913c 7063 89bd 7587 d23c
00000080: ee45 95bc 2de1 eebd ff1c 07be 07bb 89bc
00000090: 9bcc 763d 9203 b53b 1ff9 5dbd 9158 d63c
000000a0: 0f88 a2bc b9d1 08be 61c7 0abe 3561 99bc
000000b0: 8a9d 5f3d fe14 6f3b 92e9 96bd 6276 e63c
000000c0: 9d44 9bbc 46d4 f4bd 2843 0bbe e657 99bc
000000d0: 4d2f 9cbc e079 08be c5c0 01be 9974 ecbc
000000e0: c401 aabc 756f 11be 015e 0abe 6c95 f0bc
000000f0: b487 a2bc 3601 0ebe 9632 02be 9c5a e0bc
00000100: bda4 9a3d a93c 0d3d a28c 98bd c8ae 35bb
00000110: 4922 bcbc 765d 12be 222e 08be 9460 efbc
00000120: 30c7 9dbc 4e40 09be aa58 fcbd 5c54 e2bc
00000130: 0fb0 9abc a65b 01be fef8 08be 6e9e 9bbc
00000140: 1793 b83d 97bc 1a3e bd27 bfbe c94b 3ebd
00000150: 8a9e aebc 0e8b 09be cd90 08be e26e 92bc
00000160: fe7c 8cbc 16ff 06be 06cf 00be f198 e3bc
00000170: 765f 833d 6f9f 6a3c 0679 92bd 8a7b d93c
00000180: 2007 adbc 733c 0fbe b3a0 01be 730e f6bc
00000190: 9303 b0bc 0089 f2bd 7226 0dbe 495f 76bc
000001a0: 4fa0 7b3d 4fb5 7e3c 49c9 a3bd 90a5 c23c
000001b0: 19ad 813d 7ece 563c 119b 88bd 0064 ed3c
000001c0: 9479 92bc 789f fcbd 4ee9 0bbe 25b1 8cbc
000001d0: b46e 873d 31de ba3c 7b06 91bd 4631 d23c
000001e0: 7f6a 9137 8337 fb3a d54a 45ba 80e7 063a
000001f0: 03ef 0eb9 44b3 763a 23bd 063b 2c57 8ab9
00000200: 3391 9c3a cd16 a83a 0b21 a8ba 5c4b 1c39
00000210: 7555 033b 51ea 9a39 9b13 31ba ecca 523a
00000220: 26da d03a 7173 d0ba e766 9cba e9d2 313a
00000230: 1398 863a 394f fb39 f4ad 073b b2ac be3a
00000240: b049 e73a df42 5ab9 25a5 973a eed2 29b9
00000250: 8910 603a 1043 883a 6eae 13ba 5de8 9f37
00000260: 330c 2cba 7ffa cdba 398d c836 8a50 c83a
00000270: e853 b03a 91d3 caba bf90 033b 0e8a 1d3a
00000280: 895a e5b9 ffca 913a 81f4 6eba aec0 22ba
00000290: 9fe5 97ba 1ff8 94ba 1d8f fc39 b68c 89ba
000002a0: 41da 043b 45cd 603a 649e 35ba ec40 adba
000002b0: 670f 1f3a 59b5 813a 85c3 8a3a 7e3f 7b3a
000002c0: 6cd3 8b3a ed29 beba c2a4 afba 0041 ea3a
000002d0: fe5e c73a 01aa df3a 11ad 72b9 0443 ddba
000002e0: a9e3 d13a 5e41 c7ba a6c4 ce39 4bce 8c3a
000002f0: d98d 8aba d853 ff39 222e 04bb aa0e 0abb
00000300: f14a 0dbb 9c2f ab39 d750 203a 07e0 d138
00000310: e016 dd39 483a 03bb 2836 a138 a3de eeba
00000320: a61c e8ba ebfb 4c39 479c 723a 16ac aab9
00000330: 96a9 ae3a d33e 09bb 3caf 843a df72 2b3a
00000340: e5ca 56b8 cdd8 d5ba df7a 053b eee7 d6b9
00000350: e5dc f2ba 5638 f4ba cd35 033b fb54 baba
00000360: cdb7 c93a 411f c73a 1df1 923a 4e13 d9ba
00000370: 85c5 ce3a b47c e73a ffc4 05bb ebd0 2fba
00000380: a4fe 0bba 4885 aeba 63e1 03bb d010 123a
00000390: 9702 3b3a 8d1a e5ba b59e 14ba 4b8c 75b9
000003a0: 5b46 713a f845 013b 9c49 203a 328c bbba
000003b0: 04ba de39 b46b c13a dea9 a43a ea7d 9eba
000003c0: 4c2a b63b f9ce bb3d 8d22 75bc e792 29bd
000003d0: 3f90 27bb 1e84 b1bd df50 2e3c 50d3 213d
000003e0: d35a c4bd e49b 68be d413 e0bc f72f 123d
000003f0: 2a41 27bc 9bda cebd 979c 083d 65ee 233d

lstm.weight_hh_l0 f4 [120, 30]
0.001412499 -0.0005310147 0.0005228434 -0.0013089066 -0.0016507405 -0.0018458368 0.0014144295 0.0012627748
-0.0019618168 -0.0011450463 0.0011687865 -0.0018271452 -0.0018260208 -0.00045720866 -0.0006891618 -0.00064394454
0.0016658062 0.00091298536 -0.0008495949 0.0019747624 -0.001290627 -0.00036282733 -0.00072096614 0.00010761857
0.0005008049 -0.0016015401 0.0006264396 0.0010482079 0.0006347065 -0.0018358728 -0.0009463325 0.0008320435
-0.00086439826 0.0018228139 -0.00069952995 0.0017659786 0.0007746592 -0.0018344868 0.00038939406 0.0018053256
0.0010560811 0.0014934981 -0.001213136 0.0014903729 0.0011288031 -0.0006943729 0.0006386762 -0.001102993
0.00072132016 -0.0009675763 -0.0018436678 0.00082295324 -0.0016538907 0.00072229153 -0.001437672 -0.001293211
0.0012207142 -7.042146e-05 0.0012765792 -0.0019077705 0.00046299008 0.0016835716 -0.0013279816 -0.00012251353
0.0012448488 0.001763702 0.00022433973 -0.0014093777 0.0013391593 -0.00039962318 -0.0017064722 -0.0014682953
-0.00063325814 -0.0013021546 -8.291889e-05 -0.00033980134 0.0007524455 -0.0016277416 0.0015024701 -0.0013742872
-0.00059773854 -0.0017565904 -0.00013165952 -0.00082362036 0.00033793092 -0.0002482908 0.00020158435 0.001724918
-0.00025971915 -0.0004570587 0.0009873176 -0.001018833 -0.00017804647 -0.00081434636 0.00188637 0.00088356953
0.0014359723 0.0012273984 0.0016333492 0.00029841615 -0.0015931078 -0.00056860497 -0.00089640956 -0.0009928263
0.0010491877 -0.0018075258 -0.0005117228 -0.0013506799 0.0010280133 0.0012556571 0.00023669816 0.00016354419
-0.0003870337 -0.001016007 0.0014461547 -0.0018536054 -0.0016901036 0.0014609362 -0.00019514609 0.00079756504
-0.0016459106 0.0010215865 0.0013524807 -0.0003613999 -0.0005535574 -3.4492732e-05 0.00054618577 0.0011160553
0.0008451565 0.001024688 8.1327205e-05 -0.00042177775 -0.0018516575 -0.0017800861 0.00020480562 -0.0019999666
-0.0019523894 -0.0007340257 0.00017090488 0.0014048637 0.0010398396 -0.00062886503 -0.0009264274 -0.0013545244
-0.0016941262 -0.0009780348 0.0012451175 -0.0015618406 9.0462454e-05 0.0019220167 -0.0003176775 0.00042303253
-0.0013861592 0.0013635369 -7.812e-05 0.00073547795 -0.00056004646 1.0179997e-05 0.0010051442 8.748389e-05
0.00090441207 0.0012036763 -0.0013589521 -0.0010386002 -0.0014954163 -0.00076035265 -0.0017836102 -0.00091369706
-0.0009312139 0.0012526291 -0.001864873 0.0014332343 -0.0016564315 0.00030049993 0.00042406205 -0.00041752198
-0.0013934262 0.00018688322 0.0014183912 -0.0011018825 -0.0018471597 0.00073003676 0.00017119647 6.919003e-05
-0.0008678594 0.0003461385 -0.0013245858 -0.00038035252 -0.0002348509 -0.00095469505 0.0017604374 0.00035399772
-0.0005198956 7.566047e-05 -0.00064024836 0.0015808025 -0.0012528563 0.0019794507 -0.001850957 -4.064775e-05
-0.0015286623 -0.0006101825 0.00061331276 -0.0014167873 -0.0005308378 0.0016190036 0.0019119324 -5.4097418e-05
-0.001961343 0.0006591079 4.87299e-05 -0.00081954553 2.872038e-05 -0.00056076434 -0.0003075545 -0.0014725571
0.0012465185 -0.001437255 -0.0012668405 0.00020878125 -7.5816155e-05 0.0019868752 -0.0019558186 0.001763625
-0.0014463454 0.0005580099 -0.0017167572 0.0006866935 -0.0005893834 -0.0015349592 0.0015720424 0.0014886559
-0.0015430939 0.0016799186 0.00014909555 0.0007157197 0.0019678571 -0.0011668237 -0.00021876121 0.0007484813
0.001218846 0.0013132432 -0.0009400938 0.0016035815 0.00018660046 -0.00029181552 0.0006955035 8.350087e-05
-0.00037794138 -0.001327376 -0.00041081742 0.0016170182 -0.00053488376 0.001387275 0.001605292 0.0010967234
00000000: 9a23 b93a cb33 0bba 6d0f 093a 9e8f abba
00000010: a95d d8ba 01f0 f1ba 6164 b93a b183 a53a
00000020: d391 00bb 6115 96ba f831 993a d27c efba
00000030: 1757 efba 82b5 efb9 dea8 34ba 63ce 28ba
00000040: 2e57 da3a 6955 6f3a 59b7 5eba 046b 013b
00000050: 422a a9ba dc39 beb9 38ff 3cba 48b1 e138
00000060: 7348 033a c5ea d1ba a637 243a 0564 893a
00000070: 6f62 263a aba1 f0ba 4d13 78ba 7e1d 5a3a
00000080: c998 62ba 7ceb ee3a a960 37ba 6978 e73a
00000090: 8012 4b3a 2a73 f0ba 9627 cc39 ada0 ec3a
000000a0: 346c 8a3a 7bc1 c33a 1702 9fba 9e58 c33a
000000b0: 59f4 933a 9406 36ba d66c 273a 4e92 90ba
000000c0: fa16 3d3a f2a4 7dba 3aa7 f1ba 75bb 573a
000000d0: 5dc7 d8ba 2a58 3d3a 4470 bcba f680 a9ba
000000e0: 5f00 a03a 3caf 93b8 e452 a73a 280e faba
000000f0: 7abd f239 4aab dc3a ab0f aeba fa76 00b9
00000100: 322a a33a 052c e73a bd3c 6b39 deba b8ba
00000110: bb86 af3a 8484 d1b9 b5ab dfba d173 c0ba
00000120: 3c01 26ba 0fad aaba bde4 adb8 5d27 b2b9
00000130: c33f 453a f259 d5ba 88ee c43a 6d21 b4ba
00000140: 8eb1 1cba 653d e6ba 150e 0ab9 3ae8 57ba
00000150: 522c b139 072d 82b9 6360 5339 a516 e23a
00000160: ea2a 88b9 61a1 efb9 e268 813a 5d8a 85ba
00000170: fcb1 3ab9 dc79 55ba 1340 f73a 599f 673a
00000180: 3c37 bc3a a8e0 a03a 1b16 d63a bd74 9c39
00000190: d4cf d0ba 6f0e 15ba 07fd 6aba b921 82ba
000001a0: e684 893a 80ea ecba 2325 06ba 4c09 b1ba
000001b0: 67be 863a dc94 a43a 2e32 7839 0f7d 2b39
000001c0: c9ea cab9 8a2b 85ba e68c bd3a adf4 f2ba
000001d0: 7786 ddba e27c bf3a 21a0 4cb9 af13 513a
000001e0: 98bb d7ba c1e6 853a b945 b13a 467a bdb9
000001f0: 9c1c 11ba 4aac 10b8 e82d 0f3a 9a48 923a
00000200: 7e8d 5d3a d34e 863a 368e aa38 0d22 ddb9
00000210: 51b3 f2ba c751 e9ba 17c1 5639 df11 03bb
00000220: 51e7 ffba a26b 40ba ee34 3339 6723 b83a
00000230: 3a4b 883a 6bda 24ba 7edb 72ba 4c8a b1ba
00000240: 710d deba 6731 80ba 3633 a33a adb6 ccba
00000250: a9b6 bd38 2eec fb3a f48d a6b9 77ca dd39
00000260: c9af b5ba b5b8 b23a 5bd4 a3b8 17cd 403a
00000270: 15d0 12ba c1ca 2a37 0bbf 833a 8e77 b738
00000280: 1116 6d3a adc4 9d3a de1e b2ba a421 88ba
00000290: d801 c4ba 6752 47ba 07c8 e9ba 2c85 6fba
000002a0: b51c 74ba 422f a43a c16e f4ba 5ddb bb3a
000002b0: 9e1c d9ba 6b8c 9d39 a554 de39 dae6 dab9
000002c0: a0a3 b6ba 15f6 4339 50e9 b93a 0b6d 90ba
000002d0: 651c f2ba f05f 3f3a 3483 3339 1d1a 9138
000002e0: 0f81 63ba ec79 b539 b99d adba 0d6a c7b9
000002f0: 4f42 76b9 8044 7aba 7abe e63a c598 b939
00000300: 9a49 08ba e8ab 9e38 57d6 27ba ee32 cf3a
00000310: e236 a4ba acb9 013b d09b f2ba 307d 2ab8
00000320: 655d c8ba a8f4 1fba b9c6 203a 7eb3 b9ba
00000330: ec27 0bba bf34 d43a ce99 fa3a a9e6 62b8
00000340: e089 00bb fcc7 2c3a 5563 4c38 c5d6 56ba
00000350: 8cec f037 4200 13ba 443f a1b9 d102 c1ba
00000360: 3862 a33a 4662 bcba 1d0c a6ba 4aec 5a39
00000370: 7dff 9eb8 3c36 023b 312d 00bb 6f29 e73a
00000380: 4c93 bdba 6947 123a d004 e1ba 3803 343a
00000390: da80 1aba af30 c9ba fd0c ce3a 011f c33a
000003a0: a441 caba b730 dc3a 8856 1c39 239f 3b3a
000003b0: 2af7 003b 1bf0 98ba 4463 65b9 bb35 443a
000003c0: afc1 9f3a 2121 ac3a a170 76ba 442f d23a
000003d0: 2eaa 4339 d1fe 98b9 7352 363a 301d af38
000003e0: 6f26 c6b9 59fb adba fb62 d7b9 21f2 d33a
000003f0: 7137 0cba 3ad5 b53a a968 d23a eebf 8f3a

lstm.weight_ih_l1 f4 [120, 30]
0.028458131 -0.028907552 -0.013898113 -0.028840302 0.01626636 0.024938397 0.015973981 -0.027079986
-0.017023146 -0.022852669 -0.014959787 0.025798948 -0.016918335 0.01654394 0.015653726 -0.016355773
-0.024224352 -0.013825254 0.013743956 -0.016808173 -0.029324973 -0.01461664 0.015698897 -0.026277758
0.014415005 0.018419709 -0.026190018 -0.025711032 -0.016254323 0.02772722 0.035365276 -0.023112118
0.036800396 -0.04260077 -0.036021482 0.016991992 -0.037448596 -0.03451965 0.03280191 -0.026791813
0.034079093 0.025099142 0.035171136 -0.03682938 -0.03963611 0.037538365 -0.043231465 0.037645187
-0.03712094 0.03584121 -0.035973784 0.033978857 -0.036561638 -0.03225396 -0.03677171 -0.031585827
-0.029926538 -0.034027506 0.032281995 0.03180665 0.020257154 -0.01742513 0.008631614 -0.019911736
-0.011088687 0.014098865 -0.010407952 -0.023068964 0.0104448125 -0.017445324 0.009346139 0.015596138
0.009975226 -0.010092759 -0.012630737 0.012357489 -0.019694207 0.012576768 -0.012253563 0.011518066
-0.009476396 0.010873607 -0.011590899 -0.01834656 -0.013272146 -0.0070825326 -0.020686382 -0.020194005
0.0115160225 0.019801384 0.012205474 -0.012707628 0.004644847 -0.00866502 -0.0025747789 0.011179477
-0.0070994957 -0.01570169 0.0006906985 -0.014229578 0.0047784504 0.010398332 -0.0010122256 -0.003996115
-0.0048040524 0.006307634 -0.014967085 0.009177539 -0.006606943 0.0052153915 -3.9351027e-05 0.0032728973
-0.002458479 -0.018368842 -0.0077904845 0.0013739378 -0.011539274 -0.016809314 0.002462552 0.015013107
0.033913717 -0.022041196 0.039889976 -0.044381887 -0.038920704 0.017613135 -0.043497216 -0.034969207
0.032083362 -0.025301347 0.035078224 0.02154689 0.03508231 -0.038281474 -0.042297915 0.04056546
-0.043716773 0.040216 -0.04027701 0.033275656 -0.038066193 0.037992187 -0.03584198 -0.037121885
-0.039424032 -0.033639763 -0.02974007 -0.032395057 0.035096318 0.031753767 0.03197194 -0.020888096
0.03474515 -0.041445874 -0.034652494 0.016197966 -0.037496146 -0.034923404 0.03040009 -0.024754722
0.03392646 0.02331758 0.033731908 -0.037563916 -0.036259916 0.036146298 -0.040518213 0.036072955
-0.033355154 0.032195345 -0.033029832 0.032737143 -0.03411896 -0.035021782 -0.03711278 -0.03370543
-0.030629143 -0.03171931 0.03373152 0.034174476 0.03224717 -0.02270605 0.036324713 -0.043621473
-0.038087178 0.017900132 -0.042089872 -0.03525536 0.033159565 -0.025918368 0.03866923 0.02055676
0.034263287 -0.03684598 -0.03883115 0.03933507 -0.04323234 0.039963506 -0.036113136 0.03633514
-0.03826835 0.03748762 -0.03647108 -0.03547047 -0.03963198 -0.032242224 -0.02743351 -0.035599098
0.0350203 0.032326248 0.018361432 -0.009993131 0.011704246 -0.022863483 -0.012086793 0.009602022
-0.015083647 -0.027079768 0.006745056 -0.019835532 0.0103838425 0.013025621 0.00747847 -0.014891272
-0.016678052 0.014200973 -0.024453256 0.015376205 -0.013547874 0.010677662 -0.0124762 0.011460819
-0.010757945 -0.026356153 -0.014422358 -0.0064379317 -0.019106286 -0.02342313 0.009029623 0.020424498
0.037558816 -0.02478518 0.037381817 -0.043685917 -0.03834223 0.01799318 -0.03812742 -0.033710986
0.03402938 -0.02755096 0.033759523 0.023937538 0.037590574 -0.03542404 -0.039502915 0.037120756
00000000: 0721 e93c 88cf ecbc e9b4 63bc 7f42 ecbc
00000010: 0841 853c 9c4b cc3c dedb 823c d9d6 ddbc
00000020: 2074 8bbc 8535 bbbc e519 75bc 5158 d33c
00000030: 5298 8abc 2887 873c 3e3c 803c 8bfc 85bc
00000040: 2672 c6bc 5183 62bc 542e 613c 4bb1 89bc
00000050: ed3a f0bc a27a 6fbc f99a 803c 7444 d7bc
00000060: ea2c 6c3c eee4 963c 738c d6bc f19f d2bc
00000070: c927 85bc 3224 e33c 2edb 103d a055 bdbc
00000080: 03bc 163d 257e 2ebd 438b 13bd ca32 8b3c
00000090: b363 19bd 7a64 0dbd 4c5b 063d 817a dbbc
000000a0: 8596 0b3d b79c cd3c 9c0f 103d 67da 16bd
000000b0: 7959 22bd d4c1 193d 7a13 31bd d731 1a3d
000000c0: 200c 18bd 3cce 123d 3f59 13bd 6a2d 0b3d
000000d0: a8c1 15bd ba1c 04bd ef9d 16bd 2460 01bd
000000e0: 8028 f5bc 6d60 0bbd 203a 043d b147 023d
000000f0: 55f2 a53c 25bf 8ebc 9d6b 0d3c f01d a3bc
00000100: 53ad 35bc edfe 663c 1d86 2abc 20fb bcbc
00000110: b820 2b3c 7fe9 8ebc 8c20 193c f286 7f3c
00000120: 216f 233c 195c 25bc 27f1 4ebc 1177 4a3c
00000130: bf55 a1bc ca0e 4e3c 2bc3 48bc 45b6 3c3c
00000140: e342 1bbc 3727 323c c1e7 3dbc 864b 96bc
00000150: 6a73 59bc 9714 e8bb 7d76 a9bc e66d a5bc
00000160: b3ad 3c3c 8336 a23c 78f9 473c a833 50bc
00000170: cd33 983b baf7 0dbc 9fbd 28bb 202a 373c
00000180: e3a2 e8bb d5a0 80bc fe0f 353a 2d23 69bc
00000190: 8c94 9c3b c45d 2a3c a8ac 84ba d8f1 82bb
000001a0: 506b 9dbb 45b0 ce3b 8138 75bc 635d 163c
000001b0: 0e7f d8bb e0e5 aa3b d80c 25b8 1b7e 563b
000001c0: 6f1e 21bb 417a 96bc 5247 ffbb b415 b43a
000001d0: 390f 3dbc b0b3 89bc c462 213b 89f9 753c
000001e0: 1ce9 0a3d bd8f b4bc ac63 233d c8c9 35bd
000001f0: 516b 1fbd 6c49 903c 232a 32bd df3b 0fbd
00000200: d869 033d c544 cfbc 2fae 0f3d 1a83 b03c
00000210: 78b2 0f3d 09cd 1cbd 9440 2dbd f827 263d
00000220: 5c10 33bd 88b9 243d 82f9 24bd 0e4c 083d
00000230: 4ceb 1bbd b29d 1b3d 0acf 12bd 1e0d 18bd
00000240: 187b 21bd d9c9 09bd 73a1 f3bc aeb0 04bd
00000250: 28c1 0f3d 3d10 023d 02f5 023d 831d abbc
00000260: ee50 0e3d 26c3 29bd c6ef 0dbd 99b1 843c
00000270: 8f95 19bd d80b 0fbd 9c09 f93c 6aca cabc
00000280: 79f6 0a3d 8204 bf3c 782a 0a3d 9fdc 19bd
00000290: 4785 14bd 240e 143d 6df6 25bd 3cc1 133d
000002a0: 6a9f 08bd 44df 033d 4a4a 07bd 6217 063d
000002b0: 53c0 0bbd 0073 0fbd 9203 18bd b40e 0abd
000002c0: f8e9 fabc 1bec 01bd 102a 0a3d 89fa 0b3d
000002d0: 9c15 043d 0a02 babc 39c9 143d 6eac 32bd
000002e0: 4d01 1cbd 4ca3 923c 6e66 2cbd ed67 10bd
000002f0: 53d2 073d c252 d4bc a063 1e3d a666 a83c
00000300: a957 0c3d cfeb 16bd 690d 1fbd cf1d 213d
00000310: 6514 31bd c6b0 233d 5eeb 13bd 28d4 143d
00000320: 46bf 1cbd 9e8c 193d b362 15bd 7c49 11bd
00000330: 2555 22bd 6c10 04bd 3ebc e0bc 5cd0 11bd
00000340: 7271 0f3d 8768 043d b76a 963c 3bba 23bc
00000350: 2ac3 3f3c 334c bbbc af07 46bc cd51 1d3c
00000360: 6721 77bc 64d6 ddbc a105 dd3b 207e a2bc
00000370: fe20 2a3c 6a69 553c f40d f53b 86fa 73bc
00000380: 69a0 88bc 33ab 683c 3252 c8bc 7aec 7b3c
00000390: e7f7 5dbc 5cf1 2e3c fa68 4cbc 29c6 3b3c
000003a0: 1742 30bc dce8 d7bc c14b 6cbc 49f5 d2bb
000003b0: c984 9cbc dde1 bfbc fcf0 133c 4751 a73c
000003c0: 46d7 193d 4a0a cbbc ad1d 193d 01f0 32bd
000003d0: be0c 1dbd 6f66 933c 7f2b 1cbd 8814 0abd
000003e0: 6462 0b3d 8db2 e1bc 6d47 0a3d a818 c43c
000003f0: 93f8 193d cc18 11bd cfcd 21bd ef0b 183d

lstm.weight_hh_l1 f4 [120, 30]
-0.00023271276 -0.0011604126 -0.0015052841 0.0008646491 -0.0004106641 0.0015277806 0.00012706114 -0.0011952951
-0.00040544345 3.6407473e-05 0.00081026246 0.0013899637 -0.0019520846 -0.0015118021 -0.0015391613 -0.00048531915
0.0013843415 0.00031011322 -0.0005625503 -0.0019766535 0.00035252215 0.0011620887 -0.0006857169 0.0010534707
0.00094849995 -0.00025923754 0.00059036876 -0.00094450766 0.0019414967 0.0006576541 -0.00060049753 -0.00040327216
0.00080489117 0.0007729333 -0.0009547229 -0.0019925903 -0.0005382295 6.891537e-05 -0.0019570114 0.00062101055
0.0013315197 -0.0011649142 0.0015382209 -0.0005511465 -0.0015269706 0.0011043311 -0.0017667988 0.00030547738
0.0009015768 0.00018545247 0.0013012429 0.0010095795 -0.0017167545 0.00017079044 0.0018339737 -0.0018590246
0.00024023176 0.0019378539 -0.00043997815 -0.0013050874 0.0018361813 -0.00045256474 -0.001204123 -0.0018176056
0.00040103032 0.0014640167 -0.00020639492 0.00026004197 0.0011772993 0.0015105072 0.0011274491 0.0007369211
0.0009371088 -0.001705639 0.0013357805 0.0006768768 -0.0010179206 -0.0012858048 0.0016472576 0.001108349
0.0012556136 -0.0015400718 0.0014155952 -0.0010085492 0.0010081097 0.00051224616 0.00034312846 -0.0008071361
0.00015580488 -0.001171038 -0.0016430329 -0.0011946104 -0.0004846983 0.00038946202 -0.0007105096 -0.0013416336
-0.000682668 -0.00032470108 -0.00034898138 -7.5070624e-05 0.0014708196 0.001816681 -0.0015956286 0.0010755523
-0.0013858846 -0.0013219846 -0.0005347874 0.0010205245 0.0006433678 -0.00029941226 -0.0010729242 0.00088687637
0.0014567977 -0.0007341607 -0.0011791197 0.00039095976 0.0004367061 0.00012816764 4.4457915e-06 0.0016022371
0.0019551595 0.0015045019 -0.0005489693 -0.0013205545 0.00063911587 -0.00019926381 -0.0009752639 -0.0006006191
0.00081471016 -0.0014573482 0.00085434224 -0.00065445376 0.0017781862 0.0011165328 -0.00036106445 0.0016133095
-5.1758293e-06 -0.0006085773 0.0019007429 0.00056919456 0.0017371741 -0.00034127093 0.00045702388 -0.0014449125
0.0009526394 -0.001231446 0.0007537587 0.0014709932 -0.00049420766 -0.000517782 0.0013526736 0.0019718702
0.00022632457 -0.00029270793 -0.0017678755 -0.00036742308 -0.0005205181 -0.00027943184 -0.0008659451 0.00050013495
0.00018467617 0.00010112763 -0.0016648412 0.0016646398 -0.0006571975 -0.0017038189 0.0012597671 0.0015035187
0.0006331237 -0.00023390414 -0.0011563567 -0.0007735336 -0.00072725513 -0.00029982353 0.00073823816 -0.0013492757
0.0007382234 0.00050637603 -0.0009470113 -0.0010067463 -0.0019373883 0.00057818246 -0.0012039421 -0.0014354342
-0.0018957349 -0.0012944301 0.0004503055 0.0013718302 -8.3361156e-05 0.0012426442 0.00066493277 -0.0010240572
-0.00027759004 0.0010192867 -0.0018352974 0.00035350278 -0.0010360146 0.00016733551 0.0017720012 0.00019248987
0.0003855627 0.0016358917 -0.0005681925 0.00036172892 -0.0017558738 0.0013128116 -0.00064786104 -0.0015449348
-0.00073666597 0.0015771661 -0.0019148071 0.0005580712 -0.000983331 -0.0016636993 0.00062965014 -0.0017372776
-0.0010341082 0.001374949 0.0018424093 -0.0010063625 0.0013240875 -0.0017020283 -0.0010187469 0.0009815793
0.0011592568 0.0014962901 -0.00025086594 0.0009805005 0.00024585106 -0.00054540375 0.0018508891 -9.541655e-05
0.0006608179 -0.001559269 -0.0018696846 -0.00014948727 0.00042078568 0.00090010074 -0.00049275614 0.0007377551
0.0015511013 0.0010511623 -0.00033124068 -0.0017216838 -0.0015285827 -0.00051012303 0.00076205854 -0.00044405964
-0.00013936782 -0.0014439381 0.0015953842 -0.001080811 0.00024186159 -0.0016656695 0.0019177746 -0.0008387337
00000000: 5b04 74b9 fc18 98ba f44c c5ba 9ea9 623a
00000010: 674e d7b9 cf3f c83a b73b 0539 73ab 9cba
00000020: b391 d4b9 3ab4 1838 cb67 543a 712f b63a
00000030: 17dd ffba a927 c6ba afbd c9ba 6f72 feb9
00000040: cb72 b53a b196 a239 1d78 13ba be8a 01bb
00000050: b9d2 b839 3a51 983a afc1 33ba 9c14 8a3a
00000060: c1a4 783a 46ea 87b9 fac2 1a3a d698 77ba
00000070: d279 fe3a 6b66 2c3a b56a 1dba 466e d3b9
00000080: 55ff 523a ad9e 4a3a 5f46 7aba 1e96 02bb
00000090: f817 0dba a886 9038 3441 00bb 50cb 223a
000000a0: 6386 ae3a 09b0 98ba 219e c93a d17a 10ba
000000b0: a224 c8ba 34bf 903a ee93 e7ba 7b28 a039
000000c0: cb57 6c3a 0576 4239 778e aa3a de53 843a
000000d0: b904 e1ba 3616 3339 f261 f03a 84aa f3ba
000000e0: b9e6 7b39 96ff fd3a deac e6b9 770f abba
000000f0: 05ac f03a 3646 edb9 aad3 9dba b93c eeba
00000100: 6141 d239 40e4 bf3a b76b 58b9 3e56 8839
00000110: 9c4f 9a3a 36fc c53a eac6 933a f02d 413a
00000120: 4fa8 753a bf8f dfba 5b15 af3a 6f70 313a
00000130: bf6b 85ba 7388 a8ba cbe8 d73a 0546 913a
00000140: 6793 a43a 3cdc c9ba 7e8b b93a 4c31 84ba
00000150: 8c22 843a 4248 063a ece5 b339 fd95 53ba
00000160: 8e5f 2339 847d 99ba 095b d7ba 7994 9cba
00000170: 1b1f feb9 b530 cc39 7e41 3aba c1d9 afba
00000180: 13f5 32ba a43c aab9 7df7 b6b9 3c6f 9db8
00000190: 84c8 c03a b31d ee3a 6924 d1ba 8cf9 8c3a
000001a0: 92a6 b5ba 7146 adba fa30 0cba 1fc3 853a
000001b0: afa7 283a 6ffa 9cb9 5da1 8cba 447d 683a
000001c0: 05f2 be3a b174 40ba b18c 9aba bbf9 cc39
000001d0: b3f5 e439 bd64 0639 0f2d 9536 2802 d23a
000001e0: 2222 003b b532 c53a b5e8 0fba 7516 adba
000001f0: 578a 273a 79f1 50b9 daa8 7fba de72 1dba
00000200: 4692 553a 7e04 bfba f0f5 5f3a a68f 2bba
00000210: 0712 e93a a058 923a 404d bdb9 af75 d33a
00000220: 09ac adb6 ee88 1fba 5922 f93a 0036 153a
00000230: e4b1 e33a 9cec b2b9 b59c ef39 3863 bdba
00000240: 8cba 793a 7968 a1ba e497 453a 57ce c03a
00000250: b78d 01ba c3bb 07ba 324c b13a 7e3a 013b
00000260: 8a51 6d39 9876 99b9 0fb8 e7ba b1a2 c0b9
00000270: 6173 08ba b580 92b9 9800 63ba 7d1b 033a
00000280: a2a5 4139 7c14 d438 cd36 daba 0b30 da3a
00000290: c747 2cba ad52 dfba c51e a53a b711 c53a
000002a0: 36f8 253a 2a44 75b9 e490 97ba f6c6 4aba
000002b0: 44a5 3eba a231 9db9 5386 413a 2eda b0ba
000002c0: 5585 413a 52be 043a da40 78ba cdf4 83ba
000002d0: f7ef fdba 2b91 173a 98cd 9dba 2e25 bcba
000002e0: 4f7a f8ba dea9 a9ba fb16 ec39 fcce b33a
000002f0: 2ed2 aeb8 38e0 a23a e24e 2e3a a839 86ba
00000300: 8189 91b9 9699 853a 5d8e f0ba 5756 b939
00000310: e2ca 87ba c976 2f39 7e42 e83a 1bd7 4939
00000320: 5925 ca39 6b6b d63a c1f2 14ba 6fa6 bd39
00000330: 5925 e6ba a612 ac3a 38d5 29ba 697f caba
00000340: d11c 41ba eab8 ce3a 44fa faba 864b 123a
00000350: 1de3 80ba 7c10 daba 1b0f 253a 5db5 e3ba
00000360: ea8a 87ba a237 b43a ff7c f13a ece7 83ba
00000370: 018d ad3a 9816 dfba 7987 85ba 56a8 803a
00000380: 34f2 973a 2a1f c43a a886 83b9 2384 803a
00000390: 92e5 8039 6df9 0eba 8899 f23a 5f1a c8b8
000003a0: bd3a 2d3a 6360 ccba 3410 f5ba afbf 1cb9
000003b0: e69c dc39 bdf4 6b3a 4e2c 01ba e865 413a
000003c0: 534e cb3a 27c7 893a 5faa adb9 1faa e1ba
000003d0: b95a c8ba c7b9 05ba e2c4 473a add0 e8b9
000003e0: 4423 12b9 8642 bdba 361c d13a 00aa 8dba
000003f0: 3a9c 7d39 9852 daba d65d fb3a 77de 5bba

fc.weight f4 [1, 30]
-0.034818467 -0.046555057 -0.025942342 -0.019976925 -0.048719425 -0.04431236 -0.04818971 -0.026966646
-0.04703679 0.07218086 0.049461477 0.04412578 -0.068908066 0.046912376 -0.04606372 0.035194222
0.05014108 -0.0153049985 -0.048204623 -0.04807852 -0.015185541 0.023790814 0.048159122 0.050003868
0.005947982 0.04808356 -0.04804693 0.048430506 -0.06520515 -0.018927256
00000000: cf9d 0ebd 84b0 3ebd 0985 d4bc a6a6 a3bc
00000010: 058e 47bd e180 35bd 9362 45bd 28e9 dcbc
00000020: a6a9 40bd 8fd3 933d 1e98 4a3d 3cbd 343d
00000030: ac1f 8dbd 3127 403d 50ad 3cbd d127 103d
00000040: bc60 4d3d d1c1 7abc 3672 45bd fbed 44bd
00000050: c6cc 78bc f4e4 c23c 8042 453d dbd0 4c3d
00000060: 4ae7 c23b 44f3 443d dccc 44bd 115f 463d
00000070: 478a 85bd 550d 9bbc
