models/lstm_pure_seed_123.pt (torch, 50962 bytes, 5 tensors)

lstm.weight_ih_l0 f4 [120, 4]
0.041321225 0.12726995 0.060897786 0.19872324 0.099938676 0.13612963 0.1355821 0.26931074
0.0016281806 -0.2652915 -0.0035546478 -0.18950556 0.0028603505 -0.26629582 -0.011288377 -0.18817009
0.068568744 0.14112969 0.16534805 0.2814976 0.003539743 -0.26671705 -0.010649317 -0.1886995
0.0029686945 -0.26956508 -0.0072992826 -0.18922898 0.10261829 0.13647929 0.14562328 0.2683842
0.0057934807 -0.2668303 -0.0037200963 -0.1907451 0.10347653 -0.026902711 0.11750346 0.051658783
0.0015972968 -0.26869866 -0.010988574 -0.18918937 0.0074082087 -0.26605856 -0.004055144 -0.19089198
-0.0011130922 -0.26414415 -0.0053959964 -0.18850327 -0.122223414 -0.28024745 -0.009980824 0.06410351
-0.08822583 -0.10934311 -0.14033242 -0.030153243 -0.2729016 -0.5465178 -0.11106596 -0.39147726
-0.016211435 -0.20556271 -0.012808114 -0.12858663 0.05892217 0.12521465 0.043371696 0.22997011
-0.13284312 -0.20759334 -0.15285333 -0.103415325 0.062236644 0.15201652 0.039772775 0.31804717
-0.13840418 -0.24281397 -0.15850121 -0.12667517 0.0069692624 0.1686515 -0.047985014 0.35807735
-0.015055221 -0.19977757 -0.013381064 -0.12374102 -0.00079024676 -0.2667705 -0.0056623584 -0.18679099
0.023507165 0.16259071 -0.023120226 0.3387121 -0.14723422 -0.2780841 -0.18260908 -0.13478199
0.18540083 0.109802544 0.03078098 0.19373107 0.002493306 -0.26656455 -0.0020393746 -0.19084361
-0.14998053 -0.35208738 -0.14863649 -0.17759581 0.160923 0.09730998 0.02237364 0.19039562
-0.00010234844 -0.0016610759 -0.0008808602 -0.0013618197 0.0004437922 -0.0012557993 0.001028605 -0.002059439
-0.00018746918 -0.00019144766 0.0019194259 -0.0013672595 -0.0015501073 -0.00053966156 0.0016490754 0.00036253745
0.00066903234 -0.0017056747 0.0017948389 0.0012219206 -0.00035537005 -0.0019809464 -0.0009811373 0.0013331176
0.0021952956 0.00038619046 0.001303414 -0.0016350384 5.4320266e-05 -0.00059302157 -0.0014465492 0.00055312266
0.0019601325 -0.0021098456 0.0011338252 -0.0013068798 -0.0007147228 -9.110184e-05 -0.0016304067 -0.0007738727
-0.00036391572 0.00012292108 0.0009299506 -0.0010011721 5.4639397e-05 0.00030386713 0.0015646107 -0.0021622414
0.0013090051 -0.00051180954 -0.0015348858 7.587966e-05 -0.0016645383 0.00058523193 0.0014343832 0.0015684471
-0.00063476997 -0.0013484708 0.0011267778 0.002117724 0.00074355316 -0.0012676126 0.00088277523 -0.0021825572
-0.0019372525 -0.0013278681 -0.0015075287 -0.0008425328 0.0014974597 -0.00025915165 -0.00096965075 0.0014062544
-0.0019608059 -0.0019440255 -7.49561e-05 0.001728161 -0.0009743011 0.0010143319 -0.0015606189 0.0011065238
-0.00083548494 0.0010567836 -0.00062172976 0.0016720284 0.0007860064 -0.0016274549 0.0015287369 -0.0016734201
-0.00041377265 0.0010438066 -0.002154038 0.0019429624 -0.00029849124 -0.0007069672 -0.0020811472 -0.001648295
7.699805e-05 -0.001798275 0.00026096153 0.0016398993 7.798585e-07 -0.0014804316 -0.0009708082 0.00033001808
-8.5810396e-05 0.0019289008 0.0014093108 -0.001239539 -0.00021332303 0.0006535204 -0.00039792084 -0.00028759052
-0.001309363 -0.0018044752 -0.0018833799 0.0011331297 -0.001453501 0.00025025016 0.0016834012 -0.00060285896
0.104786485 -0.20717835 0.0435541 0.1339813 -0.0011623902 0.29394826 -0.01799199 -0.20792542
-0.065094896 -0.27695912 -0.023175338 -0.10388752 0.06248833 0.28133008 0.025530713 0.10055221
00000000: 7240 293d 0e53 023e f56f 793d 1b7e 4b3e
00000010: a6ac cc3d 9165 0b3e 09d6 0a3e 19e3 893e
00000020: ad68 d53a 4ad4 87be 18f5 68bb bf0d 42be
00000030: b874 3b3b ed57 88be e3f2 38bc a9af 40be
00000040: c56d 8c3d 4d84 103e 0051 293e 7420 903e
00000050: 08fb 673b 238f 88be 797a 2ebc 713a 41be
00000060: 6e8e 423b 6f04 8abe d22e efbb 3ec5 41be
00000070: 8a29 d23d 3ac1 0b3e 451e 153e a769 893e
00000080: 3dd7 bd3b fb9d 88be dccc 73bb af52 43be
00000090: 81eb d33d 1363 dcbc a7a5 f03d 2998 533d
000000a0: 635c d13a df92 89be 6b09 34bc dcba 41be
000000b0: 8fc0 f23b d438 88be 03e1 84bb 3079 43be
000000c0: 2de5 91ba e73d 87be e6d0 b0bb 0007 41be
000000d0: 4550 fabd 987c 8fbe 9c86 23bc b348 833d
000000e0: beaf b4bd 48ef dfbd 4db3 0fbe ef03 f7bc
000000f0: c2b9 8bbe 97e8 0bbf 8d76 e3bd b56f c8be
00000100: d8cd 84bc 087f 52be 20d9 51bc 37ac 03be
00000110: 6058 713d 4538 003e 85a6 313d 497d 6b3e
00000120: 0708 08be 5993 54be 9585 1cbe 6acb d3bd
00000130: daeb 7e3d 38aa 1b3e c7e8 223d 14d7 a23e
00000140: d3b9 0dbe 3aa4 78be 244e 22be 23b7 01be
00000150: 695e e43b fbb2 2c3e ef8b 44bd ea55 b73e
00000160: 2caa 76bc 7e92 4cbe 403c 5bbc ef6b fdbd
00000170: 9028 4fba 2596 88be 4e8b b9bb 2346 3fbe
00000180: 1992 c03c 2e7e 263e a166 bdbc ac6b ad3e
00000190: 91c4 16be 0a61 8ebe e0fd 3abe 4a04 0abe
000001a0: b7d9 3d3e 28e0 e03d 6528 fc3c 7061 463e
000001b0: bc66 233b 267b 88be 07a7 05bb 826c 43be
000001c0: 7f94 19be cc44 b4be 2a34 18be addb 35be
000001d0: 00c9 243e 744a c73d ed48 b73c 12f7 423e
000001e0: e6a3 d6b8 75b8 d9ba 87e9 66ba 167f b2ba
000001f0: c8ac e839 a299 a4ba 42d2 863a a7f7 06bb
00000200: 6093 44b9 57bf 48b9 3f95 fb3a 9e35 b3ba
00000210: f82c cbba 1378 0dba ca25 d83a f412 be39
00000220: 0062 2f3a f290 dfba cd40 eb3a da28 a03a
00000230: f650 bab9 c4d2 01bb 8199 80ba 01bc ae3a
00000240: f3de 0f3b 9b79 ca39 51d7 aa3a c94e d6ba
00000250: f1d5 6338 0175 1bba 239a bdba 6fff 103a
00000260: 9175 003b 5645 0abb dc9c 943a 9c4b abba
00000270: 3c5c 3bba ee0d bfb8 5fb3 d5ba b8dd 4aba
00000280: f1cb beb9 60e4 0039 eec7 733a c339 83ba
00000290: 9b2c 6538 5b50 9f39 a013 cd3a 64b4 0dbb
000002a0: ec92 ab3a f52a 06ba 392e c9ba 9521 9f38
000002b0: a32c daba 406a 193a ea01 bc3a 5a94 cd3a
000002c0: b166 26ba 2cbf b0ba 64b0 933a 83c9 0a3b
000002d0: 02eb 423a 0526 a6ba 0b6a 673a 3c09 0fbb
000002e0: 68eb fdba dc0b aeba 4598 c5ba 6bdd 5cba
000002f0: 6946 c43a bfde 87b9 2930 7eba 1152 b83a
00000300: dd80 00bb acce feba c031 9db8 7683 e23a
00000310: 3d68 7fba 55f3 843a ae8d ccba c708 913a
00000320: 7204 5bba c683 8a3a 94fb 22ba f727 db3a
00000330: ff0b 4e3a 5350 d5ba e65f c83a a956 dbba
00000340: a0ef d8b9 56d0 883a c32a 0dbb 00ab fe3a
00000350: d17e 9cb9 c453 39ba db63 08bb 9a0b d8ba
00000360: 037a a138 19b4 ebba aad1 8839 e4f1 d63a
00000370: 7857 5135 0b0b c2ba d67d 7eba 4706 ad39
00000380: 1bf5 b3b8 2cd3 fc3a a0b8 b83a 0778 a2ba
00000390: 77af 5fb9 0351 2b3a 08a0 d0b9 bfc7 96b9
000003a0: ef9e abba 2484 ecba bedb f6ba 8685 943a
000003b0: 6783 beba 0234 8339 92a5 dc3a 2e09 1eba
000003c0: 4c9a d63d 9026 54be c965 323d 6532 093e
000003d0: 585b 98ba 6380 963e f063 93bc 67ea 54be
000003e0: 7950 85bd 96cd 8dbe 35da bdbc fbc2 d4bd
000003f0: c3f3 7f3d 7f0a 903e c925 d13c 51ee cd3d

lstm.weight_hh_l0 f4 [120, 30]
-0.00084267475 -0.00043762662 -0.000126086 0.001811441 -0.0007500153 -0.00010322667 -0.0011250222 0.0018599867
-0.0019848906 0.0008478747 0.0018776411 -0.0012290038 0.001715551 0.0005435157 0.0018308505 -0.0002811022
-0.0014430779 -0.00062558346 0.0010743163 0.0006788166 -0.0002713523 -0.0005282996 0.00029355718 -0.00053684454
-0.0017069179 0.0019260908 -0.0011032424 -0.0015883179 0.000687501 -0.00086781604 -0.0019426013 -0.00048809173
-0.00053289987 0.0003790431 0.00031504204 -0.0018019364 -0.0011597653 -0.00035897543 0.00076618034 0.00024081756
-0.0003813367 -0.0013389548 -0.00084571366 0.0016702565 -0.0003405831 0.0012435854 -0.0005384765 -4.5475248e-05
0.00026985767 -0.0019492899 0.0007937694 0.0016936191 -0.0015995227 -0.000899586 0.0014617292 0.00034358646
-0.0010308004 -0.0007474852 0.00014567329 0.0010023792 0.0007781482 0.0004690695 0.00090447976 0.0017744793
0.00071089866 0.001837345 -0.00042566517 -0.0017858094 -0.00047087457 -0.0019410566 -0.0017451586 0.0015861982
-0.0012646638 0.00151747 -0.0003498018 -0.00016813542 0.00060791423 -0.0016722401 0.00047672394 0.0008289731
0.0017161375 0.0017657143 0.0012308887 -0.001849655 0.00090145046 0.0016240256 -0.0017246226 0.00066321925
-0.0015844568 -0.0010436488 0.000102309474 -0.0010492688 -4.780698e-05 -0.0016642972 0.0007959612 -0.0011199332
0.00042975618 0.000462636 -0.00020097257 -0.00062758307 -0.0018982018 0.0012095841 0.00060669327 -0.0013251791
0.0011071899 0.00066329434 -0.00022306634 -0.0017003103 0.0011683825 0.00040031315 0.0019741522 -0.0014123893
-0.00026139498 -0.0016013525 -0.0014902304 -0.00038920977 0.0013742779 0.0017753022 0.0015232967 -0.0006226027
-0.0012647359 -0.00087412505 0.0014507952 0.0013061202 0.0018262251 -0.0011214748 -0.0010674541 0.0009156943
0.0009411059 -0.000654135 0.0019602168 0.0007113152 -0.00068640354 -0.0016800557 -0.000687141 0.00088153937
0.00083162525 0.0014386526 -0.0018529037 -0.00071232754 0.00103908 -0.0017124964 -0.001202523 -0.00068639213
-0.0007499359 -0.0012159518 0.0016794099 -0.00083395414 0.00028623798 0.0013939627 0.00037231925 0.0005272696
0.00057670026 -0.00068869453 0.0017881786 -0.0012460285 -0.00032061245 -0.0018625277 0.000827184 -0.00094637874
0.00053558545 0.0012078808 -0.00038931824 0.001975563 0.0019687058 -0.0012813904 -0.0018536382 -0.0010382248
-0.00028465988 0.0014317697 0.00023077965 -0.0013022652 -0.00045823457 -0.0018807801 0.0017843586 0.0008172684
0.00020634771 8.2566745e-05 -0.00066097383 0.0017058646 0.0007096577 0.00031722643 -0.0011962408 0.0016503442
0.0005811615 0.001248884 0.0016227225 0.0013214618 -0.0018748044 0.0015933454 -0.001910005 -0.0013271082
-0.0013393345 -0.000303041 0.0013838101 -0.0011626561 0.0016411185 0.001600791 -0.00085886795 -0.00097363716
-0.0009275325 -0.0004174316 0.00010805774 -7.248021e-05 -0.00061036163 -0.001347446 0.00070764736 0.0018208202
0.0010487004 0.0019490873 0.001998174 0.0018230916 0.0014321462 0.0005812464 0.0012368325 -0.00046617558
0.0014308072 -0.00024190618 0.00022409417 -0.0016855724 -0.0012807536 -0.0012277501 -0.0010557375 0.00030774498
-0.00090368895 0.00038797167 0.0019002727 0.001954409 0.0015736595 0.0019811285 -0.0014443205 -0.00038955762
-0.00112955 -0.0016367858 -0.00024044896 0.00079777744 0.0019614066 -0.00048492578 -0.00091398123 0.0013371607
0.0009497521 -0.0010917247 -0.00017773891 -0.00045218566 -0.0017859455 0.0017546547 0.0012762357 0.0013510638
-0.0016146625 -0.0015427417 -0.0018889437 -0.0010114264 0.0005362599 0.0019241698 0.0014593733 -0.0014996298
00000000: f2e6 5cba 4071 e5b9 f435 04b9 e06d ed3a
00000010: ad9c 44ba 657b d8b8 7b75 93ba ccca f33a
00000020: f014 02bb e843 5e3a 2e1b f63a 8616 a1ba
00000030: 57dc e03a b97a 0e3a 26f9 ef3a e660 93b9
00000040: a925 bdba 32fe 23ba 13d0 8c3a 9cf2 313a
00000050: 4a44 8eb9 967d 0aba 94e8 9939 07bb 0cba
00000060: a9ba dfba e274 fc3a ac9a 90ba 1b2f d0ba
00000070: 6939 343a 267e 63ba e29e feba 90e6 ffb9
00000080: 4eb2 0bba 4eba c639 3a2c a539 f42e ecba
00000090: 4403 98ba de34 bcb9 7ed9 483a f983 7c39
000000a0: 25ee c7b9 de7f afba e2b2 5dba 82ec da3a
000000b0: 4a90 b2b9 cdff a23a 8c28 0dba adbc 3eb8
000000c0: af7b 8d39 517f ffba f614 503a 6dfc dd3a
000000d0: 13a7 d1ba 32d2 6bba 7e97 bf3a 6523 b439
000000e0: ec1b 87ba e2f2 43ba e0bf 1839 4462 833a
000000f0: a4fc 4b3a 71ed f539 9c1a 6d3a a595 e83a
00000100: 9a5b 3a3a 11d3 f03a d02b dfb9 d211 eaba
00000110: b7df f6b9 0d6b feba cebd e4ba fbe7 cf3a
00000120: 13c3 a5ba d8e5 c63a 9a65 b7b9 824d 30b9
00000130: 6f5c 1f3a 112f dbba cef0 f939 714f 593a
00000140: 05f0 e03a 8a6f e73a c555 a13a 1f70 f2ba
00000150: 514f 6c3a 42dd d43a bb0c e2ba e4db 2d3a
00000160: 8cad cfba 0bcb 88ba fb8e d638 9e87 89ba
00000170: 5b84 48b8 8c24 daba 0da8 503a b9ca 92ba
00000180: e650 e139 f48d f239 2abc 52b9 6384 24ba
00000190: 15cd f8ba e88a 9e3a 7f0a 1f3a a2b1 adba
000001a0: 211f 913a eee0 2d3a eae6 69b9 f2dc deba
000001b0: 6924 993a 1fe1 d139 c760 013b ec1f b9ba
000001c0: d70b 89b9 79e4 d1ba d653 c3ba da0e ccb9
000001d0: 1d21 b43a 42b1 e83a 5ba9 c73a 2936 23ba
000001e0: 7fc5 a5ba 8a25 65ba 9c28 be3a 1f32 ab3a
000001f0: f25d ef3a 73fe 92ba d1e9 8bba 340b 703a
00000200: 8cb4 763a 427a 2bba fb76 003b 8e77 3a3a
00000210: c3ef 33ba 5135 dcba 4021 34ba 1b17 673a
00000220: 6d01 5a3a 2c91 bc3a 22dd f2ba 7ebb 3aba
00000230: bd31 883a d875 e0ba fa9d 9dba ffee 33ba
00000240: 5997 44ba 9260 9fba a51f dc3a b79d 5aba
00000250: 3612 9639 a0b5 b63a d833 c339 7738 0a3a
00000260: b32d 173a 8289 34ba 5161 ea3a c751 a3ba
00000270: e017 a8b9 0f20 f4ba 61d7 583a 6716 78ba
00000280: 8866 0c3a c151 9e3a 691d ccb9 7278 013b
00000290: 6705 013b 54f4 a7ba c7f5 f2ba 0b15 88ba
000002a0: 673e 95b9 38aa bb3a 71fd 7139 c5b0 aaba
000002b0: 343f f0b9 8284 f6ba 24e1 e93a f43d 563a
000002c0: 0b5f 5839 af27 ad38 3445 2dba 5197 df3a
000002d0: 5208 3a3a 6951 a639 2ecb 9cba 5d50 d83a
000002e0: 1759 183a 98b1 a33a 88b1 d43a e634 ad3a
000002f0: ffbb f5ba cdd7 d03a 2259 faba 5df2 adba
00000300: 9c8c afba 79e1 9eb9 f660 b53a 4464 98ba
00000310: cd1a d73a a2d1 d13a a725 61ba af3b 7fba
00000320: a725 73ba b9da dab9 0f9d e238 8400 98b8
00000330: ad00 20ba c99c b0ba 6981 393a 96a8 ee3a
00000340: 8c74 893a 8478 ff3a ccf3 023b cef4 ee3a
00000350: dab6 bb3a c95e 183a 361d a23a 0769 f4b9
00000360: ec89 bb3a 32a8 7db9 d2fa 6a39 6dee dcba
00000370: f6de a7ba 75ec a0ba ac60 8aba d558 a139
00000380: 8ae5 6cba ad68 cb39 9212 f93a 8b15 003b
00000390: 4043 ce3a d2d5 013b 5b4f bdba 8a3d ccb9
000003a0: 690d 94ba 6b89 d6ba 0721 7cb9 f021 513a
000003b0: f18a 003b a33d feb9 3e98 6fba ab43 af3a
000003c0: c9f8 783a 3418 8fba 6d5f 3ab9 5513 edb9
000003d0: 6316 eaba 71fc e53a 5d47 a73a 2e16 b13a
000003e0: 15a3 d3ba d235 caba 6f96 f7ba d791 84ba
000003f0: cb93 0c3a 6d34 fc3a 7148 bf3a 3a8f c4ba

lstm.weight_ih_l1 f4 [120, 30]
-0.16413008 0.1601269 0.17465109 -0.1744682 -0.16375342 0.17353822 0.17387603 0.15553167
0.17598255 0.045525108 0.17473394 -0.17759416 0.17392291 0.17743559 0.1533217 0.58741635
-0.15394086 0.16180563 -0.21191344 0.1731069 -0.2264351 0.20031199 -0.14698033 -0.17426105
-0.19003336 0.27007315 -0.150989 -0.17860177 -0.28929484 -0.1452669 -0.16094173 0.15296166
0.17348856 -0.17441735 -0.15638515 0.17109907 0.17233473 0.14847256 0.17364821 0.043686897
0.17462939 -0.17579485 0.17334148 0.17392705 0.16379954 0.59098727 -0.15190582 0.1531162
-0.2213742 0.16420968 -0.23575677 0.1918183 -0.14836052 -0.17201649 -0.18124698 0.28103173
-0.14742734 -0.17320982 -0.28458345 -0.13753688 -0.21694122 0.28479022 -0.12999874 0.17010461
-0.2639418 -0.16786234 -0.16991612 0.2546504 -0.1685717 -0.036405474 -0.16802217 0.1685096
-0.1215122 -0.015801167 -0.17631717 -0.17217924 0.11662532 0.23652175 0.16462687 0.29737493
0.15461613 0.279687 0.12240762 0.16915576 -0.27449587 -0.15718043 -0.23776421 0.17085199
-0.033990223 -0.23690084 0.049804203 0.019003257 0.3093854 -0.26726958 -0.025220783 0.26825342
0.26944083 0.007238557 0.2776044 0.115016185 0.26887587 -0.2746644 0.30942267 -0.015941365
0.17076339 0.104696855 -0.29469642 -0.055924885 -0.14283262 -0.034341235 -0.14654285 -0.13743664
-0.295168 -0.27083853 0.11550053 0.1233741 0.022922127 -0.27783972 0.2560683 0.022792522
-0.20592605 0.26323566 -0.16199927 0.20850691 -0.24539025 -0.20695356 -0.20603785 0.23556921
-0.20586549 -0.12740067 -0.20841742 0.21001524 -0.15718535 0.11349244 -0.19122313 -0.021509439
0.18568258 0.23238847 0.118707165 0.3162598 0.092923574 0.38439095 0.20039071 0.21160722
-0.35793757 -0.09279182 -0.2121229 0.2072959 -0.28354555 -0.2125732 0.0050840117 -0.021211127
-0.17834638 0.22374922 0.025536345 -0.22460388 -0.221662 -0.0068317796 -0.22153144 -0.023438256
-0.22486138 0.22218405 -0.1741079 0.17308983 -0.19718052 -0.04262039 0.1795982 0.014139397
0.08819919 0.030441739 0.07162236 0.08808029 0.18838356 0.22361515 -0.074084945 -0.051122658
-0.0007965318 0.22167595 -0.32275254 0.00085648714 0.03660674 0.029817782 0.30897108 -0.26642555
-0.03880404 0.26900193 0.26984033 0.02101734 0.27375156 0.11386335 0.2691907 -0.27684388
0.30857748 -0.020724652 0.18503426 0.11063999 -0.29266408 -0.042113367 -0.15147853 -0.013748568
-0.15557145 -0.11018913 -0.2932509 -0.271409 0.090360455 0.13605842 0.007248351 -0.27633205
0.2587583 0.0048522307 -0.22087654 0.21765037 0.16480455 -0.16076086 -0.22074129 0.16126843
0.15972465 0.21224745 0.16113603 0.02995254 0.15862535 -0.16000772 0.16813509 0.21848932
0.08621113 0.5506356 -0.13289051 0.21483065 -0.15300524 0.22791544 -0.17074038 0.2551678
-0.12291752 -0.15713215 -0.24612962 0.2060132 -0.21063475 -0.16050953 -0.3498783 -0.20319007
-0.21939021 0.28577146 -0.16197091 0.20641474 -0.25809252 -0.20598698 -0.20387945 0.27354458
-0.20323703 -0.060973916 -0.20632756 0.20662516 -0.15724681 0.018700093 -0.18015747 -0.118041344
00000000: b711 28be 4ef8 233e bcd7 323e cba7 32be
00000010: faae 27be 01b4 313e 8f0c 323e b243 1f3e
00000020: c534 343e 8978 3a3d 74ed 323e 3edb 35be
00000030: d918 323e adb1 353e 5d00 1d3e eb60 163f
00000040: aca2 1dbe 60b0 253e d6ff 58be ef42 313e
00000050: 9ade 67be 961e 4d3e 0382 16be 7d71 32be
00000060: 1b98 42be 0747 8a3e dc9c 1abe 62e3 36be
00000070: 741e 94be d9c0 14be e9cd 24be fba1 1c3e
00000080: fca6 313e 769a 32be 6e23 20be 9834 2f3e
00000090: 8478 303e 3109 183e d6d0 313e 08f1 323d
000000a0: 0cd2 323e 9103 34be 6e80 313e ef19 323e
000000b0: 11bb 273e f14a 173f 338d 1bbe 7eca 1c3e
000000c0: ebaf 62be 9526 283e 396a 71be 046c 443e
000000d0: d2eb 17be 1725 30be cf98 39be 64e3 8f3e
000000e0: 31f7 16be ea5d 31be ecb4 91be 78d6 0cbe
000000f0: d725 5ebe 06d0 913e 641e 05be e72f 2e3e
00000100: 6123 87be 1be4 2bbe 7efe 2dbe 8a61 823e
00000110: 0f9e 2cbe e81d 15bd 010e 2cbe c88d 2c3e
00000120: 63db f8bd 7371 81bc 7d8c 34be c14f 30be
00000130: 41d9 ee3d c232 723e f293 283e 8741 983e
00000140: b153 1e3e 2233 8f3e d9b0 fa3d 2b37 2d3e
00000150: b98a 8cbe e8f3 20be 7678 73be d3f3 2e3e
00000160: 5539 0bbd 2296 72be 7eff 4b3d b8ac 9b3c
00000170: c367 9e3e 8fd7 88be d19b cebc 8358 893e
00000180: 26f4 893e 6b31 ed3b 2a22 8e3e 9b8d eb3d
00000190: 19aa 893e d0a0 8cbe a66c 9e3e 7797 82bc
000001a0: 99dc 2e3e 4e6b d63d 73e2 96be 7e11 65bd
000001b0: b742 12be 65a9 0cbd 540f 16be 31bc 0cbe
000001c0: 4320 97be 59ab 8abe 8b8b ec3d 8fab fc3d
000001d0: 2fc7 bb3c 0241 8ebe 621b 833e 62b7 ba3c
000001e0: 47de 52be d3c6 863e 23e3 25be d682 553e
000001f0: 9547 7bbe a2eb 53be 96fb 52be 0e39 713e
00000200: 67ce 52be 5275 02be 606b 55be 3c0e 573e
00000210: 32f5 20be b96e e83d ffcf 43be 9034 b0bc
00000220: 9323 3e3e 3ef7 6d3e be1c f33d ceec a13e
00000230: b74e be3d e4ce c43e 3933 4d3e 90af 583e
00000240: 9843 b7be a309 bebd bf36 59be 6045 543e
00000250: e22c 91be caac 59be c897 a63b f5c2 adbc
00000260: 6fa0 36be 841e 653e 9931 d13c 8ffe 65be
00000270: 5dfb 62be 1fdd dfbb 23d9 62be 9601 c0bc
00000280: 1042 66be 3784 633e 5749 32be 763e 313e
00000290: b1e9 49be b892 2ebd 97e8 373e eea8 673c
000002a0: c7a1 b43d f460 f93c beae 923d 7063 b43d
000002b0: 9fe7 403e 5ffb 643e d9b9 97bd fe65 51bd
000002c0: 58ce 50ba 05ff 623e d23f a5be e185 603a
000002d0: f3f0 153d 6c44 f43c 7531 9e3e ee68 88be
000002e0: fcf0 1ebd 9fba 893e 8328 8a3e 8e2c ac3c
000002f0: 2a29 8c3e 3031 e93d 5dd3 893e 7bbe 8dbe
00000300: defd 9d3e bfc6 a9bc 9f79 3d3e 3897 e23d
00000310: 11d8 95be 117f 2cbd 301d 1bbe ac41 61bc
00000320: 1f4e 1fbe d7aa e1bd fb24 96be 1ff6 8abe
00000330: e70e b93d e652 0b3e 9383 ed3b 657b 8dbe
00000340: f87b 843e 76ff 9e3b 762d 62be bddf 5e3e
00000350: 86c2 283e 7f9e 24be 010a 62be 8d23 253e
00000360: dc8e 233e 6557 593e d800 253e 075f f53c
00000370: af6e 223e 10d9 23be 9b2b 2c3e aabb 5f3e
00000380: 768f b03d 74f6 0c3f 7314 08be 91fc 5b3e
00000390: 68ad 1cbe aa62 693e 91d6 2ebe 5ba5 823e
000003a0: 2ebc fbbd 40e7 20be 6709 7cbe 20f5 523e
000003b0: a3b0 57be 9c5c 24be 4023 b3be 0f11 50be
000003c0: d4a7 60be a350 923e b4db 25be 635e 533e
000003d0: b424 84be 40ee 52be c6c5 50be 090e 8c3e
000003e0: 5e1d 50be c9bf 79bd 8847 53be 8c95 533e
000003f0: 4f05 21be f030 993c 337b 38be a9bf f1bd

lstm.weight_hh_l1 f4 [120, 30]
-0.001601802 0.0012782512 -0.0009958068 -0.00070446974 0.0016303309 0.00038704253 0.001975864 0.001730747
0.0014710196 -0.0014550391 0.00024477768 -0.0017760643 -0.0014484583 0.0019107776 -0.0011459948 0.0010065525
0.0003340404 0.0014807297 0.001135171 -0.00095340755 -0.00060701754 0.00017395831 -0.00012373067 0.0010072265
-6.818295e-05 0.0013887385 -0.00077698665 -0.00094112736 0.0013719073 0.00069204596 0.00048018125 0.00022259094
0.0006243651 0.0006896761 1.3832808e-05 0.0016606465 -0.0015271893 -0.0017693716 -0.0013839586 0.00089974265
-0.00022921707 -0.0013514541 0.00022852064 0.00047691585 -0.0006921862 -0.0013535455 0.00072648766 0.0001005745
-0.0010517493 -5.7542326e-05 0.0007890406 0.00015559721 0.0010172477 0.00016087008 -0.0018733023 -0.0014278651
0.0018912562 0.00034385922 -0.0018584991 -0.0014521702 -0.0018102373 -0.0013137518 0.00046182633 -0.0012374688
-0.0019120157 0.00030193472 0.0016254536 0.00058702566 0.0012079222 -0.0014852842 -0.0017001919 0.0009797545
-0.00014294148 -0.00010676766 -0.0014368735 0.00065493135 0.0009880534 0.0010617423 -0.00038534857 0.0014396007
-0.0014084845 -0.0016419917 -0.00078715116 -0.0018292385 -0.0012295261 -0.0013686257 -0.0011351948 0.0018186611
-0.0019468411 0.0010287104 -0.0018383609 0.001644139 0.0018655434 -0.0013949669 0.0017514089 0.00044256856
0.0018035453 0.0009994145 0.00081187516 0.0009138248 -0.001375573 0.0009201434 -0.00033041526 0.0017471324
-0.0009280534 0.0007843478 -0.0016355541 -0.001661033 -0.00081397465 -0.0012315138 -0.00074754836 0.0012206307
-0.0007759188 0.0012177475 0.0014839187 -5.374718e-05 -0.0019363865 0.00071948365 -0.00068429543 -0.00034946372
0.001140313 2.6431562e-05 -0.0010090483 -0.0009884973 -0.0014702363 -6.746626e-05 -0.00024041774 -0.0008666699
-0.0016360603 0.00054378394 -0.0019276141 -0.001730033 0.0004908009 -0.00030068922 -0.0018092375 0.0010576478
-0.00019498302 -0.0004944103 0.0008067105 0.0009869373 0.0002811587 0.0007571838 0.0015834456 -0.0003233681
-0.00092307857 -0.00051151327 -0.0013437871 -0.0019210833 -7.316685e-05 0.0006246496 -0.0015909323 -0.0010650125
-0.0011881781 -0.0008167956 0.0013099521 -0.0018864619 0.00025122287 -0.00035737111 0.00025085115 0.001147388
-0.00038656953 0.0015574067 0.0011657098 -0.0010104781 0.00071495224 0.0010749736 -0.00017060018 -0.0011014884
0.000714315 -0.00029274178 0.0019719144 0.00044215514 -0.0007027922 -0.0015801252 0.0018123549 -0.0011136329
0.000938577 -0.0014477085 -0.0006968289 -5.6069854e-05 -0.00082642824 -0.00038184333 -8.881617e-05 -0.0009528306
-0.0012034827 -0.0006063943 0.0015642229 0.0016319182 -0.0018353885 -0.0018961194 0.0008645785 0.0010592204
-7.7372555e-05 -1.1674167e-05 0.0018992275 0.0012924755 -0.0018417045 -0.0010284617 0.00034515525 0.0012996786
0.0012141063 0.001178445 0.0013327623 0.0015633713 -0.00154493 -0.00093542173 0.00025903917 0.001601617
-0.00086649734 0.00017687322 0.0019808095 0.0010735326 -0.0012881389 -0.0015178998 0.00018255164 3.5852194e-05
-6.7364694e-05 -0.0015074023 0.0016962093 -0.0009617384 0.0013556696 -0.00065551593 -0.0006926899 0.0011834991
0.0018377815 -0.0008751374 -0.0011824517 0.0009897082 -0.0015208689 -0.0014246415 0.00034216096 -0.00075350504
0.00046512295 0.0008021205 0.0013988689 5.327201e-05 -0.0008479784 -5.832887e-05 0.0005687623 0.0012918535
-0.00046805767 -3.3411743e-05 0.0014289771 0.0012526849 -0.0014981631 0.001580721 0.0012840739 -9.0362795e-05
-0.001607059 0.0001349423 -0.0011343873 0.00030993368 0.00073120213 -0.00027701593 -0.0006888304 -0.00022091079
00000000: 8ef3 d1ba fe8a a73a bb85 82ba 2aac 38ba
00000010: d4b0 d53a f8eb ca39 7f7d 013b 3cda e23a
00000020: 3acf c03a 03b7 beba 8155 8039 d4ca e8ba
00000030: 32da bdba 0f73 fa3a 3435 96ba 4cee 833a
00000040: 2522 af39 0b15 c23a 05ca 943a 19ee 79ba
00000050: 4220 1fba 9468 3639 b3bd 01b9 ea04 843a
00000060: 71fd 8eb8 5506 b63a b1ae 4bba fdb5 76ba
00000070: 92d1 b33a 6b6a 353a d6c0 fb39 4d67 6939
00000080: 6fac 233a 61cb 343a 7513 6837 0daa d93a
00000090: f82b c8ba 42ea e7ba f265 b5ba b5dc 6b3a
000000a0: fd59 70b9 4623 b1ba 0b9f 6f39 900a fa39
000000b0: d473 35ba 7369 b1ba c371 3e3a 86eb d238
000000c0: dada 89ba 9a59 71b8 9ed7 4e3a cf27 2339
000000d0: 2b55 853a 3caf 2839 9889 f5ba 3427 bbba
000000e0: 07e4 f73a 0148 b439 e298 f3ba bf56 beba
000000f0: 7c45 edba 3232 acba 4821 f239 9032 a2ba
00000100: 9a9c faba fe4c 9e39 2c0d d53a a0e2 193a
00000110: 2553 9e3a dead c2ba f9d8 deba 1b6b 803a
00000120: 90e2 15b9 73e8 dfb8 7955 bcba b3af 2b3a
00000130: 9281 813a 292a 8b3a 9c08 cab9 fcb0 bc3a
00000140: e69c b8ba 1938 d7ba d258 4eba 0fc3 efba
00000150: 0d28 a1ba 7563 b3ba d1ca 94ba 2460 ee3a
00000160: 262d ffba cbd5 863a 28f5 f0ba 2680 d73a
00000170: 4085 f43a 52d7 b6ba 888f e53a 8c08 e839
00000180: f064 ec3a c9fe 823a 05d4 543a bf8d 6f3a
00000190: 924c b4ba c735 713a 963b adb9 0900 e53a
000001a0: 9c48 73ba b19c 4d3a 1760 d6ba 05b7 d9ba
000001b0: ea60 55ba bf6a a1ba 1ff7 43ba 92fd 9f3a
000001c0: 0767 4bba d39c 9f3a 0d80 c23a 986e 61b8
000001d0: 59ce fdba bb9b 3c3a 4a62 33ba 3a38 b7b9
000001e0: 8e76 953a 59b9 dd37 0b42 84ba 7790 81ba
000001f0: f2b4 c0ba ac7c 8db8 a518 7cb9 3c31 63ba
00000200: 1371 d6ba b98c 0e3a ffa7 fcba 46c2 e2ba
00000210: 17a9 003a d3a5 9db9 f023 edba c5a0 8a3a
00000220: 5b74 4cb9 509b 01ba 6d79 533a 1f5c 813a
00000230: 7b68 9339 bf7d 463a 9e8b cf3a bb89 a9b9
00000240: c1fa 71ba 1317 06ba 0322 b0ba dccc fbba
00000250: 2771 99b8 86bf 233a d486 d0ba e497 8bba
00000260: a4bc 9bba 3a1e 56ba b3b2 ab3a 2843 f7ba
00000270: 90b6 8339 8a5d bbb9 ac84 8339 f463 963a
00000280: 7cac cab9 e621 cc3a bbca 983a 0572 84ba
00000290: a26b 3b3a 21e6 8c3a 23e3 32b9 d15f 90ba
000002a0: de40 3b3a 237b 99b9 3c3b 013b 0fd1 e739
000002b0: 963b 38ba 341c cfba 8a8c ed3a 52f7 91ba
000002c0: d60a 763a 09c1 bdba 65ab 36ba 8c2c 6bb8
000002d0: a9a4 58ba 2532 c8b9 d142 bab8 61c7 79ba
000002e0: 2ebe 9dba 6ff6 1eba 9c06 cd3a 17e6 d53a
000002f0: 6b91 f0ba 3687 f8ba e2a4 623a 8ad5 8a3a
00000300: 1343 a2b8 2adc 43b7 80ef f83a 4868 a93a
00000310: 5965 f1ba 73cd 86ba f4f5 b439 fa59 aa3a
00000320: a622 9f3a 0d76 9a3a 15b0 ae3a 09ea cc3a
00000330: 407f caba 1737 75ba a6cf 8739 59ed d13a
00000340: a725 63ba 0b77 3939 78d0 013b c7b5 8c3a
00000350: c5d6 a8ba 44f4 c6ba 556b 3f39 0060 1638
00000360: 2546 8db8 0794 c5ba 5753 de3a 2c1d 7cba
00000370: b9b0 b13a eed6 2bba a295 35ba a41f 9b3a
00000380: b7e1 f03a 7a69 65ba 7ffc 9aba 19b9 813a
00000390: e457 c7ba 09bb baba 1164 b339 de86 45ba
000003a0: bfdb f339 6545 523a 405a b73a 6370 5f38
000003b0: de4a 5eba 26a6 74b8 fe18 153a 6953 a93a
000003c0: a365 f5b9 9623 0cb8 844c bb3a 2131 a43a
000003d0: 035e c4ba 3230 cf3a 5f4e a83a 2881 bdb8
000003e0: f4a3 d2ba 4c7f 0d39 b9af 94ba 987e a239
000003f0: 25ae 3f3a 733c 91b9 a092 34ba 4aa4 67b9

fc.weight f4 [1, 30]
-0.086156994 -0.08587151 -0.0502096 0.17951062 -0.05892741 -0.04817674 0.16555962 -0.08348717
0.05461529 0.059092723 -0.0074498854 0.08454094 -0.056017082 0.037171908 -0.08800179 0.050171353
-0.036432367 0.087386735 -0.08812188 0.087313645 -0.061897397 0.05781555 -0.08561143 -0.08559166
-0.03871961 -0.030221535 0.08659007 0.08641814 -0.09562862 -0.08608997
00000000: 1473 b0bd 67dd afbd 95a8 4dbd a2d1 373e
00000010: de5d 71bd f954 45bd 7688 293e 52fb aabd
00000020: 48b4 5f3d 360b 723d 2b1e f4bb cd23 ad3d
00000030: 2b72 65bd 9241 183d 483a b4bd 7a80 4d3d
00000040: 1b3a 15bd d1f7 b23d 3f79 b4bd 7fd1 b23d
00000050: 2088 7dbd 00d0 6c3d 0c55 afbd ae4a afbd
00000060: 7498 1ebd 2793 f7bc 2256 b13d fefb b03d
00000070: f0d8 c3bd f04f b0bd
