models/lstm_residual_seed_789.pt (torch, 51070 bytes, 5 tensors)

lstm.weight_ih_l0 f4 [120, 4]
00000000: c275 1abf 2a58 fd3e 8638 823f 9cfe 37bf
00000010: ef47 12bf cedb 863e fd7a 973f 81f1 14bf
00000020: 8c3a 10bf 63ef da3e e177 883f 72c1 29bf
00000030: 9c25 2ebf 46cf e13e f453 873f 3abd 2dbf
00000040: 60b3 0bbf c57b 1f3f b566 813f c57d 22bf
00000050: bc9c 17bf e605 233f ff89 893f dd90 cbbe
00000060: 15e8 19bf 3554 fd3e 803c 823f 7207 38bf
00000070: 6a88 0cbf dc1f 2d3f 1440 853f cea8 05bf
00000080: ee20 19bf 11b7 223f 300e 8a3f df11 c4be
00000090: 21a7 2dbf 29b8 0d3f 8731 8c3f daf7 14be
000000a0: 07b7 0cbf 38f6 213f 2c02 833f 2596 28bf
000000b0: 9d5c 87bf 9fb7 e73e 3eda 853f d643 2dbf
000000c0: f981 0fbf 2ef6 073f 9ad7 7f3f 5971 3abf
000000d0: d9db 1bbf 502e e53e aaa2 863f 16a6 2cbf
000000e0: 7336 42bf 97a0 e93e 08b3 853f 130e 2dbf
000000f0: 0a75 10bf b271 ac3e 6370 913f 51d9 1abf
00000100: 2af1 23bf 55f5 2d3f 94e4 843f 007f 09bf
00000110: 1422 14bf abfc 023f c2e9 803f f503 3abf
00000120: 3db4 1abf dec6 fe3e e719 823f 1f51 37bf
00000130: 39ed 0dbf cbb1 d33e 4236 8a3f dd00 25bf
00000140: c69b 0fbf 61be 053f 9cbc 813f 7843 33bf
00000150: 1383 0ebf db6b cf3e 270a 8b3f 7362 25bf
00000160: 38e9 09bf 2bf2 003f 208b 7f3f f239 23bf
00000170: 57f5 0bbf 28ae 0a3f a04f 823f e0ce 32bf
00000180: dbe0 12bf c12d 053f dc57 803f f519 39bf
00000190: 30bf 1bbf 0dd5 fc3e e78c 823f 7800 37bf
000001a0: 6e8a 0ebf 195c 2a3f e57d 863f e287 fbbe
000001b0: f437 70bf 80b5 e83e 95fe 853f 9f8f 2ebf
000001c0: 555e 23bf 4300 193f 5463 893f d5ff 79be
000001d0: 9cbf 10bf a539 a43e c491 923f a6c1 18bf
000001e0: 29a0 bb38 e86c ac3a 3a28 0dbb 6b7f 7cb9
000001f0: 669c d938 317d a13a 698e 5bba 0987 4239
00000200: 753d b2ba 67ea 0b3b 6ae4 25ba 7e72 86ba
00000210: d35c fe3a 7194 ae3a 4e30 76b9 5d34 72ba
00000220: a300 0c3b f95a f23a 6c72 c43a 68df 52b8
00000230: 6acb cd3a 540c 9939 35c6 d73a 4af1 88ba
00000240: cae0 7e39 1e27 8938 944b 463a c3a9 4b3a
00000250: 6ac1 f639 df79 d9ba 58bc 0ebb a0b9 91ba
00000260: 0e74 d8ba d4dd fb3a 1646 143a f4b3 93ba
00000270: 1175 fa3a f73a 16ba 21e3 323a 9787 76ba
00000280: e367 4c3a c83b 13ba 6a69 a43a 7828 0ebb
00000290: 7130 ce39 fd30 ea3a 88c4 183a b55a b93a
000002a0: db47 0bbb 9b3c 093b a973 d6ba 0332 c73a
000002b0: 5142 93ba db65 983a 9239 9dba ff20 1d3a
000002c0: d5a4 94ba 146f 78ba 95f0 fdb9 2afd 0b3b
000002d0: 70d7 7f39 f917 c53a 675b 4338 3287 c439
000002e0: 265c 013b 8bdc 51ba 74d1 1f3a 8a6d a3b9
000002f0: ecad bcba 7d67 16ba e618 62ba 0b8d c6ba
00000300: 1c56 1a39 d248 cd3a ba2e 1fba 094d b13a
00000310: 9005 fc3a 843a 5c3a b4b6 a8ba 44c0 87b8
00000320: a20f 04bb d6d8 d3ba 8be4 10b9 3652 e63a
00000330: 9f60 fc39 90e6 37ba 0b10 02ba 7acc aaba
00000340: b347 c039 385b 30ba f07e 8c3a 60c9 cf39
00000350: 38da cf3a 17cc baba 4646 053b e56c 00bb
00000360: d3b7 f13a 37e8 fe39 e878 03bb f197 9fb9
00000370: 4612 023b 8809 993a 37ae feba 3e3a 3539
00000380: 17de 753a 5ca3 0fbb 59b3 6d3a 147e 0f3b
00000390: a37a 963a 5e46 82b9 9e44 a8ba b037 05b9
000003a0: 1efb 9bb9 7bdb 0bba 190c f1ba 9ab9 a6ba
000003b0: 9fcc d3b9 1d28 983a 625f 223a 7e3b f9b9
000003c0: 7429 d63d 11ee 1abf e1e1 03bf b924 213e
000003d0: 62c6 c33c 26e2 26bf 9250 f2be cd5d 6d3e
000003e0: 32f0 5f3d a84b 1ebf 3bcb fcbe 4ef4 393e
000003f0: 6bea 803d e352 1cbf 416b 00bf 8a94 2d3e
-0.60335934 0.49481326 1.01735 -0.7187288 -0.5714101 0.26339573 1.1834408 -0.58181006
-0.56339335 0.42760763 1.0661584 -0.663108 -0.6802614 0.4410345 1.0572495 -0.6786686
-0.5457058 0.6229823 1.0109469 -0.6347316 -0.5922353 0.63680875 1.0745238 -0.3975896
-0.60119754 0.49478307 1.0174713 -0.7188636 -0.5489565 0.6762674 1.041018 -0.522107
-0.5981587 0.6356059 1.078558 -0.38294885 -0.67833143 0.5535913 1.0952615 -0.14547673
-0.5496678 0.63266325 1.0235038 -0.658541 -1.0575138 0.4525728 1.0457227 -0.67681634
-0.560577 0.53110015 0.99938357 -0.72829205 -0.60882336 0.44761896 1.0518391 -0.6744093
-0.7586433 0.45630333 1.0445261 -0.675996 -0.5642859 0.33680493 1.1362423 -0.6048785
-0.6403986 0.6795247 1.0382257 -0.5370941 -0.578645 0.5116679 1.0071337 -0.7266229
-0.6043127 0.497611 1.0164155 -0.71608156 -0.554401 0.41346583 1.0797808 -0.6445444
-0.56097066 0.5224362 1.0135684 -0.70024824 -0.55668753 0.40511975 1.0862473 -0.64603347
-0.5387149 0.5036952 0.9982166 -0.6376029 -0.54671234 0.5417199 1.018055 -0.69846916
-0.5737435 0.5202294 1.0026813 -0.7230523 -0.60838604 0.49381295 1.019925 -0.7148509
-0.55679977 0.6654678 1.050717 -0.49127108 -0.9383538 0.45450974 1.0468317 -0.681879
-0.63815814 0.59766024 1.0733438 -0.24413998 -0.5654237 0.3207523 1.1450734 -0.59670484
8.946687e-05 0.0013155015 -0.002153887 -0.0002408006 0.00010376498 0.0012320635 -0.0008375408 0.00018551586
-0.0013598638 0.0021349431 -0.0006328287 -0.001025751 0.0019406326 0.0013319385 -0.00023478383 -0.000923937
0.0021362684 0.0018490247 0.0014987714 -5.0275965e-05 0.0015700881 0.0002919162 0.0016462269 -0.0010447886
0.00024307068 6.539955e-05 0.00075643626 0.0007769132 0.0004706488 -0.0016592107 -0.0021779742 -0.0011117943
-0.0016514079 0.001921589 0.00056561956 -0.001126884 0.0019108375 -0.00057308323 0.0006824006 -0.000940436
0.0007797463 -0.0005616513 0.0012543623 -0.0021691602 0.00039327473 0.0017867383 0.0005827625 0.0014141413
-0.0021252546 0.0020940665 -0.0016361374 0.00151974 -0.0011234974 0.0011627035 -0.0011995307 0.00059939915
-0.0011340628 -0.0009477001 -0.00048435168 0.0021360614 0.00024398952 0.0015037052 4.6576748e-05 0.00037484762
0.0019738763 -0.0008005581 0.00060965796 -0.00031171396 -0.0014395094 -0.0005737467 -0.0008624926 -0.0015148235
0.00014718663 0.0015661961 -0.00060723315 0.0013526987 0.0019227732 0.00084010535 -0.0012871833 -6.473114e-05
-0.002015092 -0.0016162645 -0.00013818049 0.0017572108 0.00048137174 -0.00070152525 -0.0004961497 -0.001303091
0.00036674514 -0.000672746 0.0010718983 0.00039632153 0.0015857881 -0.0014251497 0.0020336076 -0.0019596156
0.0018441625 0.0004861967 -0.002006108 -0.00030440048 0.0019847318 0.0011675814 -0.0019430582 0.00017283202
0.0009379102 -0.0021917438 0.00090675574 0.0021895217 0.001148064 -0.0002484796 -0.0012837832 -0.00012704614
-0.00029751 -0.00053351343 -0.0018390446 -0.0012720108 -0.0004039751 0.0011608634 0.0006194023 -0.00047537306
0.10457125 -0.6051951 -0.5151654 0.15736665 0.023898307 -0.65188825 -0.47327095 0.23180313
0.054672427 -0.6183419 -0.49373803 0.18159601 0.06294712 -0.61063975 -0.50163656 0.16951194

lstm.weight_hh_l0 f4 [120, 30]
00000000: 19e3 023b b580 7ab9 f7e0 7f3a 6b4a f6ba
00000010: 8aad a63a c97e 413a e6e0 fd3a 387c f63a
00000020: 800a de38 fcb1 8a39 fce0 a33a ee66 c33a
00000030: 9248 893a 7b25 86ba 1311 e63a 0037 95ba
00000040: 89b6 003b 61d9 af3a 76e6 fd3a 4801 5bb8
00000050: bdec 9339 8ab8 edba eaa9 93ba 3907 03bb
00000060: 4c1b d4ba e242 6439 3ebd c83a d72d 02bb
00000070: fe62 05ba 0f4d f9ba 4069 d3b9 6b54 43ba
00000080: 92f1 043a 176e e83a b3f5 5bba 8acb 0d3a
00000090: 61a3 333a 4bdc 793a 6bc3 89ba 344b aab9
000000a0: 0d1a 583a d288 d3ba b3d9 3dba 5bc5 ad3a
000000b0: f411 20ba 783e f5b8 5dc6 e93a 8a63 b0ba
000000c0: 4ee8 003b 5d69 3dba c537 d3ba 9260 fb3a
000000d0: d321 9d3a 8ccc 1939 2898 bf3a c95e d53a
000000e0: f43f 5dba 0d96 5dba c18c 7a3a 6fea 99ba
000000f0: fc99 15b9 7780 c83a f0c2 c6ba 4f8d faba
00000100: 8e63 a63a 15ee afb9 6fb7 c6ba 05e0 73ba
00000110: 136f f7b9 56f6 0e39 2aca beba 8430 b739
00000120: 69e1 5e3a 8808 88ba 7a76 e0ba 6b67 e33a
00000130: 256a c03a 0dc2 55b9 5f74 0bba a6f8 b73a
00000140: b773 1dba a088 9aba 0a1c 023b 6f7e baba
00000150: 7c9b fcba 2cd1 d13a 791b c03a 2c9f beba
00000160: a978 55ba e20a 83b8 fea4 10b9 07f5 c0b9
00000170: ffb8 e639 2adc 7c38 e82b 9a38 40be deba
00000180: 3f8a 00bb d3d2 813a 3acb ac3a 4c1f c83a
00000190: b7e7 67ba 9419 e93a 6599 cf3a 940f 9bba
000001a0: e2ba 44b9 9aaa a3ba 1598 1cba 9a77 783a
000001b0: 9a11 65b9 ec53 db3a 8eeb 2aba 15ab e93a
000001c0: 2c07 5db7 3c91 0dba 34d8 833a 1540 2aba
000001d0: f6b4 c5ba c54c b4b9 c1a5 e43a 8a52 9fba
000001e0: 968d 2aba d315 20ba 3ca7 0539 52f0 85b9
000001f0: 32ac 813a 5929 f438 865b 87ba 05a5 8f3a
00000200: d4fc c3ba b786 d2ba ff78 45ba 5beb ce3a
00000210: 249b ebb7 cf59 333a d7ae 903a 2230 f93a
00000220: 9430 203a 7712 b9b9 1f3c f23a f6e8 adb9
00000230: 8ce3 c73a f4d5 de3a defe acba b1da 7339
00000240: 610b c3ba 09c4 b8b9 b338 c5ba 9664 ddba
00000250: 507d 0e39 3678 803a cb0d 18ba ab15 abba
00000260: fb9e 6fba 8846 bf3a 5b3c a6b9 8e33 d83a
00000270: 34f7 c7b9 c344 fe3a c3c9 bbba 5961 d6b9
00000280: 1b67 0339 e4a5 f939 d5f2 a0ba ad02 23ba
00000290: 9423 b6ba 0bf2 d9ba 3a08 c9ba e8f3 d4ba
000002a0: 94a6 263a 0f47 6eba 7b6c 1d39 0f95 6f3a
000002b0: c7e1 823a 69c3 4e3a 13bd ad3a 4095 bdba
000002c0: 506f 003b 8cd4 e1b9 e06b 3a3a 7c60 dbba
000002d0: d870 b2ba b36b 19ba 40de c7ba a7cf efba
000002e0: a55f fb3a 6963 6c3a 3a26 4e3a 65db e6b8
000002f0: f963 6639 8add 5cba d879 3bba 6ffc 35ba
00000300: 3a6b 8dba 965f 1e3a 8e7f 4fb9 f29e 8f39
00000310: a260 9f3a cdd7 9aba dc99 253a f83b dcb9
00000320: f415 2e3a eed5 b83a f6e2 d23a 57bc a83a
00000330: b992 d5ba c14e ab3a 4f22 7238 d4b9 b6b9
00000340: 1f3c 9f3a 1785 623a c9f4 5eba 9e9f 0239
00000350: 8edb c739 4451 773a ee34 a9ba 2996 8cba
00000360: ec6f 393a 4407 03ba c931 db3a 8e39 543a
00000370: b1a6 0c3a 57f0 ac3a 6bdc c53a adf9 e63a
00000380: 2195 c2ba 6b37 ccba e037 3539 4208 3eba
00000390: 0fc1 f7b9 bdb2 2eba 63fd 96ba f0f3 dc39
000003a0: 3075 2839 fd29 dfb9 7e78 cbba 59b3 eaba
000003b0: ea1c a5ba 963f 973a 9cb8 bf3a ad54 20ba
000003c0: d4c9 743a d6e6 49ba c5fd db3a 0546 d8b9
000003d0: 46a6 7a3a af9b c4ba b551 deba 07c4 a3ba
000003e0: 8a41 d538 a458 c739 5551 43ba 2e4c e2ba
000003f0: c327 063a 57fe 2439 59eb e4ba ee9b feba
0.0019971787 -0.00023889805 0.00097610004 -0.0018790489 0.0012716514 0.0007381258 0.0019369393 0.0018805331
0.00010587741 0.0002645402 0.0012502964 0.0014907995 0.0010473898 -0.0010234559 0.0017552696 -0.0011384189
0.001964005 0.0013416224 0.0019371051 -5.2214862e-05 0.0002821441 -0.0018136662 -0.0011265848 -0.0019993319
-0.0016182452 0.0002176869 0.0015315188 -0.0019863748 -0.00050882983 -0.0019020158 -0.00040323474 -0.0007451239
0.0005071397 0.0017733005 -0.0008390799 0.0005409053 0.00068526535 0.00095314224 -0.001051051 -0.00032480957
0.0008243628 -0.0016138798 -0.00072422175 0.0013257669 -0.0006106191 -0.00011694146 0.0017835606 -0.0013457399
0.0019669714 -0.0007225478 -0.0016114643 0.001917856 0.001198823 0.00014667417 0.001461749 0.0016278859
-0.0008440011 -0.000845284 0.0009557717 -0.001174284 -0.00014267111 0.0015297075 -0.0015164297 -0.00191156
0.0012694465 -0.00033555986 -0.0015160869 -0.0009303096 -0.00047194268 0.00013633943 -0.0014556099 0.00034940627
0.00085022167 -0.0010378519 -0.0017125153 0.0017349547 0.0014680071 -0.00020385552 -0.000531977 0.0014035895
-0.00060063176 -0.0011789985 0.0019853138 -0.0014228354 -0.0019272412 0.0016007773 0.0014656625 -0.0014543287
-0.0008143285 -6.248594e-05 -0.00013794375 -0.00036803653 0.0004400685 6.0286526e-05 7.3514704e-05 -0.0016993955
-0.001961365 0.000990475 0.0013183125 0.0015268116 -0.0008846479 0.0017784112 0.0015838562 -0.0011830204
-0.00018761636 -0.0012486756 -0.000597359 0.0009478271 -0.00021845699 0.0016733385 -0.0006520086 0.0017827476
-1.3174296e-05 -0.0005400365 0.001005894 -0.00064945343 -0.0015083838 -0.00034389473 0.0017444418 -0.0012155336
-0.00065060833 -0.00061067677 0.00012746168 -0.0002554679 0.0009893237 0.00011642528 -0.0010326959 0.0010959214
-0.0014952668 -0.0016061877 -0.00075329834 0.0015786694 -2.8086426e-05 0.00068416906 0.0011038434 0.0019011537
0.00061107543 -0.00035299707 0.0018481052 -0.000331707 0.0015250309 0.0017001019 -0.0013198515 0.00023255755
-0.001488071 -0.00035241272 -0.0015046805 -0.0016890939 0.00013588858 0.0009801451 -0.0005800395 -0.0013052722
-0.00091408164 0.0014593164 -0.00031706956 0.0016494857 -0.00038140418 0.0019399155 -0.0014327097 -0.0004088979
0.00012531543 0.0004761658 -0.0012279401 -0.0006218355 -0.0013896101 -0.001662792 -0.0015337535 -0.0016247006
0.00063572195 -0.0009089568 0.00015013099 0.0009139338 0.00099855 0.0007887395 0.0013255201 -0.0014464036
0.0019597597 -0.00043073704 0.00071114115 -0.0016737129 -0.0013613952 -0.0005852535 -0.0015248731 -0.0018296138
0.0019178285 0.0009017499 0.00078639726 -0.0001100812 0.00021971752 -0.0008425346 -0.000715164 -0.00069422176
-0.0010789402 0.0006041465 -0.00019788576 0.0002739351 0.0012159536 -0.0011813581 0.00063171773 -0.0004200635
0.00066408445 0.0014101842 0.0016089368 0.0012873512 -0.0016294337 0.0013069735 5.772925e-05 -0.00034852198
0.0012148655 0.0008641048 -0.0008505104 0.00012457228 0.0003811982 0.0009434412 -0.0012909451 -0.0010725904
0.00070738676 -0.0004998336 0.0016723211 0.00080957345 0.0005365415 0.0013194185 0.0015095597 0.0017622017
-0.0014845469 -0.0015580481 0.0001728232 -0.00072491553 -0.0004725535 -0.00066642073 -0.0011519607 0.00042143418
0.00016065384 -0.00042565158 -0.001552358 -0.0017906233 -0.0012597118 0.0011539336 0.0014627161 -0.00061161333
0.0009337936 -0.0007701939 0.0016784003 -0.000412509 0.000956152 -0.0015000011 -0.0016961606 -0.0012494334
0.00010168839 0.0003802228 -0.0007450779 -0.0017265135 0.00051176193 0.00015735008 -0.0017465159 -0.0019425133

lstm.weight_ih_l1 f4 [120, 30]
00000000: 7c59 aabe b68c 53be 8dbd 82be d009 87be
00000010: 6e4a 033f 40aa 413f c13c ab3e 59e1 28bf
00000020: 9621 453f 1e9a 64bf 7a06 06bf 40ce 893e
00000030: bc27 c83e 4658 883e eaac 8e3e c532 5c3e
00000040: e9e0 27bf b761 b8be 5682 a83e 5f37 77be
00000050: 4656 ce3e 9f5f 753e e7f3 fb3e 757d eb3e
00000060: 787b bb3e 5c01 a83e 6b63 2f3f ea26 8b3e
00000070: c5a0 55bf bc3c 5d3e 974f aabe 7620 53be
00000080: 0711 81be 69e6 87be ae52 033f 7ba1 413f
00000090: f4aa ab3e 8e71 29bf 385d 453f 4485 64bf
000000a0: 4cc6 05bf b7e7 893e 8dab c73e 40e9 883e
000000b0: 88fe 8c3e bb60 5d3e 9de1 27bf 8f8b b9be
000000c0: b173 a73e a321 79be 5b33 cd3e 6e60 783e
000000d0: cbaa fb3e 2011 ea3e 23b0 bb3e 4643 a83e
000000e0: 834c 2f3f dbad 8b3e e20f 56bf 6135 5d3e
000000f0: 1dd3 a8be eb18 54be 8c8a 81be 3eeb 88be
00000100: 1bed 033f eda0 423f 88e8 aa3e 43d5 29bf
00000110: ff1f 463f 00d5 64bf 74bf 06bf ec63 8a3e
00000120: ded8 c63e 5f85 863e cf07 8e3e 1dba 5d3e
00000130: b597 28bf bc96 b8be 56c2 a63e 7bb9 77be
00000140: 9eb3 cd3e d15d 743e 7421 fc3e 367f ec3e
00000150: 0d36 ba3e 2239 a63e 7e88 2f3f 831f 893e
00000160: 226e 56bf ce00 5a3e 2a2e a8be c335 4ebe
00000170: 6758 80be 88f4 86be ca6c 023f 087a 423f
00000180: 56b9 a93e bdc2 29bf 74e2 453f 699c 64bf
00000190: b558 05bf 9394 883e de03 c53e 3bdb 863e
000001a0: a35d 8c3e 92cc 583e 8ef7 27bf d40b b8be
000001b0: 9b19 a53e e05e 75be 849f cc3e 47d6 743e
000001c0: ad53 fa3e 909d e93e a864 ba3e 964b a63e
000001d0: c312 303f d5af 883e 3068 56bf 7521 593e
000001e0: c560 aabe 1cc8 54be f40e 82be 5a5d 87be
000001f0: b78a 023f e7d3 413f 5e42 ac3e 25a2 28bf
00000200: ca61 453f fc1f 64bf 74b8 05bf 0e94 8a3e
00000210: 18c7 c63e 916e 883e 2c43 8e3e 75a5 5d3e
00000220: e838 28bf 9f3b b9be a7fa a73e 1426 79be
00000230: 9592 cd3e adad 763e 64d4 fb3e bf38 ea3e
00000240: f31b bb3e 343c a83e 4fba 2f3f da11 8b3e
00000250: b448 56bf 0a48 5b3e 6f52 a4be 3b7b 4abe
00000260: b000 7fbe ebe9 84be cac0 003f 1364 433f
00000270: a86e a63e 743b 29bf 62d5 463f cf4c 65bf
00000280: 318d 05bf 6be1 863e 932a c23e 5596 833e
00000290: df38 8a3e cf13 563e 4ff3 27bf 3ec3 b4be
000002a0: 7e68 a23e 77d1 71be 8c65 cb3e e1e5 6e3e
000002b0: 2225 f73e 2189 e93e 51b7 b53e c800 a43e
000002c0: 8187 303f 2d48 853e 1ca6 56bf 3f60 533e
000002d0: c553 a7be b4e3 50be 441d 81be 8be0 85be
000002e0: d93f 023f 097f 423f 58f5 a93e f4fd 28bf
000002f0: f52e 463f 4e75 64bf 5b3c 06bf a1d7 883e
00000300: edf5 c43e 08e6 863e 2e19 8b3e e63b 593e
00000310: c01a 28bf 0b5a b6be 2989 a53e c484 75be
00000320: ab4e cc3e 3de4 713e ff5d fa3e a3c8 ea3e
00000330: d24c ba3e e6f7 a63e 88bf 2f3f 6091 893e
00000340: 3c04 56bf da0a 5a3e b790 a9be fa67 52be
00000350: 7537 81be 66c7 86be cbfe 023f 1426 423f
00000360: b026 aa3e 3596 29bf 1287 453f 439c 64bf
00000370: ff50 06bf 1fd4 883e ceca c63e 42ab 873e
00000380: ea0c 8e3e 46b0 5d3e 0d03 28bf 65bd b8be
00000390: 865c a73e d0b7 78be 933a cd3e 8a1e 763e
000003a0: ac5d fb3e 982f ea3e 93b9 ba3e ff2e a83e
000003b0: 8ad7 2e3f b348 8b3e 69fe 55bf 5e94 5c3e
000003c0: 786a a7be e012 4dbe e814 7dbe b989 85be
000003d0: 9d6c 013f 98fa 423f beee a73e e967 29bf
000003e0: 8a46 463f 5501 65bf 04c4 05bf db2d 873e
000003f0: f780 c43e a890 853e 5a44 8a3e 175c 593e
-0.33271396 -0.20659146 -0.2553524 -0.26374674 0.51285446 0.75650406 0.3344479 -0.65968853
0.77004373 -0.89297664 -0.5235363 0.2691517 0.39092815 0.26629847 0.27866298 0.21503742
-0.6557756 -0.3601205 0.32911938 -0.24142216 0.40300196 0.23962258 0.4920952 0.45994154
0.36617637 0.32813537 0.68511075 0.27178127 -0.8344844 0.216052 -0.33263847 -0.20617852
-0.25208303 -0.26542976 0.51298034 0.75637025 0.33528864 -0.66188896 0.77095366 -0.8926585
-0.522557 0.26934597 0.3899807 0.26740456 0.27537942 0.21618931 -0.65578634 -0.36239287
0.32705453 -0.24329238 0.40078244 0.24255535 0.49153742 0.4571619 0.3665782 0.32863826
0.6847612 0.2728108 -0.83617985 0.21602394 -0.32973567 -0.2071263 -0.25301015 -0.26741976
0.5153367 0.76026803 0.33380532 -0.66341037 0.7739257 -0.8938751 -0.52635884 0.2702936
0.38837332 0.2627363 0.27740332 0.21653028 -0.65856487 -0.360525 0.32570142 -0.24191849
0.401761 0.23863913 0.49244273 0.46190804 0.36369362 0.32465464 0.68567646 0.26781854
-0.837618 0.2128937 -0.3284772 -0.20137696 -0.25067446 -0.26358438 0.5094725 0.75967455
0.33149213 -0.6631277 0.77298665 -0.8930116 -0.5208848 0.26675853 0.38479513 0.26339135
0.2741519 0.21171787 -0.65612113 -0.35946524 0.32246098 -0.23961973 0.3996545 0.23909865
0.48891965 0.45628023 0.3640492 0.32479542 0.6877863 0.2669665 -0.8375273 0.21204169
-0.33276954 -0.2077946 -0.25402033 -0.2643841 0.5099291 0.7571396 0.33644384 -0.6587241
0.7710234 -0.89111304 -0.5223458 0.27066082 0.3882377 0.26646855 0.27785623 0.21645148
-0.6571183 -0.361783 0.3280842 -0.24330932 0.40150896 0.2408969 0.4918548 0.4574642
0.3654476 0.3285843 0.6864366 0.27162057 -0.83704686 0.214142 -0.32094142 -0.19773571
-0.24902606 -0.25959715 0.5029417 0.76324576 0.325063 -0.66106343 0.77669346 -0.89570326
-0.52168566 0.26343855 0.37923107 0.25700632 0.26996514 0.20905994 -0.65605634 -0.35305208
0.31720346 -0.23615061 0.39725912 0.2332988 0.48270518 0.45612434 0.35491422 0.32031846
0.6895676 0.26031628 -0.8384721 0.20642184 -0.326811 -0.20399362 -0.2521764 -0.26147875
0.50878674 0.7597509 0.33194995 -0.660125 0.774154 -0.8924149 -0.52435845 0.26727012
0.38468876 0.26347375 0.27167648 0.21214256 -0.6566582 -0.35615572 0.32331207 -0.23976427
0.3990377 0.23622222 0.48899838 0.458562 0.36386734 0.32611006 0.6865163 0.26868725
-0.8360021 0.21293202 -0.3311822 -0.20547476 -0.25237623 -0.26324004 0.51170033 0.7583935
0.3323264 -0.6624482 0.77159226 -0.89300936 -0.5246734 0.26724336 0.38826603 0.26497847
0.27744228 0.21649274 -0.65629655 -0.36081997 0.32687777 -0.24288869 0.4008375 0.24035087
0.49094903 0.45739436 0.36469707 0.32848355 0.68297637 0.27203903 -0.83591324 0.21540973
-0.32698417 -0.20026731 -0.24715006 -0.26081637 0.50556356 0.76163626 0.32799333 -0.6617418
0.77451384 -0.8945516 -0.5225222 0.26402172 0.38379642 0.26086926 0.27005273 0.21226536

lstm.weight_hh_l1 f4 [120, 30]
00000000: 09f8 423a 965d 6d3a fc2f 0d3a b30c e6ba
00000010: 3879 a239 2bef 1db9 f0f3 87b9 9c7c 1a39
00000020: b7de d13a b919 d0ba 8235 013b 039e 923a
00000030: ec3d f6b9 56ce 95b8 3061 e83a 4095 5239
00000040: 8e1f 5eb9 c57b fbba 7c91 d83a 236a 9e3a
00000050: 6bec 2ab9 055a 5fba 652d 423a af87 22b9
00000060: 6fa9 dfba f8eb a7b9 6d6b 0fba 56c2 04ba
00000070: 8c56 30ba 0306 94ba 7ae0 e8ba 212b d4ba
00000080: 6b1f d7ba 0f17 a33a b9e2 dfba b07b 013b
00000090: 5d5b 32ba 518b e73a bb89 87ba 5080 b9ba
000000a0: 32cb cfba 8ad3 b83a 38b0 d9ba ffe8 c93a
000000b0: 8c40 6cba 8876 82b8 074d 013b 73b0 0eb9
000000c0: 1b47 5a3a 1d91 e63a cba1 0eb8 7345 a8ba
000000d0: 1150 e6b9 28ab 633a d17e 893a 0b3d 12ba
000000e0: 408f a33a b99e ff39 056d cf3a 6bd2 2cba
000000f0: 6153 553a 6993 9cba 0074 8d39 9a76 e33a
00000100: e261 9f3a 034b 7cba 88fc 593a 0d00 7e3a
00000110: e6f8 2e39 da1e 743a b3d6 933a 1d1e b6ba
00000120: 9cfa 83ba 636e 61ba 925c ffba 0f71 e9b9
00000130: de0f a8ba a42a 1dba bd74 1e38 0ff1 6b3a
00000140: 4ea1 acba b5ae b9ba 980d c8ba 5782 e63a
00000150: d416 d2ba 6eda 023b a420 47b9 5278 b0ba
00000160: e85d 8a3a 387d ad3a f0d3 a139 1b6b cd3a
00000170: 5da4 f3ba 9496 1aba b926 d4ba b5a8 f3ba
00000180: 3e5a f8ba 3400 8aba 79c3 a6ba dea4 823a
00000190: dcb9 cd39 0542 933a 98c7 e23a 941a e13a
000001a0: 1904 6e35 4c9b baba 44b5 7b3a 0dd2 58b9
000001b0: f290 f0ba 154f f7ba e2f7 ddba 6d67 df3a
000001c0: 2e1d a13a b1a4 a03a 2331 58ba 6931 283a
000001d0: 05b6 4038 1576 63b9 614d ddba a9a2 663a
000001e0: 7f80 993a 8621 9cba cba1 e83a 7c3a d73a
000001f0: a031 dd3a 34f1 8d3a bd74 bab6 36f7 84ba
00000200: 4686 b038 a978 b73a 8c66 7cba 9af1 fdba
00000210: 6f36 c6b9 17ec b7ba 4608 0aba 217e cc3a
00000220: fa12 42ba 131c c03a 883f eeba 71db 51ba
00000230: 30a2 e53a f42c a83a de9d a33a 2c03 3aba
00000240: 79a9 5239 55c3 fb3a aaf1 9eb6 7b18 3dba
00000250: c54e 8b3a b508 d638 92bd c8ba ad44 42ba
00000260: dc32 c83a 847f 9c3a a05a 8eb9 779e 0eb9
00000270: 36ef fb3a ab51 c3ba 840e d4ba 13ab 7db9
00000280: f0ff a439 e67c f1ba 718d f9ba 467e 56b9
00000290: a7bb d03a d6d9 b83a c303 e33a e662 0f3a
000002a0: 634c 743a bbab 5fba 29ea 06ba a5b8 d53a
000002b0: a66b bab8 79bb a93a 4c0f d3b9 6d3b d6ba
000002c0: 925d ec38 dd78 003b 326e 7e3a f8bc be3a
000002d0: 26b2 edb9 270a 85ba 3e2e 83ba eec2 653a
000002e0: d612 45ba 4a66 df3a 038d f0ba 4f74 60ba
000002f0: 786e 77ba fcb5 b4b9 b5ac 883a 3a54 b0b9
00000300: 9c5e 0cba 17e5 99ba 7e91 71ba 46b6 67ba
00000310: 1dde 013a adb6 58ba 5182 d33a d658 a7b9
00000320: 949c 493a 6ddf 12b9 b5ae 21ba 21f8 25b9
00000330: 551b 35ba 3a4b c93a 5919 3538 4f42 6f3a
00000340: 7834 71ba e821 e7ba e2e2 cfb9 8c9e 9e3a
00000350: 7c9e 7fba f25c 7aba 11d8 68b9 de60 dc39
00000360: 55f9 463a f0c1 e9ba 6b3c c43a 6bc9 023b
00000370: e222 94b9 1904 77b8 a756 f5ba 6b9c adba
00000380: 2c8b 673a f624 32ba 7da2 a5ba a51a f93a
00000390: dec4 cd3a b37a 00bb 21b8 333a e0d1 63ba
000003a0: ac9c 8c39 b1f6 9b3a 968e b83a 34b3 e83a
000003b0: a804 313a d604 03bb e2da efb9 3afc 0d39
000003c0: ab66 c2ba 568a 8539 c508 3739 421f f93a
000003d0: 2bf2 9d3a a5db ee3a 84a0 fcb9 4ef2 36b9
000003e0: af1b 993a 1937 c83a 570a b7b9 b742 e43a
000003f0: 3c0f d63a 3cb8 b2ba faf5 ab3a 2368 80ba
0.0007437473 0.0009054778 0.00053858734 -0.0017551392 0.00030989363 -0.00015061784 -0.00025930954 0.00014733005
0.0016011809 -0.0015876807 0.001971573 0.0011186007 -0.00046966912 -7.143307e-05 0.001772916 0.0002008276
-0.00021183325 -0.0019186666 0.001652285 0.0012086075 -0.00016300536 -0.0008520189 0.0007407277 -0.0001550007
-0.0017064045 -0.00032028533 -0.0005471025 -0.00050643587 -0.00067267637 -0.0011293296 -0.0017767095 -0.001618717
-0.0016412562 0.0012442785 -0.0017081118 0.0019757561 -0.00068037753 0.0017665421 -0.001034073 -0.001415262
-0.0015853404 0.001410113 -0.0016608303 0.0015404521 -0.0009012304 -6.220961e-05 0.001972975 -0.00013607908
0.00083266356 0.0017590855 -3.400612e-05 -0.001283808 -0.00043928673 0.0008684867 0.0010490065 -0.0005578554
0.0012478605 0.00048755648 0.0015825337 -0.0006592634 0.00081377296 -0.0011945787 0.00026980042 0.0017354072
0.0012159909 -0.0009624215 0.0008315523 0.00096893386 0.00016686655 0.00093124586 0.0011279195 -0.0013894473
-0.0010069194 -0.0008599518 -0.0019482544 -0.00044525458 -0.0012822112 -0.00059954287 3.7778856e-05 0.0009000459
-0.0013170631 -0.0014166447 -0.001526284 0.0017586452 -0.0016028532 0.001996662 -0.00018990278 -0.0013463593
0.0010556551 0.0013236171 0.0003086622 0.0015672179 -0.0018588413 -0.00058970717 -0.0016185857 -0.0018589707
-0.0018947793 -0.0010528625 -0.001272305 0.0009967347 0.00039239123 0.0011234885 0.0017301915 0.0017174059
8.866787e-07 -0.0014236956 0.0009601901 -0.00020677615 -0.0018353744 -0.0018868173 -0.0016934837 0.0017044373
0.0012292021 0.0012256113 -0.0008247068 0.0006416054 4.5945886e-05 -0.00021692396 -0.0016884023 0.0008798042
0.0011711268 -0.0011911846 0.0017748413 0.0016420628 0.0016875751 0.001082933 -5.556822e-06 -0.0010144475
8.417344e-05 0.0013997752 -0.0009628318 -0.0019374371 -0.0003780606 -0.0014032152 -0.0005265515 0.0015601554
-0.00074033404 0.0014656804 -0.0018176893 -0.00080054166 0.0017519649 0.001283078 0.0012482961 -0.00070958096
0.00020090294 0.0019207994 -4.7369003e-06 -0.00072134257 0.0010628334 0.00010205937 -0.0015315285 -0.0007410746
0.0015273946 0.0011939858 -0.00027151871 -0.00013601208 0.0019221071 -0.0014901658 -0.0016178642 -0.0002419169
0.00031471206 -0.0018424063 -0.0019039345 -0.00020455671 0.0015925065 0.0014103006 0.0017319847 0.0005469754
0.0009319244 -0.0008532365 -0.0005146587 0.0016305639 -8.889222e-05 0.0012949548 -0.00040256453 -0.0016344615
0.00011270786 0.001960329 0.00097057514 0.0014552167 -0.00045336894 -0.001015012 -0.0010008288 0.00087647035
-0.00075177604 0.0017044034 -0.0018352572 -0.0008562253 -0.00094387634 -0.00034467864 0.0010427447 -0.0003363209
-0.0005354674 -0.0011741248 -0.00092151004 -0.00088391115 0.0004954057 -0.0008266967 0.001613686 -0.0003191891
0.00076908735 -0.00014006878 -0.0006167696 -0.00015828061 -0.0006908675 0.0015357502 4.317737e-05 0.0009127007
-0.0009201239 -0.0017634006 -0.00039651158 0.0012101694 -0.0009751094 -0.0009550593 -0.00022205735 0.00042033842
0.0007590254 -0.0017834287 0.0014971619 0.001995648 -0.0002825475 -5.8893205e-05 -0.0018717841 -0.0013245469
0.0008832689 -0.0006795669 -0.0012636926 0.0019005133 0.001569893 -0.0019604384 0.00068557455 -0.00086906366
0.0002681961 0.0011899081 0.001408058 0.0017753602 0.0006752708 -0.0019991896 -0.00045748713 0.0001354077
-0.0014831623 0.00025470805 0.00017455507 0.0019006508 0.0012050321 0.0018223418 -0.0004818478 -0.00017447138
0.0011681224 0.001527521 -0.00034912184 0.0017414902 0.0016331444 -0.0013635228 0.0013119571 -0.000979666

fc.weight f4 [1, 30]
00000000: 506b 8f3f 3785 8f3f bbf7 8e3f 1e8e 8e3f
00000010: 2d79 8f3f 0a46 8d3f a65c 8e3f 2749 8f3f
00000020: 1622 8ebf 1c84 8ebf 7b9b 8fbf ade8 8ebf
00000030: 2637 8e3f a81a 8ebf e141 8e3f 8ca9 8cbf
00000040: 9557 8ebf e240 8cbf ffc5 8d3f 4b6c 8fbf
00000050: c408 8dbf 0c32 8e3f 561b 8ebf 982d 8ebf
00000060: bef5 8c3f d089 8ebf 19c6 8f3f 0e02 8f3f
00000070: 4d73 8e3f b543 8ebf
1.1204624 1.1212529 1.1169351 1.1137121 1.1208855 1.1036999 1.1122024 1.1194199
-1.1104152 -1.1134067 -1.1219324 -1.1164757 1.111058 -1.1101885 1.1113855 -1.0989242
-1.1120478 -1.0957301 1.1076049 -1.1204923 -1.10183 1.1109023 -1.1102092 -1.1107664
1.1012495 -1.1135807 1.123233 1.1172502 1.1128937 -1.1114413
