models/lstm_residual_seed_43.pt (torch, 50995 bytes, 5 tensors)

lstm.weight_ih_l0 f4 [120, 4]
0	0xbf00d8c3	-0.5033075
1	0x3f29cb5e	0.6632594
2	0x3f43eb82	0.7653123
3	0xbec108e7	-0.37702104
4	0xbe9a83d1	-0.30178693
5	0x3f2066b4	0.6265671
6	0x3f398d0a	0.72480834
7	0xbf5126eb	-0.8170001
8	0xbf0692e5	-0.52567893
9	0x3f1ddee7	0.61668247
10	0x3f3ede8f	0.7455835
11	0xbf3dc1f6	-0.74124086
12	0xbf115f00	-0.56785583
13	0x3f1241c4	0.571316
14	0x3f43c417	0.76471084
15	0xbf3afb3c	-0.73039603
16	0xbf0ae508	-0.54255724
17	0x3f19abc0	0.60027695
18	0x3f3fbfd0	0.7490206
19	0xbf3bcd69	-0.73360306
20	0xbeca83de	-0.39553732
21	0x3f2ee5a2	0.6831914
22	0x3f3eb236	0.7449068
23	0xbf5457d4	-0.82946515
24	0xbeff4cdd	-0.4986333
25	0x3f1e79b4	0.61904454
26	0x3f3df1c5	0.74197036
27	0xbf38b2a9	-0.72147614
28	0xbf065624	-0.5247519
29	0x3f2983d3	0.6621677
30	0x3f47b3e2	0.78008854
31	0xbea56f27	-0.32311365
32	0xbf09671f	-0.53672975
33	0x3f274aba	0.653484
34	0x3f48f321	0.78495985
35	0xbe9381e1	-0.28810027
36	0xbee7f846	-0.45306605
37	0x3f27d90a	0.6556555
38	0x3f3e2943	0.7428171
39	0xbf459a76	-0.77188814
40	0xbefab74c	-0.4896797
41	0x3f23529b	0.6379792
42	0x3f3cca44	0.7374613
43	0xbf3dee05	-0.74191314
44	0xbe9f4da4	-0.31113923
45	0x3f24d739	0.64390904
46	0x3f39b14d	0.72536165
47	0xbf56e489	-0.83942467
48	0xbebaed03	-0.3650895
49	0x3f24c905	0.6436923
50	0x3f45a7ae	0.77208984
51	0xbf285e10	-0.6576853
52	0xbefea400	-0.49734497
53	0x3f2806ba	0.65635264
54	0x3f46bcd9	0.7763191
55	0xbecd9f6c	-0.40160692
56	0xbefc9ad8	-0.49336886
57	0x3f2844d8	0.6573005
58	0x3f46e859	0.77698284
59	0xbed0b90a	-0.40766174
60	0xbeba99c0	-0.36445427
61	0x3f223f93	0.63378257
62	0x3f4956e0	0.78648186
63	0xbf247f76	-0.6425699
64	0xbebaf258	-0.3651302
65	0x3f1758a5	0.59119636
66	0x3f47b501	0.78010565
67	0xbf2e5f8c	-0.6811454
68	0xbf0bb798	-0.54577017
69	0x3f16f7f7	0.58972114
70	0x3f409dd7	0.75240844
71	0xbf3b6773	-0.73204726
72	0xbebc7657	-0.36809036
73	0x3f24b18d	0.6433342
74	0x3f480cc6	0.7814449
75	0xbf2affb0	-0.667964
76	0xbf0dfc1c	-0.55462813
77	0x3f151bf1	0.5824576
78	0x3f41f8c9	0.7577024
79	0xbf3a3fef	-0.72753805
80	0xbef5dab0	-0.48018408
81	0x3f272ccb	0.65302724
82	0x3f4724fa	0.77790797
83	0xbedd4159	-0.4321392
84	0xbf19a4ad	-0.600169
85	0x3f0eecdb	0.5583016
86	0x3f47b81a	0.7801529
87	0xbf3938a4	-0.7235205
88	0xbf1e5e13	-0.61862296
89	0x3f0ccb84	0.5499804
90	0x3f49ad47	0.78780025
91	0xbf38389e	-0.7196139
92	0xbefe7c94	-0.4970442
93	0x3f21ddda	0.63229144
94	0x3f3cb130	0.73707867
95	0xbf3d9732	-0.7405883
96	0xbec698b1	-0.3878837
97	0x3f231392	0.63701737
98	0x3f48f0f0	0.7849264
99	0xbf151962	-0.58241856
100	0xbf11ee66	-0.5700439
101	0x3f0e8718	0.55674887
102	0x3f44c095	0.76856357
103	0xbf358f01	-0.7092133
104	0xbf11a41b	-0.5689103
105	0x3f12568f	0.5716333
106	0x3f43c199	0.7646728
107	0xbf3a150d	-0.7268837
108	0xbeeff1b9	-0.46864107
109	0x3f2573a0	0.64629555
110	0x3f46c208	0.7763982
111	0xbee829dd	-0.4534444
112	0xbf1239a5	-0.5711921
113	0x3f1203aa	0.5703684
114	0x3f43de8f	0.7651147
115	0xbf39f586	-0.72640264
116	0xbeba93e2	-0.3644095
117	0x3f25a8b3	0.6471054
118	0x3f43c3f8	0.764709
119	0xbf2cf55d	-0.67561895
120	0xba946898	-0.0011322675
121	0xbab30fad	-0.0013661288
122	0xba77811b	-0.00094415405
123	0x3a09cb77	0.0005256454
124	0x382c2477	4.1041956e-05
125	0xb96c73ea	-0.00022549895
126	0x3a2a158a	0.0006488195
127	0xb9cf28f5	-0.00039512632
128	0xba8b97c8	-0.0010650093
129	0xba826ee7	-0.0009951264
130	0xb967c211	-0.00022102172
131	0xba8d1681	-0.0010764153
132	0xbac888f7	-0.0015299608
133	0xba9a0f9d	-0.0011753921
134	0xba80a795	-0.0009815568
135	0x3a539a73	0.0008072026
136	0xba89e1e0	-0.0010519587
137	0xba89f3aa	-0.0010524888
138	0x3a8acb73	0.0010589197
139	0xb94490b3	-0.00018745921
140	0x3ace724f	0.0015750619
141	0x390bed38	0.00013344444
142	0x3a9088c1	0.0011027084
143	0x3a9ade2f	0.0011815483
144	0xba4313ad	-0.00074415916
145	0xb939bc5e	-0.00017713147
146	0x3a5a2fbe	0.0008323154
147	0x3a77ed8b	0.0009457699
148	0xbad62b22	-0.0016339759
149	0x3b081b4e	0.0020768228
150	0xbaea222b	-0.0017862966
151	0x3b042822	0.0020165523
152	0xbb02c327	-0.0019952746
153	0x3a4f3b10	0.00079052243
154	0xbae820f4	-0.0017710016
155	0xbaa042d8	-0.0012226952
156	0xba9c87e8	-0.0011942359
157	0x3aeddf87	0.0018148281
158	0xba60e232	-0.00085786276
159	0x3a6a4b8b	0.00089376484
160	0x3aa34d13	0.0012458883
161	0xb9d93f57	-0.00041436657
162	0xba1cf46c	-0.00059873494
163	0x3a8b8a78	0.0010646125
164	0xbaec1345	-0.0018011114
165	0xbab309af	-0.0013659502
166	0xbaec00b6	-0.0018005583
167	0x3b0f8900	0.0021901727
168	0xb8b8a4fc	-8.8045344e-05
169	0x38146588	3.5380508e-05
170	0xba515890	-0.0007985914
171	0xbab6a895	-0.0013935739
172	0x387754a3	5.8968213e-05
173	0xbad2ae77	-0.0016073723
174	0x3b0ccad6	0.0021483204
175	0xbacf39e0	-0.0015810095
176	0xba959837	-0.0011413161
177	0xbabcfc2e	-0.0014418417
178	0xbab60364	-0.0013886509
179	0x3a3a9de1	0.00071188627
180	0x3a483c7c	0.00076384074
181	0xbacd11ed	-0.0015645601
182	0x3a6a6002	0.0008940698
183	0x3aafc58d	0.0013410315
184	0x3aff5803	0.0019481186
185	0xba9473ff	-0.0011326073
186	0x3abef4b4	0.0014568777
187	0xbab9e814	-0.0014183545
188	0xba7f8199	-0.00097467896
189	0xbabc9fab	-0.0014390846
190	0x3a91c5f4	0.0011121617
191	0x39b35230	0.00034202775
192	0x39527391	0.00020070212
193	0x3ac2e447	0.0014869057
194	0xbab6c040	-0.0013942793
195	0xba3bef75	-0.0007169166
196	0xba354b42	-0.00069158163
197	0xba84a08f	-0.0010118651
198	0xbae25593	-0.0017267935
199	0x3948d878	0.00019154127
200	0xbb055ec8	-0.0020350683
201	0xba21dce0	-0.00061745755
202	0x3a12ccc1	0.0005599969
203	0x3b07798e	0.0020671817
204	0x3994337c	0.0002826712
205	0x3add6747	0.0016891741
206	0x3ac3308b	0.0014891786
207	0xbaa15e2f	-0.0012311394
208	0xb9cd4487	-0.00039151704
209	0xbaf245b7	-0.0018483911
210	0x38e17fc3	0.000107526335
211	0x3b002d21	0.001955815
212	0xbb102871	-0.0021996761
213	0xbaad9e7b	-0.0013246083
214	0xb9fd4b60	-0.0004831208
215	0x3a7578b1	0.0009363993
216	0x3b07ac14	0.0020701932
217	0xb9e55514	-0.00043741672
218	0xba647b89	-0.0008715918
219	0x3aefa34f	0.0018282923
220	0x3ab168ee	0.00135353
221	0xba9f310d	-0.0012145356
222	0x3a04b4f5	0.0005062365
223	0x3b07f1d3	0.0020743504
224	0x3a9bb6a2	0.001187999
225	0x3af5dea9	0.0018758374
226	0xbaf68d5c	-0.0018810439
227	0x3abf5809	0.001459838
228	0x3916aec2	0.00014370217
229	0xb9b5bb71	-0.00034662665
230	0xbb040ec3	-0.00201504
231	0xbad4cfdc	-0.0016236263
232	0xb93c5384	-0.00017960189
233	0x3aff9f61	0.0019502455
234	0x3a47ba00	0.0007618964
235	0x3abea48e	0.0014544891
236	0xba8d825a	-0.0010796294
237	0x3ae4bb34	0.001745081
238	0x3b084b73	0.0020796924
239	0x3a8b38ea	0.001062182
240	0x3ea74503	0.3266984
241	0xbdd38dd4	-0.10329786
242	0xbf018214	-0.5058911
243	0xbdaa5c44	-0.083183795
244	0xbd6b05a0	-0.05737841
245	0x3f0f7e73	0.5605232
246	0x3eac64ac	0.33670557
247	0xbe688ddd	-0.22710367
248	0xbc8ab666	-0.016932677
249	0xbf29db36	-0.66350114
250	0xbe95fa2e	-0.29292434
251	0x3eb684b1	0.3564811
252	0xbd09c3f9	-0.03363416
253	0xbf2dfd5e	-0.6796473
254	0xbe8eb1ea	-0.27870113
255	0x3ec6a089	0.38794354

lstm.weight_hh_l0 f4 [120, 30]
0	0xbaa1067f	-0.0012285261
1	0x3ae27292	0.0017276576
2	0x39cd0ba7	0.0003910933
3	0xb9d6a551	-0.0004094043
4	0x3994875d	0.00028329613
5	0x3a939273	0.0011258855
6	0xbafc3248	-0.0019241059
7	0x3aa1aec3	0.0012335408
8	0x3a937ede	0.0011253019
9	0x3a1ca82e	0.00059759885
10	0x3ae37436	0.0017353359
11	0xbac038e4	-0.0014665392
12	0xb959ad51	-0.00020759298
13	0x3a68e17a	0.0008883696
14	0xba5833d4	-0.0008247469
15	0xb9262323	-0.00015844083
16	0x39d7984a	0.0004112146
17	0x3af08680	0.0018350631
18	0x39ef17b7	0.000456033
19	0x3a7b697e	0.00095906097
20	0xbab30732	-0.001365876
21	0xbacf7a1b	-0.0015829237
22	0xbaa9dcd1	-0.0012959485
23	0xbaccc4de	-0.0015622636
24	0x3a685cbd	0.0008863917
25	0x3a03c754	0.00050269556
26	0x39e8d79e	0.00044411136
27	0xbaab5998	-0.0013072966
28	0x3a2bb605	0.00065502553
29	0xba837511	-0.0010029395
30	0x3aa7acf4	0.0012792633
31	0xb9fa7298	-0.00047769095
32	0xba58cfe8	-0.00082707265
33	0xb990787b	-0.00027555585
34	0x3aab581f	0.0013072527
35	0x3ad66e36	0.001635975
36	0x3aa02207	0.0012217172
37	0xbae71cff	-0.0017632543
38	0x39862ec9	0.0002559333
39	0xba1614bd	-0.0005725136
40	0x39ed40a5	0.00045252327
41	0xb9e70b2c	-0.00044068077
42	0x3a2eabf8	0.00066631986
43	0x3ad12b38	0.0015958315
44	0xbaf459c5	-0.0018642476
45	0x3ac2c3c7	0.0014859372
46	0x3ade85e2	0.0016977156
47	0x3abd6377	0.0014449198
48	0xba18f62e	-0.00058350235
49	0x39aa2582	0.00032452872
50	0x3aaf678c	0.00133823
51	0x3a1ae8fa	0.000590935
52	0xba4de084	-0.0007853585
53	0xb9bd59c3	-0.00036115767
54	0x3a5c8d28	0.0008413368
55	0xb9c858cd	-0.00038213134
56	0xba798a73	-0.0009519227
57	0x3ae6405d	0.0017566789
58	0xb973997a	-0.0002323146
59	0x3a309d65	0.0006737321
60	0x3b0123c0	0.0019705147
61	0x3a8eb74a	0.0010888365
62	0xba5ed713	-0.00085006765
63	0xba854192	-0.0010166636
64	0x3a1feb69	0.00061004475
65	0xb83cbf3c	-4.5000794e-05
66	0xb952e386	-0.0002011192
67	0xbb01b1eb	-0.0019789885
68	0x3a4d6efa	0.0007836666
69	0xb746dc2a	-1.1852981e-05
70	0x39166927	0.00014344287
71	0xb8767582	-5.8760408e-05
72	0x3af1e12a	0.0018453945
73	0xba186867	-0.0005813897
74	0xbaa35c3a	-0.0012463399
75	0xb9b2607b	-0.0003402269
76	0xbaadded6	-0.0013265263
77	0xba9e07a2	-0.0012056718
78	0xb9e97b75	-0.00044533206
79	0xb8da5853	-0.00010411502
80	0x3a6b74de	0.0008981953
81	0xba97ff11	-0.0011596401
82	0x3a3e01bb	0.00072481827
83	0xb893cbe8	-7.047487e-05
84	0x37821e36	1.5511276e-05
85	0x3ad3b7ab	0.001615276
86	0x3a6f97e8	0.0009139762
87	0xb91b7821	-0.00014826703
88	0x3ab7734a	0.0013996151
89	0xba0dfa7f	-0.000541605
90	0xba8b4205	-0.0010624534
91	0x3abfc925	0.0014632089
92	0x399357af	0.00028103354
93	0x3a9edd32	0.0012120365
94	0x391b3ad1	0.00014803863
95	0x3a50be4e	0.0007962928
96	0x3a6bd96d	0.00089969375
97	0xba1dfd9e	-0.00060268666
98	0x3a768cc9	0.0009405134
99	0x3acdd1d6	0.0015702795
100	0xb9e085f4	-0.00042824412
101	0x3a023e7b	0.0004968417
102	0xbae0b767	-0.0017144502
103	0xb610418a	-2.149582e-06
104	0x3afbe628	0.0019218372
105	0x3aabe5bf	0.0013114734
106	0x384bf6c9	4.8628808e-05
107	0x3b0118ad	0.0019698546
108	0x3a603734	0.0008553148
109	0xbaaf5ec7	-0.0013379686
110	0xbaef95ee	-0.0018278935
111	0x3ab0e9de	0.0013497432
112	0xba3a2c9c	-0.0007101984
113	0xbaf71bd2	-0.0018852896
114	0xba01a579	-0.0004945617
115	0xb99c6ae2	-0.00029834273
116	0x3a0e5ba2	0.00054305245
117	0xba4e0a80	-0.0007859841
118	0x37b3fe77	2.1456957e-05
119	0xba6df186	-0.00090768223
120	0x39e77236	0.00044144847
121	0x3aacacfc	0.0013174112
122	0x3af49bc7	0.0018662148
123	0xba2b7a98	-0.00065414
124	0xbae05988	-0.0017116526
125	0xba8460cd	-0.001009965
126	0x3ae70434	0.0017625154
127	0x3a82843e	0.0009957624
128	0x390f4f0b	0.00013666989
129	0x3a1fda8c	0.00060979347
130	0xb9fe11f5	-0.00048460034
131	0x3a444175	0.00074865605
132	0x3ae41365	0.00174008
133	0xba97a0c7	-0.0011568301
134	0x3a9b4ddc	0.0011848765
135	0x38f61917	0.000117348674
136	0xbaf59888	-0.0018737474
137	0x3afaef01	0.0019144715
138	0xba952142	-0.001137771
139	0x3aa7b269	0.0012794259
140	0xba500b5d	-0.00079362636
141	0xb99ffc84	-0.00030514982
142	0xbac3a0ad	-0.0014925204
143	0x3aa7ebde	0.0012811383
144	0x3a429959	0.0007423363
145	0x3a41088c	0.00073636393
146	0x3ad6f015	0.0016398454
147	0x3ad22390	0.0016032327
148	0x3a7b73b7	0.0009592133
149	0x3a3046f6	0.0006724441
150	0x39a9a7cf	0.0003235922
151	0x3ab324f0	0.0013667624
152	0xbb009be0	-0.0019624159
153	0xb9a82236	-0.00032068946
154	0xba964173	-0.0011463597
155	0xba0e4252	-0.00054267526
156	0xba5a4cf2	-0.0008327506
157	0x3aceaa4e	0.0015767307
158	0xba05b8d5	-0.00051010895
159	0xbaba479c	-0.0014212015
160	0xb9a282c1	-0.00030996467
161	0x3ad5cb23	0.001631115
162	0x3a234fcf	0.0006229849
163	0xb95b2a5f	-0.00020901252
164	0x3a093e6f	0.00052354386
165	0xbaed28ec	-0.0018093861
166	0x3aa132cf	0.0012298467
167	0xba1c079e	-0.0005952063
168	0xbaff5e05	-0.0019482976
169	0x3aa7e709	0.0012809943
170	0xbafb79a5	-0.0019186033
171	0xb965f7f0	-0.00021931506
172	0x37a4ad92	1.9631148e-05
173	0x3afdf0da	0.0019374148
174	0xba1b203a	-0.0005917583
175	0xba0f0596	-0.00054558495
176	0x3a944fbb	0.0011315265
177	0x3a94da21	0.0011356511
178	0x3ae34188	0.0017338255
179	0x396f5a4f	0.00022826459
180	0xba6b85af	-0.0008984459
181	0xbaec7aaf	-0.0018041934
182	0xba5b8359	-0.00083737593
183	0xbaab766f	-0.0013081561
184	0xbae2c98c	-0.0017302497
185	0x3a84d534	0.001013434
186	0x396cb78e	0.00022575093
187	0xbac09d2e	-0.0014695281
188	0x3837aeda	4.3793443e-05
189	0x38eaefe0	0.0001120267
190	0x392ebbd8	0.0001666391
191	0x3a15a340	0.0005708225
192	0xbafb17a1	-0.0019156822
193	0x3964f801	0.00021836163
194	0xb92f5334	-0.00016720296
195	0xba43b361	-0.0007465389
196	0x39a322d1	0.00031115723
197	0xbaa37282	-0.0012470039
198	0x387bdd30	6.004906e-05
199	0xba667af2	-0.0008792124
200	0xb90d2ab1	-0.00013462712
201	0xb494fdf4	-2.7751923e-07
202	0xb9e3db3c	-0.00043460156
203	0xba946b54	-0.001132349
204	0xbaadd93c	-0.0013263593
205	0xba0c4a05	-0.0005351606
206	0xb90d4b65	-0.00013474895
207	0xbab115de	-0.0013510545
208	0xbac4a7f0	-0.0015003663
209	0xba8507dc	-0.0010149437
210	0xba86c5aa	-0.0010282297
211	0xb92ca0b5	-0.00016463066
212	0xbaaa5557	-0.0012995404
213	0xbab759af	-0.001398852
214	0xba08ef92	-0.0005223687
215	0x3a1fa611	0.00060901145
216	0x398df571	0.00027076484
217	0xbaf7e67a	-0.0018913292
218	0xbafd4811	-0.0019323846
219	0xbad5cf34	-0.0016312362
220	0xba292642	-0.0006452539
221	0xbada0a92	-0.001663523
222	0x3aa747cd	0.0012762487
223	0x3aa94084	0.0012912904
224	0xbab30efa	-0.001366108
225	0x3aa1a2de	0.0012331863
226	0x3aa0aa50	0.0012257788
227	0x3a958417	0.0011407164
228	0x3aa782c5	0.0012780061
229	0xba0bfddc	-0.0005340257
230	0x38cba396	9.7102646e-05
231	0xbab68534	-0.0013925196
232	0x3a71880d	0.00092136936
233	0x3a58e165	0.00082733325
234	0xbae4165f	-0.0017401687
235	0xbaef7da0	-0.0018271692
236	0xba58db55	-0.0008272429
237	0xbadbe94f	-0.0016777905
238	0xba223b86	-0.0006188679
239	0x3a6b5f55	0.0008978744
240	0xbaeed89a	-0.0018222511
241	0x392820d6	0.00016033961
242	0x3b00b677	0.0019640008
243	0x383cfa5f	4.505587e-05
244	0x39cf3f2c	0.00039529183
245	0xba3a8579	-0.0007115226
246	0xba977a4a	-0.0011556831
247	0xbadeab0f	-0.0016988235
248	0xbafa4e7c	-0.0019096876
249	0xba3c2890	-0.0007177675
250	0xba7b34fb	-0.0009582785
251	0xb9bf9582	-0.0003654175
252	0xb9b83d0f	-0.00035140707
253	0x3aaa438c	0.0012990101
254	0x3afb35d4	0.0019165822
255	0xba81f1ac	-0.0009913943

lstm.weight_ih_l1 f4 [120, 30]
0	0xbf1b4f85	-0.6066821
1	0x3ea0a01d	0.31372157
2	0xbe855162	-0.26038653
3	0xbe7342f8	-0.23756015
4	0x3e8035ce	0.2504105
5	0xbe9f39b4	-0.31098711
6	0x3e865fb2	0.26244885
7	0x3f28be3e	0.65915287
8	0x3f2eb0c4	0.6823847
9	0x3e940c1b	0.28915486
10	0xbe8cc1ff	-0.27491757
11	0xbea1b901	-0.3158646
12	0xbec08aea	-0.37605983
13	0xbf18428f	-0.5947656
14	0xbf177e17	-0.5917677
15	0xbeccc922	-0.39997202
16	0xbea01e42	-0.31273085
17	0x3e7ae214	0.24500304
18	0xbeb66e8f	-0.35631225
19	0x3e762f1b	0.24041407
20	0xbf12318b	-0.57106847
21	0x3e643305	0.22285087
22	0x3e5ec205	0.217537
23	0xbe8b6941	-0.2722874
24	0x3eea82c5	0.45802894
25	0xbe658ff9	-0.22418202
26	0xbe71c5e2	-0.23610643
27	0x3f0d5c39	0.55218846
28	0x3e70b50f	0.23506568
29	0xbe9f1f45	-0.31078544
30	0xbf1ad664	-0.60483384
31	0x3ea1a28b	0.31569323
32	0xbe870116	-0.26368016
33	0xbe729c6e	-0.23692486
34	0x3e7ff584	0.24996
35	0xbea097d9	-0.3136585
36	0x3e862277	0.2619817
37	0x3f28d5af	0.65951055
38	0x3f2df7b0	0.67956066
39	0x3e9486d0	0.29009104
40	0xbe8c1190	-0.2735715
41	0xbea248c8	-0.31696153
42	0xbec06f3e	-0.3758487
43	0xbf189df5	-0.59616023
44	0xbf16fc3f	-0.58978647
45	0xbecbef7c	-0.3983115
46	0xbe9f2b01	-0.31087497
47	0x3e7ebe33	0.24877243
48	0xbeb6577e	-0.35613626
49	0x3e768134	0.24072725
50	0xbf124fea	-0.5715319
51	0x3e651080	0.22369576
52	0x3e5fd21d	0.21857496
53	0xbe8bfc09	-0.27340725
54	0x3eeb011a	0.45899278
55	0xbe67b177	-0.22626291
56	0xbe71d09c	-0.23614734
57	0x3f0c8b8b	0.54900426
58	0x3e711ec2	0.2354689
59	0xbe9f77ce	-0.3114609
60	0xbf1a8755	-0.6036275
61	0x3ea0bb00	0.3139267
62	0xbe83dc33	-0.25753936
63	0xbe6eb65a	-0.23311749
64	0x3e79edb1	0.24407078
65	0xbe9e51fc	-0.30921924
66	0x3e83c3aa	0.25735217
67	0x3f28e2ab	0.6597087
68	0x3f2dde44	0.67917275
69	0x3e910c0e	0.2832951
70	0xbe89142c	-0.26773202
71	0xbea1eec7	-0.31627485
72	0xbec05a00	-0.37568665
73	0xbf18db26	-0.59709394
74	0xbf16feb0	-0.5898237
75	0xbeccb575	-0.3998219
76	0xbe9d6387	-0.30739996
77	0x3e768e63	0.24077754
78	0xbeb79606	-0.35856646
79	0x3e72c0a3	0.23706298
80	0xbf122f20	-0.5710316
81	0x3e61014b	0.2197315
82	0x3e5a0413	0.21290617
83	0xbe87a8da	-0.2649601
84	0x3eeabd69	0.45847633
85	0xbe626573	-0.22109012
86	0xbe6def9d	-0.23235936
87	0x3f0d4500	0.5518341
88	0x3e6c9f41	0.23107626
89	0xbe9e90ba	-0.30969793
90	0xbf1ad63a	-0.60483134
91	0x3ea12840	0.3147602
92	0xbe86ef98	-0.2635467
93	0xbe717c42	-0.23582557
94	0x3e813822	0.25238138
95	0xbea0712c	-0.31336343
96	0x3e866210	0.2624669
97	0x3f286be8	0.6578965
98	0x3f2eb34d	0.6824234
99	0x3e941872	0.289249
100	0xbe8c27eb	-0.27374205
101	0xbea2d4a3	-0.31802854
102	0xbebfd22f	-0.37465045
103	0xbf188533	-0.59578246
104	0xbf177850	-0.5916796
105	0xbecc390b	-0.3988727
106	0xbea06e7c	-0.31334293
107	0x3e7d41f7	0.24732195
108	0xbeb5e3da	-0.355254
109	0x3e7662ab	0.24061076
110	0xbf124ff0	-0.57153225
111	0x3e65a751	0.22427107
112	0x3e5de778	0.2167033
113	0xbe8c4703	-0.27397928
114	0x3ee95556	0.4557292
115	0xbe69b777	-0.22823893
116	0xbe723b43	-0.23655419
117	0x3f0d06ee	0.550887
118	0x3e70e305	0.23524101
119	0xbea031c1	-0.3128796
120	0xbf1bc647	-0.6084942
121	0x3ea27caa	0.31735736
122	0xbe8826eb	-0.26592192
123	0xbe78dd43	-0.24303155
124	0x3e82d81f	0.25555512
125	0xbea31d6c	-0.31858385
126	0x3e86ede2	0.26353365
127	0x3f27ef92	0.6559993
128	0x3f2e5503	0.6809847
129	0x3e95a0f2	0.29224354
130	0xbe8e7774	-0.2782551
131	0xbea46605	-0.32109085
132	0xbec2143f	-0.37906072
133	0xbf188ce2	-0.5958997
134	0xbf176324	-0.5913565
135	0xbecbd0d9	-0.39807776
136	0xbe9f8310	-0.3115468
137	0x3e8171a9	0.25282028
138	0xbeb684d1	-0.35648206
139	0x3e7beaa2	0.24601224
140	0xbf118daf	-0.56856817
141	0x3e69e636	0.22841725
142	0x3e64d2ff	0.22346114
143	0xbe8dd444	-0.27701008
144	0x3ee9a27a	0.45631772
145	0xbe66fbc5	-0.2255698
146	0xbe759541	-0.23982717
147	0x3f0cefec	0.5505359
148	0x3e75bd14	0.23997909
149	0xbe9fff58	-0.312495
150	0xbf1b773f	-0.6072883
151	0x3ea1f032	0.31628567
152	0xbe86dc6d	-0.26340047
153	0xbe73949a	-0.23787156
154	0x3e80aabc	0.2513026
155	0xbea12000	-0.31469727
156	0x3e86f5be	0.2635936
157	0x3f288e4d	0.65842134
158	0x3f2edfc6	0.683102
159	0x3e9529fd	0.29133597
160	0xbe8c3cf2	-0.27390248
161	0xbea178ac	-0.31537378
162	0xbebf9d51	-0.3742471
163	0xbf188881	-0.5958329
164	0xbf172eae	-0.590556
165	0xbecd885a	-0.4014309
166	0xbe9f8ed1	-0.31163648
167	0x3e7e7224	0.24848229
168	0xbeb5c098	-0.354985
169	0x3e78d79c	0.24300998
170	0xbf11e6aa	-0.5699259
171	0x3e641f4d	0.22277565
172	0x3e5ee65d	0.21767564
173	0xbe8b2920	-0.27179813
174	0x3eea79dc	0.45796096
175	0xbe683fd4	-0.22680598
176	0xbe7230ee	-0.23651478
177	0x3f0d2826	0.55139387
178	0x3e6f55d5	0.23372586
179	0xbe9ed73a	-0.3102358
180	0xbf1b0d6d	-0.6056736
181	0x3ea008d6	0.3125674
182	0xbe832fa2	-0.25622278
183	0xbe6cafc2	-0.23113921
184	0x3e7c838d	0.24659558
185	0xbe9f518d	-0.31116906
186	0x3e82dec6	0.25560588
187	0x3f28d04a	0.65942824
188	0x3f2e1f43	0.6801645
189	0x3e92b732	0.28655392
190	0xbe8b0180	-0.27149582
191	0xbea1f2c7	-0.31630537
192	0xbec10448	-0.3769858
193	0xbf18f9dc	-0.59756255
194	0xbf17be6c	-0.59274936
195	0xbecc91a6	-0.3995487
196	0xbe9d32f6	-0.30702943
197	0x3e782d77	0.24236093
198	0xbeb610df	-0.35559747
199	0x3e71baba	0.23606387
200	0xbf12e14e	-0.5737504
201	0x3e618e28	0.22026885
202	0x3e5cebd5	0.21574338
203	0xbe88e08b	-0.26733813
204	0x3eebae71	0.46031526
205	0xbe6183a4	-0.22022873
206	0xbe6ce4fb	-0.23134224
207	0x3f0d062c	0.5508754
208	0x3e6cbc11	0.23118617
209	0xbe9e8433	-0.30960235
210	0xbf1bbc17	-0.6083388
211	0x3ea11e60	0.31468487
212	0xbe885270	-0.26625395
213	0xbe76befd	-0.24096294
214	0x3e82781f	0.2548227
215	0xbea13b25	-0.31490436
216	0x3e85f626	0.2616436
217	0x3f27ffdb	0.6562478
218	0x3f2e4793	0.68077964
219	0x3e946f66	0.2899124
220	0xbe8c4634	-0.2739731
221	0xbea366fa	-0.31914502
222	0xbec2674e	-0.3796944
223	0xbf1887a2	-0.5958196
224	0xbf16cce2	-0.58906376
225	0xbecbd38b	-0.39809832
226	0xbe9f7527	-0.31144068
227	0x3e7f4680	0.24929237
228	0xbeb5c1af	-0.3549933
229	0x3e7b4492	0.24537876
230	0xbf122918	-0.57093954
231	0x3e67dcdc	0.22642845
232	0x3e5f8c84	0.21830946
233	0xbe8b988b	-0.2726482
234	0x3eea5bf5	0.45773283
235	0xbe65cf7c	-0.2244243
236	0xbe736a1f	-0.2377095
237	0x3f0d2c6f	0.55145925
238	0x3e70f25d	0.23529954
239	0xbea0ffe6	-0.31445235
240	0xbf1b0073	-0.6054756
241	0x3ea094ec	0.31363618
242	0xbe875521	-0.26432136
243	0xbe71a876	-0.23599419
244	0x3e7fa260	0.24964285
245	0xbe9fcedf	-0.31212518
246	0x3e862c34	0.262056
247	0x3f27f749	0.656117
248	0x3f2e6775	0.6812661
249	0x3e939c7b	0.28830323
250	0xbe8b5d1e	-0.2721948
251	0xbea30e81	-0.31847003
252	0xbec1549a	-0.37759858
253	0xbf183922	-0.5946218
254	0xbf17bbf1	-0.5927115
255	0xbecd347e	-0.4007911

lstm.weight_hh_l1 f4 [120, 30]
0	0x3ab564c3	0.0013839233
1	0xba1d0a57	-0.00059906155
2	0xbae66a7e	-0.0017579345
3	0x3abc4c71	0.0014366043
4	0xbad2f134	-0.0016093613
5	0x3a35cd03	0.0006935151
6	0xba69e08c	-0.0008921705
7	0x3aacfe40	0.0013198331
8	0xb8a6defa	-7.9570294e-05
9	0x3a7e7f9e	0.00097083475
10	0x3abbbb1b	0.001432273
11	0xb9615128	-0.00021487905
12	0x39e16ab1	0.00042994836
13	0x3aefa9bd	0.0018284839
14	0xba097330	-0.00052432995
15	0x39628b03	0.00021604825
16	0xba999488	-0.0011717239
17	0xba6c06b5	-0.0009003685
18	0x38246107	3.919101e-05
19	0x3aed4ac3	0.0018103946
20	0x3a26d9b7	0.00063648395
21	0xba8cba21	-0.0010736623
22	0xba5fab8a	-0.0008532336
23	0xbac6c8f0	-0.0015166085
24	0xbaf70432	-0.0018845855
25	0xb916d8a4	-0.0001438582
26	0xba53bc2a	-0.000807705
27	0x3a9f0fad	0.0012135409
28	0x3ac923cb	0.001534575
29	0x3ac3176b	0.0014884298
30	0x3a6c2503	0.0009008201
31	0x3aada5c9	0.001324826
32	0xba7cc62a	-0.0009642566
33	0xba1484ac	-0.00056655216
34	0x39b90d71	0.00035295964
35	0xba6e05ab	-0.0009079824
36	0xba5552ea	-0.00081376603
37	0xbac0f713	-0.0014722071
38	0xbaf890e2	-0.0018964077
39	0x3a7b60ea	0.00095893315
40	0x390ebf5d	0.00013613464
41	0x3a3e7eea	0.00072668365
42	0xbaeaf9b3	-0.0017927199
43	0x3a57df65	0.00082348875
44	0xbaa83584	-0.0012833332
45	0x3ab3b3c3	0.0013710189
46	0x39d7f961	0.00041193797
47	0x3aabffa0	0.0013122447
48	0x3ad68a79	0.0016368172
49	0x3a5ee996	0.0008503435
50	0x3a9481ea	0.0011330221
51	0xbae9d4b1	-0.0017839876
52	0xb9b31be0	-0.0003416231
53	0x3990df2b	0.00027632093
54	0xba44dac5	-0.0007509406
55	0xb9c4063e	-0.00037388684
56	0x3ad89bec	0.001652596
57	0x39dfc32c	0.0004267929
58	0xbaa80354	-0.0012818375
59	0x3ab1b148	0.0013556862
60	0xbafef119	-0.0019450515
61	0x3aacd394	0.0013185614
62	0x3a8df4b3	0.0010830372
63	0x395cab24	0.0002104459
64	0xba96fb5f	-0.0011519006
65	0xb77ee148	-1.5192032e-05
66	0x39e9446b	0.00044492199
67	0xba0aaed1	-0.0005290332
68	0xb8d33355	-0.000100708254
69	0xb9938159	-0.00028134396
70	0xba9e7a0b	-0.0012090815
71	0x3a0373aa	0.00050144887
72	0x3a918c7b	0.0011104489
73	0xb96260d6	-0.00021589114
74	0xba3136b5	-0.0006760166
75	0xba64a45f	-0.0008722003
76	0x3a7d7273	0.00096682383
77	0x380a943a	3.303981e-05
78	0xb8bff7af	-9.1537244e-05
79	0xbb02a668	-0.0019935612
80	0xba89e79c	-0.0010521295
81	0x3ad8f7c3	0.0016553331
82	0xb89eb6c9	-7.5680735e-05
83	0xb9a019c3	-0.00030536772
84	0xb96acda3	-0.00022392585
85	0xbaedc930	-0.0018141624
86	0x3a938a9a	0.0011256516
87	0xb9e4d528	-0.00043646363
88	0x394fb5f4	0.00019808841
89	0x3aa8bea6	0.00128742
90	0xbaf409d4	-0.0018618652
91	0xba1f7025	-0.00060820795
92	0xb9cdceda	-0.00039254763
93	0xbae8125f	-0.001770567
94	0xba41cf23	-0.00073932315
95	0x39f10ab1	0.00045975068
96	0xba34484e	-0.00068772293
97	0x3af28240	0.0018501952
98	0x3a6ffc32	0.00091547065
99	0x3acd07d4	0.0015642592
100	0xba29c6bd	-0.00064764527
101	0x3a7b42ff	0.00095848733
102	0xba1125e0	-0.0005536955
103	0x3ac7eb53	0.0015252627
104	0x3a362134	0.00069476967
105	0xba273c84	-0.0006379562
106	0x3a5d4f44	0.00084422925
107	0xbade2332	-0.0016947745
108	0x3a6220fb	0.00086261303
109	0x3a54e917	0.00081218913
110	0xba20f796	-0.0006140409
111	0x3836d127	4.358697e-05
112	0x3ae9e828	0.0017845677
113	0xba08b890	-0.000521549
114	0xb9ab5efa	-0.00032686425
115	0xbaafa419	-0.0013400345
116	0xba24b273	-0.00062826945
117	0x3a97338e	0.001153575
118	0xbac3cbb5	-0.0014938029
119	0xbaeb433e	-0.0017949117
120	0xba8ac15b	-0.0010586189
121	0x3a0f1761	0.0005458501
122	0x3a79a401	0.00095230347
123	0xbab8e0a9	-0.001410504
124	0x3abc81af	0.001438191
125	0xbabbec4a	-0.0014337387
126	0xbaf7a14a	-0.0018892672
127	0x3af9823a	0.0019036003
128	0xbab0ef34	-0.0013499022
129	0x3a20b415	0.000613035
130	0x38c0ceda	9.1938025e-05
131	0x3afb573e	0.001917578
132	0x3a0cf49c	0.0005377026
133	0xb9d2e801	-0.00040227178
134	0x3a0b67cf	0.0005317898
135	0x39b25a1d	0.00034017945
136	0xba5f9e8c	-0.00085304
137	0x3af70515	0.0018846119
138	0x3a621b5d	0.0008625293
139	0xbb0028cb	-0.0019555565
140	0xbaa11ec7	-0.0012292498
141	0x3aae4dec	0.0013298369
142	0x38c5751f	9.4155075e-05
143	0x3aa0bf34	0.0012264014
144	0x3b004282	0.0019570892
145	0xb9bf542a	-0.00036493066
146	0xbaddc8de	-0.0016920825
147	0x3a300cc1	0.00067157677
148	0xb9b0a2ea	-0.00033690716
149	0xbaec343e	-0.001802094
150	0x3ac42390	0.0014964212
151	0xbb00d337	-0.0019657144
152	0x391684de	0.00014354612
153	0xbaff1c4b	-0.0019463388
154	0x3a176544	0.00057752826
155	0x3aef180f	0.0018241423
156	0x3aa7d2b5	0.0012803884
157	0x3ab69d07	0.0013932296
158	0xbade6bc5	-0.0016969374
159	0xbaf193d0	-0.0018430892
160	0x3ad95b0d	0.0016582921
161	0x3a8ad26b	0.0010591274
162	0x3b013b3d	0.0019719147
163	0x3ad350c3	0.0016122091
164	0xb9cfbfd8	-0.0003962505
165	0x3ae81478	0.0017706295
166	0xba0d6bec	-0.0005394805
167	0xba6b8dec	-0.00089856866
168	0x3adc64a2	0.0016814659
169	0x3ac94328	0.0015355097
170	0x3adec3fd	0.0016995665
171	0xbae6295d	-0.0017559935
172	0xba342aee	-0.0006872852
173	0x3a855da4	0.0010175002
174	0xbaca23f0	-0.0015422087
175	0x3a8b9be0	0.0010651313
176	0x3af50b57	0.0018695396
177	0xba43adf4	-0.00074645807
178	0xba5e3680	-0.0008476749
179	0x3b0239fc	0.0019870987
180	0xb9f93eb9	-0.00047539713
181	0x3aacf890	0.0013196636
182	0xba24fe3a	-0.0006293986
183	0x3a805dde	0.00097936
184	0xb93974ff	-0.0001768656
185	0xb8e49853	-0.0001090026
186	0xb82cf582	-4.1236643e-05
187	0x3abdfd82	0.0014495107
188	0xba81e0f0	-0.0009908956
189	0xbad45c6b	-0.0016201859
190	0xbaeda37a	-0.0018130385
191	0x3a992ff8	0.001168727
192	0xba2bf707	-0.0006559942
193	0x3ad3a31d	0.0016146634
194	0x3a84bff2	0.0010128005
195	0x3a745e6b	0.00093219307
196	0x39bf2411	0.0003645723
197	0xb9989ee2	-0.00029110076
198	0xb9e6521d	-0.00043930198
199	0xba25f0d1	-0.0006330135
200	0xba9a619e	-0.001177836
201	0x3acbfd1f	0.0015563107
202	0xb8cb845b	-9.7044474e-05
203	0x39c01411	0.00036636044
204	0xbab63ae8	-0.0013903053
205	0xbae71b96	-0.0017632123
206	0x3ae1d307	0.0017229029
207	0x3adacb1d	0.0016692613
208	0x3adf0f82	0.0017018171
209	0x39bf163e	0.0003644693
210	0x3ace7b05	0.0015753215
211	0x3a53936d	0.00080709794
212	0x3a5966fb	0.00082932384
213	0xb9072f3c	-0.000128922
214	0x3ad1eac7	0.0016015404
215	0xbaf68026	-0.0018806502
216	0x3ac57a71	0.0015066398
217	0xb97096b9	-0.00022944332
218	0x3a1ccc5f	0.00059813814
219	0xba97f846	-0.0011594377
220	0x3aef554a	0.0018259671
221	0xbae743ec	-0.0017644144
222	0x39bee48c	0.00036409905
223	0x389e4fbf	7.548881e-05
224	0x3ad637d2	0.001634354
225	0xbae5a340	-0.0017519966
226	0xbae8cd84	-0.0017761444
227	0xb917e0e6	-0.00014484263
228	0x3a8318b1	0.0010001865
229	0x3a08b0c9	0.00052143313
230	0xb999e365	-0.00029351856
231	0xba7338a5	-0.0009278155
232	0x39b4f6a8	0.0003451605
233	0xbaeea063	-0.0018205758
234	0xba5a4bc3	-0.00083273294
235	0xbac78b7e	-0.0015224067
236	0x3b000a07	0.0019537227
237	0xb928e290	-0.0001610613
238	0xba84e5ac	-0.0010139248
239	0xbab0efe0	-0.0013499223
240	0x3ab63107	0.0013900109
241	0xb891b8b5	-6.948543e-05
242	0xb952fba7	-0.00020120908
243	0x39999f75	0.0002930124
244	0x3af0cc2a	0.0018371393
245	0x3a901cde	0.0010994931
246	0xb80b522d	-3.3216715e-05
247	0xb9f40626	-0.00046543888
248	0x3ae85d78	0.0017728051
249	0xb8d90148	-0.00010347605
250	0xbabc6634	-0.0014373721
251	0x3703dd30	7.859708e-06
252	0x39a6b182	0.0003179424
253	0xb9f06c6b	-0.00045857145
254	0xba6b98ad	-0.0008987289
255	0x39af8afa	0.00033482147

fc.weight f4 [1, 30]
0	0xbf7645ed	-0.9620045
1	0xbf765c71	-0.96234804
2	0x3f74b9c9	0.95595986
3	0x3f7648e8	0.96204996
4	0xbf795652	-0.9739734
5	0x3f76473b	0.9620244
6	0x3f75bf86	0.95995367
7	0x3f783c50	0.9696703
8	0xbf767c9e	-0.962839
9	0xbf7664e8	-0.9624772
10	0x3f78b353	0.9714863
11	0xbf763c43	-0.961857
12	0x3f747431	0.95489794
13	0x3f78ccc5	0.97187454
14	0xbf795572	-0.97396004
15	0xbf76880c	-0.9630134
16	0xbf764423	-0.9619772
17	0x3f769836	0.96326005
18	0x3f7997a9	0.9749704
19	0x3f766146	0.9624218
20	0x3f765524	0.96223664
21	0x3f78c124	0.9716971
22	0xbf746a28	-0.9547448
23	0x3f78cc1f	0.97186464
24	0xbf74fca7	-0.95698017
25	0x3f78c0d3	0.97169226
26	0xbf79a0a7	-0.9751076
27	0xbf79a40a	-0.9751593
28	0xbf7656e2	-0.9622632
29	0xbf796542	-0.9742013
