models/lstm_residual_seed_123.pt (torch, 51070 bytes, 5 tensors)

lstm.weight_ih_l0 f4 [120, 4]
00000000: a2c7 10bf f49c f33e 95e5 5d3f 8a87 1dbf
00000010: 6bd7 fabe 4871 143f f5e0 5f3f 3511 0ebf
00000020: fe23 03bf 0d22 2e3f d069 7c3f 9b6f b7be
00000030: 4110 fcbe 90a6 1d3f 047f 6b3f 622a 02bf
00000040: 94bc f4be 74b5 113f dbb2 5b3f 046b 11bf
00000050: 4a2b 00bf d662 283f 2f8f 753f 3e2d ddbe
00000060: 3a1f febe 3ab8 263f bdfc 733f e6c1 e6be
00000070: 9bf1 10bf 5d9f f23e 96f9 5d3f 430c 1fbf
00000080: 805b fabe 66d1 113f ad75 623f 4acf 0ebf
00000090: c49e d7be 1ead 0c3f ab6d 4e3f 3d14 29bf
000000a0: f989 07bf fc13 2e3f 3d21 813f eab5 9dbe
000000b0: 0e66 2abf c13a e33e 766e 6e3f 3553 0cbf
000000c0: 5f8d 00bf 808d 2a3f 640f 773f bf1e d4be
000000d0: 7f4c 1fbf 6386 f13e fcc1 643f 0256 1abf
000000e0: d019 23bf 1f8e ed3e 47f5 663f 7741 17bf
000000f0: 631f e6be abc0 093f 4a14 583f a1dc 1abf
00000100: 069f 09bf 237f fa3e dd34 5a3f 0567 1dbf
00000110: b6a5 16bf 5d82 f33e 940b 613f f3ea 1cbf
00000120: 5763 40bf 896e b83e 8dd3 7d3f 5724 aabe
00000130: 4728 14bf c34d f53e f2fc 5e3f 4509 1ebf
00000140: 03e8 1ebf b79f f13e f938 643f 4b5a 1abf
00000150: 85e0 13bf 75dd f53e ca12 603f 9345 1ebf
00000160: a6f2 21bf 075b ee3e 3b68 663f 8f7e 18bf
00000170: 2949 07bf 57dd 2d3f 67cd 803f ddea 9bbe
00000180: 48f3 ffbe bcfb 283f c3da 703f 0a2d debe
00000190: 57b9 1cbf bc96 f23e 7eb5 633f 0b46 1bbf
000001a0: 665e 21bf fa38 ef3e 76b5 653f e3d4 17bf
000001b0: 951b 06bf c782 2e3f 809e 803f 6e2f a2be
000001c0: e8aa 1bbf c0df f33e 36dc 633f 0952 1bbf
000001d0: 96bb d5be 598c 113f 518e 4a3f 2269 2abf
000001e0: e6a3 d6b8 75b8 d9ba 87e9 66ba 167f b2ba
000001f0: c8ac e839 a299 a4ba 42d2 863a a7f7 06bb
00000200: 6093 44b9 57bf 48b9 3f95 fb3a 9e35 b3ba
00000210: f82c cbba 1378 0dba ca25 d83a f412 be39
00000220: 0062 2f3a f290 dfba cd40 eb3a da28 a03a
00000230: f650 bab9 c4d2 01bb 8199 80ba 01bc ae3a
00000240: f3de 0f3b 9b79 ca39 51d7 aa3a c94e d6ba
00000250: f1d5 6338 0175 1bba 239a bdba 6fff 103a
00000260: 9175 003b 5645 0abb dc9c 943a 9c4b abba
00000270: 3c5c 3bba ee0d bfb8 5fb3 d5ba b8dd 4aba
00000280: f1cb beb9 60e4 0039 eec7 733a c339 83ba
00000290: 9b2c 6538 5b50 9f39 a013 cd3a 64b4 0dbb
000002a0: ec92 ab3a f52a 06ba 392e c9ba 9521 9f38
000002b0: a32c daba 406a 193a ea01 bc3a 5a94 cd3a
000002c0: b166 26ba 2cbf b0ba 64b0 933a 83c9 0a3b
000002d0: 02eb 423a 0526 a6ba 0b6a 673a 3c09 0fbb
000002e0: 68eb fdba dc0b aeba 4598 c5ba 6bdd 5cba
000002f0: 6946 c43a bfde 87b9 2930 7eba 1152 b83a
00000300: dd80 00bb acce feba c031 9db8 7683 e23a
00000310: 3d68 7fba 55f3 843a ae8d ccba c708 913a
00000320: 7204 5bba c683 8a3a 94fb 22ba f727 db3a
00000330: ff0b 4e3a 5350 d5ba e65f c83a a956 dbba
00000340: a0ef d8b9 56d0 883a c32a 0dbb 00ab fe3a
00000350: d17e 9cb9 c453 39ba db63 08bb 9a0b d8ba
00000360: 037a a138 19b4 ebba aad1 8839 e4f1 d63a
00000370: 7857 5135 0b0b c2ba d67d 7eba 4706 ad39
00000380: 1bf5 b3b8 2cd3 fc3a a0b8 b83a 0778 a2ba
00000390: 77af 5fb9 0351 2b3a 08a0 d0b9 bfc7 96b9
000003a0: ef9e abba 2484 ecba bedb f6ba 8685 943a
000003b0: 6783 beba 0234 8339 92a5 dc3a 2e09 1eba
000003c0: 2669 0abe 7a3f 173f f789 ce3e 136e 8bbe
000003d0: 90cb 943e 82be c0be 67a1 13bf 960e 413d
000003e0: 1b56 bebe 7db7 533e 83d0 403f a33e b33d
000003f0: 8beb 9d3e 86ec a7be de4c 1fbf f86c 083b
-0.56554615 0.47580683 0.8667844 -0.6153494 -0.48992476 0.57985353 0.8745263 -0.55495006
-0.51226795 0.6802071 0.9859896 -0.35827336 -0.4923115 0.6158228 0.91990685 -0.5084592
-0.47800124 0.569175 0.85819787 -0.5680392 -0.50066054 0.6577581 0.95921606 -0.4319858
-0.496332 0.6512486 0.95307523 -0.45069808 -0.5661866 0.4738721 0.8670896 -0.62128085
-0.48897934 0.5696014 0.8846081 -0.5578505 -0.42113316 0.54951656 0.8063609 -0.66046506
-0.52944905 0.67999244 1.0088269 -0.30802852 -0.66561973 0.44380763 0.931373 -0.54814464
-0.50215715 0.6662216 0.9650786 -0.41429707 -0.622261 0.4717284 0.89358497 -0.6028749
-0.6371126 0.46397492 0.90218014 -0.59084266 -0.4494582 0.53809613 0.8440596 -0.60492903
-0.53758276 0.48925123 0.8523691 -0.6148532 -0.58846605 0.47560397 0.8790829 -0.61296004
-0.7515158 0.36021832 0.99150926 -0.3323085 -0.5787396 0.4791089 0.87104714 -0.61732894
-0.6207277 0.47192165 0.89149433 -0.60294026 -0.57764465 0.4802052 0.8752867 -0.6182491
-0.6326088 0.46553823 0.90002793 -0.59568113 -0.5284601 0.6791586 1.0062684 -0.30452624
-0.49990296 0.66009116 0.94083804 -0.43393737 -0.61220306 0.47380626 0.8894881 -0.6065375
-0.63034666 0.46723157 0.8973001 -0.59309214 -0.52385837 0.681683 1.004837 -0.3167681
-0.6080766 0.47631645 0.8900789 -0.6067205 -0.4174468 0.5685478 0.7912341 -0.6656667
-0.00010234844 -0.0016610759 -0.0008808602 -0.0013618197 0.0004437922 -0.0012557993 0.001028605 -0.002059439
-0.00018746918 -0.00019144766 0.0019194259 -0.0013672595 -0.0015501073 -0.00053966156 0.0016490754 0.00036253745
0.00066903234 -0.0017056747 0.0017948389 0.0012219206 -0.00035537005 -0.0019809464 -0.0009811373 0.0013331176
0.0021952956 0.00038619046 0.001303414 -0.0016350384 5.4320266e-05 -0.00059302157 -0.0014465492 0.00055312266
0.0019601325 -0.0021098456 0.0011338252 -0.0013068798 -0.0007147228 -9.110184e-05 -0.0016304067 -0.0007738727
-0.00036391572 0.00012292108 0.0009299506 -0.0010011721 5.4639397e-05 0.00030386713 0.0015646107 -0.0021622414
0.0013090051 -0.00051180954 -0.0015348858 7.587966e-05 -0.0016645383 0.00058523193 0.0014343832 0.0015684471
-0.00063476997 -0.0013484708 0.0011267778 0.002117724 0.00074355316 -0.0012676126 0.00088277523 -0.0021825572
-0.0019372525 -0.0013278681 -0.0015075287 -0.0008425328 0.0014974597 -0.00025915165 -0.00096965075 0.0014062544
-0.0019608059 -0.0019440255 -7.49561e-05 0.001728161 -0.0009743011 0.0010143319 -0.0015606189 0.0011065238
-0.00083548494 0.0010567836 -0.00062172976 0.0016720284 0.0007860064 -0.0016274549 0.0015287369 -0.0016734201
-0.00041377265 0.0010438066 -0.002154038 0.0019429624 -0.00029849124 -0.0007069672 -0.0020811472 -0.001648295
7.699805e-05 -0.001798275 0.00026096153 0.0016398993 7.798585e-07 -0.0014804316 -0.0009708082 0.00033001808
-8.5810396e-05 0.0019289008 0.0014093108 -0.001239539 -0.00021332303 0.0006535204 -0.00039792084 -0.00028759052
-0.001309363 -0.0018044752 -0.0018833799 0.0011331297 -0.001453501 0.00025025016 0.0016834012 -0.00060285896
-0.13516673 0.5908123 0.40339634 -0.27232417 0.29061556 -0.37645346 -0.57668155 0.04713305
-0.37175068 0.20675464 0.75318164 0.087521814 0.30843768 -0.3279764 -0.62226665 0.0020816904

lstm.weight_hh_l0 f4 [120, 30]
00000000: f2e6 5cba 4071 e5b9 f435 04b9 e06d ed3a
00000010: ad9c 44ba 657b d8b8 7b75 93ba ccca f33a
00000020: f014 02bb e843 5e3a 2e1b f63a 8616 a1ba
00000030: 57dc e03a b97a 0e3a 26f9 ef3a e660 93b9
00000040: a925 bdba 32fe 23ba 13d0 8c3a 9cf2 313a
00000050: 4a44 8eb9 967d 0aba 94e8 9939 07bb 0cba
00000060: a9ba dfba e274 fc3a ac9a 90ba 1b2f d0ba
00000070: 6939 343a 267e 63ba e29e feba 90e6 ffb9
00000080: 4eb2 0bba 4eba c639 3a2c a539 f42e ecba
00000090: 4403 98ba de34 bcb9 7ed9 483a f983 7c39
000000a0: 25ee c7b9 de7f afba e2b2 5dba 82ec da3a
000000b0: 4a90 b2b9 cdff a23a 8c28 0dba adbc 3eb8
000000c0: af7b 8d39 517f ffba f614 503a 6dfc dd3a
000000d0: 13a7 d1ba 32d2 6bba 7e97 bf3a 6523 b439
000000e0: ec1b 87ba e2f2 43ba e0bf 1839 4462 833a
000000f0: a4fc 4b3a 71ed f539 9c1a 6d3a a595 e83a
00000100: 9a5b 3a3a 11d3 f03a d02b dfb9 d211 eaba
00000110: b7df f6b9 0d6b feba cebd e4ba fbe7 cf3a
00000120: 13c3 a5ba d8e5 c63a 9a65 b7b9 824d 30b9
00000130: 6f5c 1f3a 112f dbba cef0 f939 714f 593a
00000140: 05f0 e03a 8a6f e73a c555 a13a 1f70 f2ba
00000150: 514f 6c3a 42dd d43a bb0c e2ba e4db 2d3a
00000160: 8cad cfba 0bcb 88ba fb8e d638 9e87 89ba
00000170: 5b84 48b8 8c24 daba 0da8 503a b9ca 92ba
00000180: e650 e139 f48d f239 2abc 52b9 6384 24ba
00000190: 15cd f8ba e88a 9e3a 7f0a 1f3a a2b1 adba
000001a0: 211f 913a eee0 2d3a eae6 69b9 f2dc deba
000001b0: 6924 993a 1fe1 d139 c760 013b ec1f b9ba
000001c0: d70b 89b9 79e4 d1ba d653 c3ba da0e ccb9
000001d0: 1d21 b43a 42b1 e83a 5ba9 c73a 2936 23ba
000001e0: 7fc5 a5ba 8a25 65ba 9c28 be3a 1f32 ab3a
000001f0: f25d ef3a 73fe 92ba d1e9 8bba 340b 703a
00000200: 8cb4 763a 427a 2bba fb76 003b 8e77 3a3a
00000210: c3ef 33ba 5135 dcba 4021 34ba 1b17 673a
00000220: 6d01 5a3a 2c91 bc3a 22dd f2ba 7ebb 3aba
00000230: bd31 883a d875 e0ba fa9d 9dba ffee 33ba
00000240: 5997 44ba 9260 9fba a51f dc3a b79d 5aba
00000250: 3612 9639 a0b5 b63a d833 c339 7738 0a3a
00000260: b32d 173a 8289 34ba 5161 ea3a c751 a3ba
00000270: e017 a8b9 0f20 f4ba 61d7 583a 6716 78ba
00000280: 8866 0c3a c151 9e3a 691d ccb9 7278 013b
00000290: 6705 013b 54f4 a7ba c7f5 f2ba 0b15 88ba
000002a0: 673e 95b9 38aa bb3a 71fd 7139 c5b0 aaba
000002b0: 343f f0b9 8284 f6ba 24e1 e93a f43d 563a
000002c0: 0b5f 5839 af27 ad38 3445 2dba 5197 df3a
000002d0: 5208 3a3a 6951 a639 2ecb 9cba 5d50 d83a
000002e0: 1759 183a 98b1 a33a 88b1 d43a e634 ad3a
000002f0: ffbb f5ba cdd7 d03a 2259 faba 5df2 adba
00000300: 9c8c afba 79e1 9eb9 f660 b53a 4464 98ba
00000310: cd1a d73a a2d1 d13a a725 61ba af3b 7fba
00000320: a725 73ba b9da dab9 0f9d e238 8400 98b8
00000330: ad00 20ba c99c b0ba 6981 393a 96a8 ee3a
00000340: 8c74 893a 8478 ff3a ccf3 023b cef4 ee3a
00000350: dab6 bb3a c95e 183a 361d a23a 0769 f4b9
00000360: ec89 bb3a 32a8 7db9 d2fa 6a39 6dee dcba
00000370: f6de a7ba 75ec a0ba ac60 8aba d558 a139
00000380: 8ae5 6cba ad68 cb39 9212 f93a 8b15 003b
00000390: 4043 ce3a d2d5 013b 5b4f bdba 8a3d ccb9
000003a0: 690d 94ba 6b89 d6ba 0721 7cb9 f021 513a
000003b0: f18a 003b a33d feb9 3e98 6fba ab43 af3a
000003c0: c9f8 783a 3418 8fba 6d5f 3ab9 5513 edb9
000003d0: 6316 eaba 71fc e53a 5d47 a73a 2e16 b13a
000003e0: 15a3 d3ba d235 caba 6f96 f7ba d791 84ba
000003f0: cb93 0c3a 6d34 fc3a 7148 bf3a 3a8f c4ba
-0.00084267475 -0.00043762662 -0.000126086 0.001811441 -0.0007500153 -0.00010322667 -0.0011250222 0.0018599867
-0.0019848906 0.0008478747 0.0018776411 -0.0012290038 0.001715551 0.0005435157 0.0018308505 -0.0002811022
-0.0014430779 -0.00062558346 0.0010743163 0.0006788166 -0.0002713523 -0.0005282996 0.00029355718 -0.00053684454
-0.0017069179 0.0019260908 -0.0011032424 -0.0015883179 0.000687501 -0.00086781604 -0.0019426013 -0.00048809173
-0.00053289987 0.0003790431 0.00031504204 -0.0018019364 -0.0011597653 -0.00035897543 0.00076618034 0.00024081756
-0.0003813367 -0.0013389548 -0.00084571366 0.0016702565 -0.0003405831 0.0012435854 -0.0005384765 -4.5475248e-05
0.00026985767 -0.0019492899 0.0007937694 0.0016936191 -0.0015995227 -0.000899586 0.0014617292 0.00034358646
-0.0010308004 -0.0007474852 0.00014567329 0.0010023792 0.0007781482 0.0004690695 0.00090447976 0.0017744793
0.00071089866 0.001837345 -0.00042566517 -0.0017858094 -0.00047087457 -0.0019410566 -0.0017451586 0.0015861982
-0.0012646638 0.00151747 -0.0003498018 -0.00016813542 0.00060791423 -0.0016722401 0.00047672394 0.0008289731
0.0017161375 0.0017657143 0.0012308887 -0.001849655 0.00090145046 0.0016240256 -0.0017246226 0.00066321925
-0.0015844568 -0.0010436488 0.000102309474 -0.0010492688 -4.780698e-05 -0.0016642972 0.0007959612 -0.0011199332
0.00042975618 0.000462636 -0.00020097257 -0.00062758307 -0.0018982018 0.0012095841 0.00060669327 -0.0013251791
0.0011071899 0.00066329434 -0.00022306634 -0.0017003103 0.0011683825 0.00040031315 0.0019741522 -0.0014123893
-0.00026139498 -0.0016013525 -0.0014902304 -0.00038920977 0.0013742779 0.0017753022 0.0015232967 -0.0006226027
-0.0012647359 -0.00087412505 0.0014507952 0.0013061202 0.0018262251 -0.0011214748 -0.0010674541 0.0009156943
0.0009411059 -0.000654135 0.0019602168 0.0007113152 -0.00068640354 -0.0016800557 -0.000687141 0.00088153937
0.00083162525 0.0014386526 -0.0018529037 -0.00071232754 0.00103908 -0.0017124964 -0.001202523 -0.00068639213
-0.0007499359 -0.0012159518 0.0016794099 -0.00083395414 0.00028623798 0.0013939627 0.00037231925 0.0005272696
0.00057670026 -0.00068869453 0.0017881786 -0.0012460285 -0.00032061245 -0.0018625277 0.000827184 -0.00094637874
0.00053558545 0.0012078808 -0.00038931824 0.001975563 0.0019687058 -0.0012813904 -0.0018536382 -0.0010382248
-0.00028465988 0.0014317697 0.00023077965 -0.0013022652 -0.00045823457 -0.0018807801 0.0017843586 0.0008172684
0.00020634771 8.2566745e-05 -0.00066097383 0.0017058646 0.0007096577 0.00031722643 -0.0011962408 0.0016503442
0.0005811615 0.001248884 0.0016227225 0.0013214618 -0.0018748044 0.0015933454 -0.001910005 -0.0013271082
-0.0013393345 -0.000303041 0.0013838101 -0.0011626561 0.0016411185 0.001600791 -0.00085886795 -0.00097363716
-0.0009275325 -0.0004174316 0.00010805774 -7.248021e-05 -0.00061036163 -0.001347446 0.00070764736 0.0018208202
0.0010487004 0.0019490873 0.001998174 0.0018230916 0.0014321462 0.0005812464 0.0012368325 -0.00046617558
0.0014308072 -0.00024190618 0.00022409417 -0.0016855724 -0.0012807536 -0.0012277501 -0.0010557375 0.00030774498
-0.00090368895 0.00038797167 0.0019002727 0.001954409 0.0015736595 0.0019811285 -0.0014443205 -0.00038955762
-0.00112955 -0.0016367858 -0.00024044896 0.00079777744 0.0019614066 -0.00048492578 -0.00091398123 0.0013371607
0.0009497521 -0.0010917247 -0.00017773891 -0.00045218566 -0.0017859455 0.0017546547 0.0012762357 0.0013510638
-0.0016146625 -0.0015427417 -0.0018889437 -0.0010114264 0.0005362599 0.0019241698 0.0014593733 -0.0014996298

lstm.weight_ih_l1 f4 [120, 30]
00000000: cb20 9e3e 8f0d 15bf e44f 493f 9d72 2abf
00000010: 3420 0f3f 9cab 3c3f dd7b 393f 0915 9fbe
00000020: fe94 153f 29b3 f13e bc73 513f 3f10 563e
00000030: 7dd7 3f3f d0d5 87be 1fbb 813e 1226 05bf
00000040: 1f69 ae3e 1ff5 94be 342a b83c f5ff 97be
00000050: a9b8 87be c4ec 97be 72fe 833e 3f9c 50bf
00000060: 960b 393f a230 8b3e 6d03 853e d6a1 4fbf
00000070: bff3 8b3e 27e2 ed3e 86be 9c3e 8bf9 14bf
00000080: f893 493f 8bec 2abf 0936 0f3f 95a7 3c3f
00000090: 37ac 393f f066 9ebe 477a 153f 4bd2 f03e
000000a0: 61fa 513f 3600 553e 9e4f 403f 2c85 87be
000000b0: b319 823e fd92 05bf 0b46 af3e 673b 95be
000000c0: 8e6b aa3c 09d3 98be eaa9 87be b16e 98be
000000d0: d323 833e b2ad 50bf c97a 393f 5526 8b3e
000000e0: 1820 833e 47e5 4ebf 910c 8c3e c4cc ed3e
000000f0: 2926 9d3e 7212 16bf 7dd4 483f 8529 2abf
00000100: 614a 103f 0717 3d3f 2153 393f cd52 a0be
00000110: 6478 153f 2585 f13e f280 513f 9553 543e
00000120: a639 403f 0fbd 89be 8a55 823e 0481 05bf
00000130: 8874 af3e cf4a 96be 3536 763c 37b7 98be
00000140: d34e 88be 733f 9abe 82bd 843e bf77 50bf
00000150: 7c57 393f 316d 8c3e b6c2 853e 1642 4ebf
00000160: c1e2 8d3e 94e3 ee3e 1533 9e3e 1462 15bf
00000170: 573d 493f ca1a 2abf 4f40 103f c151 3c3f
00000180: 5f11 393f 9b02 a0be 6bc9 153f 037e f03e
00000190: 76f5 503f 5e33 593e 3ad4 3f3f 86c8 88be
000001a0: 0194 833e cc85 05bf 7432 b03e f6d1 95be
000001b0: 65c2 923c 2ecd 99be 8db1 89be 9caf 9abe
000001c0: 9869 853e 71da 4fbf cd10 393f 3488 8c3e
000001d0: f077 863e 070c 4fbf 6e38 8d3e 8077 ef3e
000001e0: 0b40 9e3e c719 15bf 80a1 493f 38a3 2abf
000001f0: 7c7e 0f3f b920 3d3f 0f01 3a3f 5dbc 9fbe
00000200: 299e 153f 6232 f13e 5b7d 513f 92fb 563e
00000210: d7c8 3f3f d2c6 88be dd68 823e a468 05bf
00000220: 9914 af3e 16dc 95be 1a98 993c 562b 99be
00000230: 4ce8 88be 8dbc 99be c0a4 833e d14b 50bf
00000240: f3d2 393f c3e3 8c3e 3b08 853e d389 4ebf
00000250: a3fb 8c3e 11c8 ed3e 9a2d 9f3e 561d 15bf
00000260: ba0b 493f 17e0 29bf a2c5 0f3f e8f1 3b3f
00000270: 3e4f 393f d285 a1be 8238 153f aa39 f13e
00000280: a344 503f 39db 583e 6c3d 3f3f ad86 89be
00000290: 3252 833e 986f 05bf a6f7 b03e 1ce2 96be
000002a0: af4c 913c efaf 99be fcf3 89be c92a 9bbe
000002b0: c06c 853e 5e31 50bf fc8f 393f 699f 8e3e
000002c0: b533 863e 498d 4ebf 99a2 8d3e ec30 ee3e
000002d0: ef05 9e3e 0cd0 15bf 9c44 493f e236 2abf
000002e0: fd99 0f3f 98ca 3c3f 3178 393f c6e9 9fbe
000002f0: 5315 153f 1c3e f03e 0f52 513f 44a3 543e
00000300: 5deb 3f3f 5067 88be 4a98 833e ccca 04bf
00000310: ae07 b13e 2303 97be 76b0 993c a216 99be
00000320: 236d 89be 0072 9abe 83d8 853e d048 50bf
00000330: eb9c 393f 8be9 8d3e a543 853e 4c19 4fbf
00000340: 2503 8e3e eab4 ed3e b7d8 9a3e ebca 15bf
00000350: e41b 4a3f c27b 2bbf 183f 103f 0325 3e3f
00000360: 557a 3a3f 2c6b 9dbe 21ef 153f d29f f03e
00000370: 3c26 523f 2b90 533e aa32 413f 95ea 85be
00000380: 83fa 7d3e 7b21 05bf 654f ad3e 81de 93be
00000390: 4ee3 8f3c 63e6 96be 393e 85be 87ce 95be
000003a0: 5086 823e 50f5 50bf 67ae 393f af0b 893e
000003b0: e7fc 803e 3079 4fbf 0182 893e 95cd ed3e
000003c0: c60c 9f3e 9782 15bf 2c5e 493f e72f 2abf
000003d0: 8d5d 103f 8cb1 3c3f cecd 393f 7c0d a0be
000003e0: 489c 153f 052e f13e 9af6 503f b0cb 573e
000003f0: d5db 3f3f 9e06 88be 0aee 823e 83bc 04bf
0.30884394 -0.58223814 0.7863753 -0.66581136 0.55908513 0.73699355 0.72454625 -0.31070736
0.5843047 0.47207 0.8181722 0.20904635 0.74938184 -0.26530313 0.25338075 -0.52011216
0.34064576 -0.29093263 0.022481062 -0.29687467 -0.26508072 -0.29672825 0.25780064 -0.8148841
0.72283304 0.2718554 0.25979176 -0.8110632 0.273344 0.46461603 0.30614108 -0.5819327
0.7874141 -0.66767186 0.55941826 0.7369321 0.72528404 -0.3093791 0.58389705 0.4703544
0.8202267 0.20800862 0.75121486 -0.2646879 0.25410232 -0.5217741 0.34233126 -0.29146883
0.02080324 -0.29848507 -0.26496822 -0.2977195 0.2561327 -0.8151504 0.7245298 0.27177683
0.25610423 -0.808186 0.27353337 0.46445286 0.30693176 -0.58621895 0.7844923 -0.66469604
0.56363493 0.7386326 0.7239247 -0.31313172 0.58386827 0.47171894 0.8183738 0.20735009
0.75087965 -0.26902053 0.25455886 -0.5214999 0.34268594 -0.2935395 0.015027572 -0.29827282
-0.26622638 -0.30126533 0.25925833 -0.8143272 0.72399116 0.27427056 0.26125115 -0.8056959
0.27712062 0.46658003 0.30898347 -0.5835278 0.7860922 -0.66447127 0.5634813 0.73562247
0.7229213 -0.31251988 0.58510464 0.4697114 0.81624544 0.21211001 0.7493321 -0.26715487
0.25698856 -0.5215728 0.34413493 -0.2926175 0.01791496 -0.30039352 -0.26893273 -0.30212104
0.26057124 -0.8119269 0.7229126 0.27447665 0.2626338 -0.8087773 0.27582115 0.4677086
0.30908236 -0.5824246 0.78762054 -0.666553 0.56052375 0.73878056 0.72657865 -0.31198397
0.5844446 0.47108752 0.818319 0.20994404 0.7491583 -0.26714188 0.2547063 -0.52112794
0.34195402 -0.29269475 0.018749285 -0.29915875 -0.26739728 -0.30026665 0.25711632 -0.81365687
0.7258751 0.27517518 0.25982842 -0.80679053 0.27535734 0.464417 0.3108948 -0.5824789
0.7853352 -0.6635756 0.5616094 0.73415995 0.7238654 -0.3154741 0.5828935 0.47114307
0.8135473 0.21177377 0.747031 -0.26860562 0.25648648 -0.52123404 0.3456394 -0.29469383
0.01773676 -0.3001704 -0.26943958 -0.3030608 0.26059532 -0.8132533 0.7248533 0.27855995
0.26211324 -0.80684334 0.27663115 0.465217 0.30863902 -0.5852058 0.78620315 -0.66489995
0.5609434 0.73746634 0.7244902 -0.31233042 0.58235663 0.46922386 0.81765836 0.20765406
0.7496851 -0.2664132 0.25702125 -0.51871943 0.34576172 -0.2949458 0.018760901 -0.2990008
-0.26841077 -0.301651 0.26141748 -0.81361103 0.7250506 0.27717242 0.2602817 -0.80897975
0.27736774 0.4642709 0.30243465 -0.58512753 0.7894881 -0.66985714 0.56346273 0.74275225
0.72842914 -0.30745828 0.58568007 0.46996933 0.8208959 0.20660464 0.7546793 -0.26155534
0.24802594 -0.5200421 0.33849636 -0.28880695 0.017564442 -0.29472646 -0.26024035 -0.2925913
0.25493097 -0.8162432 0.7253174 0.26766726 0.2519295 -0.8104429 0.26856998 0.4644591
0.31064433 -0.5840239 0.7865932 -0.66479343 0.5639275 0.73708415 0.7257966 -0.31260288
0.5844159 0.47105423 0.81626284 0.21073794 0.7494481 -0.2656755 0.25572234 -0.51850146

lstm.weight_hh_l1 f4 [120, 30]
00000000: 8ef3 d1ba fe8a a73a bb85 82ba 2aac 38ba
00000010: d4b0 d53a f8eb ca39 7f7d 013b 3cda e23a
00000020: 3acf c03a 03b7 beba 8155 8039 d4ca e8ba
00000030: 32da bdba 0f73 fa3a 3435 96ba 4cee 833a
00000040: 2522 af39 0b15 c23a 05ca 943a 19ee 79ba
00000050: 4220 1fba 9468 3639 b3bd 01b9 ea04 843a
00000060: 71fd 8eb8 5506 b63a b1ae 4bba fdb5 76ba
00000070: 92d1 b33a 6b6a 353a d6c0 fb39 4d67 6939
00000080: 6fac 233a 61cb 343a 7513 6837 0daa d93a
00000090: f82b c8ba 42ea e7ba f265 b5ba b5dc 6b3a
000000a0: fd59 70b9 4623 b1ba 0b9f 6f39 900a fa39
000000b0: d473 35ba 7369 b1ba c371 3e3a 86eb d238
000000c0: dada 89ba 9a59 71b8 9ed7 4e3a cf27 2339
000000d0: 2b55 853a 3caf 2839 9889 f5ba 3427 bbba
000000e0: 07e4 f73a 0148 b439 e298 f3ba bf56 beba
000000f0: 7c45 edba 3232 acba 4821 f239 9032 a2ba
00000100: 9a9c faba fe4c 9e39 2c0d d53a a0e2 193a
00000110: 2553 9e3a dead c2ba f9d8 deba 1b6b 803a
00000120: 90e2 15b9 73e8 dfb8 7955 bcba b3af 2b3a
00000130: 9281 813a 292a 8b3a 9c08 cab9 fcb0 bc3a
00000140: e69c b8ba 1938 d7ba d258 4eba 0fc3 efba
00000150: 0d28 a1ba 7563 b3ba d1ca 94ba 2460 ee3a
00000160: 262d ffba cbd5 863a 28f5 f0ba 2680 d73a
00000170: 4085 f43a 52d7 b6ba 888f e53a 8c08 e839
00000180: f064 ec3a c9fe 823a 05d4 543a bf8d 6f3a
00000190: 924c b4ba c735 713a 963b adb9 0900 e53a
000001a0: 9c48 73ba b19c 4d3a 1760 d6ba 05b7 d9ba
000001b0: ea60 55ba bf6a a1ba 1ff7 43ba 92fd 9f3a
000001c0: 0767 4bba d39c 9f3a 0d80 c23a 986e 61b8
000001d0: 59ce fdba bb9b 3c3a 4a62 33ba 3a38 b7b9
000001e0: 8e76 953a 59b9 dd37 0b42 84ba 7790 81ba
000001f0: f2b4 c0ba ac7c 8db8 a518 7cb9 3c31 63ba
00000200: 1371 d6ba b98c 0e3a ffa7 fcba 46c2 e2ba
00000210: 17a9 003a d3a5 9db9 f023 edba c5a0 8a3a
00000220: 5b74 4cb9 509b 01ba 6d79 533a 1f5c 813a
00000230: 7b68 9339 bf7d 463a 9e8b cf3a bb89 a9b9
00000240: c1fa 71ba 1317 06ba 0322 b0ba dccc fbba
00000250: 2771 99b8 86bf 233a d486 d0ba e497 8bba
00000260: a4bc 9bba 3a1e 56ba b3b2 ab3a 2843 f7ba
00000270: 90b6 8339 8a5d bbb9 ac84 8339 f463 963a
00000280: 7cac cab9 e621 cc3a bbca 983a 0572 84ba
00000290: a26b 3b3a 21e6 8c3a 23e3 32b9 d15f 90ba
000002a0: de40 3b3a 237b 99b9 3c3b 013b 0fd1 e739
000002b0: 963b 38ba 341c cfba 8a8c ed3a 52f7 91ba
000002c0: d60a 763a 09c1 bdba 65ab 36ba 8c2c 6bb8
000002d0: a9a4 58ba 2532 c8b9 d142 bab8 61c7 79ba
000002e0: 2ebe 9dba 6ff6 1eba 9c06 cd3a 17e6 d53a
000002f0: 6b91 f0ba 3687 f8ba e2a4 623a 8ad5 8a3a
00000300: 1343 a2b8 2adc 43b7 80ef f83a 4868 a93a
00000310: 5965 f1ba 73cd 86ba f4f5 b439 fa59 aa3a
00000320: a622 9f3a 0d76 9a3a 15b0 ae3a 09ea cc3a
00000330: 407f caba 1737 75ba a6cf 8739 59ed d13a
00000340: a725 63ba 0b77 3939 78d0 013b c7b5 8c3a
00000350: c5d6 a8ba 44f4 c6ba 556b 3f39 0060 1638
00000360: 2546 8db8 0794 c5ba 5753 de3a 2c1d 7cba
00000370: b9b0 b13a eed6 2bba a295 35ba a41f 9b3a
00000380: b7e1 f03a 7a69 65ba 7ffc 9aba 19b9 813a
00000390: e457 c7ba 09bb baba 1164 b339 de86 45ba
000003a0: bfdb f339 6545 523a 405a b73a 6370 5f38
000003b0: de4a 5eba 26a6 74b8 fe18 153a 6953 a93a
000003c0: a365 f5b9 9623 0cb8 844c bb3a 2131 a43a
000003d0: 035e c4ba 3230 cf3a 5f4e a83a 2881 bdb8
000003e0: f4a3 d2ba 4c7f 0d39 b9af 94ba 987e a239
000003f0: 25ae 3f3a 733c 91b9 a092 34ba 4aa4 67b9
-0.001601802 0.0012782512 -0.0009958068 -0.00070446974 0.0016303309 0.00038704253 0.001975864 0.001730747
0.0014710196 -0.0014550391 0.00024477768 -0.0017760643 -0.0014484583 0.0019107776 -0.0011459948 0.0010065525
0.0003340404 0.0014807297 0.001135171 -0.00095340755 -0.00060701754 0.00017395831 -0.00012373067 0.0010072265
-6.818295e-05 0.0013887385 -0.00077698665 -0.00094112736 0.0013719073 0.00069204596 0.00048018125 0.00022259094
0.0006243651 0.0006896761 1.3832808e-05 0.0016606465 -0.0015271893 -0.0017693716 -0.0013839586 0.00089974265
-0.00022921707 -0.0013514541 0.00022852064 0.00047691585 -0.0006921862 -0.0013535455 0.00072648766 0.0001005745
-0.0010517493 -5.7542326e-05 0.0007890406 0.00015559721 0.0010172477 0.00016087008 -0.0018733023 -0.0014278651
0.0018912562 0.00034385922 -0.0018584991 -0.0014521702 -0.0018102373 -0.0013137518 0.00046182633 -0.0012374688
-0.0019120157 0.00030193472 0.0016254536 0.00058702566 0.0012079222 -0.0014852842 -0.0017001919 0.0009797545
-0.00014294148 -0.00010676766 -0.0014368735 0.00065493135 0.0009880534 0.0010617423 -0.00038534857 0.0014396007
-0.0014084845 -0.0016419917 -0.00078715116 -0.0018292385 -0.0012295261 -0.0013686257 -0.0011351948 0.0018186611
-0.0019468411 0.0010287104 -0.0018383609 0.001644139 0.0018655434 -0.0013949669 0.0017514089 0.00044256856
0.0018035453 0.0009994145 0.00081187516 0.0009138248 -0.001375573 0.0009201434 -0.00033041526 0.0017471324
-0.0009280534 0.0007843478 -0.0016355541 -0.001661033 -0.00081397465 -0.0012315138 -0.00074754836 0.0012206307
-0.0007759188 0.0012177475 0.0014839187 -5.374718e-05 -0.0019363865 0.00071948365 -0.00068429543 -0.00034946372
0.001140313 2.6431562e-05 -0.0010090483 -0.0009884973 -0.0014702363 -6.746626e-05 -0.00024041774 -0.0008666699
-0.0016360603 0.00054378394 -0.0019276141 -0.001730033 0.0004908009 -0.00030068922 -0.0018092375 0.0010576478
-0.00019498302 -0.0004944103 0.0008067105 0.0009869373 0.0002811587 0.0007571838 0.0015834456 -0.0003233681
-0.00092307857 -0.00051151327 -0.0013437871 -0.0019210833 -7.316685e-05 0.0006246496 -0.0015909323 -0.0010650125
-0.0011881781 -0.0008167956 0.0013099521 -0.0018864619 0.00025122287 -0.00035737111 0.00025085115 0.001147388
-0.00038656953 0.0015574067 0.0011657098 -0.0010104781 0.00071495224 0.0010749736 -0.00017060018 -0.0011014884
0.000714315 -0.00029274178 0.0019719144 0.00044215514 -0.0007027922 -0.0015801252 0.0018123549 -0.0011136329
0.000938577 -0.0014477085 -0.0006968289 -5.6069854e-05 -0.00082642824 -0.00038184333 -8.881617e-05 -0.0009528306
-0.0012034827 -0.0006063943 0.0015642229 0.0016319182 -0.0018353885 -0.0018961194 0.0008645785 0.0010592204
-7.7372555e-05 -1.1674167e-05 0.0018992275 0.0012924755 -0.0018417045 -0.0010284617 0.00034515525 0.0012996786
0.0012141063 0.001178445 0.0013327623 0.0015633713 -0.00154493 -0.00093542173 0.00025903917 0.001601617
-0.00086649734 0.00017687322 0.0019808095 0.0010735326 -0.0012881389 -0.0015178998 0.00018255164 3.5852194e-05
-6.7364694e-05 -0.0015074023 0.0016962093 -0.0009617384 0.0013556696 -0.00065551593 -0.0006926899 0.0011834991
0.0018377815 -0.0008751374 -0.0011824517 0.0009897082 -0.0015208689 -0.0014246415 0.00034216096 -0.00075350504
0.00046512295 0.0008021205 0.0013988689 5.327201e-05 -0.0008479784 -5.832887e-05 0.0005687623 0.0012918535
-0.00046805767 -3.3411743e-05 0.0014289771 0.0012526849 -0.0014981631 0.001580721 0.0012840739 -9.0362795e-05
-0.001607059 0.0001349423 -0.0011343873 0.00030993368 0.00073120213 -0.00027701593 -0.0006888304 -0.00022091079

fc.weight f4 [1, 30]
00000000: 14ba 9dbf c7b5 9dbf bde3 9e3f 77f7 9ebf
00000010: bac5 9e3f 2d53 9fbf 69e1 9ebf d46c 9d3f
00000020: fedc 9ebf cdd6 9ebf d7a2 9dbf f2ca 9d3f
00000030: c5c7 9e3f 1e1d 9f3f 27a3 9dbf 4948 9f3f
00000040: cde6 9e3f 6863 9d3f 1aa6 9dbf e985 9d3f
00000050: bbe5 9e3f 38ce 9ebf 87c7 9cbf b332 9fbf
00000060: 6dbc 9dbf bef9 9ebf b8b8 9d3f 0fc1 9d3f
00000070: f6ec 9e3f bcbf 9dbf
-1.2322412 -1.2321099 1.241325 -1.241927 1.2404091 -1.2447258 -1.241254 1.2298837
-1.2411191 -1.2409302 -1.231532 1.2327559 1.2404715 1.2430761 -1.2315415 1.2443935
1.2414185 1.2295961 -1.2316315 1.2306491 1.2413858 -1.2406683 -1.2248391 -1.2437347
-1.2323128 -1.2419965 1.2321997 1.2324542 1.2416065 -1.2324138
