models/lstm_pure_seed_43.pt (torch, 50951 bytes, 5 tensors)

lstm.weight_ih_l0 f4 [120, 4]
00000000: 8a25 db3c 00f7 133e e7d9 7bbd 9899 de3e
00000010: 6f0f 783d 379d 1bbd 8790 85bd d0b4 37bd
00000020: 700b 453d b9de 663e 89e6 1ebd b581 bf3e
00000030: 2db3 0f3e 602a 3d3d c96b 98bd 3a2c ce3d
00000040: 1d29 3e3d fc2b 713e 56d9 1abd 33e9 bb3e
00000050: 0db5 2f3d b4f9 643e 34a9 34bd 5cf2 c43e
00000060: fe8f 373d d3e0 643e 2211 30bd 7e2e c13e
00000070: f5a1 993d 2c3e 2b3e 06d0 413e 434d ac3d
00000080: f5cd 92bc 13f9 7ebe 724d 24be 2dd2 1ebe
00000090: edc7 043d e5fe 573e d88b 8cbd e9a3 df3e
000000a0: 325e a0bd 59fc 193e 8923 5fbe 9942 473e
000000b0: 7cf0 9a3d eba1 d63d 0730 d9bc aca4 523e
000000c0: 8e8e dc3c e2da 1d3e 47c7 8fbd 77a3 ef3e
000000d0: ee67 8dbc 2b2c 7dbe 27bc 22be 7379 23be
000000e0: 13a3 9cbc de72 7fbe a0b9 28be 4f99 22be
000000f0: 2f55 ab3d 69ee c1bd 6cf2 96bd 78dc 92bd
00000100: de2e 823d 1924 293e 67e6 48bc 6d2e a13e
00000110: 005d 0fbd a7d8 023e c4b5 72be 257b 31bd
00000120: 5ade b43d 09ad 0fbc 345e b5bc d783 f3bc
00000130: dce4 ad3c f6b7 553e 066f b7bd 89cc ee3e
00000140: 0796 8abc 7c1c 80be bd39 2cbe fe9e 20be
00000150: 68b2 1dbc 8915 7dbe fef9 19be 38f1 25be
00000160: bf98 673d 31fa a23d 62ab 21be 99a5 ce3d
00000170: 96a3 523d b46e 513e 25d5 e7bc 005c c03e
00000180: 54f6 033d 60d7 7dbc 3b04 69bd 2939 2d3d
00000190: dc63 6e3d 0a81 23be 66f4 19be b70f 87bd
000001a0: a2dd 90bb 06bb b23d 3cc6 3ebe 604c f63c
000001b0: f324 73bc f837 80be 25d6 21be 0ecf 23be
000001c0: 6357 753d 95f6 3f3e 8908 98bc a63a b63e
000001d0: 18ea 2a3d 6b4f 5a3e 41c7 5abd a958 cd3e
000001e0: 9868 94ba ad0f b3ba 1b81 77ba 77cb 093a
000001f0: 7724 2c38 ea73 6cb9 8a15 2a3a f528 cfb9
00000200: c897 8bba e76e 82ba 11c2 67b9 8116 8dba
00000210: f788 c8ba 9d0f 9aba 95a7 80ba 739a 533a
00000220: e0e1 89ba aaf3 89ba 73cb 8a3a b390 44b9
00000230: 4f72 ce3a 38ed 0b39 c188 903a 2fde 9a3a
00000240: ad13 43ba 5ebc 39b9 be2f 5a3a 8bed 773a
00000250: 222b d6ba 4e1b 083b 2b22 eaba 2228 043b
00000260: 27c3 02bb 103b 4f3a f420 e8ba d842 a0ba
00000270: e887 9cba 87df ed3a 32e2 60ba 8b4b 6a3a
00000280: 134d a33a 573f d9b9 6cf4 1cba 788a 8b3a
00000290: 4513 ecba af09 b3ba b600 ecba 0089 0f3b
000002a0: fca4 b8b8 8865 1438 9058 51ba 95a8 b6ba
000002b0: a354 7738 77ae d2ba d6ca 0c3b e039 cfba
000002c0: 3798 95ba 2efc bcba 6403 b6ba e19d 3a3a
000002d0: 7c3c 483a ed11 cdba 0260 6a3a 8dc5 af3a
000002e0: 0358 ff3a ff73 94ba b4f4 be3a 14e8 b9ba
000002f0: 9981 7fba ab9f bcba f4c5 913a 3052 b339
00000300: 9173 5239 47e4 c23a 40c0 b6ba 75ef 3bba
00000310: 424b 35ba 8fa0 84ba 9355 e2ba 78d8 4839
00000320: c85e 05bb e0dc 21ba c1cc 123a 8e79 073b
00000330: 7c33 9439 4767 dd3a 8b30 c33a 2f5e a1ba
00000340: 8744 cdb9 b745 f2ba c37f e138 212d 003b
00000350: 7128 10bb 7b9e adba 604b fdb9 b178 753a
00000360: 14ac 073b 1455 e5b9 897b 64ba 4fa3 ef3a
00000370: ee68 b13a 0d31 9fba f5b4 043a d3f1 073b
00000380: a2b6 9b3a a9de f53a 5c8d f6ba 0958 bf3a
00000390: c2ae 1639 71bb b5b9 c30e 04bb dccf d4ba
000003a0: 8453 3cb9 619f ff3a 00ba 473a 8ea4 be3a
000003b0: 5a82 8dba 34bb e43a 734b 083b ea38 8b3a
000003c0: 1571 9abc c9b6 033e 7b24 73bd d582 23be
000003d0: d08a f53d a188 063c 02d3 d33d f421 a13d
000003e0: 88cd 7fbc e147 253e fb75 b2bd acfe 1bbe
000003f0: 0991 b9bd 8193 d43d a4d0 94bd b420 8c3c
0.026751298 0.14449692 -0.061487105 0.43476558 0.060561594 -0.03799173 -0.06521707 -0.04485017
0.04810661 0.225459 -0.038794074 0.37403646 0.14033194 0.04618299 -0.074424334 0.10067029
0.046425927 0.23551935 -0.037804924 0.36701354 0.042897273 0.22360879 -0.044106677 0.38466156
0.044815056 0.22351389 -0.04298509 0.37730783 0.07501594 0.16722935 0.18927011 0.08413174
-0.017920474 -0.24899702 -0.16045168 -0.15509863 0.032417227 0.21093328 -0.068626106 0.4367974
-0.07830466 0.15037669 -0.217909 0.19458999 0.075654 0.10480102 -0.026512159 0.2057063
0.026923444 0.15415528 -0.07020431 0.468044 -0.017261472 -0.2472388 -0.15892087 -0.15964298
-0.019120729 -0.24946162 -0.1647706 -0.15878795 0.08365857 -0.09469301 -0.07370457 -0.07170957
0.063565955 0.16517676 -0.012261963 0.31480733 -0.0350008 0.12777959 -0.2370215 -0.04333033
0.08831473 -0.008769282 -0.022139646 -0.029725952 0.021227293 0.20870957 -0.08956723 0.46640423
-0.016917242 -0.25021732 -0.168189 -0.1568565 -0.009625055 -0.24715246 -0.1503677 -0.16205299
0.056542154 0.079578765 -0.15788034 0.10090179 0.05142554 0.20452386 -0.028299877 0.3757019
0.03221734 -0.015493244 -0.0568888 0.04229084 0.058200702 -0.15967193 -0.15034637 -0.06594794
-0.004420952 0.08727078 -0.18630308 0.030065715 -0.014840352 -0.250427 -0.15804346 -0.15996954
0.05989779 0.18746407 -0.018558757 0.3559162 0.041727155 0.21319358 -0.05341268 0.40106705
-0.0011322675 -0.0013661288 -0.00094415405 0.0005256454 4.1041956e-05 -0.00022549895 0.0006488195 -0.00039512632
-0.0010650093 -0.0009951264 -0.00022102172 -0.0010764153 -0.0015299608 -0.0011753921 -0.0009815568 0.0008072026
-0.0010519587 -0.0010524888 0.0010589197 -0.00018745921 0.0015750619 0.00013344444 0.0011027084 0.0011815483
-0.00074415916 -0.00017713147 0.0008323154 0.0009457699 -0.0016339759 0.0020768228 -0.0017862966 0.0020165523
-0.0019952746 0.00079052243 -0.0017710016 -0.0012226952 -0.0011942359 0.0018148281 -0.00085786276 0.00089376484
0.0012458883 -0.00041436657 -0.00059873494 0.0010646125 -0.0018011114 -0.0013659502 -0.0018005583 0.0021901727
-8.8045344e-05 3.5380508e-05 -0.0007985914 -0.0013935739 5.8968213e-05 -0.0016073723 0.0021483204 -0.0015810095
-0.0011413161 -0.0014418417 -0.0013886509 0.00071188627 0.00076384074 -0.0015645601 0.0008940698 0.0013410315
0.0019481186 -0.0011326073 0.0014568777 -0.0014183545 -0.00097467896 -0.0014390846 0.0011121617 0.00034202775
0.00020070212 0.0014869057 -0.0013942793 -0.0007169166 -0.00069158163 -0.0010118651 -0.0017267935 0.00019154127
-0.0020350683 -0.00061745755 0.0005599969 0.0020671817 0.0002826712 0.0016891741 0.0014891786 -0.0012311394
-0.00039151704 -0.0018483911 0.000107526335 0.001955815 -0.0021996761 -0.0013246083 -0.0004831208 0.0009363993
0.0020701932 -0.00043741672 -0.0008715918 0.0018282923 0.00135353 -0.0012145356 0.0005062365 0.0020743504
0.001187999 0.0018758374 -0.0018810439 0.001459838 0.00014370217 -0.00034662665 -0.00201504 -0.0016236263
-0.00017960189 0.0019502455 0.0007618964 0.0014544891 -0.0010796294 0.001745081 0.0020796924 0.001062182
-0.01885275 0.12862696 -0.059360962 -0.15967877 0.11989367 0.008211286 0.10342981 0.07867804
-0.015612967 0.16140701 -0.08713909 -0.15233868 -0.090608664 0.10379697 -0.072663575 0.017105438

lstm.weight_hh_l0 f4 [120, 30]
00000000: 7f06 a1ba 9272 e23a a70b cd39 51a5 d6b9
00000010: 5d87 9439 7392 933a 4832 fcba c3ae a13a
00000020: de7e 933a 2ea8 1c3a 3674 e33a e438 c0ba
00000030: 51ad 59b9 7ae1 683a d433 58ba 2323 26b9
00000040: 4a98 d739 8086 f03a b717 ef39 7e69 7b3a
00000050: 3207 b3ba 1b7a cfba d1dc a9ba dec4 ccba
00000060: bd5c 683a 54c7 033a 9ed7 e839 9859 abba
00000070: 05b6 2b3a 1175 83ba f4ac a73a 9872 fab9
00000080: e8cf 58ba 7b78 90b9 1f58 ab3a 366e d63a
00000090: 0722 a03a ff1c e7ba c92e 8639 bd14 16ba
000000a0: a540 ed39 2c0b e7b9 f8ab 2e3a 382b d13a
000000b0: c559 f4ba c7c3 c23a e285 de3a 7763 bd3a
000000c0: 2ef6 18ba 8225 aa39 8c67 af3a fae8 1a3a
000000d0: 84e0 4dba c359 bdb9 288d 5c3a cd58 c8b9
000000e0: 738a 79ba 5d40 e63a 7a99 73b9 659d 303a
000000f0: c023 013b 4ab7 8e3a 13d7 5eba 9241 85ba
00000100: 69eb 1f3a 3cbf 3cb8 86e3 52b9 ebb1 01bb
00000110: fa6e 4d3a 2adc 46b7 2769 1639 8275 76b8
00000120: 2ae1 f13a 6768 18ba 3a5c a3ba 7b60 b2b9
00000130: d6de adba a207 9eba 757b e9b9 5358 dab8
00000140: de74 6b3a 11ff 97ba bb01 3e3a e8cb 93b8
00000150: 361e 8237 abb7 d33a e897 6f3a 2178 1bb9
00000160: 4a73 b73a 7ffa 0dba 0542 8bba 25c9 bf3a
00000170: af57 9339 32dd 9e3a d13a 1b39 4ebe 503a
00000180: 6dd9 6b3a 9efd 1dba c98c 763a d6d1 cd3a
00000190: f485 e0b9 7b3e 023a 67b7 e0ba 8a41 10b6
000001a0: 28e6 fb3a bfe5 ab3a c9f6 4b38 ad18 013b
000001b0: 3437 603a c75e afba ee95 efba dee9 b03a
000001c0: 9c2c 3aba d21b f7ba 79a5 01ba e26a 9cb9
000001d0: a25b 0e3a 800a 4eba 77fe b337 86f1 6dba
000001e0: 3672 e739 fcac ac3a c79b f43a 987a 2bba
000001f0: 8859 e0ba cd60 84ba 3404 e73a 3e84 823a
00000200: 0b4f 0f39 8cda 1f3a f511 feb9 7541 443a
00000210: 6513 e43a c7a0 97ba dc4d 9b3a 1719 f638
00000220: 8898 f5ba 01ef fa3a 4221 95ba 69b2 a73a
00000230: 5d0b 50ba 84fc 9fb9 ada0 c3ba deeb a73a
00000240: 5999 423a 8c08 413a 15f0 d63a 9023 d23a
00000250: b773 7b3a f646 303a cfa7 a939 f024 b33a
00000260: e09b 00bb 3622 a8b9 7341 96ba 5242 0eba
00000270: f24c 5aba 4eaa ce3a d5b8 05ba 9c47 baba
00000280: c182 a2b9 23cb d53a cf4f 233a 5f2a 5bb9
00000290: 6f3e 093a ec28 edba cf32 a13a 9e07 1cba
000002a0: 055e ffba 09e7 a73a a579 fbba f0f7 65b9
000002b0: 92ad a437 daf0 fd3a 3a20 1bba 9605 0fba
000002c0: bb4f 943a 21da 943a 8841 e33a 4f5a 6f39
000002d0: af85 6bba af7a ecba 5983 5bba 6f76 abba
000002e0: 8cc9 e2ba 34d5 843a 8eb7 6c39 2e9d c0ba
000002f0: daae 3738 e0ef ea38 d8bb 2e39 40a3 153a
00000300: a117 fbba 01f8 6439 3453 2fb9 61b3 43ba
00000310: d122 a339 8272 a3ba 30dd 7b38 f27a 66ba
00000320: b12a 0db9 f4fd 94b4 3cdb e3b9 546b 94ba
00000330: 3cd9 adba 054a 0cba 654b 0db9 de15 b1ba
00000340: f0a7 c4ba dc07 85ba aac5 86ba b5a0 2cb9
00000350: 5755 aaba af59 b7ba 92ef 08ba 11a6 1f3a
00000360: 71f5 8d39 7ae6 f7ba 1148 fdba 34cf d5ba
00000370: 4226 29ba 920a daba cd47 a73a 8440 a93a
00000380: fa0e b3ba dea2 a13a 50aa a03a 1784 953a
00000390: c582 a73a dcfd 0bba 96a3 cb38 3485 b6ba
000003a0: 0d88 713a 65e1 583a 5f16 e4ba a07d efba
000003b0: 55db 58ba 4fe9 dbba 863b 22ba 555f 6b3a
000003c0: 9ad8 eeba d620 2839 77b6 003b 5ffa 3c38
000003d0: 2c3f cf39 7985 3aba 4a7a 97ba 0fab deba
000003e0: 7c4e faba 9028 3cba fb34 7bba 8295 bfb9
000003f0: 0f3d b8b9 8c43 aa3a d435 fb3a acf1 81ba
-0.0012285261 0.0017276576 0.0003910933 -0.0004094043 0.00028329613 0.0011258855 -0.0019241059 0.0012335408
0.0011253019 0.00059759885 0.0017353359 -0.0014665392 -0.00020759298 0.0008883696 -0.0008247469 -0.00015844083
0.0004112146 0.0018350631 0.000456033 0.00095906097 -0.001365876 -0.0015829237 -0.0012959485 -0.0015622636
0.0008863917 0.00050269556 0.00044411136 -0.0013072966 0.00065502553 -0.0010029395 0.0012792633 -0.00047769095
-0.00082707265 -0.00027555585 0.0013072527 0.001635975 0.0012217172 -0.0017632543 0.0002559333 -0.0005725136
0.00045252327 -0.00044068077 0.00066631986 0.0015958315 -0.0018642476 0.0014859372 0.0016977156 0.0014449198
-0.00058350235 0.00032452872 0.00133823 0.000590935 -0.0007853585 -0.00036115767 0.0008413368 -0.00038213134
-0.0009519227 0.0017566789 -0.0002323146 0.0006737321 0.0019705147 0.0010888365 -0.00085006765 -0.0010166636
0.00061004475 -4.5000794e-05 -0.0002011192 -0.0019789885 0.0007836666 -1.1852981e-05 0.00014344287 -5.8760408e-05
0.0018453945 -0.0005813897 -0.0012463399 -0.0003402269 -0.0013265263 -0.0012056718 -0.00044533206 -0.00010411502
0.0008981953 -0.0011596401 0.00072481827 -7.047487e-05 1.5511276e-05 0.001615276 0.0009139762 -0.00014826703
0.0013996151 -0.000541605 -0.0010624534 0.0014632089 0.00028103354 0.0012120365 0.00014803863 0.0007962928
0.00089969375 -0.00060268666 0.0009405134 0.0015702795 -0.00042824412 0.0004968417 -0.0017144502 -2.149582e-06
0.0019218372 0.0013114734 4.8628808e-05 0.0019698546 0.0008553148 -0.0013379686 -0.0018278935 0.0013497432
-0.0007101984 -0.0018852896 -0.0004945617 -0.00029834273 0.00054305245 -0.0007859841 2.1456957e-05 -0.00090768223
0.00044144847 0.0013174112 0.0018662148 -0.00065414 -0.0017116526 -0.001009965 0.0017625154 0.0009957624
0.00013666989 0.00060979347 -0.00048460034 0.00074865605 0.00174008 -0.0011568301 0.0011848765 0.000117348674
-0.0018737474 0.0019144715 -0.001137771 0.0012794259 -0.00079362636 -0.00030514982 -0.0014925204 0.0012811383
0.0007423363 0.00073636393 0.0016398454 0.0016032327 0.0009592133 0.0006724441 0.0003235922 0.0013667624
-0.0019624159 -0.00032068946 -0.0011463597 -0.00054267526 -0.0008327506 0.0015767307 -0.00051010895 -0.0014212015
-0.00030996467 0.001631115 0.0006229849 -0.00020901252 0.00052354386 -0.0018093861 0.0012298467 -0.0005952063
-0.0019482976 0.0012809943 -0.0019186033 -0.00021931506 1.9631148e-05 0.0019374148 -0.0005917583 -0.00054558495
0.0011315265 0.0011356511 0.0017338255 0.00022826459 -0.0008984459 -0.0018041934 -0.00083737593 -0.0013081561
-0.0017302497 0.001013434 0.00022575093 -0.0014695281 4.3793443e-05 0.0001120267 0.0001666391 0.0005708225
-0.0019156822 0.00021836163 -0.00016720296 -0.0007465389 0.00031115723 -0.0012470039 6.004906e-05 -0.0008792124
-0.00013462712 -2.7751923e-07 -0.00043460156 -0.001132349 -0.0013263593 -0.0005351606 -0.00013474895 -0.0013510545
-0.0015003663 -0.0010149437 -0.0010282297 -0.00016463066 -0.0012995404 -0.001398852 -0.0005223687 0.00060901145
0.00027076484 -0.0018913292 -0.0019323846 -0.0016312362 -0.0006452539 -0.001663523 0.0012762487 0.0012912904
-0.001366108 0.0012331863 0.0012257788 0.0011407164 0.0012780061 -0.0005340257 9.7102646e-05 -0.0013925196
0.00092136936 0.00082733325 -0.0017401687 -0.0018271692 -0.0008272429 -0.0016777905 -0.0006188679 0.0008978744
-0.0018222511 0.00016033961 0.0019640008 4.505587e-05 0.00039529183 -0.0007115226 -0.0011556831 -0.0016988235
-0.0019096876 -0.0007177675 -0.0009582785 -0.0003654175 -0.00035140707 0.0012990101 0.0019165822 -0.0009913943

lstm.weight_ih_l1 f4 [120, 30]
00000000: 460e b33e 34b7 183e 04e0 ad3e 07f1 103d
00000010: 2c28 adbe 2889 b03e aef5 ae3e ea89 e73d
00000020: 8674 e23d 0d51 b5be 3674 683e 3737 8d3e
00000030: dd02 b23e 19d8 e2bd cd04 e4bd cf9f 2bbe
00000040: 9c0d a3be 6c67 02be e74e 1ebe 1ec3 babe
00000050: 8d8d e0bd 94fc e7bd f2a7 98bd 731f a93e
00000060: 3b8b 243e 62df 85bd 7392 df3d b88b e83d
00000070: 8ddc a6be a156 b13e c628 753e 43b2 1b3e
00000080: fb53 5d3e 4141 05bc e396 5fbe e981 653e
00000090: 5b19 643e 7fb5 643d f80f c03d 9514 72be
000000a0: 7e5e d53d 8670 e73d a91e 723e 7c3c cbbd
000000b0: 18b4 c4bd 838f 27be d375 37be 36a6 b5bd
000000c0: 7cb3 19be 547a 7dbe 7827 c6bd 3400 cbbd
000000d0: ed0c efbc 4f10 5a3e a4c7 0c3e 1908 6abd
000000e0: 0217 8e3d bc1c c63d 26a3 52be 62e6 6a3e
000000f0: 5cf0 d43e 644a 0e3e 41e5 ce3e 22df 913d
00000100: ccfd cfbe 2f68 d13e 682d d03e 464f 033e
00000110: 0b5c cf3d 5f0c d8be 7906 943e c8a5 b73e
00000120: a31c d43e 7a6e d7bd d4b7 cfbd a625 21be
00000130: 91c7 c7be 42dc 1fbe 8634 17be 7f7a dcbe
00000140: ae9c cfbd 115d d6bd 3a3c debd 792f cc3e
00000150: b3ba 273e 8bc2 72bd b311 0c3e af4c d73d
00000160: 5f57 c9be 7bc6 d33e f2cc 2d3e 21e9 bb3d
00000170: 9e28 103e f346 9abc 74d4 0cbe 13bc 163e
00000180: db0d 143e 881c 1ebd b2ab 9abd 7730 28be
00000190: 0c8c 8e3d 16cf 0d3d 8171 2d3e 4702 9d3d
000001a0: 7b0e 9d3d 9a47 f2bd de86 b8bd 4a0b 7abb
000001b0: cce0 86bd 7a62 33be d123 9a3d 9972 943d
000001c0: 1b4b 3a3c 283d 0e3e 9796 f33c c0bd 0b3d
000001d0: 2d3e 8a3c 89ee 99bd 2768 05be 6d6c 1c3e
000001e0: f707 2a3e a801 c13d 3845 123e 8324 c9bc
000001f0: 6317 0ebe 4a6a 153e bc73 153e 7843 0dbd
00000200: 68d6 90bd b6fe 27be b024 8d3d e20c 1e3d
00000210: aae7 283e 914c 8f3d e73a 8d3d c82f f2bd
00000220: 73bb babd 3e33 56ba d4a5 8abd 1b7f 31be
00000230: d9a4 913d 46af 8d3d cc42 7b3c 0c5d 0e3e
00000240: b278 073d 7cb3 133d e342 843c 9945 8bbd
00000250: a5f2 04be 4374 1f3e 28bf 2a3e 62bd bf3d
00000260: e594 0f3e 8d38 a1bc 150a 0dbe 037f 143e
00000270: a5dd 143e 5c64 2abd 9ccc a0bd 5300 25be
00000280: d199 8f3d 8282 153d abd5 2c3e 10db a33d
00000290: dd37 a53d 9986 f9bd 2ee1 b2bd 8aae e4ba
000002a0: b253 83bd 6a61 30be 9f05 a43d bc61 9a3d
000002b0: 1290 343c a15c 0f3e 64ed ee3c 7c46 223d
000002c0: 993e 9a3c a868 9ebd 6607 06be 6b86 1e3e
000002d0: 33f2 d03e 8621 0e3e 1b08 cc3e f02c 923d
000002e0: 1e28 cbbe 12c0 cc3e be85 cb3e 5c10 003e
000002f0: 53f9 cf3d d3d6 d2be a06c 903e 6ffd b23e
00000300: b936 d03e 5428 d7bd 0f89 d4bd 5de0 21be
00000310: 99eb c2be 2b11 1abe 6cdb 14be 7275 d9be
00000320: b440 d4bd 11cc d6bd 3222 d4bd b599 c73e
00000330: 8574 283e 8125 71bd 3ca3 0b3e 2e12 d43d
00000340: 8fbd c5be 7b2b d03e e367 2d3e 6f21 c03d
00000350: beaf 0f3e 5500 bbbc ffb6 0dbe eefe 183e
00000360: 54c8 163e 8740 24bd e56c 9fbd b321 2abe
00000370: 7fd2 943d 3646 123d 3d3a 2b3e 6f90 9c3d
00000380: adb5 a13d f67a f5bd 3c32 b9bd a04c 64bb
00000390: 5941 88bd 2a35 32be a438 9d3d 286c 9a3d
000003a0: e288 313c 778d 113e a528 023d 512b 1c3d
000003b0: d144 9b3c db71 99bd 1c2a 07be a668 1e3e
000003c0: 0390 713e f8c0 193e f437 593e 10f3 13bc
000003d0: 6293 5cbe d7b4 633e b0f1 603e 1914 4c3d
000003e0: 9bee b93d dfb9 70be 7ef9 d43d 3dbb d83d
000003f0: e4e4 6c3e 14d5 bdbd a37e b9bd 5aee 29be
0.34971827 0.14913636 0.33959973 0.03538611 -0.3381971 0.34479642 0.34171814 0.11305602
0.11057381 -0.354134 0.22700581 0.27581188 0.3476781 -0.110763736 -0.11133728 -0.16760181
-0.3184632 -0.12734765 -0.15459786 -0.36476988 -0.10964499 -0.11327472 -0.07453908 0.33031806
0.16068737 -0.065367475 0.10916605 0.11354774 -0.32590142 0.34636405 0.23941335 0.1520472
0.21614067 -0.0081332335 -0.21834902 0.22412838 0.22275297 0.05583715 0.09378046 -0.23640664
0.104184136 0.11300759 0.23644508 -0.09923646 -0.09604663 -0.16363339 -0.1791604 -0.08869593
-0.15009874 -0.24753696 -0.09675497 -0.09912148 -0.029180968 0.21295284 0.13748032 -0.05713663
0.06937982 0.096734494 -0.20570049 0.22939447 0.4158963 0.13895565 0.40409282 0.07122637
-0.4062332 0.40899798 0.40659642 0.12823209 0.10124978 -0.42196938 0.28911188 0.3586867
0.41428098 -0.105191186 -0.10142484 -0.15737018 -0.39019445 -0.15611365 -0.1476613 -0.43062207
-0.10137306 -0.1046697 -0.10851331 0.3987997 0.16379814 -0.059267562 0.13678627 0.10512673
-0.3932447 0.41362366 0.16972712 0.09175325 0.14077994 -0.01883266 -0.1375292 0.14720182
0.1445841 -0.03860143 -0.075522795 -0.16424738 0.069603056 0.03462132 0.1693783 0.0766645
0.076687776 -0.11830063 -0.09010099 -0.0038153701 -0.06585845 -0.17518035 0.07526363 0.0724842
0.011370446 0.13890517 0.029734893 0.034116507 0.01687535 -0.075162 -0.13028012 0.15275736
0.16604601 0.09424144 0.14284217 -0.024553543 -0.13876109 0.14591327 0.1459493 -0.03448817
-0.07072145 -0.16405758 0.06891763 0.038586505 0.16494623 0.06997026 0.06896 -0.1182552
-0.09117784 -0.0008171088 -0.067699105 -0.17333643 0.0711152 0.069181964 0.01533575 0.13902682
0.03307409 0.03605984 0.016145175 -0.06800384 -0.12983187 0.15571694 0.16674483 0.09362294
0.14021643 -0.019680286 -0.13773377 0.14501576 0.14537676 -0.041599616 -0.07851526 -0.16113405
0.0701176 0.036501415 0.16878383 0.08000767 0.08067296 -0.121838756 -0.08734356 -0.0017447036
-0.06412448 -0.1722466 0.08008885 0.075381726 0.011020677 0.14000179 0.029165931 0.039618
0.018828677 -0.07734805 -0.1308876 0.15480964 0.40809783 0.13879976 0.39849934 0.071374774
-0.39679044 0.39990288 0.39750475 0.1250624 0.10154977 -0.41179523 0.28207874 0.3495898
0.4066675 -0.10505739 -0.10377704 -0.15808244 -0.38070372 -0.15045612 -0.14536828 -0.42472416
-0.10363904 -0.10488141 -0.10358085 0.38984457 0.16450699 -0.058873657 0.13636488 0.1035503
-0.38621184 0.40658173 0.16934161 0.09381377 0.14031884 -0.022827307 -0.13839339 0.14940998
0.14724857 -0.0401006 -0.07784442 -0.16614418 0.072667114 0.03571149 0.16721435 0.07644736
0.0789598 -0.119863436 -0.090427846 -0.003483571 -0.06653089 -0.17403093 0.07676819 0.075401604
0.010835858 0.14214121 0.031777043 0.038127247 0.018953713 -0.07492419 -0.13199657 0.15469608
0.23590092 0.15015018 0.2121275 -0.009030119 -0.21540597 0.22236954 0.21967196 0.049823854
0.090787135 -0.23508404 0.10399149 0.10582588 0.2313419 -0.09269157 -0.09057357 -0.1659483

lstm.weight_hh_l1 f4 [120, 30]
00000000: c364 b53a 570a 1dba 7e6a e6ba 714c bc3a
00000010: 34f1 d2ba 03cd 353a 8ce0 69ba 40fe ac3a
00000020: fade a6b8 9e7f 7e3a 1bbb bb3a 2851 61b9
00000030: b16a e139 bda9 ef3a 3073 09ba 038b 6239
00000040: 8894 99ba b506 6cba 0761 2438 c34a ed3a
00000050: b7d9 263a 21ba 8cba 8aab 5fba f0c8 c6ba
00000060: 3204 f7ba a4d8 16b9 2abc 53ba ad0f 9f3a
00000070: cb23 c93a 6b17 c33a 0325 6c3a c9a5 ad3a
00000080: 2ac6 7cba ac84 14ba 710d b939 ab05 6eba
00000090: ea52 55ba 13f7 c0ba e290 f8ba ea60 7b3a
000000a0: 5dbf 0e39 ea7e 3e3a b3f9 eaba 65df 573a
000000b0: 8435 a8ba c3b3 b33a 61f9 d739 a0ff ab3a
000000c0: 798a d63a 96e9 5e3a ea81 943a b1d4 e9ba
000000d0: e01b b3b9 2bdf 9039 c5da 44ba 3e06 c4b9
000000e0: ec9b d83a 2cc3 df39 5403 a8ba 48b1 b13a
000000f0: 19f1 feba 94d3 ac3a b3f4 8d3a 24ab 5c39
00000100: 5ffb 96ba 48e1 7eb7 6b44 e939 d1ae 0aba
00000110: 5533 d3b8 5981 93b9 0b7a 9eba aa73 033a
00000120: 7b8c 913a d660 62b9 b536 31ba 5fa4 64ba
00000130: 7372 7d3a 3a94 0a38 aff7 bfb8 68a6 02bb
00000140: 9ce7 89ba c3f7 d83a c9b6 9eb8 c319 a0b9
00000150: a3cd 6ab9 30c9 edba 9a8a 933a 28d5 e4b9
00000160: f4b5 4f39 a6be a83a d409 f4ba 2570 1fba
00000170: dace cdb9 5f12 e8ba 23cf 41ba b10a f139
00000180: 4e48 34ba 4082 f23a 32fc 6f3a d407 cd3a
00000190: bdc6 29ba ff42 7b3a e025 11ba 53eb c73a
000001a0: 3421 363a 843c 27ba 444f 5d3a 3223 deba
000001b0: fb20 623a 17e9 543a 96f7 20ba 27d1 3638
000001c0: 28e8 e93a 90b8 08ba fa5e abb9 19a4 afba
000001d0: 73b2 24ba 8e33 973a b5cb c3ba 3e43 ebba
000001e0: 5bc1 8aba 6117 0f3a 01a4 793a a9e0 b8ba
000001f0: af81 bc3a 4aec bbba 4aa1 f7ba 3a82 f93a
00000200: 34ef b0ba 15b4 203a dace c038 3e57 fb3a
00000210: 9cf4 0c3a 01e8 d2b9 cf67 0b3a 1d5a b239
00000220: 8c9e 5fba 1505 f73a 5d1b 623a cb28 00bb
00000230: c71e a1ba ec4d ae3a 1f75 c538 34bf a03a
00000240: 8242 003b 2a54 bfb9 dec8 ddba c10c 303a
00000250: eaa2 b0b9 3e34 ecba 9023 c43a 37d3 00bb
00000260: de84 1639 4b1c ffba 4465 173a 0f18 ef3a
00000270: b5d2 a73a 079d b63a c56b deba d093 f1ba
00000280: 0d5b d93a 6bd2 8a3a 3d3b 013b c350 d33a
00000290: d8bf cfb9 7814 e83a ec6b 0dba ec8d 6bba
000002a0: a264 dc3a 2843 c93a fdc3 de3a 5d29 e6ba
000002b0: ee2a 34ba a45d 853a f023 caba e09b 8b3a
000002c0: 570b f53a f4ad 43ba 8036 5eba fc39 023b
000002d0: b93e f9b9 90f8 ac3a 3afe 24ba de5d 803a
000002e0: ff74 39b9 5398 e4b8 82f5 2cb8 82fd bd3a
000002f0: f0e0 81ba 6b5c d4ba 7aa3 edba f82f 993a
00000300: 07f7 2bba 1da3 d33a f2bf 843a 6b5e 743a
00000310: 1124 bf39 e29e 98b9 1d52 e6b9 d1f0 25ba
00000320: 9e61 9aba 1ffd cb3a 5b84 cbb8 1114 c039
00000330: e83a b6ba 961b e7ba 07d3 e13a 1dcb da3a
00000340: 820f df3a 3e16 bf39 057b ce3a 6d93 533a
00000350: fb66 593a 3c2f 07b9 c7ea d13a 2680 f6ba
00000360: 717a c53a b996 70b9 5fcc 1c3a 46f8 97ba
00000370: 4a55 ef3a ec43 e7ba 8ce4 be39 bf4f 9e38
00000380: d237 d63a 40a3 e5ba 84cd e8ba e6e0 17b9
00000390: b118 833a c9b0 083a 65e3 99b9 a538 73ba
000003a0: a8f6 b439 63a0 eeba c34b 5aba 7e8b c7ba
000003b0: 070a 003b 90e2 28b9 ace5 84ba e0ef b0ba
000003c0: 0731 b63a b5b8 91b8 a7fb 52b9 759f 9939
000003d0: 2acc f03a de1c 903a 2d52 0bb8 2606 f4b9
000003e0: 785d e83a 4801 d9b8 3466 bcba 30dd 0337
000003f0: 82b1 a639 6b6c f0b9 ad98 6bba fa8a af39
0.0013839233 -0.00059906155 -0.0017579345 0.0014366043 -0.0016093613 0.0006935151 -0.0008921705 0.0013198331
-7.9570294e-05 0.00097083475 0.001432273 -0.00021487905 0.00042994836 0.0018284839 -0.00052432995 0.00021604825
-0.0011717239 -0.0009003685 3.919101e-05 0.0018103946 0.00063648395 -0.0010736623 -0.0008532336 -0.0015166085
-0.0018845855 -0.0001438582 -0.000807705 0.0012135409 0.001534575 0.0014884298 0.0009008201 0.001324826
-0.0009642566 -0.00056655216 0.00035295964 -0.0009079824 -0.00081376603 -0.0014722071 -0.0018964077 0.00095893315
0.00013613464 0.00072668365 -0.0017927199 0.00082348875 -0.0012833332 0.0013710189 0.00041193797 0.0013122447
0.0016368172 0.0008503435 0.0011330221 -0.0017839876 -0.0003416231 0.00027632093 -0.0007509406 -0.00037388684
0.001652596 0.0004267929 -0.0012818375 0.0013556862 -0.0019450515 0.0013185614 0.0010830372 0.0002104459
-0.0011519006 -1.5192032e-05 0.00044492199 -0.0005290332 -0.000100708254 -0.00028134396 -0.0012090815 0.00050144887
0.0011104489 -0.00021589114 -0.0006760166 -0.0008722003 0.00096682383 3.303981e-05 -9.1537244e-05 -0.0019935612
-0.0010521295 0.0016553331 -7.5680735e-05 -0.00030536772 -0.00022392585 -0.0018141624 0.0011256516 -0.00043646363
0.00019808841 0.00128742 -0.0018618652 -0.00060820795 -0.00039254763 -0.001770567 -0.00073932315 0.00045975068
-0.00068772293 0.0018501952 0.00091547065 0.0015642592 -0.00064764527 0.00095848733 -0.0005536955 0.0015252627
0.00069476967 -0.0006379562 0.00084422925 -0.0016947745 0.00086261303 0.00081218913 -0.0006140409 4.358697e-05
0.0017845677 -0.000521549 -0.00032686425 -0.0013400345 -0.00062826945 0.001153575 -0.0014938029 -0.0017949117
-0.0010586189 0.0005458501 0.00095230347 -0.001410504 0.001438191 -0.0014337387 -0.0018892672 0.0019036003
-0.0013499022 0.000613035 9.1938025e-05 0.001917578 0.0005377026 -0.00040227178 0.0005317898 0.00034017945
-0.00085304 0.0018846119 0.0008625293 -0.0019555565 -0.0012292498 0.0013298369 9.4155075e-05 0.0012264014
0.0019570892 -0.00036493066 -0.0016920825 0.00067157677 -0.00033690716 -0.001802094 0.0014964212 -0.0019657144
0.00014354612 -0.0019463388 0.00057752826 0.0018241423 0.0012803884 0.0013932296 -0.0016969374 -0.0018430892
0.0016582921 0.0010591274 0.0019719147 0.0016122091 -0.0003962505 0.0017706295 -0.0005394805 -0.00089856866
0.0016814659 0.0015355097 0.0016995665 -0.0017559935 -0.0006872852 0.0010175002 -0.0015422087 0.0010651313
0.0018695396 -0.00074645807 -0.0008476749 0.0019870987 -0.00047539713 0.0013196636 -0.0006293986 0.00097936
-0.0001768656 -0.0001090026 -4.1236643e-05 0.0014495107 -0.0009908956 -0.0016201859 -0.0018130385 0.001168727
-0.0006559942 0.0016146634 0.0010128005 0.00093219307 0.0003645723 -0.00029110076 -0.00043930198 -0.0006330135
-0.001177836 0.0015563107 -9.7044474e-05 0.00036636044 -0.0013903053 -0.0017632123 0.0017229029 0.0016692613
0.0017018171 0.0003644693 0.0015753215 0.00080709794 0.00082932384 -0.000128922 0.0016015404 -0.0018806502
0.0015066398 -0.00022944332 0.00059813814 -0.0011594377 0.0018259671 -0.0017644144 0.00036409905 7.548881e-05
0.001634354 -0.0017519966 -0.0017761444 -0.00014484263 0.0010001865 0.00052143313 -0.00029351856 -0.0009278155
0.0003451605 -0.0018205758 -0.00083273294 -0.0015224067 0.0019537227 -0.0001610613 -0.0010139248 -0.0013499223
0.0013900109 -6.948543e-05 -0.00020120908 0.0002930124 0.0018371393 0.0010994931 -3.3216715e-05 -0.00046543888
0.0017728051 -0.00010347605 -0.0014373721 7.859708e-06 0.0003179424 -0.00045857145 -0.0008987289 0.00033482147

fc.weight f4 [1, 30]
00000000: 7047 0bbc 4c4d ab3b dc73 e3bc 6fd6 06bd
00000010: b158 023d 360b 09bd f4dd cbbc 46ab 08bd
00000020: f613 e83b 87dc adbb 8d59 0cbd bf9d c0ba
00000030: b6aa 9a3c 9d02 09bd 2ac4 6a3b d585 083c
00000040: 4d56 daba 718e 03bb 0dab 00bd f2a2 95bb
00000050: e619 aa3b 6183 0abd c88c a5bc 7ddc 09bd
00000060: ed23 ea3c cf8a 0bbd f109 033d 0d36 003d
00000070: 6299 a63b 59d2 013d
-0.008500919 0.0052277204 -0.027765207 -0.032919344 0.031822864 -0.033457957 -0.024886109 -0.033366464
0.0070824577 -0.00530583 -0.03426509 -0.001469545 0.01888023 -0.033449758 0.003582249 0.008332689
-0.00166578 -0.0020073915 -0.031413127 -0.0045665437 0.0051910756 -0.0338167 -0.020208731 -0.03365754
0.028581584 -0.034067925 0.031991903 0.031301547 0.0050842026 0.031694744
