models/lstm_residual_seed_1011.pt (torch, 51081 bytes, 5 tensors)

lstm.weight_ih_l0 f4 [120, 4]
00000000: 8a50 cabe fc6d 463f ef60 673f 8d2b 82bf
00000010: 2f14 d2be 602d 413f abcc 523f 5cf2 82bf
00000020: 9982 cabe 8b09 453f 0de7 663f 582b 82bf
00000030: 1734 d5be 2946 413f 5ff4 523f c518 85bf
00000040: 0551 c9be 1ac0 453f e40a 683f e738 80bf
00000050: c367 febe 582a 283f e4dc 503f 5fe2 6bbf
00000060: aedf c7be af26 463f fab9 673f 7a21 7ebf
00000070: 5d4a 3abf aba1 ca3e 7c38 783f 2554 0ebf
00000080: 37a9 c5be 55cc 443f 283c 6b3f bfa7 72bf
00000090: 3efb 0bbf 9098 103f 2eba 593f 6495 53bf
000000a0: f5e6 cbbe 9a35 453f 915a 663f 5a47 83bf
000000b0: 8ba4 c7be 78a3 413f 8835 6c3f 76a7 73bf
000000c0: 5316 c5be 8b42 443f dd50 6b3f e9ed 73bf
000000d0: b9bb c6be 6cc7 473f 08a5 683f 6f6b 7fbf
000000e0: 3a8f c5be af24 433f 692a 693f daa1 77bf
000000f0: 1b9f cebe aa9f 433f 52b3 653f 4849 83bf
00000100: 2da8 cebe d6b2 3c3f 8a89 4e3f 03a5 85bf
00000110: b379 cabe c2f4 443f b666 663f 3076 82bf
00000120: 6887 c8be e196 403f e138 4f3f 7f0b 86bf
00000130: 6e8d c5be 36fd 443f 6c7a 693f 1930 78bf
00000140: 3fa1 d1be 1ca1 423f 5cd0 5f3f 9a32 84bf
00000150: a6ca 53bf f2af a93e d3a8 8e3f b4f4 a5be
00000160: 1597 3dbf da63 cb3e 8c93 7d3f 44fa 0abf
00000170: 752f 22bf 5356 e93e a3b4 633f e359 38bf
00000180: fac9 39bf fec9 cc3e dd71 783f cb89 0ebf
00000190: 8d75 c7be 3d17 473f 8017 683f 97a6 7cbf
000001a0: 4352 d5be e534 413f 7770 5c3f aa97 81bf
000001b0: 05de 0fbf c328 0b3f 3a9a 5b3f 4b5d 4ebf
000001c0: 7d02 c6be 89cb 413f 4f10 6a3f f206 76bf
000001d0: 7c5d cebe dae6 3c3f 2077 4f3f 1653 83bf
000001e0: 7f6a 9137 8337 fb3a d54a 45ba 80e7 063a
000001f0: 03ef 0eb9 44b3 763a 23bd 063b 2c57 8ab9
00000200: 3391 9c3a cd16 a83a 0b21 a8ba 5c4b 1c39
00000210: 7555 033b 51ea 9a39 9b13 31ba ecca 523a
00000220: 26da d03a 7173 d0ba e766 9cba e9d2 313a
00000230: 1398 863a 394f fb39 f4ad 073b b2ac be3a
00000240: b049 e73a df42 5ab9 25a5 973a eed2 29b9
00000250: 8910 603a 1043 883a 6eae 13ba 5de8 9f37
00000260: 330c 2cba 7ffa cdba 398d c836 8a50 c83a
00000270: e853 b03a 91d3 caba bf90 033b 0e8a 1d3a
00000280: 895a e5b9 ffca 913a 81f4 6eba aec0 22ba
00000290: 9fe5 97ba 1ff8 94ba 1d8f fc39 b68c 89ba
000002a0: 41da 043b 45cd 603a 649e 35ba ec40 adba
000002b0: 670f 1f3a 59b5 813a 85c3 8a3a 7e3f 7b3a
000002c0: 6cd3 8b3a ed29 beba c2a4 afba 0041 ea3a
000002d0: fe5e c73a 01aa df3a 11ad 72b9 0443 ddba
000002e0: a9e3 d13a 5e41 c7ba a6c4 ce39 4bce 8c3a
000002f0: d98d 8aba d853 ff39 222e 04bb aa0e 0abb
00000300: f14a 0dbb 9c2f ab39 d750 203a 07e0 d138
00000310: e016 dd39 483a 03bb 2836 a138 a3de eeba
00000320: a61c e8ba ebfb 4c39 479c 723a 16ac aab9
00000330: 96a9 ae3a d33e 09bb 3caf 843a df72 2b3a
00000340: e5ca 56b8 cdd8 d5ba df7a 053b eee7 d6b9
00000350: e5dc f2ba 5638 f4ba cd35 033b fb54 baba
00000360: cdb7 c93a 411f c73a 1df1 923a 4e13 d9ba
00000370: 85c5 ce3a b47c e73a ffc4 05bb ebd0 2fba
00000380: a4fe 0bba 4885 aeba 63e1 03bb d010 123a
00000390: 9702 3b3a 8d1a e5ba b59e 14ba 4b8c 75b9
000003a0: 5b46 713a f845 013b 9c49 203a 328c bbba
000003b0: 04ba de39 b46b c13a dea9 a43a ea7d 9eba
000003c0: 62e1 2ebe 012d 2e3f f909 123f 067f 7abe
000003d0: d029 07be 171d 393f f3bd 0d3f 4053 82be
000003e0: 3941 2fbe fdd9 2d3f 4eb2 113f d288 7fbe
000003f0: 43ad 0f3e 341e 39bf 58ee 0bbf ad94 8b3e
-0.3951457 0.7751157 0.90382284 -1.0169541 -0.41031024 0.7545986 0.8234355 -1.0230212
-0.39552763 0.76967686 0.90196306 -1.0169477 -0.41641304 0.7549768 0.8240413 -1.0398184
-0.39319625 0.7724625 0.9064162 -1.0017365 -0.4968854 0.6568961 0.8158705 -0.9214229
-0.39037842 0.77402776 0.9051815 -0.9926983 -0.7276972 0.39576468 0.9696119 -0.55597144
-0.38605663 0.76874286 0.91888666 -0.9478721 -0.5468024 0.5648279 0.8504971 -0.82649827
-0.39824644 0.77034914 0.89981943 -1.025615 -0.38992724 0.7564006 0.9226918 -0.951774
-0.38493595 0.76664037 0.9192026 -0.952849 -0.38815096 0.7803867 0.9087682 -0.99773306
-0.38585836 0.7622785 0.9108034 -0.9673134 -0.40355763 0.76415503 0.89726746 -1.0256739
-0.40362683 0.7371038 0.8067862 -1.0440983 -0.39545974 0.7693597 0.90000474 -1.0192318
-0.39165807 0.7523022 0.80946165 -1.0472258 -0.38584465 0.7694887 0.91202426 -0.9694839
-0.40943334 0.76027083 0.87427306 -1.0327942 -0.8273109 0.33142048 1.1145271 -0.32413256
-0.7405866 0.39724618 0.99053264 -0.54288125 -0.63353664 0.45573673 0.88947505 -0.72012156
-0.72573817 0.39997858 0.9704874 -0.55679005 -0.38956872 0.77769834 0.9066086 -0.98691696
-0.41664323 0.75471336 0.8610911 -1.0124409 -0.5619815 0.5435907 0.85782206 -0.80611104
-0.38673773 0.75701195 0.91431135 -0.9610435 -0.40305698 0.7378975 0.81041145 -1.0259731
1.7334938e-05 0.0019166324 -0.00075261045 0.00051461905 -0.00013631214 0.0009410868 0.0020559512 -0.0002638636
0.0011945128 0.0012824178 -0.001282723 0.00014905393 0.002003995 0.00029547748 -0.00067549356 0.0008041102
0.0015934154 -0.0015903545 -0.0011932523 0.0006783442 0.001026871 0.00047933476 0.002070305 0.0014547317
0.0017645862 -0.00020815012 0.0011569603 -0.00016195673 0.0008547386 0.0010395963 -0.0005633597 1.906248e-05
-0.0006563097 -0.0015714912 5.976905e-06 0.0015282792 0.001345274 -0.0015474429 0.002007529 0.00060096465
-0.00043745738 0.001112312 -0.00091154134 -0.0006208521 -0.0011588818 -0.001136545 0.00048171813 -0.0010494206
0.002027169 0.00085755094 -0.0006928204 -0.0013218201 0.0006067664 0.0009895965 0.0010586834 0.0009584351
0.0010667867 -0.0014508344 -0.0013400542 0.0017872155 0.0015210805 0.0017064215 -0.0002314339 -0.0016880934
0.0016013283 -0.0015201976 0.00039437896 0.0010742632 -0.0010570838 0.0004869986 -0.00201691 -0.002106587
-0.002155956 0.00032651133 0.00061155617 0.00010007625 0.00042169448 -0.0020023752 7.6871656e-05 -0.001822431
-0.0017708733 0.00019548803 0.00092548545 -0.0003255314 0.0013325687 -0.0020941987 0.0010123025 0.00065402495
-5.1210536e-05 -0.0016315222 0.0020367426 -0.00040990062 -0.0018528966 -0.0018632512 0.0020021081 -0.0014216
0.001538986 0.001519181 0.0011210773 -0.0016561539 0.0015775418 0.0017661066 -0.0020411608 -0.00067068514
-0.00053403736 -0.0013314867 -0.0020123355 0.0005571963 0.000713387 -0.0017479226 -0.0005669401 -0.00023417284
0.0009203904 0.0019725543 0.0006114484 -0.0014308749 0.00042481732 0.001475683 0.0012562831 -0.0012091969
-0.17078164 0.6803742 0.5704647 -0.24462518 -0.13199544 0.7231001 0.55367965 -0.2545414
-0.17114724 0.6791075 0.56912696 -0.24954537 0.14030938 -0.7231171 -0.5466056 0.27261868

lstm.weight_hh_l0 f4 [120, 30]
00000000: 9a23 b93a cb33 0bba 6d0f 093a 9e8f abba
00000010: a95d d8ba 01f0 f1ba 6164 b93a b183 a53a
00000020: d391 00bb 6115 96ba f831 993a d27c efba
00000030: 1757 efba 82b5 efb9 dea8 34ba 63ce 28ba
00000040: 2e57 da3a 6955 6f3a 59b7 5eba 046b 013b
00000050: 422a a9ba dc39 beb9 38ff 3cba 48b1 e138
00000060: 7348 033a c5ea d1ba a637 243a 0564 893a
00000070: 6f62 263a aba1 f0ba 4d13 78ba 7e1d 5a3a
00000080: c998 62ba 7ceb ee3a a960 37ba 6978 e73a
00000090: 8012 4b3a 2a73 f0ba 9627 cc39 ada0 ec3a
000000a0: 346c 8a3a 7bc1 c33a 1702 9fba 9e58 c33a
000000b0: 59f4 933a 9406 36ba d66c 273a 4e92 90ba
000000c0: fa16 3d3a f2a4 7dba 3aa7 f1ba 75bb 573a
000000d0: 5dc7 d8ba 2a58 3d3a 4470 bcba f680 a9ba
000000e0: 5f00 a03a 3caf 93b8 e452 a73a 280e faba
000000f0: 7abd f239 4aab dc3a ab0f aeba fa76 00b9
00000100: 322a a33a 052c e73a bd3c 6b39 deba b8ba
00000110: bb86 af3a 8484 d1b9 b5ab dfba d173 c0ba
00000120: 3c01 26ba 0fad aaba bde4 adb8 5d27 b2b9
00000130: c33f 453a f259 d5ba 88ee c43a 6d21 b4ba
00000140: 8eb1 1cba 653d e6ba 150e 0ab9 3ae8 57ba
00000150: 522c b139 072d 82b9 6360 5339 a516 e23a
00000160: ea2a 88b9 61a1 efb9 e268 813a 5d8a 85ba
00000170: fcb1 3ab9 dc79 55ba 1340 f73a 599f 673a
00000180: 3c37 bc3a a8e0 a03a 1b16 d63a bd74 9c39
00000190: d4cf d0ba 6f0e 15ba 07fd 6aba b921 82ba
000001a0: e684 893a 80ea ecba 2325 06ba 4c09 b1ba
000001b0: 67be 863a dc94 a43a 2e32 7839 0f7d 2b39
000001c0: c9ea cab9 8a2b 85ba e68c bd3a adf4 f2ba
000001d0: 7786 ddba e27c bf3a 21a0 4cb9 af13 513a
000001e0: 98bb d7ba c1e6 853a b945 b13a 467a bdb9
000001f0: 9c1c 11ba 4aac 10b8 e82d 0f3a 9a48 923a
00000200: 7e8d 5d3a d34e 863a 368e aa38 0d22 ddb9
00000210: 51b3 f2ba c751 e9ba 17c1 5639 df11 03bb
00000220: 51e7 ffba a26b 40ba ee34 3339 6723 b83a
00000230: 3a4b 883a 6bda 24ba 7edb 72ba 4c8a b1ba
00000240: 710d deba 6731 80ba 3633 a33a adb6 ccba
00000250: a9b6 bd38 2eec fb3a f48d a6b9 77ca dd39
00000260: c9af b5ba b5b8 b23a 5bd4 a3b8 17cd 403a
00000270: 15d0 12ba c1ca 2a37 0bbf 833a 8e77 b738
00000280: 1116 6d3a adc4 9d3a de1e b2ba a421 88ba
00000290: d801 c4ba 6752 47ba 07c8 e9ba 2c85 6fba
000002a0: b51c 74ba 422f a43a c16e f4ba 5ddb bb3a
000002b0: 9e1c d9ba 6b8c 9d39 a554 de39 dae6 dab9
000002c0: a0a3 b6ba 15f6 4339 50e9 b93a 0b6d 90ba
000002d0: 651c f2ba f05f 3f3a 3483 3339 1d1a 9138
000002e0: 0f81 63ba ec79 b539 b99d adba 0d6a c7b9
000002f0: 4f42 76b9 8044 7aba 7abe e63a c598 b939
00000300: 9a49 08ba e8ab 9e38 57d6 27ba ee32 cf3a
00000310: e236 a4ba acb9 013b d09b f2ba 307d 2ab8
00000320: 655d c8ba a8f4 1fba b9c6 203a 7eb3 b9ba
00000330: ec27 0bba bf34 d43a ce99 fa3a a9e6 62b8
00000340: e089 00bb fcc7 2c3a 5563 4c38 c5d6 56ba
00000350: 8cec f037 4200 13ba 443f a1b9 d102 c1ba
00000360: 3862 a33a 4662 bcba 1d0c a6ba 4aec 5a39
00000370: 7dff 9eb8 3c36 023b 312d 00bb 6f29 e73a
00000380: 4c93 bdba 6947 123a d004 e1ba 3803 343a
00000390: da80 1aba af30 c9ba fd0c ce3a 011f c33a
000003a0: a441 caba b730 dc3a 8856 1c39 239f 3b3a
000003b0: 2af7 003b 1bf0 98ba 4463 65b9 bb35 443a
000003c0: afc1 9f3a 2121 ac3a a170 76ba 442f d23a
000003d0: 2eaa 4339 d1fe 98b9 7352 363a 301d af38
000003e0: 6f26 c6b9 59fb adba fb62 d7b9 21f2 d33a
000003f0: 7137 0cba 3ad5 b53a a968 d23a eebf 8f3a
0.001412499 -0.0005310147 0.0005228434 -0.0013089066 -0.0016507405 -0.0018458368 0.0014144295 0.0012627748
-0.0019618168 -0.0011450463 0.0011687865 -0.0018271452 -0.0018260208 -0.00045720866 -0.0006891618 -0.00064394454
0.0016658062 0.00091298536 -0.0008495949 0.0019747624 -0.001290627 -0.00036282733 -0.00072096614 0.00010761857
0.0005008049 -0.0016015401 0.0006264396 0.0010482079 0.0006347065 -0.0018358728 -0.0009463325 0.0008320435
-0.00086439826 0.0018228139 -0.00069952995 0.0017659786 0.0007746592 -0.0018344868 0.00038939406 0.0018053256
0.0010560811 0.0014934981 -0.001213136 0.0014903729 0.0011288031 -0.0006943729 0.0006386762 -0.001102993
0.00072132016 -0.0009675763 -0.0018436678 0.00082295324 -0.0016538907 0.00072229153 -0.001437672 -0.001293211
0.0012207142 -7.042146e-05 0.0012765792 -0.0019077705 0.00046299008 0.0016835716 -0.0013279816 -0.00012251353
0.0012448488 0.001763702 0.00022433973 -0.0014093777 0.0013391593 -0.00039962318 -0.0017064722 -0.0014682953
-0.00063325814 -0.0013021546 -8.291889e-05 -0.00033980134 0.0007524455 -0.0016277416 0.0015024701 -0.0013742872
-0.00059773854 -0.0017565904 -0.00013165952 -0.00082362036 0.00033793092 -0.0002482908 0.00020158435 0.001724918
-0.00025971915 -0.0004570587 0.0009873176 -0.001018833 -0.00017804647 -0.00081434636 0.00188637 0.00088356953
0.0014359723 0.0012273984 0.0016333492 0.00029841615 -0.0015931078 -0.00056860497 -0.00089640956 -0.0009928263
0.0010491877 -0.0018075258 -0.0005117228 -0.0013506799 0.0010280133 0.0012556571 0.00023669816 0.00016354419
-0.0003870337 -0.001016007 0.0014461547 -0.0018536054 -0.0016901036 0.0014609362 -0.00019514609 0.00079756504
-0.0016459106 0.0010215865 0.0013524807 -0.0003613999 -0.0005535574 -3.4492732e-05 0.00054618577 0.0011160553
0.0008451565 0.001024688 8.1327205e-05 -0.00042177775 -0.0018516575 -0.0017800861 0.00020480562 -0.0019999666
-0.0019523894 -0.0007340257 0.00017090488 0.0014048637 0.0010398396 -0.00062886503 -0.0009264274 -0.0013545244
-0.0016941262 -0.0009780348 0.0012451175 -0.0015618406 9.0462454e-05 0.0019220167 -0.0003176775 0.00042303253
-0.0013861592 0.0013635369 -7.812e-05 0.00073547795 -0.00056004646 1.0179997e-05 0.0010051442 8.748389e-05
0.00090441207 0.0012036763 -0.0013589521 -0.0010386002 -0.0014954163 -0.00076035265 -0.0017836102 -0.00091369706
-0.0009312139 0.0012526291 -0.001864873 0.0014332343 -0.0016564315 0.00030049993 0.00042406205 -0.00041752198
-0.0013934262 0.00018688322 0.0014183912 -0.0011018825 -0.0018471597 0.00073003676 0.00017119647 6.919003e-05
-0.0008678594 0.0003461385 -0.0013245858 -0.00038035252 -0.0002348509 -0.00095469505 0.0017604374 0.00035399772
-0.0005198956 7.566047e-05 -0.00064024836 0.0015808025 -0.0012528563 0.0019794507 -0.001850957 -4.064775e-05
-0.0015286623 -0.0006101825 0.00061331276 -0.0014167873 -0.0005308378 0.0016190036 0.0019119324 -5.4097418e-05
-0.001961343 0.0006591079 4.87299e-05 -0.00081954553 2.872038e-05 -0.00056076434 -0.0003075545 -0.0014725571
0.0012465185 -0.001437255 -0.0012668405 0.00020878125 -7.5816155e-05 0.0019868752 -0.0019558186 0.001763625
-0.0014463454 0.0005580099 -0.0017167572 0.0006866935 -0.0005893834 -0.0015349592 0.0015720424 0.0014886559
-0.0015430939 0.0016799186 0.00014909555 0.0007157197 0.0019678571 -0.0011668237 -0.00021876121 0.0007484813
0.001218846 0.0013132432 -0.0009400938 0.0016035815 0.00018660046 -0.00029181552 0.0006955035 8.350087e-05
-0.00037794138 -0.001327376 -0.00041081742 0.0016170182 -0.00053488376 0.001387275 0.001605292 0.0010967234

lstm.weight_ih_l1 f4 [120, 30]
00000000: 93ac 0d3f eb2d f93e 5abe 0c3f faf9 f6be
00000010: c9ae 0dbf 5efd 80be 8ef2 0dbf 70be dd39
00000020: 197c 183f f943 2e3e 731b 0b3f d0b2 15bf
00000030: baa3 173f a167 0ebf 6ae3 11bf 42bd 093f
00000040: 677f e2be ddd3 0b3f d08d efbe d469 113f
00000050: 6a89 05bf 12c4 e03d 5e94 3bbc aa78 a6bd
00000060: 5caf ee3a 0d9b 0ebf 3cd5 043f 5a0d 1b3e
00000070: 6f23 143f 6111 ebbe 0f8f 0d3f a48d f83e
00000080: 2f51 0c3f e632 f6be 9991 0dbf 9232 81be
00000090: 52d7 0dbf ec36 2f3b b2bf 173f 3ac7 2d3e
000000a0: 9d7a 0a3f 51d7 13bf 6e81 173f cc75 0ebf
000000b0: be34 12bf a80c 0a3f 27dd e2be b067 0b3f
000000c0: 827b efbe 0365 113f 40a5 05bf 81c5 d53d
000000d0: 2766 3cbc 7275 a3bd 5afc 813b 534f 0ebf
000000e0: 40ce 033f 8ada 1b3e ac19 133f bc66 ebbe
000000f0: 59b4 0d3f 728a f73e aeeb 0b3f c4cf f6be
00000100: dec0 0dbf 483a 80be f9be 0dbf 58cb 513a
00000110: 95e9 173f 9a41 2d3e b08a 0a3f 10b8 13bf
00000120: 9c27 173f af41 0ebf d417 12bf a148 0a3f
00000130: e057 e2be cfe0 0b3f 66df efbe 4c40 113f
00000140: 8d65 05bf 4e60 d93d 4a19 48bc f6e2 a3bd
00000150: f0f1 db3a dd45 0ebf 5b06 033f 3ad3 1d3e
00000160: 2dce 133f 8b6b eabe 7869 0d3f 9cf4 f73e
00000170: 9d82 0c3f 6d8d f5be 9c40 0dbf aa3d 80be
00000180: d600 0ebf 7ddd 963b 74c5 173f a72b 2d3e
00000190: faf9 0a3f 705e 14bf 2f9c 163f 6724 0ebf
000001a0: 0269 11bf 10df 093f 6fa4 e3be 2411 0c3f
000001b0: eef9 efbe b479 113f c266 05bf fc8d d63d
000001c0: d70f 21bc 75a2 a8bd fe30 2c3b 7940 0ebf
000001d0: 45fe 033f caae 1d3e 549f 133f 2103 eabe
000001e0: 1f62 0d3f 1a37 f83e 0d6b 0c3f 7e67 f6be
000001f0: d3c0 0dbf cd09 80be c37a 0ebf 9924 903b
00000200: c098 173f 90f3 2f3e 0d3f 0a3f 4122 14bf
00000210: e376 173f 0d1c 0ebf cc0c 12bf 3af9 093f
00000220: bdee e1be b128 0b3f 5fec efbe e67d 103f
00000230: 8958 05bf b425 da3d ad0b 17bc 92e6 a7bd
00000240: 27e4 8b3b 76ca 0ebf 0a5e 033f 7a6b 1f3e
00000250: 9cba 133f d6b4 eabe 91ef 0c3f 4abe f93e
00000260: 0c33 0c3f 8e56 f6be ef96 0dbf 4783 81be
00000270: 6230 0ebf 609c 303b bf89 173f d5e3 2e3e
00000280: 3cba 0a3f d553 14bf 8693 173f 9903 0fbf
00000290: 78bd 11bf 6cf4 093f 4310 e2be 7152 0b3f
000002a0: 551c eebe dac5 103f 5188 05bf c585 d73d
000002b0: 3f73 38bc d639 a8bd 9cfc 583b f43f 0fbf
000002c0: 508f 033f 222e 1d3e add4 133f e411 eabe
000002d0: ba0d 0d3f a988 f83e 8143 0c3f 10ce f5be
000002e0: a703 0ebf f214 7fbe 2a9d 0ebf 4345 c83b
000002f0: ba0a 183f 11fe 2b3e a140 0b3f 0d00 15bf
00000300: 539e 173f 9760 0ebf edd8 11bf aff3 093f
00000310: d424 e2be 8881 0b3f ad54 eebe af24 113f
00000320: 901f 05bf e16b de3d 4c57 5bbc c992 a1bd
00000330: 79ee c13b 03a9 0ebf cc37 043f 684d 193e
00000340: e3be 133f 25aa ebbe 45b5 0d3f d26f fa3e
00000350: 0c80 0c3f e6ff f6be baeb 0dbf dc1e 80be
00000360: 4426 0ebf 80bc 153b 6d02 183f 17de 293e
00000370: 096a 0a3f 2adf 14bf e779 173f 802d 0fbf
00000380: b9b5 12bf 8acb 093f eb51 e3be 0398 0b3f
00000390: 8452 efbe 102a 113f 7f04 05bf 6b84 dd3d
000003a0: 6a92 52bc f15e a5bd 37a5 b33b daaa 0ebf
000003b0: 9f81 033f 7d34 1b3e ebd0 133f d90b ebbe
000003c0: e193 0d3f 98bf f83e ea40 0c3f 9d68 f6be
000003d0: e703 0ebf e359 81be 5c62 0ebf 6032 523b
000003e0: f888 173f 37fa 2b3e a163 0a3f 8d9b 14bf
000003f0: d789 173f 1a16 0ebf a655 12bf 9842 0a3f
0.5534145 0.48667845 0.54977953 -0.48237592 -0.55344826 -0.25193304 -0.55448234 0.00042294292
0.5956436 0.17018117 0.5433876 -0.5847597 0.592342 -0.55626875 -0.5698763 0.5380441
-0.44237825 0.5462015 -0.46787882 0.56802106 -0.521628 0.109748974 -0.011448948 -0.081284836
0.001821022 -0.5570534 0.5188787 0.15141812 0.5786657 -0.45911697 0.55296415 0.48545563
0.54811376 -0.48085707 -0.5530029 -0.25233895 -0.5540668 0.0026735617 0.5927688 0.1697053
0.54093343 -0.5775042 0.5918187 -0.55648494 -0.5711173 0.5392556 -0.4430935 0.5445509
-0.46773916 0.56794757 -0.52205276 0.104380615 -0.011498964 -0.07981385 0.00396685 -0.5558979
0.5148659 0.15220085 0.5746105 -0.45976818 0.55353314 0.48347813 0.54656494 -0.48205388
-0.55372417 -0.25044465 -0.55369526 0.0008003018 0.5934079 0.16919556 0.5411787 -0.5770273
0.59044814 -0.55568975 -0.5706761 0.5401707 -0.44207668 0.54639906 -0.46850127 0.56738734
-0.5210808 0.10614072 -0.012213061 -0.08002274 0.0016780477 -0.5557535 0.5118157 0.15412608
0.57736474 -0.45785174 0.5523906 0.4842881 0.548868 -0.47959462 -0.5517671 -0.25047046
-0.55470026 0.00460404 0.59285665 0.16911183 0.54287684 -0.579566 0.5883207 -0.55524296
-0.56800854 0.5385599 -0.4446139 0.54713655 -0.4687037 0.5682633 -0.5210992 0.104763
-0.009830437 -0.08234111 0.0026274319 -0.5556713 0.5155986 0.15398708 0.5766499 -0.45705512
0.55227846 0.4847954 0.54850847 -0.48125833 -0.5537235 -0.25007477 -0.5565607 0.004398894
0.59217453 0.17182755 0.5400246 -0.5786477 0.5916578 -0.5551155 -0.57050776 0.53895915
-0.44127455 0.54358965 -0.46860024 0.56442106 -0.5208822 0.106517226 -0.009219092 -0.08198275
0.0042691412 -0.5577768 0.5131537 0.15568343 0.5770662 -0.45841092 0.5505305 0.48777992
0.5476539 -0.4811291 -0.5530843 -0.2529547 -0.55542576 0.0026948676 0.5919456 0.17079099
0.5419042 -0.5794042 0.5920948 -0.55864865 -0.5692973 0.53888583 -0.44153032 0.5442267
-0.4650599 0.565519 -0.5216113 0.105235614 -0.011257946 -0.08214156 0.0033109551 -0.5595696
0.5139055 0.1534963 0.5774639 -0.45716774 0.5509907 0.48541763 0.547905 -0.48008776
-0.55474323 -0.24910334 -0.55708563 0.0061117723 0.5939137 0.16796137 0.5439549 -0.582032
0.5922596 -0.55616134 -0.5697163 0.53887457 -0.44168723 0.54494524 -0.46548977 0.566966
-0.52001286 0.1086042 -0.013387512 -0.07889325 0.0059183207 -0.5572664 0.5164764 0.14970934
0.57713145 -0.46028247 0.5535472 0.48913437 0.54882884 -0.4824211 -0.55437815 -0.25023544
-0.5552714 0.002284795 0.593787 0.16588627 0.54068047 -0.5815302 0.59170383 -0.559288
-0.57308537 0.538262 -0.44398436 0.54528826 -0.46742642 0.5670481 -0.51959985 0.10816272
-0.012852291 -0.08074749 0.0054823416 -0.5572945 0.5136966 0.15156741 0.5774066 -0.45907477
0.5530377 0.48583674 0.5478655 -0.4812669 -0.55474705 -0.2526389 -0.55618834 0.0032073483
0.5919337 0.16794668 0.5405827 -0.5804985 0.591947 -0.55502474 -0.5716194 0.54007864

lstm.weight_hh_l1 f4 [120, 30]
00000000: 5b04 74b9 fc18 98ba f44c c5ba 9ea9 623a
00000010: 674e d7b9 cf3f c83a b73b 0539 73ab 9cba
00000020: b391 d4b9 3ab4 1838 cb67 543a 712f b63a
00000030: 17dd ffba a927 c6ba afbd c9ba 6f72 feb9
00000040: cb72 b53a b196 a239 1d78 13ba be8a 01bb
00000050: b9d2 b839 3a51 983a afc1 33ba 9c14 8a3a
00000060: c1a4 783a 46ea 87b9 fac2 1a3a d698 77ba
00000070: d279 fe3a 6b66 2c3a b56a 1dba 466e d3b9
00000080: 55ff 523a ad9e 4a3a 5f46 7aba 1e96 02bb
00000090: f817 0dba a886 9038 3441 00bb 50cb 223a
000000a0: 6386 ae3a 09b0 98ba 219e c93a d17a 10ba
000000b0: a224 c8ba 34bf 903a ee93 e7ba 7b28 a039
000000c0: cb57 6c3a 0576 4239 778e aa3a de53 843a
000000d0: b904 e1ba 3616 3339 f261 f03a 84aa f3ba
000000e0: b9e6 7b39 96ff fd3a deac e6b9 770f abba
000000f0: 05ac f03a 3646 edb9 aad3 9dba b93c eeba
00000100: 6141 d239 40e4 bf3a b76b 58b9 3e56 8839
00000110: 9c4f 9a3a 36fc c53a eac6 933a f02d 413a
00000120: 4fa8 753a bf8f dfba 5b15 af3a 6f70 313a
00000130: bf6b 85ba 7388 a8ba cbe8 d73a 0546 913a
00000140: 6793 a43a 3cdc c9ba 7e8b b93a 4c31 84ba
00000150: 8c22 843a 4248 063a ece5 b339 fd95 53ba
00000160: 8e5f 2339 847d 99ba 095b d7ba 7994 9cba
00000170: 1b1f feb9 b530 cc39 7e41 3aba c1d9 afba
00000180: 13f5 32ba a43c aab9 7df7 b6b9 3c6f 9db8
00000190: 84c8 c03a b31d ee3a 6924 d1ba 8cf9 8c3a
000001a0: 92a6 b5ba 7146 adba fa30 0cba 1fc3 853a
000001b0: afa7 283a 6ffa 9cb9 5da1 8cba 447d 683a
000001c0: 05f2 be3a b174 40ba b18c 9aba bbf9 cc39
000001d0: b3f5 e439 bd64 0639 0f2d 9536 2802 d23a
000001e0: 2222 003b b532 c53a b5e8 0fba 7516 adba
000001f0: 578a 273a 79f1 50b9 daa8 7fba de72 1dba
00000200: 4692 553a 7e04 bfba f0f5 5f3a a68f 2bba
00000210: 0712 e93a a058 923a 404d bdb9 af75 d33a
00000220: 09ac adb6 ee88 1fba 5922 f93a 0036 153a
00000230: e4b1 e33a 9cec b2b9 b59c ef39 3863 bdba
00000240: 8cba 793a 7968 a1ba e497 453a 57ce c03a
00000250: b78d 01ba c3bb 07ba 324c b13a 7e3a 013b
00000260: 8a51 6d39 9876 99b9 0fb8 e7ba b1a2 c0b9
00000270: 6173 08ba b580 92b9 9800 63ba 7d1b 033a
00000280: a2a5 4139 7c14 d438 cd36 daba 0b30 da3a
00000290: c747 2cba ad52 dfba c51e a53a b711 c53a
000002a0: 36f8 253a 2a44 75b9 e490 97ba f6c6 4aba
000002b0: 44a5 3eba a231 9db9 5386 413a 2eda b0ba
000002c0: 5585 413a 52be 043a da40 78ba cdf4 83ba
000002d0: f7ef fdba 2b91 173a 98cd 9dba 2e25 bcba
000002e0: 4f7a f8ba dea9 a9ba fb16 ec39 fcce b33a
000002f0: 2ed2 aeb8 38e0 a23a e24e 2e3a a839 86ba
00000300: 8189 91b9 9699 853a 5d8e f0ba 5756 b939
00000310: e2ca 87ba c976 2f39 7e42 e83a 1bd7 4939
00000320: 5925 ca39 6b6b d63a c1f2 14ba 6fa6 bd39
00000330: 5925 e6ba a612 ac3a 38d5 29ba 697f caba
00000340: d11c 41ba eab8 ce3a 44fa faba 864b 123a
00000350: 1de3 80ba 7c10 daba 1b0f 253a 5db5 e3ba
00000360: ea8a 87ba a237 b43a ff7c f13a ece7 83ba
00000370: 018d ad3a 9816 dfba 7987 85ba 56a8 803a
00000380: 34f2 973a 2a1f c43a a886 83b9 2384 803a
00000390: 92e5 8039 6df9 0eba 8899 f23a 5f1a c8b8
000003a0: bd3a 2d3a 6360 ccba 3410 f5ba afbf 1cb9
000003b0: e69c dc39 bdf4 6b3a 4e2c 01ba e865 413a
000003c0: 534e cb3a 27c7 893a 5faa adb9 1faa e1ba
000003d0: b95a c8ba c7b9 05ba e2c4 473a add0 e8b9
000003e0: 4423 12b9 8642 bdba 361c d13a 00aa 8dba
000003f0: 3a9c 7d39 9852 daba d65d fb3a 77de 5bba
-0.00023271276 -0.0011604126 -0.0015052841 0.0008646491 -0.0004106641 0.0015277806 0.00012706114 -0.0011952951
-0.00040544345 3.6407473e-05 0.00081026246 0.0013899637 -0.0019520846 -0.0015118021 -0.0015391613 -0.00048531915
0.0013843415 0.00031011322 -0.0005625503 -0.0019766535 0.00035252215 0.0011620887 -0.0006857169 0.0010534707
0.00094849995 -0.00025923754 0.00059036876 -0.00094450766 0.0019414967 0.0006576541 -0.00060049753 -0.00040327216
0.00080489117 0.0007729333 -0.0009547229 -0.0019925903 -0.0005382295 6.891537e-05 -0.0019570114 0.00062101055
0.0013315197 -0.0011649142 0.0015382209 -0.0005511465 -0.0015269706 0.0011043311 -0.0017667988 0.00030547738
0.0009015768 0.00018545247 0.0013012429 0.0010095795 -0.0017167545 0.00017079044 0.0018339737 -0.0018590246
0.00024023176 0.0019378539 -0.00043997815 -0.0013050874 0.0018361813 -0.00045256474 -0.001204123 -0.0018176056
0.00040103032 0.0014640167 -0.00020639492 0.00026004197 0.0011772993 0.0015105072 0.0011274491 0.0007369211
0.0009371088 -0.001705639 0.0013357805 0.0006768768 -0.0010179206 -0.0012858048 0.0016472576 0.001108349
0.0012556136 -0.0015400718 0.0014155952 -0.0010085492 0.0010081097 0.00051224616 0.00034312846 -0.0008071361
0.00015580488 -0.001171038 -0.0016430329 -0.0011946104 -0.0004846983 0.00038946202 -0.0007105096 -0.0013416336
-0.000682668 -0.00032470108 -0.00034898138 -7.5070624e-05 0.0014708196 0.001816681 -0.0015956286 0.0010755523
-0.0013858846 -0.0013219846 -0.0005347874 0.0010205245 0.0006433678 -0.00029941226 -0.0010729242 0.00088687637
0.0014567977 -0.0007341607 -0.0011791197 0.00039095976 0.0004367061 0.00012816764 4.4457915e-06 0.0016022371
0.0019551595 0.0015045019 -0.0005489693 -0.0013205545 0.00063911587 -0.00019926381 -0.0009752639 -0.0006006191
0.00081471016 -0.0014573482 0.00085434224 -0.00065445376 0.0017781862 0.0011165328 -0.00036106445 0.0016133095
-5.1758293e-06 -0.0006085773 0.0019007429 0.00056919456 0.0017371741 -0.00034127093 0.00045702388 -0.0014449125
0.0009526394 -0.001231446 0.0007537587 0.0014709932 -0.00049420766 -0.000517782 0.0013526736 0.0019718702
0.00022632457 -0.00029270793 -0.0017678755 -0.00036742308 -0.0005205181 -0.00027943184 -0.0008659451 0.00050013495
0.00018467617 0.00010112763 -0.0016648412 0.0016646398 -0.0006571975 -0.0017038189 0.0012597671 0.0015035187
0.0006331237 -0.00023390414 -0.0011563567 -0.0007735336 -0.00072725513 -0.00029982353 0.00073823816 -0.0013492757
0.0007382234 0.00050637603 -0.0009470113 -0.0010067463 -0.0019373883 0.00057818246 -0.0012039421 -0.0014354342
-0.0018957349 -0.0012944301 0.0004503055 0.0013718302 -8.3361156e-05 0.0012426442 0.00066493277 -0.0010240572
-0.00027759004 0.0010192867 -0.0018352974 0.00035350278 -0.0010360146 0.00016733551 0.0017720012 0.00019248987
0.0003855627 0.0016358917 -0.0005681925 0.00036172892 -0.0017558738 0.0013128116 -0.00064786104 -0.0015449348
-0.00073666597 0.0015771661 -0.0019148071 0.0005580712 -0.000983331 -0.0016636993 0.00062965014 -0.0017372776
-0.0010341082 0.001374949 0.0018424093 -0.0010063625 0.0013240875 -0.0017020283 -0.0010187469 0.0009815793
0.0011592568 0.0014962901 -0.00025086594 0.0009805005 0.00024585106 -0.00054540375 0.0018508891 -9.541655e-05
0.0006608179 -0.001559269 -0.0018696846 -0.00014948727 0.00042078568 0.00090010074 -0.00049275614 0.0007377551
0.0015511013 0.0010511623 -0.00033124068 -0.0017216838 -0.0015285827 -0.00051012303 0.00076205854 -0.00044405964
-0.00013936782 -0.0014439381 0.0015953842 -0.001080811 0.00024186159 -0.0016656695 0.0019177746 -0.0008387337

fc.weight f4 [1, 30]
00000000: ad8d aebf 9acd afbf b5f9 afbf a8da afbf
00000010: 8fee afbf eaa5 afbf 5d24 afbf 9f04 afbf
00000020: d5be afbf 5c74 ae3f d5fe af3f e798 af3f
00000030: 2597 aebf f0c5 af3f fa90 afbf 0f90 ae3f
00000040: f60b b03f 9eef aebf 1fd5 afbf 3ae9 afbf
00000050: 1000 afbf 1bfa ae3f 37dd af3f 0e05 b03f
00000060: 2629 afbf 2fd6 af3f 18fa aebf 1df2 af3f
00000070: e28b aebf 0873 aebf
-1.3636986 -1.373462 -1.374808 -1.3738604 -1.3744677 -1.3722508 -1.3682972 -1.3673285
-1.3730112 1.362926 1.3749644 1.3718537 -1.3639876 1.3732281 -1.3716118 1.3637713
1.375365 -1.3666875 -1.3736914 -1.374305 -1.3671894 1.3670076 1.3739384 1.3751543
-1.3684433 1.3737239 -1.3670073 1.3745762 -1.3636439 -1.3628855
