models/lstm_residual_seed_111.pt (torch, 51070 bytes, 5 tensors)

lstm.weight_ih_l0 f4 [120, 4]
-0.58528566 0.3850749 0.86050993 -0.67320156 -0.6553114 0.5102254 0.85103214 -0.26322204
-0.512082 0.45362473 0.852235 -0.71237344 -0.5690756 0.41106218 0.8564524 -0.6904479
-0.6277682 0.50963205 0.8574036 -0.3354166 -0.51321816 0.44799155 0.84909976 -0.70827127
-0.5204301 0.44059896 0.84988576 -0.7124967 -0.5793771 0.3968268 0.86037886 -0.68109375
-0.6946387 0.47639108 0.8535772 -0.14284807 -0.5970445 0.51760626 0.8491684 -0.38055778
-0.44688335 0.5191174 0.84907246 -0.62601835 -0.68816847 0.48472962 0.8518719 -0.1682413
-0.52789086 0.43726504 0.8499752 -0.7122349 -0.57934374 0.39274698 0.86124873 -0.67955565
-0.5914699 0.37495822 0.86959916 -0.657607 -0.48001245 0.48631254 0.8415155 -0.7230502
-0.692793 0.4762006 0.8521881 -0.14445026 -0.43430465 0.58532304 0.8357164 -0.6527706
-0.6844334 0.4890778 0.85511446 -0.1860877 -0.40398115 0.58246267 0.8101834 -0.74822676
-0.61527383 0.51293623 0.85887104 -0.35467923 -0.5027219 0.46024418 0.8497452 -0.7197847
-0.44760013 0.525919 0.83008087 -0.7368118 -0.6571123 0.5071033 0.8592574 -0.27282825
-0.41826388 0.5603554 0.81033957 -0.7429392 -0.54676074 0.42897692 0.85488856 -0.7064066
-0.49302348 0.47099227 0.8462884 -0.7309503 -0.597255 0.51551336 0.8527357 -0.3795712
-0.44956025 0.5224982 0.8557957 -0.61594164 -0.45187584 0.5197758 0.83646935 -0.73417205
-0.001977229 0.0006324228 -0.0006897597 -0.00030876131 -0.0007661895 -0.0020898904 0.00046028828 -0.0003057887
5.8645153e-05 -0.0018328404 0.00070884527 0.0010291697 2.8359422e-05 -0.00037355145 0.0005442602 -0.00064920494
0.0015027168 6.3874715e-05 -4.5586585e-05 -0.0018249259 0.0017328633 0.0021573098 -0.0020895363 -0.0020513944
9.0220245e-05 0.00034913563 -0.0015878853 -0.001820644 -4.6381916e-05 -0.0014105381 0.00014396755 -0.00068468036
-0.0017592617 -0.0015741552 0.001569679 0.001884599 -0.0011903547 0.0010505078 0.001827417 0.00068779744
-0.001215458 -0.0011972229 0.0016998247 0.00063973235 0.00064753275 -0.0010276288 -0.00036804524 -0.0021532916
0.0014649659 -0.0013682274 0.0019517001 0.0014052608 0.0019196797 -0.00077293185 -0.00018488966 0.0006204194
0.0019318373 -0.00015981488 0.0018094884 -0.0018575063 0.0007310282 0.00021828854 -8.2647435e-05 -0.0014934152
-0.0005521409 0.0012699291 5.629902e-05 0.0013109393 -0.0006784426 0.00056233886 0.0008498478 -0.00095870445
-0.0004985808 -8.8750996e-05 -0.0018960988 0.002120537 0.0012386991 0.0019796544 0.0012825489 0.0010927066
0.0005699384 0.0016074987 -0.0018163243 0.0016197604 -0.0019434985 -0.0013393853 -7.680479e-05 -0.001706384
0.0004039093 0.0019257562 0.0008420807 0.0016427387 0.001578665 -0.0010786736 0.0008220679 0.0009507503
-0.00035082252 -0.0004634148 0.0005257972 0.0012237119 0.0010863721 0.0011762831 0.00016751986 -0.0010429632
0.0021939757 -0.0017022456 -0.001459194 0.0015136381 0.001537945 -0.0004746719 -0.00087673275 -0.0020188075
-0.0010229641 0.0014742656 -0.0012423872 -0.0015313996 -0.0010173158 -0.0015942577 -0.0018340321 -0.0012995501
0.009598432 -0.6481716 -0.35281622 0.33271736 -0.49152535 -0.06705231 0.5830304 0.25158814
-0.032285184 0.6059554 0.36888486 -0.29135624 -0.017639618 0.6359715 0.3598356 -0.31870848
00000000: 48d5 15bf 8a28 c53e 614a 5c3f f056 2cbf
00000010: 7dc2 27bf 229e 023f 3edd 593f 0ac5 86be
00000020: ce17 03bf 8041 e83e 132c 5a3f 1b5e 36bf
00000030: f0ae 11bf be76 d23e 7740 5b3f 32c1 30bf
00000040: 6bb5 20bf 3f77 023f cd7e 5b3f b9bb abbe
00000050: 4462 03bf 265f e53e 9a5e 593f 4451 35bf
00000060: e83a 05bf 3096 e13e 1d92 593f 2f66 36bf
00000070: 0f52 14bf e22c cb3e ca41 5c3f 295c 2ebf
00000080: d8d3 31bf 88e9 f33e 0984 5a3f c446 12be
00000090: e9d7 18bf d881 043f 1a63 593f 78d8 c2be
000000a0: e5cd e4be e1e4 043f d05c 593f bd42 20bf
000000b0: cf2b 30bf 7b2e f83e 4714 5a3f 7347 2cbe
000000c0: db23 07bf 34e1 df3e fa97 593f 0755 36bf
000000d0: df4f 14bf 2216 c93e cc7a 5c3f 5cf7 2dbf
000000e0: 926a 17bf 86fa bf3e 0d9e 5e3f ef58 28bf
000000f0: 31c4 f5be f5fd f83e 8f6d 573f d119 39bf
00000100: e25a 31bf 91d0 f33e 0029 5a3f c5ea 13be
00000110: 2e5d debe bbd7 153f 83f1 553f f91b 27bf
00000120: 0737 2fbf 6868 fa3e c8e8 5a3f c68d 3ebe
00000130: 9ed6 cebe 461c 153f 2e68 4f3f ca8b 3fbf
00000140: 9682 1dbf ca4f 033f f9de 5b3f 8498 b5be
00000150: 62b2 00bf 20a5 eb3e e788 593f cf43 38bf
00000160: d82b e5be a1a2 063f 2e80 543f b39f 3cbf
00000170: 8338 28bf 86d1 013f 4bf8 5b3f 25b0 8bbe
00000180: af26 d6be 7473 0f3f 6a72 4f3f 4331 3ebf
00000190: 83f8 0bbf dda2 db3e fad9 5a3f 10d7 34bf
000001a0: 936d fcbe e625 f13e 5ba6 583f 8f1f 3bbf
000001b0: b4e5 18bf aff8 033f e34c 5a3f 2857 c2be
000001c0: c32c e6be 71c2 053f 6d15 5b3f 5aae 1dbf
000001d0: 455c e7be 0710 053f db22 563f b3f2 3bbf
000001e0: 6694 01bb 2dc9 253a fdd0 34ba 3ee1 a1b9
000001f0: 1bda 48ba 8bf6 08bb d952 f139 4452 a0b9
00000200: c1f9 7538 eb3b f0ba cdd1 393a 34e5 863a
00000210: 65e5 ed37 3ad9 c3b9 afac 0e3a 682f 2aba
00000220: cff6 c43a 7af4 8538 3934 3fb8 5a32 efba
00000230: 3e21 e33a a761 0d3b 9af0 08bb b070 06bb
00000240: a034 bd38 310c b739 9720 d0ba ada2 eeba
00000250: 348a 42b8 cee1 b8ba fff5 1639 1f7c 33ba
00000260: 0797 e6ba e253 ceba b0bd cd3a a604 f73a
00000270: ad05 9cba 31b1 893a f185 ef3a 4e4d 343a
00000280: 0150 9fba 22ec 9cba a7cc de3a b6b3 273a
00000290: 30bf 293a 80b1 86ba 32f6 c0b9 3d1e 0dbb
000002a0: 1904 c03a 1856 b3ba 30d0 ff3a ba30 b83a
000002b0: c39d fb3a 949e 4aba f1de 41b9 a4a3 223a
000002c0: b435 fd3a fb93 27b9 5b2c ed3a 9277 f3ba
000002d0: 79a2 3f3a 62e4 6439 0153 adb8 b3be c3ba
000002e0: 8cbd 10ba c073 a63a 9d22 6c38 d3d3 ab3a
000002f0: 83d9 31ba ec69 133a 52c8 5e3a 9151 7bba
00000300: 31b3 02ba d41f bab8 8586 f8ba b5f8 0a3b
00000310: d85b a23a 17bd 013b 331b a83a 2639 8f3a
00000320: eb67 153a b5b2 d23a bb11 eeba 244e d43a
00000330: fdbc feba 508e afba 4212 a1b8 bfa8 dfba
00000340: cac3 d339 a869 fc3a 14bf 5c3a 2a51 d73a
00000350: 35eb ce3a 4862 8dba 0b80 573a c63b 793a
00000360: 9aee b7b9 7bf6 f2b9 a7d5 093a f564 a03a
00000370: 9964 8e3a 832d 9a3a 45a8 2f39 0ab4 88ba
00000380: cec8 0f3b e21d dfba 6d42 bfba 4465 c63a
00000390: df94 c93a 62dd f8b9 8ad4 65ba f84d 04bb
000003a0: fb14 86ba 253c c13a 99d7 a2ba 3eb9 c8ba
000003b0: 7457 85ba 69f6 d0ba e863 f0ba aa55 aaba
000003c0: be42 1d3c 93ee 25bf 54a4 b4be ee59 aa3e
000003d0: 36a9 fbbe b952 89bd 7b41 153f 29d0 803e
000003e0: 783d 04bd e51f 1b3f 7ade bc3e a52c 95be
000003f0: f680 90bc 07cf 223f 5f3c b83e c22d a3be

lstm.weight_hh_l0 f4 [120, 30]
0.00021865297 0.001875286 -0.0016081036 0.0005507338 0.001179277 0.0008777275 0.0010897408 0.00080723694
-0.0013900092 -0.00092413 0.0011902776 -0.00020662595 0.00032606936 0.0016955641 -0.00012745906 0.00075968174
0.0007252322 -0.0014549702 -0.00042400957 -0.0008804529 0.0014242752 -0.0008084002 -0.00012862016 0.000116264826
0.00106409 0.00028283 -0.0013694962 -0.0008466838 0.0011475647 -0.0010409391 0.00013045383 0.00012399984
0.00022373677 -0.0007795327 0.00096013385 0.0017834487 -0.0014820155 0.00026189306 -0.0014994799 -0.0014526006
0.0013330237 -0.0016389743 -0.00029739406 7.56681e-05 -0.0013812534 -0.0014099737 -0.000626519 -0.0014529377
-0.0011480172 -0.001573536 -0.0011523522 0.001168347 -0.0018962546 0.0019699659 -0.0010384262 0.00060449267
-0.001829147 -0.00027380252 0.00028809812 -0.00076231314 -0.0007706409 0.0008730617 0.0013129617 -0.0019807525
-7.900978e-05 -0.001865431 -0.0010388594 0.00031848552 0.00035833003 0.0017154599 0.0014852674 -5.62768e-05
7.240201e-05 0.0013222896 -0.0019699803 0.0017037626 0.00069012144 0.0006056381 -0.0018293706 -0.00083521777
0.0019477087 0.0016444224 0.00032343843 -5.441642e-05 -0.0016328507 0.0015356172 -0.001243136 -0.0009999297
0.0012240075 -0.00018116213 -0.001287122 -0.001991411 -0.00084655744 -0.001830129 -0.0013174844 -0.00039719036
-0.0014952386 -0.0019679882 -0.00046950678 4.6430112e-05 -0.001973932 -1.2123347e-05 0.00036079407 -0.0003423822
-0.0007276619 -0.0016780745 0.00036145284 -0.00042632033 6.963277e-05 -0.00049372844 0.0007518516 -0.00031227662
0.0010435892 0.0003498416 -0.001794294 -0.0008724964 0.00031700757 -0.0013750754 0.001123648 0.0013073948
0.0012360988 -0.00054719835 0.0019852605 0.00066910987 0.0016106234 0.00012725759 -0.0017132856 -0.0013648897
-0.0008001326 -0.0011864568 -0.00020644737 -0.00083224947 -0.00038735988 -0.00171286 -0.0015614555 4.847765e-06
-0.00043529776 0.00040122727 0.00061511376 -0.0016902373 0.0011059655 -0.0006673074 -0.0005014294 -0.0016448711
0.00024742127 0.0007467871 0.001598692 0.001168195 -0.00096909696 0.001700903 -0.0010928966 -0.0017633294
0.0018231171 0.0003458586 0.0017939118 0.0016222445 -3.0694962e-05 -0.0014198506 0.0012814479 0.00033884123
-0.0018812504 0.00086633663 0.00047594143 0.0009422653 1.2990237e-05 -0.0010453606 -0.00060772494 -0.00020635559
-0.0019167622 0.0018756744 -0.000330122 0.0019013601 -0.0018153829 0.00044036843 -0.00087785727 -0.0008429385
-0.00016562844 -0.0013152647 0.0011093814 -0.00091248134 0.0003354154 0.00050032546 0.00076352764 -0.0013808575
-0.0011052612 0.0005240312 -0.00050325255 0.001291886 -0.0012744344 -0.00021530868 -0.0010779916 -3.578353e-05
0.0011115818 -0.0006677707 9.900332e-06 -0.0011225617 -4.4085744e-05 -0.0005136693 0.0016157232 -0.00054512883
-0.00033705833 0.0014985345 -0.00016922904 -0.0010838765 0.0003308599 -0.0018953369 -0.0017174634 0.001140702
-0.00074535876 6.868768e-05 0.001156154 -0.00042527867 0.0003990362 0.0009769645 -0.00090158515 -0.0007194331
-0.00020023156 0.00012883735 8.522916e-05 0.0014238186 0.00061529235 -0.0013521898 0.0005119715 -0.0007215078
-0.00057732896 0.0010467499 -0.00024845076 0.00025533867 -0.000810597 -0.0018266588 -0.0011774021 -0.0012628096
-0.0012165601 -0.000117303374 -0.0012083388 0.0008108685 -0.001631254 -0.0016423891 -0.0018170081 0.0006752115
0.0010363034 -0.0012543945 0.00048557666 0.0007618363 -0.0013642188 0.0013017927 -0.0008175688 0.0012853182
0.0018106077 -0.0009268115 -0.00070431165 0.0002707286 -0.0002456751 -0.00048414065 -0.0019090124 -0.00037915376
00000000: 3646 6539 28cc f53a 01c7 d2ba 1f5f 103a
00000010: f891 9a3a 4c17 663a a2d5 8e3a c19c 533a
00000020: f830 b6ba 5141 72ba 1703 9c3a bba9 58b9
00000030: 4af4 aa39 b13d de3a 88a6 05b9 6125 473a
00000040: 821d 3e3a b3b4 beba 9a4d deb9 32ce 66ba
00000050: bfae ba3a d2ea 53ba 36de 06b9 34d3 f338
00000060: f078 8b3a cd48 9439 ab80 b3ba fdf3 5dba
00000070: e269 963a 1f70 88ba 6fca 0839 f405 0239
00000080: e29a 6a39 8e59 4cba 7eb1 7b3a 9cc2 e93a
00000090: 3040 c2ba b14e 8939 328a c4ba 3065 beba
000000a0: dab8 ae3a dad2 d6ba 8eeb 9bb9 00b0 9e38
000000b0: 2c0b b5ba dece b8ba fa3c 24ba 8070 beba
000000c0: 1179 96ba 1b3f ceba 860a 97ba 3823 993a
000000d0: bf8b f8ba 8b1a 013b cd1b 88ba d176 1e3a
000000e0: fdbf efba 278d 8fb9 e00b 9739 f8d5 47ba
000000f0: d604 4aba 2ede 643a af17 ac3a 83cf 01bb
00000100: 0db2 a5b8 7a81 f4ba 562a 88ba 67fa a639
00000110: 3ede bb39 48d9 e03a 4ead c23a c10a 6cb8
00000120: 88d6 9738 ad50 ad3a c91a 01bb c950 df3a
00000130: 44e9 343a afc3 1e3a 7ec7 efba 84f2 5aba
00000140: 424a ff3a a989 d73a 2c93 a939 303d 64b8
00000150: 6105 d6ba c346 c93a b9f0 a2ba 1310 83ba
00000160: e06e a03a 57f6 3db9 a6b4 a8ba 5582 02bb
00000170: 82eb 5dba f0e0 efba 71af acba fd3d d0b9
00000180: e2fb c3ba 5df9 00bb 2228 f6b9 f4bd 4238
00000190: 155d 01bb 6165 4bb7 f628 bd39 c381 b3b9
000001a0: 90c0 3eba d6f2 dbba 6181 bd39 bf83 dfb9
000001b0: cf07 9238 8e6d 01ba e817 453a 0fb9 a3b9
000001c0: 0bc9 883a f26a b739 842e ebba 3eb8 64ba
000001d0: 0934 a639 e03b b4ba 5f47 933a e45c ab3a
000001e0: 9804 a23a dc71 0fba 251b 023b 3467 2f3a
000001f0: 8e1b d33a 7370 0539 5390 e0ba 19e6 b2ba
00000200: fdbf 51ba e282 9bba cb79 58b9 512b 5aba
00000210: 9016 cbb9 0b82 e0ba c1a9 ccba fca9 a236
00000220: ad38 e4b9 d05b d239 963f 213a f48a ddba
00000230: 0bf6 903a 3eee 2eba 5b72 03ba b798 d7ba
00000240: 52b8 8139 09c4 433a 348b d13a 1f1e 993a
00000250: ff0a 7eba d6f0 de3a 863f 8fba 841f e7ba
00000260: a9f5 ee3a 5b54 b539 b121 eb3a 7ea1 d43a
00000270: 77be 00b8 481a baba 42f6 a73a 80a6 b139
00000280: 4a94 f6ba de1a 633a c787 f939 5b02 773a
00000290: a5f0 5937 7b04 89ba bb4f 1fba 2861 58b9
000002a0: de3b fbba 30d9 f53a 3a14 adb9 0f37 f93a
000002b0: 24f2 edba 40e1 e639 0120 66ba a5f8 5cba
000002c0: 8cac 2db9 f664 acba aa68 913a 9633 6fba
000002d0: b1da af39 4628 033a 7927 483a e4fd b4ba
000002e0: 69de 90ba 235f 093a b5ec 03ba 8054 a93a
000002f0: ec0a a7ba 7cc4 61b9 654b 8dba 4616 16b8
00000300: 7fb2 913a 550d 2fba 9a19 2637 ec22 93ba
00000310: b5e8 38b8 c3a7 06ba adc6 d33a fae6 0eba
00000320: 34b7 b0b9 796a c43a 1373 31b9 dc10 8eba
00000330: 4477 ad39 f46c f8ba 821c e1ba 9c83 953a
00000340: 2e64 43ba 6b0c 9038 178a 973a f0f7 deb9
00000350: bb35 d139 7d0d 803a 5b58 6cba 5798 3cba
00000360: 40f5 51b9 8318 0739 0fbd b238 6d9f ba3a
00000370: 924b 213a f63b b1ba d335 063a 9223 3dba
00000380: e457 17ba 1933 893a 7f42 82b9 fade 8539
00000390: 3e7e 54ba 806c efba 0f53 9aba dc84 a5ba
000003a0: fc74 9fba c500 f6b8 1f61 9eba 7790 543a
000003b0: cdcf d5ba 6f45 d7ba ad28 eeba ad00 313a
000003c0: 92d4 873a 7f6a a4ba ff94 fe39 f8b5 473a
000003d0: 96cf b2ba eaa0 aa3a 1d52 56ba 1f78 a83a
000003e0: ea51 ed3a 44f5 72ba 8ea1 38ba 94f0 8d39
000003f0: f4cd 80b9 42d4 fdb9 d437 faba 28c9 c6b9

lstm.weight_ih_l1 f4 [120, 30]
-0.042160627 0.8331536 0.063047 0.052439265 0.7794971 0.059771635 -0.0627291 -0.045808338
-0.92167866 0.73841244 0.37111804 -0.9003707 0.059723135 0.046820812 0.029757755 -0.07181089
-0.921843 -0.25486788 0.89694595 0.11071582 0.76334673 -0.06790121 -0.08510242 -0.8328972
-0.1007906 -0.057628617 0.0718656 -0.7385903 0.3631036 0.08188463 -0.044761047 0.8292975
0.06446933 0.055379804 0.7794418 0.06578887 -0.06534019 -0.050508652 -0.9216419 0.7361532
0.3737318 -0.90009725 0.061715566 0.04768737 0.034707613 -0.07529948 -0.92082536 -0.25792116
0.8955093 0.1130794 0.7614526 -0.07067432 -0.08649696 -0.8314227 -0.10416566 -0.06154546
0.07391289 -0.73961204 0.36474788 0.08793625 -0.034392618 0.8318247 0.052976377 0.042081334
0.7819926 0.052387558 -0.0530588 -0.036244754 -0.9233471 0.739364 0.36589345 -0.90451497
0.048406128 0.035846796 0.023626208 -0.06433019 -0.9245727 -0.24312158 0.89702696 0.10141018
0.76538384 -0.057576135 -0.07580152 -0.8338378 -0.08824805 -0.04849852 0.061805192 -0.74060875
0.36018816 0.07242697 -0.034484632 0.83136857 0.055183567 0.042728435 0.7839304 0.052821923
-0.053130586 -0.035612214 -0.92629963 0.73823047 0.36680478 -0.9038822 0.049763866 0.0373322
0.024858503 -0.064167015 -0.9240671 -0.24020994 0.8970577 0.101327814 0.76523787 -0.05784152
-0.07540419 -0.83529264 -0.08880275 -0.04846357 0.061059356 -0.74022675 0.3590605 0.07435149
-0.04431122 0.8334426 0.06295318 0.051983774 0.7824519 0.06240213 -0.061413832 -0.048841856
-0.9207856 0.7387766 0.36985862 -0.9030387 0.06126363 0.046894003 0.033292387 -0.07280055
-0.92042625 -0.25426304 0.89385617 0.110443465 0.76302993 -0.068785675 -0.08541713 -0.83080715
-0.10241266 -0.057909034 0.07217361 -0.7377659 0.36337462 0.08413156 -0.04601992 0.83091
0.06563552 0.054527253 0.7822755 0.06380711 -0.06334095 -0.048317146 -0.92095596 0.7377091
0.3719665 -0.90111214 0.061812382 0.049084146 0.03338322 -0.07755976 -0.91896343 -0.25899953
0.89593863 0.11462906 0.7615799 -0.06932344 -0.08711126 -0.8302331 -0.10270634 -0.06280264
0.07583075 -0.7393175 0.36408308 0.0865064 -0.043708574 0.8310342 0.06510278 0.052590244
0.7824836 0.06312783 -0.0650503 -0.04645929 -0.92025584 0.7373986 0.3703181 -0.8997175
0.06120808 0.04772809 0.033515662 -0.07501659 -0.92109156 -0.2560527 0.89449 0.11393228
0.7622328 -0.070870616 -0.08505381 -0.83240825 -0.102992095 -0.061046105 0.07242702 -0.74064934
0.36361068 0.08677993 -0.039130118 0.83325356 0.058351573 0.04908172 0.7825317 0.060071833
-0.05622862 -0.04460518 -0.9239017 0.73739225 0.36437654 -0.90303856 0.05576308 0.041887846
0.028953366 -0.07025875 -0.92165977 -0.24820827 0.89555156 0.10968963 0.76524395 -0.06352823
-0.08103342 -0.8326228 -0.09772777 -0.055736087 0.0693379 -0.7382712 0.35486996 0.08077828
-0.045621507 0.8328828 0.06368714 0.05457641 0.7792596 0.06382311 -0.062396586 -0.049007613
-0.9203966 0.73596895 0.37150487 -0.90191734 0.05913504 0.048914082 0.034781348 -0.07624934
00000000: 9fb0 2cbd 8e49 553f c91e 813d 8eca 563d
00000010: 1f8d 473f 1ad3 743d 1d78 80bd 86a1 3bbd
00000020: 22f3 6bbf 9908 3d3f 2f03 be3e b27e 66bf
00000030: 3fa0 743d 2ec7 3f3d 89c6 f33c 9711 93bd
00000040: e7fd 6bbf 0b7e 82be 409e 653f fabe e23d
00000050: b16a 433f ca0f 8bbd 2d4a aebd c038 55bf
00000060: 4d6b cebd fc0b 6cbd 462e 933d 4114 3dbf
00000070: b7e8 b93e 21b3 a73d 5c57 37bd d74c 543f
00000080: 7f08 843d efd5 623d 7f89 473f 51bc 863d
00000090: 14d1 85bd 29e2 4ebd b9f0 6bbf 8974 3c3f
000000a0: c659 bf3e c66c 66bf 76c9 7c3d d553 433d
000000b0: 9229 0e3d 9d36 9abd 36bb 6bbf 3e0e 84be
000000c0: 1940 653f 2c96 e73d 8fee 423f b3bd 90bd
000000d0: 5125 b1bd 1ed8 54bf ce54 d5bd 1817 7cbd
000000e0: a45f 973d 3757 3dbf 3cc0 ba3e ec17 b43d
000000f0: 46df 0cbd 77f2 543f c2fd 583d 7a5d 2c3d
00000100: ab30 483f 5694 563d 2f54 59bd 6175 14bd
00000110: 7a60 6cbf f646 3d3f 6356 bb3e 4b8e 67bf
00000120: 8145 463d 17d4 123d c08b c13c 8cbf 83bd
00000130: ccb0 6cbf ddf4 78be 8fa3 653f 24b0 cf3d
00000140: 32f0 433f f4d4 6bbd d43d 9bbd 6576 55bf
00000150: 65bb b4bd 62a6 46bd 7127 7d3d 8998 3dbf
00000160: 956a b83e 9754 943d c23f 0dbd 92d4 543f
00000170: 2a08 623d 0304 2f3d aaaf 483f cd5b 583d
00000180: 759f 59bd 1dde 11bd f921 6dbf acfc 3c3f
00000190: d6cd bb3e d364 67bf 32d5 4b3d a6e9 183d
000001a0: 0fa4 cb3c ff69 83bd a98f 6cbf 98f9 75be
000001b0: 93a5 653f f584 cf3d a1e6 433f 3beb 6cbd
000001c0: 836d 9abd bdd5 55bf 37de b5bd bd81 46bd
000001d0: 6019 7a3d 807f 3dbf c7d6 b73e 9845 983d
000001e0: af7f 35bd 7f5c 553f 99ed 803d f0ec 543d
000001f0: c54e 483f 6099 7f3d 128d 7bbd 660e 48bd
00000200: 9bb8 6bbf 7720 3d3f 1c5e bd3e 8b2d 67bf
00000210: 92ef 7a3d ed13 403d 995d 083d 7418 95bd
00000220: 0ea1 6bbf c42e 82be c2d3 643f 2f30 e23d
00000230: ee55 433f 81df 8cbd 2def aebd c7af 54bf
00000240: bbbd d1bd 0632 6dbd c2cf 933d 3ade 3cbf
00000250: 3d0c ba3e 2b4d ac3d 627f 3cbd 85b6 543f
00000260: ea6b 863d f857 5f3d 3543 483f 4dad 823d
00000270: e6b8 81bd 33e8 45bd c5c3 6bbf 81da 3c3f
00000280: 6572 be3e 49af 66bf fb2e 7d3d 750c 493d
00000290: d8bc 083d a7d7 9ebd 3041 6bbf 969b 84be
000002a0: 3c5c 653f a4c2 ea3d e6f6 423f 73f9 8dbd
000002b0: 6367 b2bd 288a 54bf b457 d2bd ac9e 80bd
000002c0: 274d 9b3d e943 3dbf 1969 ba3e 442a b13d
000002d0: c307 33bd a8be 543f 9b54 853d de68 573d
000002e0: d850 483f 2a49 813d 1739 85bd 194c 3ebd
000002f0: e395 6bbf 28c6 3c3f 569a bd3e e353 66bf
00000300: 53b5 7a3d 887e 433d b847 093d 4ca2 99bd
00000310: a8cc 6bbf 5719 83be 4cfd 643f 5455 e93d
00000320: b021 433f 9d24 91bd b130 aebd b518 55bf
00000330: 85ed d2bd 7b0b 7abd 9e54 943d 329b 3dbf
00000340: 2e2b ba3e adb9 b13d e746 20bd 1b50 553f
00000350: 0f02 6f3d ea09 493d ff53 483f e20d 763d
00000360: fb4f 66bd ecb3 36bd d284 6cbf bdc5 3c3f
00000370: 908f ba3e 892d 67bf d467 643d 9792 2b3d
00000380: 9c2f ed3c d2e3 8fbd e5f1 6bbf 4f2a 7ebe
00000390: de42 653f f5a4 e03d 07e7 433f 171b 82bd
000003a0: daf4 a5bd c526 55bf 7f25 c8bd 864b 64bd
000003b0: 0701 8e3d 57ff 3cbf 84b1 b53e 156f a53d
000003c0: 9edd 3abd cf37 553f 676e 823d 848b 5f3d
000003d0: 8f7d 473f b1b5 823d 9093 7fbd 35bc 48bd
000003e0: 1d9f 6bbf 7668 3c3f e335 be3e 0ee4 66bf
000003f0: 9537 723d 225a 483d e376 0e3d 9d28 9cbd

lstm.weight_hh_l1 f4 [120, 30]
0.00048030377 0.0016097708 0.00172119 0.001245508 0.0017912715 0.00024505617 0.00022793557 0.0011774047
0.00077228335 -0.0018005155 0.000502301 0.001038949 0.00075284054 0.0005825818 -0.00042629338 0.0018935521
-0.0017044469 -0.0019106999 -0.0008346935 0.0011930707 0.0011599532 -0.00010644627 -0.0016423156 0.0008529928
0.0017083329 -0.001460286 0.0015610943 0.0009937632 0.0011550186 0.001377606 -0.0004033971 -0.00056450965
0.0019475659 -0.0018010798 0.0010993839 0.0018130649 5.0661805e-05 0.001970464 -0.0017199083 0.0017465428
0.00070372154 0.0010845674 0.00042965938 -0.00062721496 0.0016335235 -0.0003492129 0.0005153358 0.0008563614
0.0014248651 -0.0012863639 0.0005621126 0.00045242716 -0.0012766164 0.0018226183 0.00038243583 0.0019529439
0.00054155994 -0.00055283954 0.00077758986 -0.000813345 -0.00043980958 0.001205983 0.00053235225 0.0012276624
-0.00018806697 5.3795342e-05 -0.00034445335 0.0007345517 0.001366082 0.0011428655 0.0014302862 -0.0007946754
-0.0008075743 -0.0004939671 -0.000729579 -0.00025291397 -0.00023760677 0.0013076501 0.0007292588 0.0012576559
0.0012739898 -0.0005438788 0.001115267 0.00010076166 0.0006934231 0.00086461264 0.0015033406 -0.0010656798
-0.001432452 0.001947338 -0.00026660395 0.0014287656 -0.000546372 -0.0017897008 0.000638392 -0.001918429
7.040858e-05 0.00061627437 0.00012343502 0.0017498585 -0.0017181498 -0.0017139192 0.0012474144 0.0011777707
0.0012219131 0.0017675229 -0.00063994864 0.00043872287 0.0017748028 -0.0008493739 0.00038548448 -4.426074e-05
0.0003320532 -0.0003970256 -0.0014248476 0.00040965725 0.00087316014 -9.523774e-05 0.0013254366 0.00075891736
-0.00058846833 0.0012295773 0.0009988594 -0.00041204668 -0.0014186805 -0.00032058908 -0.00011755062 0.00012481309
-0.001408101 -0.0019517327 -0.00075920776 -0.00074865465 0.0006438911 -0.001879035 -0.0016649356 0.0011196643
-0.0005987008 0.00047654987 -0.0009651325 -0.00010340191 0.00093174056 0.00094120123 -0.0016845005 0.0010787674
-0.000254277 0.0011972511 0.0014846073 0.0004913535 0.0016605576 0.0010739563 0.00056223944 0.0011459122
0.00046404148 0.001162195 -0.0011184686 0.00010884357 0.00014898325 0.0011610675 0.0001445005 0.00036937787
0.001939695 -0.0017920671 -0.0013195935 -0.0013923896 -0.0013312479 -0.000112984424 -0.0015756885 -0.0018116651
-0.0008236275 -0.0009015837 -0.00052042847 0.00038915063 0.00034209824 0.00073059683 -0.00027617288 0.0006519764
0.0016467934 0.0002545302 0.00060990005 -0.00063353806 -0.000616777 0.001892229 0.0019743233 0.0008918555
0.0017863102 -0.0011165951 -7.008934e-05 0.0010573347 -0.0010257218 0.0010044167 -0.0011562345 -0.0015043447
0.0018024892 0.00093602494 -0.0009890703 0.0015185727 0.0019295858 -0.0019287914 0.0006793981 -0.0002005434
-0.001876093 0.0018850561 0.0006151996 0.0011967468 0.0012607513 0.00049639656 0.0007518823 -0.0016693383
-0.0008238225 -0.0010517619 0.0005812607 -0.00063911296 0.0017017194 0.0018613251 -0.001699986 0.0006927455
0.00015450598 -0.0011804379 -0.00021317936 -0.0003134196 0.0013993147 -0.001693503 0.0016442111 -0.0015395847
0.00010335875 0.0007203541 0.0018511489 9.402848e-05 0.0009396353 -0.0010073202 0.00026311376 -0.00086010725
-0.0011923449 0.000565109 -0.0011518456 -0.001394343 0.00041635754 0.0015721022 0.0014428009 0.0019041203
0.00086185697 -0.00034471514 0.0014401821 0.00016150642 0.0001424675 0.0010107022 0.0010462801 0.0019766858
0.00070029596 -0.0013415492 -0.00015558052 0.0013106416 -0.0016896358 -0.001955441 -0.0018114911 -0.00024098421
00000000: 48d1 fb39 f2fe d23a 8e99 e13a 5040 a33a
00000010: 19c9 ea3a e27a 8039 fd01 6f39 2553 9a3a
00000020: 0f73 4a3a 46ff ebba d9ac 033a 582d 883a
00000030: 465a 453a 67b8 183a 2180 dfb9 1131 f83a
00000040: bf67 dfba 7370 faba 55cf 5aba cf60 9c3a
00000050: 9209 983a e83b dfb8 f842 d7ba 619b 5f3a
00000060: 24ea df3a 1167 bfba a29d cc3a 2941 823a
00000070: fe63 973a c990 b43a 0b7f d3b9 9afb 13ba
00000080: 7845 ff3a 3612 ecba 3419 903a 5da4 ed3a
00000090: b37d 5438 e622 013b 8c6e e1ba 40ec e43a
000000a0: f479 383a 0b28 8e3a e843 e139 af6b 24ba
000000b0: f41b d63a 9016 b7b9 9a17 073a 717d 603a
000000c0: 8ac2 ba3a 369b a8ba bd5a 133a bf33 ed39
000000d0: 2354 a7ba ece4 ee3a ab81 c839 ecf9 ff3a
000000e0: 79f7 0d3a 6fec 10ba 2cd7 4b3a a936 55ba
000000f0: 3e96 e6b9 1312 9e3a 8e8d 0b3a 84e9 a03a
00000100: d833 45b9 4fa2 6138 bf97 b4b9 ee8e 403a
00000110: 1b0e b33a 34cc 953a 7178 bb3a c351 50ba
00000120: 65b3 53ba 927d 01ba 3841 3fba 8a99 84b9
00000130: 1526 79b9 7565 ab3a bb2b 3f3a eed7 a43a
00000140: 01fc a63a 1793 0eba 272e 923a 0150 d338
00000150: d6c6 353a 2ca7 623a bd0b c53a 48ae 8bba
00000160: 1dc1 bbba d23d ff3a fac6 8bb9 6b45 bb3a
00000170: 673a 0fba 6594 eaba c359 273a cc73 fbba
00000180: 52a8 9338 798d 213a 566e 0139 825b e53a
00000190: 8a33 e1ba 96a5 e0ba 4880 a33a 6d5f 9a3a
000001a0: 9a28 a03a 3aac e73a 3ac2 27ba 6304 e639
000001b0: 80a0 e83a 84a8 5eba da1a ca39 9ca4 39b8
000001c0: 6d17 ae39 e027 d0b9 f4c1 baba 44c7 d639
000001d0: c9e4 643a 5fba c7b8 46ba ad3a 15f2 463a
000001e0: 7143 1aba c529 a13a 29ec 823a f807 d8b9
000001f0: 05f3 b9ba bd14 a8b9 8285 f6b8 42e0 0239
00000200: 0790 b8ba 48d1 ffba 9205 47ba 5d41 44ba
00000210: cdca 283a f449 f6ba f839 daba b3c1 923a
00000220: 21f2 1cba 71d9 f939 f200 7dba 7ad9 d8b8
00000230: 0d40 743a f2ba 763a 75ca dcba 6d65 8d3a
00000240: 7b50 85b9 15ed 9c3a 2897 c23a 2dce 003a
00000250: 11a7 d93a fec3 8c3a 4063 133a 6f32 963a
00000260: 984a f339 cb54 983a 9499 92ba f242 e438
00000270: 6338 1c39 f62e 983a 0f85 1739 0fa9 c139
00000280: 5d3d fe3a cbe3 eaba 36f6 acba d880 b6ba
00000290: 447d aeba 0df2 ecb8 5587 ceba 6575 edba
000002a0: b5e8 57ba 4258 6cba 5d6d 08ba ea06 cc39
000002b0: a65b b339 8685 3f3a 4ccb 90b9 65e9 2a3a
000002c0: 38d9 d73a 7772 8539 b3e1 1f3a 0514 26ba
000002d0: 34af 21ba ab04 f83a a663 013b 69cb 693a
000002e0: a022 ea3a b75a 92ba eefc 92b8 4496 8a3a
000002f0: 8371 86ba a2a6 833a cb8c 97ba 6f2d c5ba
00000300: 8041 ec3a 925f 753a b1a3 81ba d80a c73a
00000310: 28ea fc3a 80cf fcba a219 323a f648 52b9
00000320: 3ce7 f5ba fd13 f73a 5945 213a 29dc 9c3a
00000330: cb3f a53a 9c20 023a f819 453a b3cd daba
00000340: cbf5 57ba 46db 89ba bf5f 183a 258a 27ba
00000350: 3a0c df3a b5f7 f33a 11d2 deba 5d99 353a
00000360: e202 2239 ecb8 9aba e688 5fb9 7752 a4b9
00000370: 3669 b73a 88f8 ddba 9282 d73a e4cb c9ba
00000380: 4ec2 d838 25d6 3c3a 40a2 f23a 2831 c538
00000390: dc51 763a 0f08 84ba 88f2 8939 d278 61ba
000003a0: 7548 9cba d323 143a 86f9 96ba 63c2 b6ba
000003b0: 904a da39 ff0e ce3a 5d1c bd3a ad93 f93a
000003c0: 3eee 613a e2ba b4b9 7ec4 bc3a 0d5a 2939
000003d0: 5463 1539 8a79 843a 5623 893a 498b 013b
000003e0: 1194 373a ecd6 afba 5423 23b9 d6c9 ab3a
000003f0: c576 ddba db26 00bb 8e6f edba b5b0 7cb9

fc.weight f4 [1, 30]
-1.2256471 -1.2274173 1.2111208 1.2129778 -1.2256174 1.2294416 -1.2267417 -1.2183871
-1.2274538 1.2187537 1.2183205 -1.2181996 1.2255058 1.2259206 -1.2290611 -1.2185063
1.2188746 1.2258223 -1.2255472 1.2183585 1.2270542 1.2274696 -1.2271122 1.2256438
-1.210512 1.227667 -1.2252293 1.2182281 1.2187766 1.2186375
00000000: 01e2 9cbf 031c 9dbf 0206 9b3f db42 9b3f
00000010: 08e1 9cbf 585e 9d3f df05 9dbf 1cf4 9bbf
00000020: 351d 9dbf 1f00 9c3f edf1 9b3f f7ed 9bbf
00000030: 60dd 9c3f f7ea 9c3f e051 9dbf 04f8 9bbf
00000040: 1504 9c3f bfe7 9c3f bbde 9cbf 2cf3 9b3f
00000050: 1d10 9d3f b91d 9d3f 0312 9dbf e5e1 9c3f
00000060: 0ff2 9abf 3124 9d3f 50d4 9cbf e6ee 9b3f
00000070: df00 9c3f 50fc 9b3f
