models/lstm_pure_seed_789.pt (torch, 50962 bytes, 5 tensors)

lstm.weight_ih_l0 f4 [120, 4]
00000000: fec6 b83c dfb1 02be 057f b8be 2d21 9b3d
00000010: 9809 223d 910b 83be 489a f8bd a109 8ebd
00000020: 0736 193c d6ba bdbe 59f2 a4be dedc 953c
00000030: c90f ddbd 2571 14be 9f7e 0fbf afb2 42bd
00000040: 04a2 45bd 5be9 86be f367 3fbe a522 a0bd
00000050: 2b4e 7ebb d350 aebe 3d85 a8be 059f f83c
00000060: a8b5 163d 8a47 0ebe 00ef 07be 6572 b43d
00000070: c456 d5ba f150 a6be 7fa2 9bbe 46a9 0f3d
00000080: 5c96 ae3b 3300 91be fc6a 99be 2fa3 553d
00000090: 856f 41bd 390a 16be 1304 90be 4603 b53d
000000a0: e566 113d 8edb 77be 81e3 51be 2962 543d
000000b0: b388 693c fcaa b7be 46a6 86be 3a30 973c
000000c0: 987d 9abd 2feb 00be 4eb5 94be f4d7 c53d
000000d0: e0dc 10bd 8868 81be 5049 61be d1f4 17bc
000000e0: 205e ae3d 280c 66be 3cd5 88be 22ad f43d
000000f0: 78c5 f63c 682d 20be b19c cdbd 240b 4a3d
00000100: 984b 9a3d b875 82be e04f 82be 0681 e13d
00000110: a7a9 aabe 6564 50be d7d9 27bf e70e af3d
00000120: 0823 253d 290d bbbc ba12 1dbf f816 c23d
00000130: dc80 e13b a6b3 99be 09d4 8fbe 18cc 303d
00000140: 0f46 973c a067 82be db9e 42be 06db 123a
00000150: 5e99 afbd 0bf3 61be 844e ccbe 4993 e73d
00000160: 2134 883c c246 59be e000 5fbe 5311 8b3d
00000170: d3a5 3ebd e82c 85be ca06 56be c9d6 39bd
00000180: e5aa 8cbd 525a 4abe 97b4 873d a133 dabd
00000190: 10ac a7bd ed13 22be b926 a8be 8d2f c23d
000001a0: db1c f1bb 331d a7be 0059 abbe d60f 013d
000001b0: 345a 873d 44d7 713b a0f1 0abd 396e 493e
000001c0: 7ddb 85bd 16c9 07be 5198 92be c6f3 cb3d
000001d0: 5b62 c73c a5a2 84be f60a 2abe 9986 19bd
000001e0: 29a0 bb38 e86c ac3a 3a28 0dbb 6b7f 7cb9
000001f0: 669c d938 317d a13a 698e 5bba 0987 4239
00000200: 753d b2ba 67ea 0b3b 6ae4 25ba 7e72 86ba
00000210: d35c fe3a 7194 ae3a 4e30 76b9 5d34 72ba
00000220: a300 0c3b f95a f23a 6c72 c43a 68df 52b8
00000230: 6acb cd3a 540c 9939 35c6 d73a 4af1 88ba
00000240: cae0 7e39 1e27 8938 944b 463a c3a9 4b3a
00000250: 6ac1 f639 df79 d9ba 58bc 0ebb a0b9 91ba
00000260: 0e74 d8ba d4dd fb3a 1646 143a f4b3 93ba
00000270: 1175 fa3a f73a 16ba 21e3 323a 9787 76ba
00000280: e367 4c3a c83b 13ba 6a69 a43a 7828 0ebb
00000290: 7130 ce39 fd30 ea3a 88c4 183a b55a b93a
000002a0: db47 0bbb 9b3c 093b a973 d6ba 0332 c73a
000002b0: 5142 93ba db65 983a 9239 9dba ff20 1d3a
000002c0: d5a4 94ba 146f 78ba 95f0 fdb9 2afd 0b3b
000002d0: 70d7 7f39 f917 c53a 675b 4338 3287 c439
000002e0: 265c 013b 8bdc 51ba 74d1 1f3a 8a6d a3b9
000002f0: ecad bcba 7d67 16ba e618 62ba 0b8d c6ba
00000300: 1c56 1a39 d248 cd3a ba2e 1fba 094d b13a
00000310: 9005 fc3a 843a 5c3a b4b6 a8ba 44c0 87b8
00000320: a20f 04bb d6d8 d3ba 8be4 10b9 3652 e63a
00000330: 9f60 fc39 90e6 37ba 0b10 02ba 7acc aaba
00000340: b347 c039 385b 30ba f07e 8c3a 60c9 cf39
00000350: 38da cf3a 17cc baba 4646 053b e56c 00bb
00000360: d3b7 f13a 37e8 fe39 e878 03bb f197 9fb9
00000370: 4612 023b 8809 993a 37ae feba 3e3a 3539
00000380: 17de 753a 5ca3 0fbb 59b3 6d3a 147e 0f3b
00000390: a37a 963a 5e46 82b9 9e44 a8ba b037 05b9
000003a0: 1efb 9bb9 7bdb 0bba 190c f1ba 9ab9 a6ba
000003b0: 9fcc d3b9 1d28 983a 625f 223a 7e3b f9b9
000003c0: 0f5c abbc f761 a23e e90c 38bd 6baf c6bd
000003d0: 86a1 64bd 0d54 d83e 2eef fbbb c282 19bd
000003e0: 85bc 7abd f713 bc3e d567 0b3e 2a80 e5bd
000003f0: 9848 22bd 7119 5e3f c46d 583b 8ef1 cebb
0.022555824 -0.12763165 -0.36034408 0.07574687 0.03955993 -0.25594762 -0.12138802 -0.0693543
0.00935126 -0.37056607 -0.32216147 0.018293794 -0.107940264 -0.14496286 -0.56052583 -0.047533687
-0.048250213 -0.2634991 -0.18691997 -0.07819108 -0.0038803916 -0.3404604 -0.32914153 0.030349264
0.036794335 -0.13894477 -0.13274765 0.088108815 -0.0016276469 -0.32483628 -0.30397412 0.03507354
0.005327983 -0.28320464 -0.29964435 0.052157577 -0.047225494 -0.14652337 -0.28128108 0.08838515
0.03549852 -0.24204847 -0.20496942 0.051851425 0.014253783 -0.35872638 -0.26298732 0.018455613
-0.07543486 -0.12589715 -0.29044574 0.096603304 -0.035366893 -0.25275064 -0.22000623 -0.009274677
0.08514047 -0.22465575 -0.26725185 0.11947085 0.030123457 -0.15642321 -0.10039652 0.04932703
0.075339496 -0.25480437 -0.25451565 0.110109374 -0.3333256 -0.20350797 -0.6556677 0.08547764
0.04031661 -0.022833424 -0.613567 0.09477037 0.0068818163 -0.30019873 -0.28091457 0.04316339
0.018466024 -0.25469685 -0.19005911 0.0005602095 -0.08574174 -0.2206537 -0.39903653 0.11307389
0.01662642 -0.21218398 -0.21777678 0.06790414 -0.04654486 -0.26010823 -0.20901027 -0.04537085
-0.06868533 -0.19761017 0.06626242 -0.10654379 -0.08187115 -0.15827914 -0.32842043 0.09481726
-0.007358176 -0.32639465 -0.3346634 0.031509243 0.06609002 0.003690199 -0.033921838 0.19670953
-0.06536005 -0.13260302 -0.28631833 0.099586055 0.024338892 -0.25905338 -0.16605744 -0.037481878
8.946687e-05 0.0013155015 -0.002153887 -0.0002408006 0.00010376498 0.0012320635 -0.0008375408 0.00018551586
-0.0013598638 0.0021349431 -0.0006328287 -0.001025751 0.0019406326 0.0013319385 -0.00023478383 -0.000923937
0.0021362684 0.0018490247 0.0014987714 -5.0275965e-05 0.0015700881 0.0002919162 0.0016462269 -0.0010447886
0.00024307068 6.539955e-05 0.00075643626 0.0007769132 0.0004706488 -0.0016592107 -0.0021779742 -0.0011117943
-0.0016514079 0.001921589 0.00056561956 -0.001126884 0.0019108375 -0.00057308323 0.0006824006 -0.000940436
0.0007797463 -0.0005616513 0.0012543623 -0.0021691602 0.00039327473 0.0017867383 0.0005827625 0.0014141413
-0.0021252546 0.0020940665 -0.0016361374 0.00151974 -0.0011234974 0.0011627035 -0.0011995307 0.00059939915
-0.0011340628 -0.0009477001 -0.00048435168 0.0021360614 0.00024398952 0.0015037052 4.6576748e-05 0.00037484762
0.0019738763 -0.0008005581 0.00060965796 -0.00031171396 -0.0014395094 -0.0005737467 -0.0008624926 -0.0015148235
0.00014718663 0.0015661961 -0.00060723315 0.0013526987 0.0019227732 0.00084010535 -0.0012871833 -6.473114e-05
-0.002015092 -0.0016162645 -0.00013818049 0.0017572108 0.00048137174 -0.00070152525 -0.0004961497 -0.001303091
0.00036674514 -0.000672746 0.0010718983 0.00039632153 0.0015857881 -0.0014251497 0.0020336076 -0.0019596156
0.0018441625 0.0004861967 -0.002006108 -0.00030440048 0.0019847318 0.0011675814 -0.0019430582 0.00017283202
0.0009379102 -0.0021917438 0.00090675574 0.0021895217 0.001148064 -0.0002484796 -0.0012837832 -0.00012704614
-0.00029751 -0.00053351343 -0.0018390446 -0.0012720108 -0.0004039751 0.0011608634 0.0006194023 -0.00047537306
-0.02091792 0.31715366 -0.044934187 -0.09701427 -0.055818103 0.42251626 -0.0076884245 -0.037478216
-0.061214942 0.36733982 0.13613828 -0.11206086 -0.039620012 0.8675757 0.003302441 -0.0063154167

lstm.weight_hh_l0 f4 [120, 30]
00000000: 19e3 023b b580 7ab9 f7e0 7f3a 6b4a f6ba
00000010: 8aad a63a c97e 413a e6e0 fd3a 387c f63a
00000020: 800a de38 fcb1 8a39 fce0 a33a ee66 c33a
00000030: 9248 893a 7b25 86ba 1311 e63a 0037 95ba
00000040: 89b6 003b 61d9 af3a 76e6 fd3a 4801 5bb8
00000050: bdec 9339 8ab8 edba eaa9 93ba 3907 03bb
00000060: 4c1b d4ba e242 6439 3ebd c83a d72d 02bb
00000070: fe62 05ba 0f4d f9ba 4069 d3b9 6b54 43ba
00000080: 92f1 043a 176e e83a b3f5 5bba 8acb 0d3a
00000090: 61a3 333a 4bdc 793a 6bc3 89ba 344b aab9
000000a0: 0d1a 583a d288 d3ba b3d9 3dba 5bc5 ad3a
000000b0: f411 20ba 783e f5b8 5dc6 e93a 8a63 b0ba
000000c0: 4ee8 003b 5d69 3dba c537 d3ba 9260 fb3a
000000d0: d321 9d3a 8ccc 1939 2898 bf3a c95e d53a
000000e0: f43f 5dba 0d96 5dba c18c 7a3a 6fea 99ba
000000f0: fc99 15b9 7780 c83a f0c2 c6ba 4f8d faba
00000100: 8e63 a63a 15ee afb9 6fb7 c6ba 05e0 73ba
00000110: 136f f7b9 56f6 0e39 2aca beba 8430 b739
00000120: 69e1 5e3a 8808 88ba 7a76 e0ba 6b67 e33a
00000130: 256a c03a 0dc2 55b9 5f74 0bba a6f8 b73a
00000140: b773 1dba a088 9aba 0a1c 023b 6f7e baba
00000150: 7c9b fcba 2cd1 d13a 791b c03a 2c9f beba
00000160: a978 55ba e20a 83b8 fea4 10b9 07f5 c0b9
00000170: ffb8 e639 2adc 7c38 e82b 9a38 40be deba
00000180: 3f8a 00bb d3d2 813a 3acb ac3a 4c1f c83a
00000190: b7e7 67ba 9419 e93a 6599 cf3a 940f 9bba
000001a0: e2ba 44b9 9aaa a3ba 1598 1cba 9a77 783a
000001b0: 9a11 65b9 ec53 db3a 8eeb 2aba 15ab e93a
000001c0: 2c07 5db7 3c91 0dba 34d8 833a 1540 2aba
000001d0: f6b4 c5ba c54c b4b9 c1a5 e43a 8a52 9fba
000001e0: 968d 2aba d315 20ba 3ca7 0539 52f0 85b9
000001f0: 32ac 813a 5929 f438 865b 87ba 05a5 8f3a
00000200: d4fc c3ba b786 d2ba ff78 45ba 5beb ce3a
00000210: 249b ebb7 cf59 333a d7ae 903a 2230 f93a
00000220: 9430 203a 7712 b9b9 1f3c f23a f6e8 adb9
00000230: 8ce3 c73a f4d5 de3a defe acba b1da 7339
00000240: 610b c3ba 09c4 b8b9 b338 c5ba 9664 ddba
00000250: 507d 0e39 3678 803a cb0d 18ba ab15 abba
00000260: fb9e 6fba 8846 bf3a 5b3c a6b9 8e33 d83a
00000270: 34f7 c7b9 c344 fe3a c3c9 bbba 5961 d6b9
00000280: 1b67 0339 e4a5 f939 d5f2 a0ba ad02 23ba
00000290: 9423 b6ba 0bf2 d9ba 3a08 c9ba e8f3 d4ba
000002a0: 94a6 263a 0f47 6eba 7b6c 1d39 0f95 6f3a
000002b0: c7e1 823a 69c3 4e3a 13bd ad3a 4095 bdba
000002c0: 506f 003b 8cd4 e1b9 e06b 3a3a 7c60 dbba
000002d0: d870 b2ba b36b 19ba 40de c7ba a7cf efba
000002e0: a55f fb3a 6963 6c3a 3a26 4e3a 65db e6b8
000002f0: f963 6639 8add 5cba d879 3bba 6ffc 35ba
00000300: 3a6b 8dba 965f 1e3a 8e7f 4fb9 f29e 8f39
00000310: a260 9f3a cdd7 9aba dc99 253a f83b dcb9
00000320: f415 2e3a eed5 b83a f6e2 d23a 57bc a83a
00000330: b992 d5ba c14e ab3a 4f22 7238 d4b9 b6b9
00000340: 1f3c 9f3a 1785 623a c9f4 5eba 9e9f 0239
00000350: 8edb c739 4451 773a ee34 a9ba 2996 8cba
00000360: ec6f 393a 4407 03ba c931 db3a 8e39 543a
00000370: b1a6 0c3a 57f0 ac3a 6bdc c53a adf9 e63a
00000380: 2195 c2ba 6b37 ccba e037 3539 4208 3eba
00000390: 0fc1 f7b9 bdb2 2eba 63fd 96ba f0f3 dc39
000003a0: 3075 2839 fd29 dfb9 7e78 cbba 59b3 eaba
000003b0: ea1c a5ba 963f 973a 9cb8 bf3a ad54 20ba
000003c0: d4c9 743a d6e6 49ba c5fd db3a 0546 d8b9
000003d0: 46a6 7a3a af9b c4ba b551 deba 07c4 a3ba
000003e0: 8a41 d538 a458 c739 5551 43ba 2e4c e2ba
000003f0: c327 063a 57fe 2439 59eb e4ba ee9b feba
0.0019971787 -0.00023889805 0.00097610004 -0.0018790489 0.0012716514 0.0007381258 0.0019369393 0.0018805331
0.00010587741 0.0002645402 0.0012502964 0.0014907995 0.0010473898 -0.0010234559 0.0017552696 -0.0011384189
0.001964005 0.0013416224 0.0019371051 -5.2214862e-05 0.0002821441 -0.0018136662 -0.0011265848 -0.0019993319
-0.0016182452 0.0002176869 0.0015315188 -0.0019863748 -0.00050882983 -0.0019020158 -0.00040323474 -0.0007451239
0.0005071397 0.0017733005 -0.0008390799 0.0005409053 0.00068526535 0.00095314224 -0.001051051 -0.00032480957
0.0008243628 -0.0016138798 -0.00072422175 0.0013257669 -0.0006106191 -0.00011694146 0.0017835606 -0.0013457399
0.0019669714 -0.0007225478 -0.0016114643 0.001917856 0.001198823 0.00014667417 0.001461749 0.0016278859
-0.0008440011 -0.000845284 0.0009557717 -0.001174284 -0.00014267111 0.0015297075 -0.0015164297 -0.00191156
0.0012694465 -0.00033555986 -0.0015160869 -0.0009303096 -0.00047194268 0.00013633943 -0.0014556099 0.00034940627
0.00085022167 -0.0010378519 -0.0017125153 0.0017349547 0.0014680071 -0.00020385552 -0.000531977 0.0014035895
-0.00060063176 -0.0011789985 0.0019853138 -0.0014228354 -0.0019272412 0.0016007773 0.0014656625 -0.0014543287
-0.0008143285 -6.248594e-05 -0.00013794375 -0.00036803653 0.0004400685 6.0286526e-05 7.3514704e-05 -0.0016993955
-0.001961365 0.000990475 0.0013183125 0.0015268116 -0.0008846479 0.0017784112 0.0015838562 -0.0011830204
-0.00018761636 -0.0012486756 -0.000597359 0.0009478271 -0.00021845699 0.0016733385 -0.0006520086 0.0017827476
-1.3174296e-05 -0.0005400365 0.001005894 -0.00064945343 -0.0015083838 -0.00034389473 0.0017444418 -0.0012155336
-0.00065060833 -0.00061067677 0.00012746168 -0.0002554679 0.0009893237 0.00011642528 -0.0010326959 0.0010959214
-0.0014952668 -0.0016061877 -0.00075329834 0.0015786694 -2.8086426e-05 0.00068416906 0.0011038434 0.0019011537
0.00061107543 -0.00035299707 0.0018481052 -0.000331707 0.0015250309 0.0017001019 -0.0013198515 0.00023255755
-0.001488071 -0.00035241272 -0.0015046805 -0.0016890939 0.00013588858 0.0009801451 -0.0005800395 -0.0013052722
-0.00091408164 0.0014593164 -0.00031706956 0.0016494857 -0.00038140418 0.0019399155 -0.0014327097 -0.0004088979
0.00012531543 0.0004761658 -0.0012279401 -0.0006218355 -0.0013896101 -0.001662792 -0.0015337535 -0.0016247006
0.00063572195 -0.0009089568 0.00015013099 0.0009139338 0.00099855 0.0007887395 0.0013255201 -0.0014464036
0.0019597597 -0.00043073704 0.00071114115 -0.0016737129 -0.0013613952 -0.0005852535 -0.0015248731 -0.0018296138
0.0019178285 0.0009017499 0.00078639726 -0.0001100812 0.00021971752 -0.0008425346 -0.000715164 -0.00069422176
-0.0010789402 0.0006041465 -0.00019788576 0.0002739351 0.0012159536 -0.0011813581 0.00063171773 -0.0004200635
0.00066408445 0.0014101842 0.0016089368 0.0012873512 -0.0016294337 0.0013069735 5.772925e-05 -0.00034852198
0.0012148655 0.0008641048 -0.0008505104 0.00012457228 0.0003811982 0.0009434412 -0.0012909451 -0.0010725904
0.00070738676 -0.0004998336 0.0016723211 0.00080957345 0.0005365415 0.0013194185 0.0015095597 0.0017622017
-0.0014845469 -0.0015580481 0.0001728232 -0.00072491553 -0.0004725535 -0.00066642073 -0.0011519607 0.00042143418
0.00016065384 -0.00042565158 -0.001552358 -0.0017906233 -0.0012597118 0.0011539336 0.0014627161 -0.00061161333
0.0009337936 -0.0007701939 0.0016784003 -0.000412509 0.000956152 -0.0015000011 -0.0016961606 -0.0012494334
0.00010168839 0.0003802228 -0.0007450779 -0.0017265135 0.00051176193 0.00015735008 -0.0017465159 -0.0019425133

lstm.weight_ih_l1 f4 [120, 30]
00000000: 6d05 723d 2713 48be cffb 63be ccc7 2bbe
00000010: 1845 323e e679 603e 0ba7 b43c 289e 4dbe
00000020: 536a 253e 7e89 6ebd 07a3 6dbe d0b9 2d3e
00000030: 4acc 7f3d b441 5d3e f023 b73d 3be1 433e
00000040: 49ed 0dbe d9af 92be 2c30 273e 9266 29be
00000050: 4f0b 613e 2366 113e 8525 933d f820 483e
00000060: 5587 e33c 6fa3 b63d 7c4d 623e 36ff 343e
00000070: e134 7ebd 64e8 583e 1a20 9f3d 18cd 2fbe
00000080: f2d4 47be da2f 2dbe 2237 153e 8296 433e
00000090: 705c 5fbc a7ef 36be 8596 083e 222d 1dbd
000000a0: 6389 58be 596d 1f3e 6269 313d e0a1 4a3e
000000b0: 8c38 9d3d 28ef 303e 27ea 0dbe 904f a8be
000000c0: f1f8 193e 3a5f 12be 5acc 4b3e 3ad0 f03d
000000d0: 46cd 603d 0824 2d3e c94a 5dba 0361 8a3d
000000e0: 49bf 433e 5502 3e3e 2b24 3bbd 93f9 443e
000000f0: 664b ad3d 510a 06be b70e 44be 3ea9 0ebe
00000100: 25c4 d63d f152 3e3e a0ef 30bc bffb 30be
00000110: dfa8 0e3e fbe6 5cbd c4ec 20be 10bd 213e
00000120: d8bc 663d 11ff 103e 46fa 533d c6a8 043e
00000130: 4d7a adbd 4c82 87be 85d8 1c3e cce7 15be
00000140: 88dc 133e 0094 033e 2232 873d 9932 fe3d
00000150: d87e 84bc 3877 9e3d d929 3a3e f601 1d3e
00000160: 16c3 6ebd e774 0e3e 9d33 963d caf1 29be
00000170: fcb7 5bbe ccdd 22be 57ab 103e e7ae 583e
00000180: 9366 073c dba9 49be 7bae 233e 0523 7cbd
00000190: 90b5 4abe e52a 2e3e a4a0 843d b8c6 3b3e
000001a0: 18c9 9b3d 149e 273e 7bde e7bd 3ae7 87be
000001b0: 977e 1a3e 25e9 27be 671e 3f3e efcb 143e
000001c0: aa33 9a3d 2f63 233e f3e3 143c 0959 b63d
000001d0: dcc4 583e 9e41 223e ee8f 87bd 3adc 383e
000001e0: e602 793d dc2b 47be d92d 64be a720 2cbe
000001f0: 8bcf 2b3e e5e0 613e 502b c83c 31de 4dbe
00000200: 1844 283e 8106 70bd 693d 6abe 6acd 303e
00000210: 4557 813d 2c6c 5a3e dd64 b53d 2095 423e
00000220: 94e0 0bbe f7b5 91be fea9 243e 3b0b 2dbe
00000230: cfb0 5c3e 61b2 143e 54f1 963d eb49 423e
00000240: 32a6 d73c 483a ba3d a315 643e 9cc0 323e
00000250: 64e7 86bd f53f 543e ca92 853d 8714 4bbe
00000260: 369d 68be 2ea8 2ebe 00c1 333e b973 673e
00000270: bdd1 bd3c 7c90 52be abec 2b3e 6635 7ebd
00000280: eeba 71be 5b9c 323e 2fdd 833d 166d 613e
00000290: 4617 b73d a46e 483e 984b 0cbe e14a 96be
000002a0: f0e7 213e 5003 30be a556 653e 3c06 133e
000002b0: 031b 9b3d 38d8 493e dfa1 e63c 24ab bf3d
000002c0: c4f0 673e 7c92 363e 6641 88bd aa74 5a3e
000002d0: b945 a63d 094f 28be e33f 46be f345 2bbe
000002e0: dce6 0a3e c060 3f3e 09a1 7abc b64a 2fbe
000002f0: 9408 053e 115d 14bd 5cc7 50be 7bd5 1d3e
00000300: df62 293d 9b43 413e ebc7 983d c750 273e
00000310: eaa2 0abe a365 a2be 1f63 193e 171b 0ebe
00000320: 2d29 433e 33b3 e93d 01f7 603d 698f 253e
00000330: 5baa 83bb 82ef 863d 9b08 3e3e 7006 363e
00000340: 450f 2fbd c23d 3c3e 6c99 7f3d 201a 4dbe
00000350: a491 65be c3a9 2fbe b965 363e 89d2 653e
00000360: 1c4e ae3c 1576 54be 0e40 2a3e 2aff 77bd
00000370: 7b73 74be 7a3a 303e aa5d 833d 67a9 613e
00000380: 8831 ba3d 343c 4b3e 0e08 10be 6261 97be
00000390: 4608 243e ad62 2fbe 65de 643e 7448 133e
000003a0: d63b 983d e68e 4a3e 0bd8 f73c 94ec bd3d
000003b0: f0a1 633e b0bc 3b3e eb38 86bd 6d53 5e3e
000003c0: 8d31 a53d 3d41 1fbe b10f 40be 9a79 27be
000003d0: 5072 033e 54dc 3d3e 6763 91bc b1c7 2dbe
000003e0: c67b 023e 133d 13bd 14e1 49be f39c 183e
000003f0: ca90 243d b273 3a3e b66f 923d b64b 223e
0.059087206 -0.19538556 -0.22264026 -0.16775435 0.1740917 0.219215 0.022052309 -0.20079863
0.1615384 -0.05823659 -0.23206721 0.16965413 0.062450685 0.21607095 0.089424014 0.19128887
-0.13860048 -0.28649786 0.1632697 -0.16543034 0.2197697 0.14199118 0.07184891 0.19543827
0.027774492 0.08917891 0.2209987 0.1767548 -0.062062148 0.211824 0.07769795 -0.17168081
-0.19514826 -0.16912785 0.14571813 0.19100383 -0.013632879 -0.17864858 0.13338669 -0.03837312
-0.21146159 0.15569057 0.04331339 0.19788313 0.07676801 0.17278731 -0.13858853 -0.328732
0.1503637 -0.14294139 0.19902173 0.11758466 0.054883264 0.16908276 -0.0008441625 0.06756785
0.19115938 0.18555577 -0.04568879 0.1923583 0.08461647 -0.13089873 -0.19146238 -0.13931748
0.1048663 0.18586327 -0.010799319 -0.17283534 0.13931607 -0.053931218 -0.15715319 0.15794778
0.05633244 0.141598 0.05175235 0.12955007 -0.08470593 -0.26466596 0.1531697 -0.14639205
0.14439595 0.12849426 0.06601359 0.124119945 -0.016173765 0.07737583 0.18180026 0.1533278
-0.058291517 0.13911782 0.07334063 -0.16596141 -0.21456903 -0.15904921 0.14127861 0.2116047
0.008264202 -0.19693701 0.15984528 -0.061556835 -0.19795823 0.1700855 0.06475952 0.18337524
0.07606715 0.16368896 -0.11321732 -0.265436 0.15087353 -0.16397531 0.18663941 0.1453092
0.075293854 0.15955804 0.00908755 0.08903701 0.21168846 0.15845343 -0.06619249 0.1805276
0.06079378 -0.19450325 -0.22283114 -0.16809331 0.1677839 0.22058447 0.024434716 -0.2010429
0.16432226 -0.058599953 -0.22874989 0.17265859 0.063154735 0.21330327 0.08857129 0.19002199
-0.13659889 -0.2845914 0.16080472 -0.16898815 0.21551822 0.14521171 0.073702484 0.1897351
0.026324365 0.090931475 0.22273879 0.17456287 -0.06587103 0.20727523 0.065221384 -0.1983205
-0.22716221 -0.17056343 0.17554092 0.22602738 0.0231713 -0.20562929 0.167895 -0.062062643
-0.23606464 0.17442457 0.06438672 0.22014269 0.08939986 0.19573456 -0.13700712 -0.29354003
0.15811133 -0.17188764 0.22396334 0.14357847 0.075735115 0.19711387 0.028153358 0.09358814
0.22650439 0.17829317 -0.06653099 0.21333566 0.08118767 -0.164364 -0.19360308 -0.16725902
0.13564628 0.18689251 -0.015297183 -0.17118344 0.12991554 -0.036221568 -0.2038855 0.15413468
0.041354056 0.18873446 0.07460006 0.16339408 -0.1353871 -0.31718168 0.14979218 -0.13877521
0.19058676 0.11411133 0.05492306 0.16167988 -0.0040181107 0.06588651 0.1855797 0.17775893
-0.04273917 0.18382934 0.062402174 -0.20029497 -0.22418839 -0.17154603 0.17812242 0.22443594
0.02127748 -0.2074817 0.16625997 -0.060546078 -0.23872177 0.17209807 0.064143494 0.22037278
0.090914786 0.19847184 -0.14065573 -0.29566485 0.16018781 -0.17127486 0.22350462 0.14383107
0.07433288 0.19781074 0.030254385 0.09273639 0.22229743 0.18333697 -0.06553825 0.21711512
0.08066092 -0.1555223 -0.18755986 -0.16354981 0.12836576 0.1854108 -0.017747594 -0.16970707
0.12742528 -0.035946917 -0.19714767 0.14903621 0.040177144 0.18208197 0.071502134 0.15849194

lstm.weight_hh_l1 f4 [120, 30]
00000000: 09f8 423a 965d 6d3a fc2f 0d3a b30c e6ba
00000010: 3879 a239 2bef 1db9 f0f3 87b9 9c7c 1a39
00000020: b7de d13a b919 d0ba 8235 013b 039e 923a
00000030: ec3d f6b9 56ce 95b8 3061 e83a 4095 5239
00000040: 8e1f 5eb9 c57b fbba 7c91 d83a 236a 9e3a
00000050: 6bec 2ab9 055a 5fba 652d 423a af87 22b9
00000060: 6fa9 dfba f8eb a7b9 6d6b 0fba 56c2 04ba
00000070: 8c56 30ba 0306 94ba 7ae0 e8ba 212b d4ba
00000080: 6b1f d7ba 0f17 a33a b9e2 dfba b07b 013b
00000090: 5d5b 32ba 518b e73a bb89 87ba 5080 b9ba
000000a0: 32cb cfba 8ad3 b83a 38b0 d9ba ffe8 c93a
000000b0: 8c40 6cba 8876 82b8 074d 013b 73b0 0eb9
000000c0: 1b47 5a3a 1d91 e63a cba1 0eb8 7345 a8ba
000000d0: 1150 e6b9 28ab 633a d17e 893a 0b3d 12ba
000000e0: 408f a33a b99e ff39 056d cf3a 6bd2 2cba
000000f0: 6153 553a 6993 9cba 0074 8d39 9a76 e33a
00000100: e261 9f3a 034b 7cba 88fc 593a 0d00 7e3a
00000110: e6f8 2e39 da1e 743a b3d6 933a 1d1e b6ba
00000120: 9cfa 83ba 636e 61ba 925c ffba 0f71 e9b9
00000130: de0f a8ba a42a 1dba bd74 1e38 0ff1 6b3a
00000140: 4ea1 acba b5ae b9ba 980d c8ba 5782 e63a
00000150: d416 d2ba 6eda 023b a420 47b9 5278 b0ba
00000160: e85d 8a3a 387d ad3a f0d3 a139 1b6b cd3a
00000170: 5da4 f3ba 9496 1aba b926 d4ba b5a8 f3ba
00000180: 3e5a f8ba 3400 8aba 79c3 a6ba dea4 823a
00000190: dcb9 cd39 0542 933a 98c7 e23a 941a e13a
000001a0: 1904 6e35 4c9b baba 44b5 7b3a 0dd2 58b9
000001b0: f290 f0ba 154f f7ba e2f7 ddba 6d67 df3a
000001c0: 2e1d a13a b1a4 a03a 2331 58ba 6931 283a
000001d0: 05b6 4038 1576 63b9 614d ddba a9a2 663a
000001e0: 7f80 993a 8621 9cba cba1 e83a 7c3a d73a
000001f0: a031 dd3a 34f1 8d3a bd74 bab6 36f7 84ba
00000200: 4686 b038 a978 b73a 8c66 7cba 9af1 fdba
00000210: 6f36 c6b9 17ec b7ba 4608 0aba 217e cc3a
00000220: fa12 42ba 131c c03a 883f eeba 71db 51ba
00000230: 30a2 e53a f42c a83a de9d a33a 2c03 3aba
00000240: 79a9 5239 55c3 fb3a aaf1 9eb6 7b18 3dba
00000250: c54e 8b3a b508 d638 92bd c8ba ad44 42ba
00000260: dc32 c83a 847f 9c3a a05a 8eb9 779e 0eb9
00000270: 36ef fb3a ab51 c3ba 840e d4ba 13ab 7db9
00000280: f0ff a439 e67c f1ba 718d f9ba 467e 56b9
00000290: a7bb d03a d6d9 b83a c303 e33a e662 0f3a
000002a0: 634c 743a bbab 5fba 29ea 06ba a5b8 d53a
000002b0: a66b bab8 79bb a93a 4c0f d3b9 6d3b d6ba
000002c0: 925d ec38 dd78 003b 326e 7e3a f8bc be3a
000002d0: 26b2 edb9 270a 85ba 3e2e 83ba eec2 653a
000002e0: d612 45ba 4a66 df3a 038d f0ba 4f74 60ba
000002f0: 786e 77ba fcb5 b4b9 b5ac 883a 3a54 b0b9
00000300: 9c5e 0cba 17e5 99ba 7e91 71ba 46b6 67ba
00000310: 1dde 013a adb6 58ba 5182 d33a d658 a7b9
00000320: 949c 493a 6ddf 12b9 b5ae 21ba 21f8 25b9
00000330: 551b 35ba 3a4b c93a 5919 3538 4f42 6f3a
00000340: 7834 71ba e821 e7ba e2e2 cfb9 8c9e 9e3a
00000350: 7c9e 7fba f25c 7aba 11d8 68b9 de60 dc39
00000360: 55f9 463a f0c1 e9ba 6b3c c43a 6bc9 023b
00000370: e222 94b9 1904 77b8 a756 f5ba 6b9c adba
00000380: 2c8b 673a f624 32ba 7da2 a5ba a51a f93a
00000390: dec4 cd3a b37a 00bb 21b8 333a e0d1 63ba
000003a0: ac9c 8c39 b1f6 9b3a 968e b83a 34b3 e83a
000003b0: a804 313a d604 03bb e2da efb9 3afc 0d39
000003c0: ab66 c2ba 568a 8539 c508 3739 421f f93a
000003d0: 2bf2 9d3a a5db ee3a 84a0 fcb9 4ef2 36b9
000003e0: af1b 993a 1937 c83a 570a b7b9 b742 e43a
000003f0: 3c0f d63a 3cb8 b2ba faf5 ab3a 2368 80ba
0.0007437473 0.0009054778 0.00053858734 -0.0017551392 0.00030989363 -0.00015061784 -0.00025930954 0.00014733005
0.0016011809 -0.0015876807 0.001971573 0.0011186007 -0.00046966912 -7.143307e-05 0.001772916 0.0002008276
-0.00021183325 -0.0019186666 0.001652285 0.0012086075 -0.00016300536 -0.0008520189 0.0007407277 -0.0001550007
-0.0017064045 -0.00032028533 -0.0005471025 -0.00050643587 -0.00067267637 -0.0011293296 -0.0017767095 -0.001618717
-0.0016412562 0.0012442785 -0.0017081118 0.0019757561 -0.00068037753 0.0017665421 -0.001034073 -0.001415262
-0.0015853404 0.001410113 -0.0016608303 0.0015404521 -0.0009012304 -6.220961e-05 0.001972975 -0.00013607908
0.00083266356 0.0017590855 -3.400612e-05 -0.001283808 -0.00043928673 0.0008684867 0.0010490065 -0.0005578554
0.0012478605 0.00048755648 0.0015825337 -0.0006592634 0.00081377296 -0.0011945787 0.00026980042 0.0017354072
0.0012159909 -0.0009624215 0.0008315523 0.00096893386 0.00016686655 0.00093124586 0.0011279195 -0.0013894473
-0.0010069194 -0.0008599518 -0.0019482544 -0.00044525458 -0.0012822112 -0.00059954287 3.7778856e-05 0.0009000459
-0.0013170631 -0.0014166447 -0.001526284 0.0017586452 -0.0016028532 0.001996662 -0.00018990278 -0.0013463593
0.0010556551 0.0013236171 0.0003086622 0.0015672179 -0.0018588413 -0.00058970717 -0.0016185857 -0.0018589707
-0.0018947793 -0.0010528625 -0.001272305 0.0009967347 0.00039239123 0.0011234885 0.0017301915 0.0017174059
8.866787e-07 -0.0014236956 0.0009601901 -0.00020677615 -0.0018353744 -0.0018868173 -0.0016934837 0.0017044373
0.0012292021 0.0012256113 -0.0008247068 0.0006416054 4.5945886e-05 -0.00021692396 -0.0016884023 0.0008798042
0.0011711268 -0.0011911846 0.0017748413 0.0016420628 0.0016875751 0.001082933 -5.556822e-06 -0.0010144475
8.417344e-05 0.0013997752 -0.0009628318 -0.0019374371 -0.0003780606 -0.0014032152 -0.0005265515 0.0015601554
-0.00074033404 0.0014656804 -0.0018176893 -0.00080054166 0.0017519649 0.001283078 0.0012482961 -0.00070958096
0.00020090294 0.0019207994 -4.7369003e-06 -0.00072134257 0.0010628334 0.00010205937 -0.0015315285 -0.0007410746
0.0015273946 0.0011939858 -0.00027151871 -0.00013601208 0.0019221071 -0.0014901658 -0.0016178642 -0.0002419169
0.00031471206 -0.0018424063 -0.0019039345 -0.00020455671 0.0015925065 0.0014103006 0.0017319847 0.0005469754
0.0009319244 -0.0008532365 -0.0005146587 0.0016305639 -8.889222e-05 0.0012949548 -0.00040256453 -0.0016344615
0.00011270786 0.001960329 0.00097057514 0.0014552167 -0.00045336894 -0.001015012 -0.0010008288 0.00087647035
-0.00075177604 0.0017044034 -0.0018352572 -0.0008562253 -0.00094387634 -0.00034467864 0.0010427447 -0.0003363209
-0.0005354674 -0.0011741248 -0.00092151004 -0.00088391115 0.0004954057 -0.0008266967 0.001613686 -0.0003191891
0.00076908735 -0.00014006878 -0.0006167696 -0.00015828061 -0.0006908675 0.0015357502 4.317737e-05 0.0009127007
-0.0009201239 -0.0017634006 -0.00039651158 0.0012101694 -0.0009751094 -0.0009550593 -0.00022205735 0.00042033842
0.0007590254 -0.0017834287 0.0014971619 0.001995648 -0.0002825475 -5.8893205e-05 -0.0018717841 -0.0013245469
0.0008832689 -0.0006795669 -0.0012636926 0.0019005133 0.001569893 -0.0019604384 0.00068557455 -0.00086906366
0.0002681961 0.0011899081 0.001408058 0.0017753602 0.0006752708 -0.0019991896 -0.00045748713 0.0001354077
-0.0014831623 0.00025470805 0.00017455507 0.0019006508 0.0012050321 0.0018223418 -0.0004818478 -0.00017447138
0.0011681224 0.001527521 -0.00034912184 0.0017414902 0.0016331444 -0.0013635228 0.0013119571 -0.000979666

fc.weight f4 [1, 30]
00000000: 872e 03bd 0170 0a3d 8240 b7bc 633f d0bc
00000010: 63a4 ffbc 4fa7 0e3d 1f3b fc3c 3db4 0fbd
00000020: c552 eabc 5e3c da3c 5aaa 05bd 1756 ebbc
00000030: 48ea 1a3d d0ea f3bc c267 fc3c b1f5 6abe
00000040: 1bc5 04bd 2eef f5bc 2d14 213d 18e2 063d
00000050: 9393 04bd c56e 0cbd d91a f8bc 99cb 163d
00000060: 91e8 083d ef3f 23bd 1daa 363d b24d f73c
00000070: 50e5 063d 2131 26bd
-0.032026794 0.03379822 -0.022369627 -0.02542085 -0.031206315 0.034827527 0.03078991 -0.035083998
-0.02860392 0.026640113 -0.032633163 -0.028727574 0.037821084 -0.029775053 0.030811194 -0.22945286
-0.032414537 -0.030021276 0.03932588 0.032930464 -0.0323673 -0.034285326 -0.03028624 0.03681526
0.033424918 -0.039855894 0.044595826 0.030188415 0.032933533 -0.040574197
