models/mlp_residual_seed_123.pt (torch, 46057 bytes, 4 tensors)

net.0.weight f4 [70, 4]
00000000: 1691 83bd fda0 a13d 5250 b93d 7ed9 07bd
00000010: 529c 80bd 6b28 8d3d 7168 c73d c4cc 67bd
00000020: 6061 87bd 3cb5 963d f190 d13d 4b87 5fbd
00000030: 24ba 83bd efb1 a23d b035 be3d 2d68 00bd
00000040: e61a 8cbd a3b0 a63d c29a d13d 07b3 0ebd
00000050: 2d3c 9e3d 5eb5 bebd f339 ccbd 6964 843c
00000060: f809 a03d 4b67 1fbd 326e e9bd a6c5 303d
00000070: c0d5 9d3d c9ec 33bd 076e ebbd 0e39 023d
00000080: baf5 9d3d 90f4 49bc 0e89 12be 6ef6 993d
00000090: 8727 9fbd cd63 bb3d 6f05 c23d 5321 4bbc
000000a0: 47ad 9ebd d4a9 643d 3249 db3d 9422 cdbc
000000b0: 3c14 9ebd 9a4e 9e3d 2957 cb3d 285d 3bbc
000000c0: 6350 863d d592 a1bd 81ca c2bd b980 113d
000000d0: 5681 9d3d 4743 abbc fb32 0cbe 7ca6 7f3d
000000e0: f6da 9fbd 61a5 413d ec82 ed3d d7a2 1ebd
000000f0: a235 9f3d b081 a3bc e1ba 09be 48b4 893d
00000100: e535 91bd a4c6 ab3d 2781 c23d 62ca cfbc
00000110: 827b 9e3d 5486 92bc 180b 0fbe 0756 923d
00000120: cd73 9f3d 70ac 93bc c63a 0cbe 77d6 8f3d
00000130: c2c2 8abd 72e2 a33d af97 c63d c869 09bd
00000140: c403 a03d cc69 b0bd f2e9 bdbd 977b 673c
00000150: 6474 9d3d 65bf 93bc f7bb 08be e504 8a3d
00000160: a810 7c3d e20f 8dbd d58e d0bd 4b17 753d
00000170: 04e7 86bd c66f 983d 0bcd d33d 4e04 5cbd
00000180: 4244 9f3d 5445 37bc 88db 15be fe7a a53d
00000190: 1add 83bd 8606 a33d e4b6 c53d 7163 0ebd
000001a0: 98ca 85bd 6036 9b3d 5caf ca3d c857 49bd
000001b0: b069 9c3d 1b7a 44bc db8a 10be 3608 983d
000001c0: 6043 80bd 0827 983d 0656 d03d 0bec 42bd
000001d0: e821 8cbd ca51 a53d 5fa2 cb3d a014 17bd
000001e0: bf04 9ebd dc23 1a3d dcf2 f43d e36a 26bd
000001f0: 5614 86bd 6c14 a03d fca6 ca3d f2b6 1fbd
00000200: ec51 9f3d f026 43bd b830 e2bd c314 0c3d
00000210: e1b6 83bd e3e5 a33d 0f7a be3d 0c7d f3bc
00000220: 8806 81bd 44a2 933d 652e d83d c6bf 71bd
00000230: 5d3c 823d d38b a4bd 83a2 bdbd f90e e23c
00000240: 85be 9d3d 76a8 d3bc 2590 04be c286 673d
00000250: c67d 9fbd b8ce 953c 8a08 0b3e a406 8fbd
00000260: 8956 8d3d 6be8 a5bd c3cf c7bd 8e84 0c3d
00000270: 0c1d 7a3d cbd8 8dbd fd0c d7bd b5f5 7a3d
00000280: ecdf 9dbd 2cd4 493c 950e 153e 405c a0bd
00000290: e60e 853d 528b 96bd 69d1 cfbd bc3a 603d
000002a0: ae7b 9fbd 62b3 b73c d556 073e 6dd8 86bd
000002b0: 62d7 9ebd 8c6d bc3d 4aa3 c73d ae6f 5cbc
000002c0: 3fd2 64bd fb75 813d d070 b13d 74dd 3cbd
000002d0: 46fa 9ebd 30d9 b43d 318a bf3d 4d5c 1fbc
000002e0: d294 9cbd a63f a33c 10ec 093e 03f3 81bd
000002f0: 4183 65bd cfc1 7c3d 95c8 c33d 9efa 8abd
00000300: 5801 9fbd 4276 193c c79f 183e 0e89 aabd
00000310: d819 8bbd 79b4 a43d b679 cc3d df98 14bd
00000320: 716a 883d 0b3c 9cbd f480 cfbd 72b7 383d
00000330: 9186 87bd f3b9 a63d f583 be3d 4f20 f3bc
00000340: e477 9d3d e809 3cbc c92c 15be 372f 9a3d
00000350: c36f 9f3d 497d febb f02c 19be edb2 a53d
00000360: a411 9c3d 54fa abbc 2ccb 06be 853d 773d
00000370: 4fb7 9e3d f8c1 9abc f3b0 09be f3ec 913d
00000380: 1489 9fbd 5e77 b53a e73f 1c3e 731d aebd
00000390: 31ab 9fbd f31c 983c 6c99 0b3e 8367 92bd
000003a0: 7e98 893d 0ca4 a7bd 3f56 bebd c256 e63c
000003b0: fd8b 6fbd 58b2 883d f807 bc3d 6b8f 59bd
000003c0: 2a46 5f3d 972f 8bbd 4ee1 afbd ebcd 363d
000003d0: e3f7 6cbd ca66 923d 7ee5 b53d 6f5c 2abd
000003e0: 0bdd 9dbd dcd0 7a3c 5e5b 0e3e 4cd7 93bd
000003f0: d657 9dbd ca83 bd3c 79c7 063e a676 67bd
-0.06424157 0.07892034 0.09048523 -0.0331664 -0.06279816 0.06892475 0.097367175 -0.056591764
-0.0661037 0.073587865 0.102327235 -0.054572385 -0.06431988 0.079440944 0.09287584 -0.03134935
-0.06841068 0.081391595 0.10234596 -0.034838703 0.07726321 -0.09311937 -0.099719904 0.01616116
0.078144014 -0.038916867 -0.11397971 0.043157242 0.07706785 -0.043926988 -0.114955954 0.031792693
0.07712884 -0.012326375 -0.14310095 0.07517706 -0.07771211 0.09149895 0.094736926 -0.012398082
-0.07747894 0.055826023 0.1070732 -0.025040902 -0.07718703 0.07729836 0.09928734 -0.011435784
0.06558301 -0.07889334 -0.09511281 0.03552315 0.076906845 -0.020906104 -0.13691323 0.06241463
-0.07805435 0.04727686 0.11597237 -0.038729515 0.077739015 -0.0199593 -0.13450195 0.06723839
-0.07090358 0.08387497 0.0949729 -0.025365058 0.07738401 -0.017886318 -0.13969076 0.07145315
0.07785759 -0.01802656 -0.13694295 0.07023328 -0.06775428 0.080021754 0.096969 -0.033548146
0.07813218 -0.08613929 -0.09273137 0.014128587 0.076882154 -0.0180356 -0.13352953 0.06739215
0.061539322 -0.06887795 -0.10183493 0.059836667 -0.065870315 0.07443194 0.10341843 -0.053715043
0.07776691 -0.011185963 -0.14634526 0.080800995 -0.06438656 0.079602286 0.09654024 -0.034762803
-0.06532782 0.075787306 0.098967284 -0.04915598 0.07637346 -0.011992003 -0.14115469 0.07423441
-0.06262851 0.074293196 0.10172658 -0.04758839 -0.068424046 0.08072241 0.09943079 -0.036884904
-0.07715749 0.037631854 0.11960384 -0.04062928 -0.065468475 0.07816395 0.09895131 -0.03899283
0.07779297 -0.047644556 -0.110444486 0.034199487 -0.06431366 0.08002832 0.093006246 -0.029722713
-0.06300074 0.07208684 0.10555724 -0.05902078 0.0635917 -0.08034482 -0.09259512 0.02759503
0.07702354 -0.025837164 -0.12945612 0.056525 -0.07787661 0.018287048 0.13577476 -0.069836885
0.06901271 -0.08100971 -0.09756424 0.0343061 0.061062858 -0.069261156 -0.10500524 0.06126948
-0.07708725 0.012318652 0.14556344 -0.07830095 0.06496982 -0.07350792 -0.10147364 0.054743513
-0.07787262 0.022424404 0.13216718 -0.06584249 -0.07755925 0.09200582 0.09747942 -0.013454361
-0.05586457 0.06321331 0.086640954 -0.04610963 -0.077625796 0.08830488 0.0935253 -0.009726596
-0.07645573 0.01992781 0.13468957 -0.06345179 -0.056033377 0.061708268 0.09559742 -0.06786083
-0.07763928 0.009366574 0.149047 -0.08326922 -0.06792039 0.08042235 0.09984152 -0.0362786
0.06660927 -0.0762864 -0.10132018 0.045096822 -0.066174634 0.08140936 0.093025126 -0.029678492
0.07688883 -0.011476971 -0.14567865 0.07528537 0.07784989 -0.0077664 -0.14958549 0.08090768
0.07620552 -0.02099339 -0.13163441 0.060361404 0.07749807 -0.01889132 -0.13446407 0.071252726
-0.077898175 0.0013844778 0.15258752 -0.08501711 -0.07796324 0.018568492 0.13632745 -0.071486495
0.06718539 -0.08185586 -0.09293794 0.028117541 -0.058483113 0.06674641 0.091812074 -0.05311529
0.054510273 -0.067961864 -0.08587895 0.044629972 -0.05785359 0.07148512 0.08881663 -0.041592058
-0.07708176 0.015308585 0.13902041 -0.07218799 -0.07682769 0.023134131 0.1316203 -0.056509636

net.2.weight f4 [70, 70]
00000000: e334 a8bc 7a0d 0dbd 57d6 f3bc 1c0d 9dbc
00000010: dc4a 56bc 0b38 34bd 4750 02ba ecce 96bc
00000020: 634c 7d3d b056 403d 5f88 e63c d795 493d
00000030: 1a1d b33c defd 163d 39b4 f03b d7e9 463d
00000040: a567 483b 58f2 5a3d 7877 5d3d 061c 57bc
00000050: 8726 3ebd 5b0b 3a3d 0fbe 313d 6c56 03bd
00000060: 40a5 903d 4bef bebc 07e9 aebc e116 633d
00000070: 00f1 29bd 5b2e 81bc dc87 283b 37d0 d2bc
00000080: 4f0e 76bc 3f2c 80bc bf45 29bd d280 4e3c
00000090: 6ed3 da3c 93ca 56bd 3a7f 323c 8b8b 373d
000000a0: 78d2 86bd 295b e63c f0a3 36bd 9d14 433d
000000b0: 6218 06bd aeb9 553d 371c 18bd ba39 2ebd
000000c0: 04a2 9cbd 674d 81bc c0ad 8f3c 64c9 4abc
000000d0: 4d51 813d 5c8d 933d 361f f93c d2b2 523d
000000e0: 4fb6 96bd 0327 59bd c668 bb3b 2387 58bd
000000f0: 08c2 983c 11e2 18bd ceaf 5ebd d35e debc
00000100: a6bc e1bc 5f79 0abb 5c7d d8bc 59f6 723c
00000110: 7925 4fbd a07a 0a3b 1313 ab3b 0c5e 383d
00000120: 8a1d 2b3d 1aee 9e3a 3404 963b 30c8 173d
00000130: 7229 c3ba de14 793c bae1 85bd 1426 38bd
00000140: 084a e8bc 36ed 3cbd 52c5 dbbb baed 26bd
00000150: 8a64 d2bb 8d01 4fbd c16f 49bc 4c26 6abd
00000160: 040f 6abd 28b7 053b b472 353d 343c 4fbd
00000170: aa43 61bd b2ca 1c3d ac32 9dbd eb59 123c
00000180: b623 0c3d b873 7abd 0f99 fb3c 80c9 003c
00000190: 8077 21bb e51c 3d3c 9b4f 463c 5876 caba
000001a0: 0c1e 543d e9cd 3a3b 82ef e5bc ac31 693d
000001b0: 9f48 89bb a6cd 5ebd 29c1 943d 124a 21bd
000001c0: 7d67 433d 6152 30bd 4414 be3c 3c67 3bbd
000001d0: b2c5 2d3d 2eb1 663d 95dc a33d 8c61 0d3c
000001e0: 9cb9 cfbc fa2b 2739 f688 89bd 6e8a 9cbd
000001f0: 3429 12bd e176 6ebd 2add a33d 26d6 753d
00000200: 3828 6a3b b84f 143d 154d e4bc 2abd c03c
00000210: 96c3 753d aab0 003d 9462 303c a725 013b
00000220: 5260 1d3d 1b6a 49ba 36c4 523d 42b4 b0bb
00000230: 9d7f 2cbb 1e23 3cbd 62c2 29bd ecc7 8fba
00000240: 8fd6 8bbb 0cbd 1cbd a68e db3a 508a 72bc
00000250: cae9 853d ad51 333d 57de dd3c 29f1 353d
00000260: 0f67 d13b 24f6 323d f55a c63b b067 493d
00000270: 7815 643c 343d 6f3d ba12 6b3d 8e90 3fbb
00000280: efda 2bbd 7d88 503d 873b 603d 596b 30bd
00000290: 2566 9d3d 97c5 05bc f61a 07bd 422a 763d
000002a0: f7ac f5bc 47dd d8bb 6ca9 2e3b 0696 4cbc
000002b0: 494f 44bc 34f8 b639 a659 5bbd 21ff 9cb9
000002c0: 7cae e03c 0a90 62bd de03 c33a d7e9 643d
000002d0: 9373 8ebd fd8b 2d3d 6f32 44bd fe4d 293d
000002e0: 4851 b8bc f4a5 483d 12cc 24bd f860 74bd
000002f0: 5486 a5bd d7eb 09bc c21e e13c 8ef7 643a
00000300: 7efa 893d 4fca 9e3d f178 063d 379e 603d
00000310: 1882 a1bd 5354 73bd eb4e 06bb fbf3 15bd
00000320: c47c 053d 2222 c3bc 5835 6dbd a755 e5bc
00000330: 68fc 20bc b1e3 2fbb de7c 24bd e7b7 43bb
00000340: decd 54bd 782f f33b 89ba 8bbb 1b8a 39bd
00000350: 485e 27bd b8e7 00bb 6b7c c6bb 9bf3 16bd
00000360: 9b11 ec3a 31c6 90bc 26af 843d 8d3c 3d3d
00000370: 32a6 ea3c a95f 3e3d 2873 fd3b 93c8 323d
00000380: 97f7 833b 74ff 4c3d 27e4 5f3c 7977 723d
00000390: 7733 6c3d 3927 1fbb a835 2abd 15e9 423d
000003a0: 41d3 593d 150b 28bd 5740 993d 8c6c 13bc
000003b0: ee62 05bd 3521 813d de48 ecbc 3daa c0bb
000003c0: 8016 013b 0790 4bbc 3430 49bc 288b c23a
000003d0: 968c 55bd 9ea1 17bb 4102 f03c 210d 5ebd
000003e0: 3770 083b e50c 703d 7910 8ebd 5100 2a3d
000003f0: 478b 49bd 026b 333d 3e72 b0bc e17d 403d
-0.02053303 -0.03443668 -0.029765291 -0.01917129 -0.013079371 -0.04399876 -0.00049710687 -0.018409215
0.061840426 0.04695767 0.028141199 0.049215164 0.021864463 0.0368632 0.007345703 0.04856285
0.0030579355 0.053453773 0.054069012 -0.01312924 -0.04642346 0.045420986 0.043394145 -0.03206484
0.07062769 -0.023307463 -0.02135135 0.05544174 -0.0414896 -0.015769174 0.0025715744 -0.02573405
-0.01501806 -0.015646098 -0.04132628 0.012603955 0.026712146 -0.052439284 0.010894591 0.044810813
-0.065831125 0.02811964 -0.044589937 0.04762708 -0.032738097 0.05217903 -0.037136283 -0.04253552
-0.076480895 -0.015783979 0.017538905 -0.012377117 0.06314335 0.072046965 0.03041039 0.051440068
-0.07358991 -0.05301572 0.005719277 -0.05286325 0.018647209 -0.03732497 -0.05436688 -0.027144825
-0.027555775 -0.0021129472 -0.026426964 0.014829242 -0.050572846 0.002113022 0.0052207797 0.045011565
0.041776218 0.0012125403 0.004578138 0.037056148 -0.0014889671 0.015202729 -0.065371946 -0.04495819
-0.028355613 -0.04612466 -0.006706872 -0.040754057 -0.0064206766 -0.05053859 -0.012294711 -0.05716543
-0.057143226 0.002040336 0.044298843 -0.050594524 -0.05499617 0.038279243 -0.076756805 0.008932571
0.034213744 -0.061145514 0.030712632 0.007860541 -0.0024637878 0.0115425335 0.01210394 -0.0015446646
0.051786467 0.002850408 -0.028068308 0.056932136 -0.0041895653 -0.05439534 0.07263405 -0.03937728
0.047706116 -0.043047313 0.023203023 -0.04575275 0.042424865 0.056321315 0.08001057 0.008629214
-0.02535706 0.00015942744 -0.06715576 -0.07643591 -0.035683826 -0.05821884 0.08001168 0.06001868
0.0035729539 0.03620884 -0.027868787 0.0235277 0.06000098 0.03141848 0.01076569 0.001970628
0.038421936 -0.00076833525 0.051456653 -0.005392582 -0.002632118 -0.045931928 -0.041445144 -0.0010969616
-0.0042675207 -0.038266227 0.0016750887 -0.014803484 0.06538732 0.043779064 0.027083559 0.04441944
0.0063904594 0.04369177 0.0060533234 0.04917115 0.013921134 0.058407977 0.057390906 -0.0029230448
-0.04195684 0.050911415 0.05474427 -0.043071125 0.07685498 -0.008164785 -0.032984696 0.060098894
-0.029989703 -0.006618175 0.0026651276 -0.01248694 -0.011981794 0.0003489867 -0.053552292 -0.00029944725
0.02742695 -0.055313148 0.0014878472 0.05588707 -0.06955638 0.04236983 -0.04789966 0.041334145
-0.022499695 0.04898639 -0.04023368 -0.05966279 -0.08082262 -0.008418045 0.027480487 0.0008734398
0.06737231 0.07753431 0.032830182 0.054838385 -0.078861415 -0.05940659 -0.0020493816 -0.03660963
0.03258969 -0.023819987 -0.0579122 -0.027994944 -0.009825803 -0.0026838596 -0.040158145 -0.0029864253
-0.051954143 0.00742143 -0.00426418 -0.045297723 -0.040861398 -0.0019669365 -0.0060573122 -0.036853414
0.0018010618 -0.01767263 0.064787194 0.046200324 0.028643701 0.046477947 0.007734675 0.043648314
0.0040273177 0.050048307 0.013665236 0.05919597 0.05766627 -0.0024284853 -0.041555077 0.047585566
0.053179983 -0.041026194 0.07482975 -0.008998048 -0.03256505 0.06305162 -0.02884334 -0.005879669
0.001969725 -0.0124244755 -0.012279559 0.0014842497 -0.052136026 -0.0023137103 0.02929795 -0.05421174
0.0020818838 0.058606047 -0.06936736 0.041504208 -0.04920509 0.043803222 -0.02153885 0.046995047

net.4.weight f4 [70, 70]
00000000: 33d3 0cbd 398c 1e3d 5ee8 22bd a7bd 29bd
00000010: 294f 67bd bf3a 673d 738c 283d 6466 6a3d
00000020: 3ed0 2c3d f6f2 1cbd 67a1 25bd ff89 2cbd
00000030: 13c8 293d 13ee 1f3d 3655 263d f7f8 25bd
00000040: 1add ca3c c19b eabc c9d2 243d 009c 1f3d
00000050: f3b2 9ebc 21d9 1ebd 16b8 6e3d 3c45 9cbc
00000060: 9495 213d cc32 1b3d 0bce ba3c 8db7 2b3d
00000070: 9b75 6bbd abd3 233d f28b 283d e534 1c3d
00000080: cd53 263d e589 1b3d 31e9 06bd a931 1d3d
00000090: 1358 22bd fa6a 11bd 779b 2a3d b00e e1bc
000000a0: 11c7 1c3d 67a6 213d 3e9d eb3c 765a 6d3d
000000b0: 234b 20bd 9ff9 23bd ce94 253d aec2 b0bc
000000c0: 4ffb 703d b46d c13c b97e b93c 2672 033d
000000d0: b0ed b9bc 0f34 003d a86d f33c 0a7b 28bd
000000e0: cb49 25bd a23f 0d3d 6a6f 1b3d 972c 6cbd
000000f0: 4359 083d 2931 273d 101b c2bc af41 fb3c
00000100: 0bfb 1b3d b1ce 2cbd 7bed c1bc 3844 6c3d
00000110: f516 1a3d e9a9 9dbc 3a65 223d 7a59 24bd
00000120: b49a 193d 35bf 163d a51f d63c d008 d0bc
00000130: 0d17 25bd d9c1 d2bc ba89 15bd 171f 1b3d
00000140: a9e9 1b3d b770 1b3d 3ce6 19bd ea8c 24bd
00000150: 3973 1fbd a0cf 153d 2a6b 2abd c403 263d
00000160: b400 19bd b66d 1bbd 49b8 263d 593d 193d
00000170: 9304 e8bc 627d 1e3d 4086 22bd 99c0 2bbd
00000180: 2363 2cbd a4d5 14bd f73f fd3c bc4c 26bd
00000190: 3ef5 0fbd a3d9 25bd e029 16bd 3a15 13bd
000001a0: 5f52 2a3d be3e 16bd 8f8d 153d 7a94 253d
000001b0: b235 11bd 4202 2a3d 6217 11bd a0a1 19bd
000001c0: c95a 34bd 0c66 cabc c783 1e3d 566e 163d
000001d0: 2216 20bd 1690 2a3d 94fc e5bc 56c5 27bd
000001e0: bd65 31bd 1edb 30bd e7bd 253d c290 2ebd
000001f0: ef81 23bd 4386 1d3d aa3f 123d d01f 28bd
00000200: 1283 1fbd eac8 e93c b236 1fbd 06b0 1fbd
00000210: 7c83 2e3d c192 30bd f867 1cbd dec1 0d3d
00000220: 2d93 263d e301 e8bc cc3e 24bd 8a13 133d
00000230: 005a 12bd ecca 1b3d 4224 25bd d38a 2dbd
00000240: 0bb5 02bd 34e5 053d 0c60 2a3d 6eba 0f3d
00000250: ebd0 2c3d 256c 21bd d79e 2bbd fdf6 21bd
00000260: 14a5 273d e81a 1f3d f5d7 273d efd9 2cbd
00000270: c063 093d ed93 0bbd 23f6 2b3d b816 1f3d
00000280: 2d88 f8bc 88a7 21bd 8d59 063d f9f1 d4bc
00000290: 7bac 253d 14ef 1c3d 941b ea3c ab6f 303d
000002a0: b3c5 14bd 91cc 223d e20d 283d 4205 1d3d
000002b0: 8573 243d b0de 2c3d 1135 19bd 5b7f 1f3d
000002c0: 02bc 23bd 653f 1ebd 6bf8 213d 81c7 0bbd
000002d0: f648 293d 9638 303d c650 123d 4c5d ed3c
000002e0: 3558 2cbd ac4b 21bd 44e8 2b3d 8073 e8bc
000002f0: 3cbb 103d 28e9 073d 38f2 fe3c 2647 173d
00000300: 5347 07bd cbc3 0f3d 1532 103d 1fcf 29bd
00000310: 23d8 2cbd ad50 183d 760b 253d a1a7 0cbd
00000320: eaf1 123d 824e 223d a46f 05bd a721 123d
00000330: ebaa 2c3d 4205 25bd a292 fcbc c8e4 143d
00000340: 779e 233d fccb b6bc 3c0d 223d 8033 19bd
00000350: db49 233d 6c54 163d 55e0 d73c 64c0 eebc
00000360: 0234 1ebd 5917 e5bc abd6 1ebd 8e34 1a3d
00000370: 3f5e 133d 470c 173d edba 1fbd 2fab 1dbd
00000380: dc08 25bd bd91 183d a618 2ebd 8e6c 303d
00000390: ed0c 1abd 4a5d 19bd 7691 2c3d 1056 113d
000003a0: dfbe f0bc d3b2 1d3d bf2b 18bd 8aab 1fbd
000003b0: ddb5 27bd 2212 1dbd eed5 fc3c 202e 27bd
000003c0: 355c 1dbd 9d79 23bd 4b96 1abd bc0f 17bd
000003d0: cd4d 203d 4546 15bd 22e7 113d 93cb 283d
000003e0: 3284 1fbd b58b 263d 4ebb 11bd 4782 24bd
000003f0: 85b4 2dbd ddee babc 7c9a 203d 57c4 233d
-0.034381103 0.038707945 -0.039772384 -0.041440632 -0.056471977 0.05645251 0.041149568 0.057226554
0.042190783 -0.038317643 -0.04043713 -0.04212379 0.04145057 0.039045405 0.040608607 -0.040520635
0.024763633 -0.028638722 0.040240083 0.038967133 -0.019372439 -0.03878129 0.058281027 -0.019075982
0.03944929 0.03789024 0.022803327 0.041923095 -0.057485204 0.039996784 0.041149087 0.03813638
0.040607262 0.037973303 -0.032937232 0.038377438 -0.039634775 -0.03550241 0.04165217 -0.027472824
0.038275782 0.039465334 0.028761502 0.0579476 -0.039134156 -0.04003298 0.040425114 -0.021577206
0.058833417 0.02361188 0.022643434 0.032091282 -0.022696346 0.031299647 0.029715374 -0.041132964
-0.040353578 0.034484513 0.03794805 -0.05765971 0.03328825 0.040818367 -0.023694545 0.030670969
0.03808121 -0.042189304 -0.02367281 0.057682246 0.03761955 -0.019246059 0.03964732 -0.040124394
0.037501052 0.036803443 0.026138136 -0.025394827 -0.040305186 -0.0257272 -0.0365083 0.037871446
0.038064633 0.03794929 -0.037573084 -0.04017345 -0.038928244 0.03657496 -0.041606106 0.040530935
-0.037354186 -0.037946425 0.04070309 0.03741202 -0.028322494 0.038693793 -0.039678812 -0.041931722
-0.04208673 -0.036336556 0.03091429 -0.040600523 -0.03514599 -0.040490758 -0.03666103 -0.035908915
0.04158246 -0.03668093 0.036511954 0.0404248 -0.0354516 0.04150606 -0.03542269 -0.037507653
-0.044031892 -0.024706863 0.03869989 0.03672632 -0.039083607 0.041641317 -0.02807454 -0.04095968
-0.043309916 -0.043177716 0.040464308 -0.04261852 -0.039918836 0.03845812 0.035705246 -0.041045964
-0.038943358 0.028538186 -0.03887052 -0.03898623 0.042605862 -0.043108705 -0.03818509 0.034608714
0.0406677 -0.028321212 -0.04009895 0.035907306 -0.035730362 0.03803532 -0.04031778 -0.04236872
-0.031910937 0.03268929 0.041595504 0.035089903 0.042191427 -0.039409775 -0.04189953 -0.039542187
0.040928915 0.03884402 0.040977437 -0.042200025 0.033542395 -0.03407662 0.04198278 0.038840026
-0.030338371 -0.03946641 0.032800246 -0.025994288 0.040447693 0.03831394 0.028577603 0.043075245
-0.036321353 0.03974587 0.041028865 0.038335092 0.04014923 0.04220456 -0.037404124 0.038939815
-0.03997422 -0.038634676 0.03954355 -0.03412581 0.041329347 0.043022715 0.035721563 0.028975151
-0.04207631 -0.039378807 0.041969553 -0.028375387 0.03533481 0.03318134 0.031121358 0.036933087
-0.033027004 0.035098832 0.035204012 -0.04145729 -0.04219831 0.037186313 0.040294133 -0.03433955
0.03587524 0.039625652 -0.032577172 0.035676625 0.042155188 -0.040288217 -0.030831639 0.036350995
0.039946046 -0.022314064 0.039563403 -0.03740263 0.039865356 0.036701605 0.026352087 -0.029144473
-0.038623817 -0.027965235 -0.038778942 0.037647776 0.035978552 0.036876943 -0.038996626 -0.03849333
-0.040291652 0.03724836 -0.042503975 0.043072276 -0.037609983 -0.037442483 0.04213091 0.035482466
-0.02938789 0.03850062 -0.037151095 -0.03898195 -0.040944923 -0.03834737 0.030863728 -0.040815473
-0.038418014 -0.0399109 -0.037740987 -0.03688024 0.039136697 -0.036443967 0.035620816 0.04120977
-0.03894443 0.04066058 -0.03557902 -0.040163305 -0.042408485 -0.022818977 0.039209828 0.039982166

net.6.weight f4 [1, 70]
00000000: adc0 c0be e82b c23e fc41 c6be 4431 c23e
00000010: 8718 c1be e4ec c33e 3450 c63e 8044 c6be
00000020: 4a06 c73e 1126 c73e eb48 c1be 5328 c2be
00000030: fd53 c63e adf9 c5be ebec c5be 23af c63e
00000040: 6a30 c03e 71f9 c5be ad26 c6be 7bd6 c63e
00000050: 81e0 c1be 72f6 c63e 50a5 c1be 3a50 c43e
00000060: 75c3 c23e dde3 c5be 5ebd c63e c040 c63e
00000070: ac45 c63e 41ba c33e b0a8 c63e be76 c4be
00000080: 7134 c73e 4cb7 c6be 6428 c6be 25dd c3be
00000090: a5fa c5be d701 c6be 0bff c63e 6fa9 c4be
000000a0: 15f2 c6be 4c5f c53e 7ffc c0be d3df c5be
000000b0: 0545 c43e 3a3e c63e f1c3 c4be 44d2 c53e
000000c0: f5f8 c6be 9c9e c4be 2783 c0be 95aa c6be
000000d0: 8c1f c63e e30b c63e d0bc c63e 286c c63e
000000e0: 10e0 c03e 640f c73e bbe0 c6be 32d8 c63e
000000f0: 73b2 c43e a7cd c63e 5dcc c4be 6de2 c5be
00000100: 29c9 c4be c429 c7be 5176 c5be 12bc c1be
00000110: ca7c c6be 747e c6be
-0.37647 0.37924123 -0.38722217 0.37928212 -0.37714025 0.3826667 0.38733065 -0.38724136
0.38871986 0.3889623 -0.37750944 -0.3792139 0.38735953 -0.3866705 -0.38657317 0.38805494
0.37536937 -0.3866687 -0.38701382 0.3883551 -0.37866595 0.38859898 -0.37821436 0.38342458
0.38039747 -0.38650408 0.3881635 0.38721275 0.3872503 0.38228038 0.38800573 -0.38371843
0.38907197 -0.3881172 -0.3870269 -0.38254657 -0.3866779 -0.3867328 0.38866457 -0.38410518
-0.3885657 0.38549268 -0.3769264 -0.38647327 0.38333908 0.3871935 -0.3843074 0.38636982
-0.38861814 -0.3840226 -0.3760006 -0.3880202 0.38695943 0.38680944 0.38815928 0.38754392
0.37670946 0.3887893 -0.3884333 0.3883682 0.38417396 0.38828775 -0.38437167 -0.38649312
-0.38434723 -0.38899052 -0.3856683 -0.378388 -0.38767081 -0.3876835
