models/mlp_pure_seed_123.pt (torch, 46017 bytes, 4 tensors)

net.0.weight f4 [70, 4]
0.0348143 0.0053547197 0.03722463 -0.062510066 0.031618062 -0.009222589 0.040257465 -0.067269824
-0.023362558 -0.07024954 0.08581782 0.0038249993 -0.034183275 0.00954957 -0.03929491 0.06635296
0.03362349 -0.026825499 0.03622628 -0.07106806 -0.006927607 0.1488413 -0.08401653 0.037240904
-0.03148777 -0.031569883 -0.04062586 0.052560605 -0.033584803 0.028087616 -0.039688036 0.071041
-0.03730898 -0.011662294 -0.020766007 0.05503008 0.016814383 0.16689643 0.0047250064 0.01214333
-0.021163773 0.27261442 -0.051104657 0.09043183 0.03626164 -0.035787296 -0.044164773 -0.017513966
0.031538147 -0.013729464 0.039649267 -0.068628125 0.01809007 -0.35407338 0.07117565 -0.0945553
-0.010360854 0.3581686 -0.08795041 0.09640635 0.031766873 0.014210349 0.040405024 -0.058474373
-0.027368823 -0.037061468 -0.04064724 0.051801242 -0.033833146 0.0009131095 -0.03960395 0.06309303
-0.035381265 0.010811996 -0.03671961 0.06624012 -0.043413125 -0.06277066 -0.010332821 0.035497602
0.02735388 -0.26436862 0.09003195 -0.09877659 0.022575336 -0.13317305 0.08858562 -0.022590213
-0.029148426 -0.01806803 -0.039844554 0.05679093 -0.029560598 0.03403884 -0.034777958 0.06941714
-0.013674478 0.1784592 -0.06412054 0.063951485 0.027958754 -0.02330115 0.037773594 -0.06825716
0.031214198 -0.045702692 0.030146597 -0.06996754 -0.034864075 -0.009478845 -0.037227813 0.060297344
0.0064872704 -0.14368246 0.08534293 -0.03746973 0.025786133 0.022384906 0.040529877 -0.05591933
-0.03225112 0.020228032 -0.040318873 0.06949319 -0.030228455 0.004176776 -0.039995346 0.06623757
-0.026466351 -0.024167331 -0.041923348 0.056493875 -0.0040310645 0.16307265 -0.0873009 0.041635595
-0.028578697 -0.020472106 -0.0404904 0.05665168 -0.0071286643 -0.0784775 0.08877873 0.003307169
0.033981927 0.0011008338 0.03567754 -0.061822705 -0.016485268 -0.0708241 0.085173994 0.0062262015
0.023898985 0.029881345 0.042363197 -0.05507451 0.02813273 -0.09936072 0.040990148 -0.08134116
-0.034642313 -0.01619035 -0.03633325 0.058576934 0.03448219 0.018533949 0.039654292 -0.057682894
0.031409983 0.015067803 0.038926806 -0.059214886 0.01074988 -0.328763 0.08894306 -0.095338
-0.03157175 -0.019387864 -0.04088605 0.0569997 0.046388365 0.08550147 -0.0715729 -0.0033389274
0.035963316 -0.0035231363 0.020617012 -0.059118386 -0.0109044695 0.14552775 -0.08259061 0.038244326
-0.010071617 0.16920592 -0.078483455 0.04633232 -0.032076214 -0.026856786 -0.039539136 0.053700186
0.031856164 0.015583591 0.039628036 -0.057372827 0.03581561 -0.011203973 0.038773816 -0.06547211
0.034350388 -0.028783785 0.035211645 -0.07060875 -0.032408755 -0.039404593 -0.03857707 0.050783526
0.011180879 -0.3244658 0.08139935 -0.09227333 -0.02778057 -0.028576218 -0.040688295 0.054713394
-0.030269975 -0.030963792 -0.038062867 0.052453678 0.032700397 -0.015712772 0.038430706 -0.06915054
0.025579369 0.035297707 0.040911067 -0.052721098 -0.030126961 0.0015857175 -0.039744627 0.06387051
-0.027226526 0.041686263 -0.040934023 0.07312379 -0.035616748 0.012736523 -0.038660575 0.06580321
0.03623706 0.005802955 0.03428359 -0.06049806 -0.013691814 0.25664815 -0.03211831 0.08199294
00000000: 7099 0e3d a576 af3b db78 183d 4705 80bd
00000010: f181 013d 581a 17bc 03e5 243d c3c4 89bd
00000020: d662 bfbc fede 8fbd 41c1 af3d d7ac 7a3b
00000030: c303 0cbd cd75 1c3c b3f3 20bd 10e4 873d
00000040: c9b8 093d 26c1 dbbc 0262 143d 228c 91bd
00000050: fb00 e3bb db69 183e dc10 acbd eb89 183d
00000060: 52f9 00bd 6c4f 01bd 4d67 26bd ca49 573d
00000070: 3890 09bd 0018 e63c ec8f 22bd f27d 913d
00000080: 4dd1 18bd 3513 3fbc 791d aabc 3967 613d
00000090: 51be 893c e6e6 2a3e 3ad4 9a3b d1f4 463c
000000a0: a65f adbc 1e94 8b3e 1e53 51bd 5334 b93d
000000b0: 1687 143d b395 12bd 1fe6 34bd 7379 8fbc
000000c0: 252e 013d 8cf1 60bc 4567 223d e78c 8cbd
000000d0: a031 943c 1b49 b5be 8ac4 913d 36a6 c1bd
000000e0: 92c0 29bc e061 b73e 581f b4bd b170 c53d
000000f0: fb1d 023d 86d2 683c bd7f 253d d382 6fbd
00000100: 9534 e0bc c4cd 17bd b87d 26bd 8a2d 543d
00000110: a094 0abd be5d 6f3a c037 22bd eb36 813d
00000120: f2eb 10bd cc24 313c 4d67 16bd e6a8 873d
00000130: f6d1 31bd e78d 80bd fe4a 29bc ef65 113d
00000140: 3f15 e03c 535b 87be ac62 b83d 614b cabd
00000150: e9ef b83c 845e 08be 616c b53d 1c0f b9bc
00000160: aec8 eebc 6803 94bc 0b34 23bd 9b9d 683d
00000170: 1129 f2bc 506c 0b3d 5573 0ebd 932a 8e3d
00000180: eb0a 60bc 02be 363e a151 83bd fff8 823d
00000190: c209 e53c 0ee2 bebc 7cb8 1a3d 69ca 8bbd
000001a0: ebb4 ff3c bf32 3bbd fff5 f63c 244b 8fbd
000001b0: a2cd 0ebd 284d 1bbc 317c 18bd 59fa 763d
000001c0: 2b93 d43b 7f21 13be 46c8 ae3d dc79 19bd
000001d0: 713d d33c 8d60 b73c a802 263d ab0b 65bd
000001e0: c019 04bd 42b5 a53c 6725 25bd 7252 8e3d
000001f0: aaa1 f7bc 56dd 883b 29d2 23bd 90a7 873d
00000200: f6cf d8bc 91fa c5bc d1b7 2bbd 1f66 673d
00000210: 0517 84bb 84fc 263e d0ca b2bd 168a 2a3d
00000220: df1d eabc 1eb5 a7bc 43d9 25bd 980b 683d
00000230: 9297 e9bb d0b8 a0bd 9fd1 b53d 17bd 583b
00000240: a230 0b3d da49 903a 9d22 123d ce39 7dbd
00000250: 1d0c 87bc 3a0c 91bd b46f ae3d 2a05 cc3b
00000260: cec7 c33c b9c9 f43c 0885 2d3d cf95 61bd
00000270: 9c76 e63c a27d cbbd 49e5 273d 3296 a6bd
00000280: 19e5 0dbd a0a1 84bc 2dd2 14bd 5eee 6f3d
00000290: 323d 0d3d 82d4 973c 8a6c 223d e644 6cbd
000002a0: c1a7 003d f2de 763c b771 1f3d 4f8b 72bd
000002b0: 4420 303c a053 a8be c727 b63d 9240 c3bd
000002c0: 6151 01bd 4cd3 9ebc 2178 27bd 8478 693d
000002d0: ba01 3e3d 651b af3d d094 92bd e8d1 5abb
000002e0: 454e 133d 6be4 66bb 02e5 a83c 1f26 72bd
000002f0: a9a8 32bc 3a05 153e 4425 a9bd 15a6 1c3d
00000300: 6c03 25bc 5144 2d3e efbb a0bd f5c6 3d3d
00000310: 5962 03bd c302 dcbc caf3 21bd baf4 5b3d
00000320: 9c7b 023d 5152 7f3c 0251 223d c5ff 6abd
00000330: 64b3 123d de90 37bc 4bd1 1e3d 3e16 86bd
00000340: feb2 0c3d f9cb ebbc 163a 103d 529b 90bd
00000350: 0bbf 04bd b666 21bd fd02 1ebd 6302 503d
00000360: 0130 373c 6220 a6be b4b4 a63d cdf9 bcbd
00000370: 1494 e3bc ac18 eabc c5a8 26bd 271b 603d
00000380: bdf8 f7bc c7a7 fdbc cfe7 1bbd abd9 563d
00000390: daf0 053d 12b8 80bc 8469 1d3d cc9e 8dbd
000003a0: d38b d13c 5494 103d 5d92 273d 14f2 57bd
000003b0: d1cc f6bc dad7 cf3a 43cb 22bd 8bce 823d
000003c0: 2a0a dfbc 37bf 2a3d 6faa 27bd edc1 953d
000003d0: dee2 11bd d9ac 503c 8d5a 1ebd d5c3 863d
000003e0: 506d 143d b726 be3b f36c 0c3d d0cc 77bd
000003f0: a153 60bc 6367 833e 7d8e 03bd eaeb a73d

net.2.weight f4 [70, 70]
-0.0075736283 -0.0052090706 0.021613717 0.0051475195 -0.0024695776 0.014530825 0.011012834 0.007161042
-0.0037234554 0.016226336 -0.019187845 0.019611228 -0.001759065 0.020093068 -0.023875413 -0.008709354
0.0097374655 0.0096258335 0.0075355363 -0.005277482 0.00038746177 0.0013420853 0.005550929 0.0013650685
0.0049019014 -0.0044562714 0.0020108134 0.0060924133 -0.012480212 -0.0055381325 0.00408604 0.0017706198
0.006849783 0.0027170833 0.007369267 0.015846524 -0.004142896 0.018876754 -0.007100218 0.0068504433
0.004826295 -0.009780415 -0.0054914146 0.025406484 0.010546606 -0.01537282 0.005195957 0.015114841
0.010333034 0.009144534 -0.0076731313 -0.0062152473 -0.0046141874 0.008633363 0.016617505 0.0059041237
0.0051580477 -0.0026529413 -0.007642621 0.0037352233 0.0029817503 0.008101344 -0.0039452906 -0.029600227
-0.009060144 0.003156071 -0.010307725 0.0048980927 0.0027413163 0.0019835115 0.006936795 0.006411037
-0.02181183 -0.004745831 0.0044901543 -0.012427814 -0.008528031 -0.0048638918 0.0019836533 -0.019018207
0.02021492 -0.018498108 0.0032142578 -0.022473399 0.023869803 0.008496427 -0.008837115 -0.006262889
-0.005290818 0.006790871 0.0008465694 -0.00028909676 -0.0072885193 -0.0019178716 -0.0045003737 0.003293946
-0.00029995362 -0.00786081 0.012314858 0.0039907387 -0.0067497753 -0.002285349 -0.006578976 -0.0019158083
-0.0048767496 -0.016821014 0.005484192 -0.017163612 0.0068179592 -0.0075457734 -0.004613862 0.008583734
0.004086785 -0.024050489 -0.009212539 0.016496582 -0.0060364315 -0.012327352 -0.011814434 -0.009832755
0.006295637 0.009410783 0.002471519 -0.0095124515 -0.01632079 -0.0071989135 -0.0047025536 0.0019204426
0.008013559 -0.0043369015 -0.0054832087 -0.0079425825 0.0035323135 0.033221338 0.009376823 -0.00533605
0.011271547 -0.004201447 -0.002844564 0.0012151836 0.0051048873 -0.0063876333 -0.018096374 0.0009563158
-0.0044969483 0.025812414 -0.009289977 0.009251477 -0.013537735 0.039975002 0.078860305 0.016395966
-0.0066814655 -0.1214693 0.17061533 0.00536546 -0.00920157 -0.0020945969 0.0013808435 -0.03587038
-0.20728487 -0.01228262 -0.0037406823 0.011743515 0.046608355 -0.013717004 -0.011862021 -0.008061943
-0.028575975 0.0013596677 0.009489714 0.00526843 0.002340229 0.030527487 -0.00300261 -0.01228443
0.003624876 -0.015682258 0.00070594635 -0.03664554 -0.008642959 0.00936929 0.0054006283 -0.1731606
-0.0067783818 0.02915604 0.008640961 0.030767564 0.030231826 -0.01070122 0.006136541 -8.316294e-05
-0.0052184598 -0.013019477 -0.15050478 -0.006955652 -0.0076481234 -0.0064103943 0.004041911 0.002462296
0.024533432 0.0015378996 0.008229658 0.05034287 -0.04438586 -0.03447708 0.009395651 0.0037739268
0.018915981 0.12558664 0.0073982873 -0.0055938424 -0.0157668 0.0010423167 -0.007886601 0.02380779
-0.010164098 0.0069231577 -0.009678205 0.03889202 0.080459744 0.016450383 -0.00640109 -0.12159132
0.1694223 0.004897196 -0.008883735 -0.0021962458 -0.00074818946 -0.034046415 -0.20856716 -0.011891434
-0.0027925603 0.014994195 0.045207746 -0.015959248 -0.014639568 -0.006661921 -0.023920305 0.0007162937
0.006900678 0.0034016657 -0.004416287 0.03082078 -0.0021295934 -0.009602933 0.006768543 -0.0134567
0.00083150045 -0.03732744 -0.0100538 0.0070989034 0.0033972294 -0.17308709 -0.0072955065 0.025172187
00000000: 332c f8bb dab0 aabb 400f b13c 86ac a83b
00000010: a3d8 21bb b312 6e3c 2c6f 343c 2da7 ea3b
00000020: 3705 74bb 18ed 843c d42f 9dbc baa7 a03c
00000030: 6d90 e6ba 389a a43c 5f96 c3bc aeb1 0ebc
00000040: e489 1f3c acb5 1d3c a9ec f63b baee acbb
00000050: 3d24 cb39 e9e8 af3a 91e4 b53b 19ec b23a
00000060: 21a0 a03b ea05 92bb dac7 033b dea2 c73b
00000070: ce79 4cbc 3979 b5bb 30e4 853b 2414 e83a
00000080: 2574 e03b 1811 323b e479 f13b 92d0 813c
00000090: 21c1 87bb 6ca3 9a3c f2a8 e8bb af79 e03b
000000a0: e625 9e3b 093e 20bc 53f1 b3bb 4221 d03c
000000b0: accb 2c3c 48de 7bbc d942 aa3b 3da4 773c
000000c0: e34b 293c f5d2 153c e46e fbbb 46a9 cbbb
000000d0: 9c32 97bb f372 0d3c 6f21 883c 6177 c13b
000000e0: d704 a93b f8dc 2dbb f46e fabb a6ca 743b
000000f0: 7869 433b 80bb 043c 7f47 81bb 2d7c f2bc
00000100: 0071 14bc 16d6 4e3b bbe1 28bc 2e80 a03b
00000110: a8a7 333b cdfd 013b 0e4e e33b ad13 d23b
00000120: b9ae b2bc ea82 9bbb 2522 933b 089e 4bbc
00000130: 28b9 0bbc 4861 9fbb 2e00 023b 12cc 9bbc
00000140: c399 a53c 5889 97bc 4ca6 523b 221a b8bc
00000150: 9b8a c33c 9934 0b3c 8cc9 10bc ec38 cdbb
00000160: 995e adbb f485 de3b 50ec 5d3a e991 97b9
00000170: 88d4 eebb 1861 fbba df77 93bb 3edf 573b
00000180: 1843 9db9 a0ca 00bc 42c4 493c bec4 823b
00000190: 382d ddbb cbc5 15bb 7394 d7bb dc1b fbba
000001a0: 24cd 9fbb 39cc 89bc bdb4 b33b b49a 8cbc
000001b0: 3069 df3b 8942 f7bb e12f 97bb caa2 0c3c
000001c0: 70ea 853b 8805 c5bc 30f0 16bc d723 873c
000001d0: 42cd c5bb a9f8 49bc 5491 41bc 9019 21bc
000001e0: a24b ce3b af2f 1a3c 35f9 213b 1dda 1bbc
000001f0: 2db3 85bc dde4 ebbb e117 9abb 5cb7 fb3a
00000200: 4d4b 033c 911c 8ebb 7dac b3bb 9b21 02bc
00000210: 637e 673b 1913 083d 3fa1 193c 08da aebb
00000220: 4bac 383c 4bac 89bb dd6b 3abb cc46 9f3a
00000230: e646 a73b 5a4f d1bb d93e 94bc 44b1 7a3a
00000240: 235b 93bb 8e74 d33c fd34 18bc 8293 173c
00000250: 60cd 5dbc d4bc 233d 8381 a13d d550 863c
00000260: 32f0 dabb e5c4 f8bd c9b5 2e3e bed0 af3b
00000270: 2fc2 16bc 8145 09bb 6bfd b43a d2ec 12bd
00000280: 7c42 54be 0b3d 49bc 3c26 75bb df67 403c
00000290: 67e8 3e3d 49bd 60bc ec58 42bc 3d16 04bc
000002a0: 2a18 eabc e136 b23a bf7a 1b3c cba2 ac3b
000002b0: 875e 193b c814 fa3c 70c7 44bb a244 49bc
000002c0: 548f 6d3b 1478 80bc 420f 393a a219 16bd
000002d0: 339b 0dbc a781 193c c1f7 b03b 0351 31be
000002e0: 301d debb a6d8 ee3c d192 0d3c 420c fc3c
000002f0: bca8 f73c 2b54 2fbc 0915 c93b c367 aeb8
00000300: 9dff aabb a54f 55bc ed1d 1abe 3dec e3bb
00000310: 1c9d fabb 490e d2bb 0272 843b 795e 213b
00000320: 56fa c83c 5993 c93a b0d5 063c 5334 4e3d
00000330: f3cd 35bd d737 0dbd 37f0 193c fc53 773b
00000340: b0f5 9a3c c999 003e 556d f23b 8d4c b7bb
00000350: 6029 81bc 589e 883a cd36 01bc 8e08 c33c
00000360: 5187 26bc a8db e23b 5591 1ebc 3d4d 1f3d
00000370: 14c8 a43d f4c2 863c 3cc0 d1bb df04 f9bd
00000380: 0a7d 2d3e a878 a03b 168d 11bc e4ee 0fbb
00000390: 2522 44ba 4174 0bbd a192 55be 4ad4 42bc
000003a0: 6303 37bb 36aa 753c c22b 393d f8bc 82bc
000003b0: ccda 6fbc 3e4c dabb 84f4 c3bc a8c5 3b3a
000003c0: 151f e23b 7bee 5e3b 80b6 90bb dc7b fc3c
000003d0: a690 0bbb 9f55 1dbc a7ca dd3b 7e79 5cbc
000003e0: 0df9 593a a8e4 18bd b2b8 24bc eb9d e83b
000003f0: 0da4 5e3b be3d 31be 250f efbb e735 ce3c

net.4.weight f4 [70, 70]
0.009767725 -0.01295771 -0.061376594 -0.061673913 -0.012453055 0.06035724 0.058694586 0.0092084585
0.010030766 0.009883053 -0.062716454 0.010088399 0.00980117 0.009757682 -0.06303002 -0.009023403
-0.009354005 -0.060511664 -0.0108350115 -0.009024559 0.06159423 0.055737574 0.060788993 -0.009142535
0.009136621 -0.0108898375 0.012299605 0.009078118 0.012161801 0.009233427 0.061581694 -0.010022578
0.05986032 -0.012658061 -0.06360665 0.012042445 -0.058343027 -0.037651505 0.057743225 0.06034451
0.011183572 -0.01193256 -0.009406256 0.009879609 0.060785457 -0.059206523 0.011207763 0.008955417
-0.010271657 -0.05819396 0.010153055 0.063033104 -0.009428976 -0.05674031 -0.061223898 0.06213875
-0.011713708 -0.010327865 0.009374242 -0.01278876 0.059310924 -0.013022972 -0.0603802 -0.06370516
0.011091366 0.06280589 0.008978282 0.011526166 0.010563152 0.010075601 -0.025820978 0.024021514
-0.04787234 -0.047127403 0.024266414 0.05261744 0.0506061 -0.028085323 -0.031136494 -0.028161578
-0.05036265 -0.032643087 -0.024343869 -0.028764455 -0.048741784 0.025951859 0.023347447 -0.050353087
0.031745497 0.026366882 0.05217453 0.0559096 0.045849152 0.02677341 -0.03009598 0.024741726
-0.027625995 -0.030415513 -0.031136133 -0.026826402 0.052836478 0.026101839 0.048581503 0.028750755
-0.04631285 -0.029095974 -0.049446203 0.026301512 0.05206866 0.05184864 -0.024309175 0.026844187
0.024392996 -0.028449675 0.053143416 -0.048698947 -0.027852342 -0.026809176 0.025316712 -0.054823007
-0.03107228 0.051116813 0.030643558 -0.054587957 -0.0487942 0.051531762 0.020896707 0.027025677
-0.02945761 0.024544291 0.050161477 0.025486555 -0.054381765 -0.04819229 -0.02612375 0.052985795
-0.029435173 -0.024356738 -0.024146188 -0.02568948 -0.02278755 0.023328163 -0.04749906 -0.049348436
0.023785807 0.054809783 0.05348058 -0.025984632 -0.030771043 -0.025416818 -0.050194032 -0.03360329
-0.025524804 -0.025217738 -0.049203146 0.02419632 0.024009086 -0.051573038 0.031215424 0.02718081
0.051407743 0.056618534 0.04882751 0.022631664 -0.027014636 0.0265355 -0.025366247 -0.030611701
-0.029239614 -0.026569486 0.054292243 0.022935491 0.048136972 0.027783897 -0.04498557 -0.02890264
-0.05256301 0.022604506 0.050595533 0.05418752 -0.02476292 0.026645686 0.022703355 -0.027492132
0.05242416 -0.0511986 -0.027139224 -0.025098894 0.028393792 -0.052398097 -0.0277167 0.04956748
0.02791572 -0.05414251 -0.04840252 0.04831455 0.021836752 0.028795911 -0.02990465 0.02521702
0.051718943 0.026266424 -0.05339053 -0.046376523 -0.026279675 0.049275316 -0.029176122 -0.026545987
-0.026055213 -0.02851328 -0.009427971 0.012476728 0.06303468 0.061636206 0.012638059 -0.06003404
-0.05657956 -0.008940804 -0.011954675 -0.008652914 0.064705 -0.007937595 -0.012727193 -0.012173477
0.062086288 0.011015764 0.011096532 0.05966071 0.0105265435 0.012166744 -0.061677538 -0.053051908
-0.06386946 0.0094344495 -0.008721626 0.01277383 -0.009239915 -0.010691777 -0.00886715 -0.009475643
-0.060236096 0.01135523 -0.06058902 0.0124227675 0.061808605 -0.010801234 0.060462385 0.03827493
-0.060145523 -0.060180735 -0.010308652 0.0107400045 0.011485752 -0.012222965 -0.05905286 0.05836516
00000000: cf08 203c 934c 54bc 0666 7bbd c99d 7cbd
00000010: e607 4cbc 2739 773d bc69 703d 13df 163c
00000020: 1558 243c 87ec 213c 7c71 80bd d049 253c
00000030: 1695 203c afde 1f3c e215 81bd e5d6 13bc
00000040: 8a41 19bc 14db 77bd 5585 31bc bedb 13bc
00000050: 3b4a 7c3d 154d 643d e1fd 783d 92ca 15bc
00000060: c4b1 153c 4a6b 32bc 4884 493c 63bc 143c
00000070: 4a42 473c cd47 173c 163d 7c3d bd35 24bc
00000080: 1830 753d c263 4fbc 3444 82bd ad4d 453c
00000090: 19f9 6ebd 7738 1abd 2984 6c3d ce2b 773d
000000a0: 4d3b 373c c980 43bc b21c 1abc 15de 213c
000000b0: 2cfa 783d 8a82 72bd c4a0 373c beb9 123c
000000c0: 744a 28bc ca5c 6ebd 0059 263c 8017 813d
000000d0: fe7b 1abc 8768 68bd e9c5 7abd 3485 7e3d
000000e0: daea 3fbc 3536 29bc 6c96 193c f287 51bc
000000f0: 03f0 723d 4e5e 55bc 3b51 77bd da77 82bd
00000100: 90b8 353c 60a0 803d a519 133c 3fd8 3c3c
00000110: 1211 2d3c 2214 253c 8486 d3bc c4c8 c43c
00000120: c915 44bd aa08 41bd 5cca c63c 6285 573d
00000130: 5848 4f3d 3113 e6bc f611 ffbc 1cb3 e6bc
00000140: 1149 4ebd c2b4 05bd cb6c c7bc 6fa3 ebbc
00000150: 77a5 47bd fe98 d43c 2543 bf3c 0a3f 4ebd
00000160: 9107 023d 5cff d73c f6b4 553d 7701 653d
00000170: 52cc 3b3d e953 db3c d88b f6bc 29af ca3c
00000180: e94f e2bc f429 f9bc 3411 ffbc 0bc3 dbbc
00000190: 106b 583d 86d3 d53c 66fd 463d b486 eb3c
000001a0: 8bb2 3dbd ae5a eebc 1a88 4abd 4576 d73c
000001b0: f245 553d 3d5f 543d 0924 c7bc 57e8 db3c
000001c0: d2d3 c73c 4b0f e9bc e9ac 593d 8c78 47bd
000001d0: 982a e4bc eb9e dbbc fe64 cf3c 178e 60bd
000001e0: 4b8b febc dd5f 513d 3308 fb3c 9f97 5fbd
000001f0: 6ddc 47bd f812 533d 922f ab3c f464 dd3c
00000200: 1651 f1bc 1c11 c93c 1f76 4d3d 2ec9 d03c
00000210: 6abf 5ebd 4765 45bd 7901 d6bc a207 593d
00000220: 0822 f1bc c887 c7bc 3ace c5bc bf72 d2bc
00000230: f5ac babc b41a bf3c 608e 42bd 9621 4abd
00000240: 74da c23c 3980 603d 740e 5b3d b9dd d4bc
00000250: 8e13 fcbc ee36 d0bc 4298 4dbd 9aa3 09bd
00000260: 6519 d1bc 6e95 cebc 3d89 49bd 5c37 c63c
00000270: b4ae c43c 403e 53bd 7db7 ff3c 4aaa de3c
00000280: ed90 523d d6e8 673d 5bff 473d 0a66 b93c
00000290: cc4d ddbc fa60 d93c e0cc cfbc 64c5 fabc
000002a0: ea87 efbc 40a8 d9bc 8b61 5e3d 36e3 bb3c
000002b0: 462b 453d 0e9b e33c ca42 38bd 3bc5 ecbc
000002c0: 504c 57bd 162d b93c 433d 4f3d bcf3 5d3d
000002d0: 9bdb cabc 0e48 da3c 63fc b93c 2e37 e1bc
000002e0: b7ba 563d a0b5 51bd 1453 debc 329c cdbc
000002f0: 199a e83c 639f 56bd 220e e3bc 4507 4b3d
00000300: 82af e43c 89c4 5dbd b941 46bd 7ae5 453d
00000310: fde2 b23c 67e5 eb3c 99fa f4bc ed93 ce3c
00000320: 3ed7 533d af2c d73c 07b0 5abd 4ff5 3dbd
00000330: 7948 d7bc ead4 493d c302 efbc f876 d9bc
00000340: be71 d5bc af94 e9bc c777 1abc 316b 4c3c
00000350: 5418 813d 3f76 7c3d dd0f 4f3c 41e6 75bd
00000360: f8bf 67bd 737c 12bc 8bdd 43bc f4c4 0dbc
00000370: 0e84 843d b00c 02bc b785 50bc 4373 47bc
00000380: 314e 7e3d 777b 343c 3bce 353c ca5e 743d
00000390: 8677 2c3c 0657 473c 96a1 7cbd f54c 59bd
000003a0: fecd 82bd f392 1a3c 27e5 0ebc 5449 513c
000003b0: 0363 17bc 902c 2fbc 8647 11bc ba3f 1bbc
000003c0: 20ba 76bd 490b 3a3c 312c 78bd dd88 4b3c
000003d0: 052b 7d3d a9f7 30bc 68a7 773d 2cc6 1c3d
000003e0: 275b 76bd 1380 76bd 9fe5 28bc d8f6 2f3c
000003f0: bc2e 3c3c d542 48bc 69e1 71bd 4e10 6f3d

net.6.weight f4 [1, 70]
0.04209704 0.06630737 0.06674115 -0.042393208 -0.041541502 0.07863543 0.059457067 0.06675267
0.043721694 0.045067932 -0.043320954 -0.045200966 -0.0426591 -0.06443598 -0.043508537 0.050499804
0.04314673 0.042572252 -0.041079253 0.06064358 0.057085067 -0.04321092 -0.04520409 0.063132696
0.06460956 -0.041102152 0.041305512 -0.041705016 0.04497589 -0.040978905 -0.042698417 -0.04638611
-0.087268084 -0.06633132 0.058490817 -0.055967484 0.085209556 -0.057167035 -0.045471866 -0.045339152
-0.04562554 0.044965796 0.04218471 -0.086532064 -0.05939487 0.053934112 0.060323477 -0.042813446
-0.040645797 -0.04608469 0.05241824 -0.042871084 0.040276792 -0.066256605 -0.041695796 0.0575089
0.057274543 -0.059568856 -0.044657633 -0.05581318 -0.044621333 -0.04530551 -0.04051752 0.057042982
0.041165516 -0.045373455 -0.04331046 -0.041488137 -0.04278988 -0.043524124
00000000: f26d 2c3d 29cc 873d 96af 883d 80a4 2dbd
00000010: 6c27 2abd 9d0b a13d 4189 733d a0b5 883d
00000020: 8515 333d 2799 383d 5071 31bd a624 39bd
00000030: 4fbb 2ebd 03f7 83bd 0236 32bd e2d8 4e3d
00000040: a0ba 303d 3e60 2e3d b842 28bd 6765 783d
00000050: 08d2 693d effd 30bd ed27 39bd b74b 813d
00000060: 0452 843d bb5a 28bd f82f 293d e1d2 2abd
00000070: a438 383d 7fd9 27bd 89e4 2ebd 5dff 3dbd
00000080: 9cb9 b2bd b7d8 87bd 1194 6f3d 293e 65bd
00000090: 5982 ae3d fb27 6abd b540 3abd 8cb5 39bd
000000a0: d9e1 3abd 0e2e 383d e0c9 2c3d b937 b1bd
000000b0: 0948 73bd 04ea 5c3d c015 773d 275d 2fbd
000000c0: 357c 26bd 4dc3 3cbd 82b4 563d 9799 2fbd
000000d0: 47f9 243d 8bb1 87bd 36c9 2abd 748e 6b3d
000000e0: b698 6a3d 79fe 73bd ecea 36bd 5c9c 64bd
000000f0: dcc4 36bd 4592 39bd b3f5 25bd e7a5 693d
00000100: 2c9d 283d 84d9 39bd 4f66 31bd 77ef 29bd
00000110: 7144 2fbd 5a46 32bd
