models/mlp_residual_seed_789.pt (torch, 46057 bytes, 4 tensors)

net.0.weight f4 [70, 4]
0	0x3c8048ff	0.015659807
1	0xbe72393a	-0.23654643
2	0xbd203034	-0.03910847
3	0x3d4079de	0.04699122
4	0xbcf7b67d	-0.030238384
5	0x3e661c9e	0.22471854
6	0x3d545b89	0.051845107
7	0xbd21d705	-0.0395117
8	0xbd0458db	-0.0323113
9	0x3e5ef81c	0.21774334
10	0x3d62e60f	0.055395182
11	0xbd2142a7	-0.039370205
12	0x3d07620b	0.033052485
13	0xbe5bf70a	-0.21480957
14	0xbd659a33	-0.05605526
15	0x3d144190	0.036195338
16	0xbca7a341	-0.020463588
17	0x3e7d3399	0.24726714
18	0x3d37c2b2	0.04486341
19	0xbd4d9fd0	-0.050201237
20	0xbc8b34ac	-0.01699289
21	0x3e7a9924	0.24472481
22	0x3d25a56b	0.040440958
23	0xbd554449	-0.052067075
24	0x3d56b1bf	0.052415606
25	0x3df996ca	0.12186964
26	0xbe0499d7	-0.1294931
27	0xbd43756e	-0.04771941
28	0xbd0b8704	-0.034064308
29	0x3e5f200a	0.21789566
30	0x3d69e739	0.057105277
31	0xbd223ef7	-0.03961083
32	0x3ca5c4ee	0.020235505
33	0xbe784403	-0.24244694
34	0xbd364ac1	-0.044504885
35	0x3d32c34f	0.043643292
36	0x3c6f9c42	0.014624657
37	0xbe68b59f	-0.22725533
38	0xbd35b936	-0.044366084
39	0x3d2e49f7	0.042551007
40	0xbc9116e2	-0.017711107
41	0x3e73b4c3	0.23799424
42	0x3d355500	0.044270515
43	0xbd3eee28	-0.046613842
44	0x3cbeadcd	0.023276234
45	0xbe712ae8	-0.23551524
46	0xbd477e03	-0.04870416
47	0x3d381d7f	0.044950005
48	0xbcb60543	-0.022219306
49	0x3e6ef0cd	0.23334046
50	0x3d36195d	0.044457782
51	0xbd30f8c9	-0.04320601
52	0x3cd056f3	0.025432086
53	0xbe7751d9	-0.24152316
54	0xbd3de933	-0.046364974
55	0x3d3a4d61	0.04548395
56	0xbeacd590	-0.33756685
57	0xbeae0b7b	-0.33993134
58	0x3ee363fd	0.44412223
59	0x3ee45dcd	0.44602814
60	0x3cf24c57	0.029577417
61	0xbe73f2d8	-0.23823106
62	0xbd5d6140	-0.054047823
63	0x3d34e9f7	0.04416844
64	0x3cf34176	0.0296943
65	0xbe6a378e	-0.22872755
66	0xbd63ab1a	-0.055583097
67	0x3d25d1c3	0.040483247
68	0x3cb2003f	0.021728633
69	0xbe752752	-0.23940781
70	0xbd42fd14	-0.047604635
71	0x3d203613	0.03911407
72	0x3c869a31	0.016430946
73	0xbe76c0c2	-0.24096969
74	0xbd1bea67	-0.03806534
75	0x3d3a6f3f	0.04551625
76	0x3d0ad5b1	0.0338952
77	0xbe5a163a	-0.21297541
78	0xbd724ae4	-0.059153453
79	0x3d140529	0.036137734
80	0xbc8e52c1	-0.017373445
81	0x3e75bc14	0.23997527
82	0x3d2ec3fd	0.042667378
83	0xbd39486c	-0.045235083
84	0x3c9ff049	0.019523757
85	0xbe3ac8d7	-0.18240677
86	0xbd46bef6	-0.04852196
87	0x3d0959d7	0.033532944
88	0x3c8152a5	0.015786478
89	0xbe5f8c53	-0.21830873
90	0xbd28fb45	-0.041255254
91	0x3d26ea6c	0.040750906
92	0xbd0d7e4c	-0.034544274
93	0x3e566c7a	0.20939818
94	0x3d6d2af9	0.05790231
95	0xbd0f7f14	-0.0350333
96	0xbd099112	-0.033585615
97	0x3e61c59f	0.22048043
98	0x3d5e76c4	0.054312482
99	0xbd1b4f80	-0.037917614
100	0x3cbe94d7	0.023264332
101	0xbe79f7ac	-0.24410886
102	0xbd3a0bee	-0.045421533
103	0x3d376c0f	0.044780787
104	0x3d06291a	0.03275404
105	0xbe6c5b16	-0.23081622
106	0xbd53e87b	-0.051735383
107	0x3d2696f6	0.04067131
108	0xbca63c31	-0.020292373
109	0x3e71100e	0.2354128
110	0x3d3474c3	0.044056665
111	0xbd31a520	-0.043370366
112	0x3cad75d4	0.021174349
113	0xbe7539ee	-0.2394788
114	0xbd453d73	-0.048154306
115	0x3d417bd0	0.047237217
116	0xbc7db1bd	-0.015484271
117	0x3e5b42d9	0.21412219
118	0x3d299d31	0.041409675
119	0xbd182a54	-0.037149742
120	0x3cc013ea	0.023446996
121	0xbe73542b	-0.23762576
122	0xbd36826f	-0.044557985
123	0x3d2afdaa	0.04174582
124	0xbcc3cc27	-0.023901058
125	0x3e76f97e	0.24118611
126	0x3d3652b6	0.044512473
127	0xbd3ec329	-0.046572838
128	0xbcd0ef4c	-0.02550473
129	0x3e75c004	0.2399903
130	0x3d59606b	0.053070467
131	0xbd2ae9af	-0.041726764
132	0x3ceaabef	0.028646437
133	0xbda193eb	-0.07889541
134	0xbd961061	-0.07327343
135	0x3bd804ca	0.006592368
136	0xbd0c1898	-0.034203142
137	0x3e678b74	0.22611791
138	0x3d63417f	0.055482384
139	0xbd20e72d	-0.039282966
140	0x3d0bb30d	0.034106303
141	0xbe56dbdb	-0.20982306
142	0xbd719a55	-0.058985073
143	0x3d0b081c	0.03394328
144	0xbd08d312	-0.033404417
145	0x3e5edf00	0.21764755
146	0x3d5748cc	0.05255966
147	0xbd196ce8	-0.037457377
148	0xbd063d87	-0.03277352
149	0x3e607426	0.21919307
150	0x3d6325d7	0.05545601
151	0xbd252208	-0.040315658
152	0xbcd19a41	-0.02558625
153	0x3e723f3c	0.23656934
154	0x3d3f642f	0.046726402
155	0xbd375dd3	-0.044767212
156	0xbd0a3028	-0.03373733
157	0x3e62f8b5	0.22165187
158	0x3d6213c4	0.05519463
159	0xbd117c56	-0.035518967
160	0x3cf7105d	0.03015917
161	0xbe6e5a65	-0.2327667
162	0xbd67e015	-0.056610186
163	0x3d194414	0.03741844
164	0x3c934024	0.01797492
165	0xbe7ca87a	-0.24673644
166	0xbd3d8954	-0.046273544
167	0x3d544ab8	0.05182907
168	0xbcaf1336	-0.021371465
169	0x3e79ccfb	0.243946
170	0x3d4635d5	0.048391182
171	0xbd2ccd18	-0.04218778
172	0x3c82b589	0.015955703
173	0xbe77dbba	-0.24204913
174	0xbd287931	-0.041131202
175	0x3d35dc6f	0.044399675
176	0xbc96c56b	-0.018404683
177	0x3e78ec32	0.24308851
178	0x3d39ebc5	0.045390863
179	0xbd48ab59	-0.048991535
180	0xbc951939	-0.018200504
181	0x3e7c99d4	0.24668056
182	0x3d35b26d	0.044359613
183	0xbd4908bd	-0.0490806
184	0x3cff5f92	0.031173501
185	0xbe617c74	-0.22020131
186	0xbd57d793	-0.052695822
187	0x3d2489d1	0.040170494
188	0x3c8cc9a6	0.017185997
189	0xbe52a9c7	-0.20572577
190	0xbd2ddecd	-0.042448808
191	0x3d0cc156	0.034364067
192	0xbcbe3141	-0.023216845
193	0x3e713ee9	0.23559155
194	0x3d38f056	0.045151077
195	0xbd3c566e	-0.045980863
196	0x3cfe68d3	0.031055843
197	0xbe6d89fe	-0.23197171
198	0xbd617cc4	-0.055050626
199	0x3d275860	0.040855765
200	0x3d011ca3	0.03152145
201	0xbe6454cd	-0.22297974
202	0xbd5ca8db	-0.05387197
203	0x3d1e0abf	0.038584467
204	0x3caf5a1a	0.021405268
205	0xbe6d3474	-0.2316454
206	0xbd46b73a	-0.048514582
207	0x3d23ff09	0.040038142
208	0x3c913b81	0.017728569
209	0xbe47c04f	-0.19506954
210	0xbd431394	-0.047626093
211	0x3d0c5c5b	0.034267765
212	0x3d0c994a	0.034325875
213	0xbe618b2a	-0.22025743
214	0xbd6bbc73	-0.057552766
215	0x3d16d5e2	0.03682507
216	0x3d0d9cee	0.034573488
217	0xbe5d26b4	-0.21596795
218	0xbd6fe188	-0.058564693
219	0x3d256327	0.040377762
220	0xbcea1575	-0.028574685
221	0x3e708940	0.23489857
222	0x3d5c376c	0.053763792
223	0xbd1b6a43	-0.037943136
224	0xbcdc6114	-0.02690176
225	0x3e7247d0	0.23660207
226	0x3d52c2e4	0.051455393
227	0xbd208a0a	-0.039194144
228	0x3cf1d4e3	0.029520458
229	0xbe68c47d	-0.22731204
230	0xbd5a22ab	-0.05325572
231	0x3d1ae048	0.037811548
232	0x3cb1a50e	0.02168515
233	0xbe7c6b59	-0.24650325
234	0xbd459607	-0.04823878
235	0x3d463b96	0.04839667
236	0x3d0949b0	0.03351754
237	0xbe5c7af1	-0.21531273
238	0xbd689529	-0.056782875
239	0x3d1ca3bb	0.038242083
240	0xbc7c2aa5	-0.015391027
241	0x3e6475ea	0.22310606
242	0x3d274ed2	0.040846653
243	0xbd3a30d9	-0.04545674
244	0xbc8698c7	-0.016430272
245	0x3e769fb7	0.24084364
246	0x3d228cfa	0.039685227
247	0xbd39e7bd	-0.04538702
248	0xbc93275f	-0.01796311
249	0x3e7c487a	0.24637023
250	0x3d34e882	0.04416705
251	0xbd55fc11	-0.052242342
252	0xbd0d940a	-0.03456501
253	0x3e544b04	0.20731741
254	0x3d67e741	0.056617025
255	0xbd0db429	-0.034595642

net.2.weight f4 [70, 70]
0	0xbd994327	-0.074835114
1	0x3d3af7fa	0.045646645
2	0x3d2f78a4	0.04283966
3	0xbd1dbbc8	-0.03850916
4	0x3da48ac4	0.0803428
5	0x3daea5a9	0.08527691
6	0x3d5dd494	0.05415781
7	0x3d28be7b	0.04119728
8	0xbdb33cea	-0.08751853
9	0xbda08a23	-0.078388475
10	0x3db9fd4d	0.090815164
11	0xbd873f9d	-0.0660393
12	0x3d831d70	0.06402099
13	0xbd90c6e8	-0.07069188
14	0xbe9debe8	-0.30844045
15	0xbd70a857	-0.05875429
16	0xbd5447d8	-0.051826328
17	0xbd97c54f	-0.074106805
18	0xbdbc8c3d	-0.09206436
19	0xbd0f17fa	-0.034934975
20	0x3db9fe1a	0.09081669
21	0xbd1fc7ad	-0.039008785
22	0xbd918739	-0.0710587
23	0x3d1121f7	0.035432782
24	0x3d2c8168	0.0421156
25	0xbd96faf7	-0.073720865
26	0xbd50fc7a	-0.05102203
27	0x3d813e1e	0.06310676
28	0xbd9136d0	-0.07090533
29	0x3d84e8b3	0.06489696
30	0xbd8732b4	-0.06601468
31	0x3d8e9336	0.06961672
32	0x3d87bca2	0.06627776
33	0x3a9b2ffe	0.0011839864
34	0x3d3dcfa6	0.046340607
35	0xbd04c614	-0.032415465
36	0x3d23b10c	0.039963767
37	0x3d27b2ab	0.040941875
38	0x3d8684bb	0.06568285
39	0x3d264d15	0.040600855
40	0xbd4a25a5	-0.049352307
41	0xbdb00f7a	-0.08596702
42	0x3da60ae1	0.08107544
43	0xbdbeb915	-0.09312645
44	0x3da84d46	0.08217864
45	0x3daa9d4f	0.083307855
46	0xbd35bc73	-0.044369172
47	0xbd30a18f	-0.043122824
48	0x3d8834bc	0.06650683
49	0xbd5802fc	-0.05273722
50	0xbd35701b	-0.044296365
51	0xbd917687	-0.071026854
52	0xbd3b7760	-0.04576814
53	0xbd2bb12e	-0.04191702
54	0xbd1da2ba	-0.038485266
55	0x3d59810e	0.05310159
56	0x3d71ec9c	0.05906354
57	0xbd4a208c	-0.049347445
58	0xbda252ec	-0.07925972
59	0xbd26a8a3	-0.04068817
60	0x3d9c18c8	0.07621914
61	0x3dc1b2aa	0.094579056
62	0x3db2ff04	0.087400466
63	0x3d0777c7	0.033073213
64	0xbdbc6f62	-0.09200932
65	0xbd868377	-0.06568044
66	0xbd3ffb5c	-0.046870574
67	0x3db8ffcd	0.09033165
68	0xbd4cfdc4	-0.050046697
69	0xbd29787c	-0.04137467
70	0xbd9e5cd2	-0.07732548
71	0x3d66a18b	0.056306403
72	0x3d517bb6	0.05114337
73	0xbd4e69b7	-0.050393786
74	0x3dbfd325	0.093664445
75	0x3dbf87c6	0.093520686
76	0x3d7d0782	0.061774738
77	0x3d5595c9	0.0521448
78	0xbd9cec82	-0.07662298
79	0xbd89ccb0	-0.06728494
80	0x3da04335	0.07825319
81	0xbd996595	-0.07490078
82	0x3d9d0cb5	0.07668439
83	0xbda7db67	-0.081961446
84	0xbe9ccc7d	-0.30624762
85	0xbd8b7699	-0.0680973
86	0xbd7a35f2	-0.061086603
87	0xbd89c3a9	-0.06726772
88	0xbda34d09	-0.07973678
89	0xbd3f9600	-0.04677391
90	0x3da1a12a	0.07892068
91	0xbce92db1	-0.02846417
92	0xbd72d37b	-0.059283715
93	0x3d3dd432	0.046344943
94	0x3d4dfa00	0.050287247
95	0xbdae6978	-0.0851621
96	0xbd728ed4	-0.059218243
97	0x3d9a81f4	0.07544318
98	0xbda643c6	-0.081183955
99	0x3d55a5dd	0.052160133
100	0xbd9f46a5	-0.07777146
101	0x3dab68e8	0.08369619
102	0x3d9a0293	0.07520022
103	0x3c2b610e	0.010460151
104	0x3d6981e9	0.057008658
105	0xbd3004f8	-0.04297349
106	0x3d5719c6	0.052514814
107	0x3d5e0b9a	0.054210283
108	0x3d97fb81	0.074210174
109	0x3d52dbbc	0.051479086
110	0xbd767c6d	-0.060177255
111	0xbdc6bc63	-0.09703901
112	0x3d9744c8	0.07386166
113	0xbda890ef	-0.08230769
114	0x3db8a36a	0.09015544
115	0x3dc22e08	0.09481436
116	0xbd685782	-0.05672408
117	0xbd5587da	-0.05213151
118	0x3d9cb9be	0.07652615
119	0xbd8101af	-0.06299149
120	0xbd686b6a	-0.056743063
121	0xbd845193	-0.064608715
122	0xbd16e6af	-0.03684109
123	0xbd592d81	-0.05302191
124	0xbd475df4	-0.048673585
125	0x3d88882a	0.06666596
126	0x3d8aab10	0.06770909
127	0xbd7039e9	-0.058648977
128	0xbdb9dae1	-0.09074951
129	0xbd43cd52	-0.04780323
130	0x3d866e25	0.06563977
131	0x3da4dcac	0.08049902
132	0x3dc3f530	0.0956825
133	0x3d30a2c9	0.043123994
134	0xbda5b73b	-0.08091589
135	0xbda1669f	-0.078809015
136	0xbd6ca1d6	-0.057771526
137	0x3da34e1f	0.07973885
138	0xbd801071	-0.06253136
139	0xbd5109ee	-0.05103486
140	0x3d95cb4d	0.07314167
141	0xbd304dfc	-0.04304312
142	0xbd217384	-0.039416805
143	0x3d0f11de	0.03492915
144	0xbda43474	-0.08017817
145	0xbda8c3cd	-0.08240471
146	0xbd5ddb35	-0.05416413
147	0xbd19ed91	-0.037580077
148	0x3da5cb75	0.08095447
149	0x3d94c8bb	0.07264849
150	0xbdac8634	-0.08424035
151	0x3d704cb1	0.05866689
152	0xbd694338	-0.05694887
153	0x3d8213e7	0.06351452
154	0x3e9ab88d	0.30218926
155	0x3d678443	0.05652262
156	0x3d3f8b0e	0.046763472
157	0x3d941d3c	0.072321385
158	0x3db8b2e5	0.090184964
159	0x3d06d35b	0.032916408
160	0xbdad71c9	-0.084689684
161	0x3d16c977	0.036813226
162	0x3d857b0d	0.06517611
163	0xbd03489b	-0.032051664
164	0xbd1e6bfc	-0.0386772
165	0x3d8727d8	0.065993965
166	0x3d3e29bb	0.046426516
167	0xbd74cbaa	-0.05976454
168	0x3d8d6111	0.069032796
169	0xbd68a884	-0.056801334
170	0x3d6e0c71	0.058117334
171	0xbd8643a0	-0.06555867
172	0xbd82b6f1	-0.063825496
173	0xba646d64	-0.000871381
174	0xbd2d071f	-0.04224312
175	0x3d042b5a	0.032267906
176	0xbd1645b8	-0.036687583
177	0xbd27749a	-0.040882684
178	0xbd730356	-0.059329353
179	0xbd1f272d	-0.03885572
180	0x3d4a42d1	0.049380127
181	0x3da5a820	0.08088708
182	0xbd9fbfae	-0.07800232
183	0x3db1e372	0.0868596
184	0xbd9e453d	-0.0772805
185	0xbda781d7	-0.08179062
186	0x3d299ec1	0.041411165
187	0x3d31baae	0.043390922
188	0xbd71c873	-0.059029054
189	0x3d4a4bfc	0.04938887
190	0x3d317d4d	0.043332387
191	0x3d903044	0.07040456
192	0x3d32063f	0.043462988
193	0x3d11a33d	0.035556067
194	0x3d176013	0.036956858
195	0xbd529ef7	-0.051421132
196	0xbd6d265e	-0.057897918
197	0x3d3559dd	0.044275153
198	0x3d9cd80d	0.07658396
199	0x3d0fdb23	0.035121094
200	0xbd8ec6ba	-0.06971498
201	0xbdb0365c	-0.08604118
202	0xbda9f2ad	-0.0829824
203	0xbce5b106	-0.028038513
204	0x3db62de5	0.088954724
205	0x3d7e6e0a	0.06211666
206	0x3d330132	0.04370231
207	0xbdb11f90	-0.08648598
208	0x3d4b7a62	0.04967726
209	0x3d0e2a8f	0.034708556
210	0xbd9e6d93	-0.077357434
211	0x3d6cf729	0.057852898
212	0x3d55e267	0.052217867
213	0xbd4b12dd	-0.049578536
214	0x3dbbba9e	0.09166454
215	0x3dbffcfd	0.093744256
216	0x3d748a92	0.059702463
217	0x3d51df15	0.05123814
218	0xbd9c1042	-0.076202884
219	0xbd872e36	-0.06600611
220	0x3da2fe73	0.079586886
221	0xbd9cacce	-0.076501474
222	0x3d99b972	0.07506074
223	0xbda6cc44	-0.08144429
224	0xbe9d9d05	-0.3078386
225	0xbd8bbff1	-0.06823719
226	0xbd7ade04	-0.061246887
227	0xbd8e28b4	-0.06941357
228	0xbda724a2	-0.08161284
229	0xbd3b671a	-0.045752622
230	0x3da2e295	0.07953373
231	0xbd042827	-0.032264855
232	0xbd71e736	-0.05905839
233	0x3d336d6d	0.04380553
234	0x3d5c8690	0.053839266
235	0xbdab8596	-0.08375089
236	0xbd7d8177	-0.061891045
237	0x3d9e506e	0.077301845
238	0xbdab2cf2	-0.08358182
239	0x3d59e3c4	0.05319573
240	0xbd9b6774	-0.075880915
241	0x3da88382	0.08228208
242	0x3d980f92	0.07424845
243	0x3c0d9719	0.0086419815
244	0x3d5bd9cf	0.053674515
245	0xbd3997a2	-0.045310624
246	0x3d4b469e	0.049627893
247	0x3d63f834	0.055656627
248	0x3d9e163a	0.07719083
249	0x3d55794c	0.05211763
250	0xbd810a18	-0.06300753
251	0xbdc22caa	-0.09481175
252	0x3d9a421e	0.07532142
253	0xbda90645	-0.08253149
254	0x3db8244a	0.089912966
255	0x3dbba65c	0.0916259

net.4.weight f4 [70, 70]
0	0xbda11885	-0.07866005
1	0xbd91cf6a	-0.07119639
2	0x3d9dff21	0.077146776
3	0xbd8ede21	-0.069759615
4	0x3d920e53	0.071316384
5	0xbd8aca2d	-0.06776843
6	0x3d921893	0.071335934
7	0xbd92de80	-0.07171345
8	0xbda00cdd	-0.078149535
9	0x3d939409	0.0720597
10	0xbd81360a	-0.06309135
11	0xbd9c73c7	-0.0763927
12	0xbd685015	-0.056716997
13	0xbda3c5f8	-0.07996744
14	0x3d9e6e6b	0.07735904
15	0x3d925e41	0.07146884
16	0x3da08952	0.07838692
17	0x3d91b6ff	0.07114982
18	0xbda085ca	-0.07838018
19	0xbd8da503	-0.06916239
20	0xbd956f20	-0.07296586
21	0xbda35494	-0.07975116
22	0xbd9a50bb	-0.07534929
23	0x3d93376a	0.07188304
24	0x3da3c04a	0.079956606
25	0x3da16a0e	0.078815565
26	0xbd965799	-0.07340927
27	0x3d94c564	0.07264212
28	0xbd91090a	-0.07081802
29	0xbd919898	-0.07109183
30	0x3d9269b1	0.07149065
31	0x3d958984	0.0730162
32	0x3da00f62	0.07815434
33	0xbd8b83c2	-0.0681224
34	0x3da04f4b	0.07827624
35	0x3d87c113	0.06628623
36	0xbd8fbf31	-0.07018889
37	0x3da07b50	0.0783602
38	0xbd93f3a2	-0.07224204
39	0x3d8d49b2	0.06898822
40	0xbd9656df	-0.07340788
41	0x3da318a5	0.07963685
42	0xbd8e0f1d	-0.069364764
43	0x3d958d32	0.073023215
44	0xbd91c45f	-0.07117533
45	0xbd87a687	-0.066235594
46	0xbd97d27c	-0.074131936
47	0xbd8e2cf6	-0.06942169
48	0xbd94f8e0	-0.07274032
49	0x3d90854f	0.070566766
50	0xbd9f5dcf	-0.077815644
51	0xbd917d1a	-0.07103939
52	0xbd9e4759	-0.07728452
53	0xbd9010a6	-0.070344254
54	0xbda25843	-0.07926991
55	0x3d9cd9d7	0.07658737
56	0xbd9ccca8	-0.076562226
57	0xbd8926bf	-0.06696843
58	0xbd90b5b4	-0.07065907
59	0x3da455a8	0.0802415
60	0xbda0c00d	-0.07849131
61	0xbd8f54f8	-0.069986284
62	0xbd8a71d9	-0.06759996
63	0xbd96040a	-0.07324989
64	0xbda0989d	-0.07841609
65	0x3da0faf5	0.07860366
66	0x3d9020df	0.0703752
67	0xbd9b9721	-0.07597185
68	0xbda175c9	-0.07883794
69	0x3d92baf2	0.07164563
70	0x3d98598c	0.07438955
71	0x3da3f906	0.08006482
72	0xbd8ff786	-0.07029633
73	0x3da584bc	0.08081958
74	0xbda14a76	-0.078755304
75	0x3d6978b4	0.056999877
76	0xbda59c72	-0.0808648
77	0x3da9a2d2	0.08283009
78	0x3d9475a4	0.07249001
79	0xbd9f894e	-0.07789861
80	0x3d911131	0.07083357
81	0x3d97928e	0.07401
82	0x3d3b21cb	0.045686524
83	0x3d936ace	0.07198106
84	0xbd917553	-0.07102456
85	0xbda4a332	-0.080389395
86	0xbd93ffcd	-0.072265245
87	0xbda4881f	-0.080337755
88	0x3d94a3a9	0.07257778
89	0x3da68d6c	0.08132443
90	0x3d87db1d	0.066335894
91	0x3d93f238	0.07223934
92	0x3da2e211	0.07953275
93	0xbda66502	-0.081247345
94	0xbd9204b6	-0.07129805
95	0xbd9d86ed	-0.07691751
96	0x3da553bb	0.08072611
97	0xbda68524	-0.08130863
98	0x3da90951	0.0825373
99	0x3da4a713	0.080396794
100	0xbda2c491	-0.07947648
101	0xbda3548a	-0.07975109
102	0xbd8c77f4	-0.06858817
103	0x3d8eeea9	0.069791146
104	0xbd933723	-0.07188251
105	0xbd693d5c	-0.056943282
106	0x3da3958d	0.07987509
107	0xbd946743	-0.07246258
108	0x3da53e5b	0.08068534
109	0xbd779806	-0.060447715
110	0x3da1bd21	0.078974016
111	0xbd9549e7	-0.072894864
112	0x3da26557	0.07929485
113	0xbda944e7	-0.08265095
114	0x3da3e99c	0.08003542
115	0x3d7648a0	0.060127854
116	0x3d8b3cbe	0.06798695
117	0x3da62d00	0.08114052
118	0x3da31555	0.07963053
119	0xbda09ef3	-0.07842817
120	0x3d9526f8	0.07282823
121	0x3da307eb	0.079604946
122	0x3d948fed	0.07254014
123	0x3da28c0d	0.07936869
124	0x3d97001e	0.07373069
125	0xbd91481c	-0.07093832
126	0x3d914515	0.070932545
127	0x3d724db5	0.05915614
128	0x3da8012b	0.08203348
129	0xbd95e1ab	-0.073184334
130	0x3d929a96	0.07158391
131	0x3da8758e	0.08225547
132	0x3d6e844b	0.058231633
133	0x3d9deab2	0.0771078
134	0x3d9c6901	0.076372154
135	0xbd931e9d	-0.071835734
136	0xbda725cd	-0.08161507
137	0x3d8bca27	0.06825667
138	0x3d975c51	0.07390655
139	0xbda45ed1	-0.08025897
140	0xbd960802	-0.07325746
141	0xbd9e2357	-0.07721584
142	0x3d9a5149	0.07535035
143	0xbd99a68d	-0.0750247
144	0x3d9ca73a	0.076490834
145	0xbd7b0399	-0.061282728
146	0x3d9988bf	0.07496785
147	0xbd9ed0bb	-0.07754656
148	0xbda08a9c	-0.07838938
149	0x3d9b7ad3	0.07591786
150	0xbd8914c6	-0.06693415
151	0xbd924f2a	-0.071440056
152	0xbd43cd8c	-0.047803447
153	0xbd9f3010	-0.07772839
154	0x3d9cbabd	0.07652805
155	0x3d9ef838	0.07762188
156	0x3da38aaf	0.07985436
157	0x3d9b6368	0.075873196
158	0xbd9663e5	-0.07343272
159	0xbd9594a5	-0.07303742
160	0xbd8f428e	-0.06995116
161	0xbd9f6bbd	-0.07784221
162	0xbda14ce3	-0.07875993
163	0x3da0e433	0.078560255
164	0x3d9f3584	0.07773879
165	0x3d9f4228	0.0777629
166	0xbd9c27d4	-0.07624784
167	0x3d9a75ce	0.07542001
168	0xbd9eb79e	-0.07749866
169	0xbd9d6794	-0.076857716
170	0x3da11458	0.078652084
171	0x3da1133a	0.07864995
172	0x3d958a31	0.073017485
173	0xbd86f48a	-0.06589611
174	0x3da08ac5	0.07838968
175	0x3d7c60b9	0.06161568
176	0xbd99442f	-0.07483708
177	0x3d995f5c	0.074888915
178	0xbd9c46bf	-0.07630681
179	0x3d8100bb	0.062989675
180	0xbda16469	-0.0788048
181	0x3d9b89fc	0.07594678
182	0xbd9e7171	-0.07736481
183	0x3d9c93e5	0.07645396
184	0xbda1fa43	-0.07909062
185	0xbd79380b	-0.060844462
186	0xbd8cfe9a	-0.06884499
187	0xbd973d3c	-0.073847264
188	0xbd98a19c	-0.074526995
189	0x3d9fad7c	0.077967614
190	0xbd9bb122	-0.07602145
191	0xbd989007	-0.07449346
192	0xbda05b2d	-0.078298904
193	0xbd994bcc	-0.0748516
194	0xbd976e7e	-0.073941216
195	0x3d9af804	0.075668365
196	0xbd93278d	-0.07185278
197	0xbd7b4e81	-0.061354164
198	0xbd99f611	-0.075176366
199	0x3d9dc880	0.07704258
200	0xbd99c5f1	-0.075084575
201	0xbd99c936	-0.07509081
202	0xbd71277a	-0.05887554
203	0xbda6cf6a	-0.0814503
204	0xbda17a0b	-0.07884606
205	0x3da2e60a	0.07954033
206	0x3da07332	0.07834472
207	0xbd96f60e	-0.0737115
208	0xbda3afc8	-0.07992512
209	0x3d9e1dc1	0.07720519
210	0x3d96abaa	0.07356961
211	0x3d9f0978	0.07765478
212	0xbd9e5a67	-0.07732087
213	0x3d9ecfc6	0.077544734
214	0xbda10403	-0.07862093
215	0x3d7b18e0	0.06130302
216	0xbd9f5ae7	-0.0778101
217	0x3da0fd65	0.07860831
218	0x3d9ec56f	0.07752501
219	0xbda1c59d	-0.0789902
220	0x3d89fce4	0.06737688
221	0x3d98c7d4	0.07459989
222	0x3d3db1a1	0.04631198
223	0x3d9c6241	0.07635928
224	0xbd985e6b	-0.07439884
225	0xbda10e18	-0.07864016
226	0xbd9ee062	-0.077576414
227	0xbda3ef5f	-0.08004641
228	0x3d94f0e9	0.072725125
229	0x3d98817f	0.074465744
230	0x3d94e133	0.07269516
231	0x3d9cc3f1	0.0765456
232	0x3da0667e	0.07832049
233	0xbda0a4ba	-0.07843919
234	0xbd9d78c6	-0.07689051
235	0xbd9b52e7	-0.07584172
236	0x3da17467	0.0788353
237	0xbda41ea4	-0.08013657
238	0x3d9ba81e	0.07600425
239	0x3d9cab90	0.076499104
240	0xbd9fed99	-0.0780899
241	0xbda0c042	-0.0784917
242	0xbd98f724	-0.07469013
243	0x3d87ea33	0.06636467
244	0xbd9d5c9d	-0.0768368
245	0xbd79e3f2	-0.0610084
246	0x3da0372c	0.07823023
247	0xbd946944	-0.0724664
248	0x3da03549	0.07822663
249	0xbd7127b9	-0.058875773
250	0x3d9e2c72	0.07723321
251	0xbd9acf4f	-0.07559072
252	0x3d9ae08a	0.07562359
253	0xbd9a782b	-0.075424515
254	0x3d9c9678	0.07645887
255	0x3d6e6552	0.058202095

net.6.weight f4 [1, 70]
0	0x3e81b761	0.2533522
1	0xbe87c1d9	-0.26515082
2	0x3e860312	0.26174217
3	0xbe8761d2	-0.26441818
4	0x3e8989cb	0.2686294
5	0xbe8cde0e	-0.27513164
6	0xbe89a26a	-0.26881725
7	0x3e88622e	0.26637405
8	0x3e852dbf	0.26011464
9	0xbe87d379	-0.26528528
10	0xbe867456	-0.26260632
11	0xbe8a67f5	-0.27032438
12	0xbe8cd555	-0.2750651
13	0x3e850313	0.25978908
14	0xbe8c2991	-0.27375463
15	0xbe851cff	-0.25998685
16	0x3e872b3d	0.26400176
17	0x3e860f11	0.2618337
18	0x3e8b2f88	0.271847
19	0x3e861474	0.2618748
20	0x3e8cef01	0.27526096
21	0xbe8c8306	-0.27443713
22	0xbe864cf6	-0.26230592
23	0xbe7ff50f	-0.24995826
24	0x3e8747f7	0.26422092
25	0x3e84b5f1	0.2592006
26	0x3e8729b1	0.26398996
27	0xbe8bd4ed	-0.27310887
28	0xbe8c10e3	-0.27356634
29	0xbe8881c5	-0.26661506
30	0x3e8570fd	0.26062766
31	0xbe88777e	-0.26653665
32	0x3e77ed4b	0.24211614
33	0x3e881809	0.26580837
34	0x3e8c5fe0	0.27416897
35	0x3e825043	0.2545186
36	0xbe8bb674	-0.27287638
37	0x3e8aff81	0.2714806
38	0x3e8bc958	0.2730205
39	0xbe879acc	-0.26485288
40	0xbe88b9db	-0.26704296
41	0x3e8c124a	0.27357703
42	0xbe8569f6	-0.26057404
43	0xbe8c0a98	-0.27351832
44	0xbe838081	-0.25683978
45	0xbe82589e	-0.25458235
46	0x3e857126	0.26062888
47	0xbe87a5aa	-0.2649358
48	0xbe85a216	-0.26100224
49	0x3e84b63e	0.2592029
50	0x3e86b375	0.2630879
51	0x3e8a9f9b	0.27074894
52	0x3e8b8a1d	0.2725381
53	0xbe87d58e	-0.26530117
54	0xbe8b35b2	-0.27189404
55	0xbe866ef1	-0.26256517
56	0xbe866487	-0.2624857
57	0x3e8b60f1	0.27222398
58	0x3e87e4ac	0.2654165
59	0xbe83bdcb	-0.25730738
60	0x3e8c57d9	0.27410772
61	0x3e899a40	0.26875496
62	0xbe8c0b6e	-0.2735247
63	0xbe8a9eee	-0.2707438
64	0xbe833408	-0.25625634
65	0xbe88410d	-0.2661213
66	0xbe8aa003	-0.27075204
67	0xbe780ea6	-0.24224338
68	0x3e8cd796	0.2750823
69	0x3e847f09	0.2587817
