models/mlp_residual_seed_43.pt (torch, 46047 bytes, 4 tensors)

net.0.weight f4 [70, 4]
0.023003465 0.1557902 0.054906055 -0.042177368 0.019221526 0.15719914 0.050960924 -0.04352679
-0.0063985656 -0.1304016 -0.038967818 0.04269675 0.021395076 0.15601526 0.05204613 -0.041522957
-0.0062320554 -0.08442958 -0.022140888 0.04021618 0.00944723 0.13749272 0.042142004 -0.044187523
0.008054987 0.09004019 0.024026189 -0.042461105 -0.022322088 -0.15867306 -0.05080149 0.040307675
0.022767516 0.15154666 0.052718006 -0.04077308 -0.02285639 -0.15009938 -0.05009274 0.041613173
0.021835698 0.15282553 0.05107647 -0.039454374 0.021710701 0.15373482 0.04937723 -0.04030882
0.010907687 0.14043452 0.047194596 -0.043878783 -0.008641107 0.10614421 0.0315993 -0.049392324
0.021814866 0.15920119 0.053722 -0.043895785 0.10412614 -0.016056491 0.010594244 0.084175214
-0.013933483 -0.1470452 -0.05106507 0.044312846 0.022941696 0.15159974 0.05407565 -0.04117178
0.023181776 0.15417127 0.04886698 -0.04215472 0.021719318 0.14423813 0.048403714 -0.037901733
0.020491546 0.13555834 0.04245459 -0.042078257 -0.0026138385 0.112821996 0.035135612 -0.04965917
0.016643066 0.14580104 0.046546552 -0.039634034 -0.022533068 -0.1529567 -0.053121988 0.04018816
-0.018597072 0.08814166 0.023399398 -0.052444953 0.022289049 0.15313275 0.053416405 -0.042061497
-0.001601683 0.115358256 0.03283884 -0.0477431 -0.011320057 -0.14235774 -0.046231408 0.04166578
0.0044400077 -0.10949523 -0.028737925 0.048311647 0.010502996 0.13345176 0.045117203 -0.0449709
-0.001646715 0.10965303 0.030617872 -0.047187112 0.023094578 0.15012245 0.05311532 -0.0409968
0.023230111 0.15389867 0.053849433 -0.044107668 -0.022850707 -0.15347573 -0.052697375 0.040504318
0.0220829 0.15184847 0.051305488 -0.04247082 -0.08133927 0.04296748 -0.0048713516 -0.07698681
-0.024521021 -0.16114302 -0.0581505 0.043114852 -0.021635579 -0.15004547 -0.05022834 0.042319804
0.023898639 0.15872155 0.05120063 -0.043019928 0.021707503 0.1536509 0.052282207 -0.04284908
-0.023529097 -0.15270987 -0.055503283 0.0425742 0.02288154 0.16213821 0.056591593 -0.042637773
-0.009745375 -0.13894682 -0.044990297 0.044468615 -0.00047594807 -0.12383741 -0.03682058 0.048008442
0.00052772905 0.12308589 0.036511738 -0.046100345 0.0061153267 0.13343781 0.0431455 -0.044719957
-0.0006451715 0.115077175 0.03464887 -0.04775832 0.0124173965 0.14395668 0.046046913 -0.040914644
0.00012625693 0.12011593 0.036043454 -0.04739542 -0.0066416473 -0.13374166 -0.042491756 0.045832388
0.001342216 0.11327736 0.036285583 -0.044866867 -0.00025715103 0.12326919 0.03787444 -0.048075236
-0.001965325 -0.12449057 -0.03988674 0.047965594 0.02270508 0.160082 0.057691555 -0.04359993
-0.022842787 -0.15627742 -0.053081088 0.04313001 0.023032952 0.15629981 0.050990157 -0.043851912
-0.021051621 -0.14946847 -0.0470716 0.043030508 -0.020127876 -0.15845232 -0.055866763 0.041497096
-0.0008183289 -0.12391368 -0.036510058 0.046096742 0.0074099097 0.13573714 0.046277087 -0.04199108
-0.02020246 -0.15453167 -0.051269937 0.04147183 -0.022704534 -0.15054876 -0.052432414 0.04095248
-0.02377565 -0.15667555 -0.05207066 0.043667227 -0.0845642 0.039546926 -0.004319683 -0.07637061
00000000: c371 bc3c 7787 1f3e 2ce5 603d 2dc2 2cbd
00000010: 7676 9d3c d0f8 203e 67bc 503d 2649 32bd
00000020: 0fab d1bb ff87 05be b89c 1fbd cae2 2e3d
00000030: ba44 af3c 77c2 1f3e 532e 553d fa13 2abd
00000040: 4536 ccbb 6ae9 acbd cf60 b5bc b9b9 243d
00000050: 8ec8 1a3c e4ca 0c3e 189d 2c3d fafd 34bd
00000060: 10f9 033c fe66 b83d 92d2 c43c b2eb 2dbd
00000070: d0dc b6bc 317b 22be 3915 50bd a919 253d
00000080: f182 ba3c 0c2f 1b3e d6ee 573d ac01 27bd
00000090: 533d bbbc a7b3 19be 0c2e 4dbd 9372 2a3d
000000a0: c7e0 b23c 4c7e 1c3e 9035 513d e99a 21bd
000000b0: a4da b13c a96c 1d3e c73f 4a3d dc1a 25bd
000000c0: 28b6 323c 11ce 0f3e 1f4f 413d 3dba 33bd
000000d0: 6e93 0dbc 2362 d93d 456e 013d 9b4f 4abd
000000e0: 17b5 b23c a305 233e 9a0b 5c3d 11cc 33bd
000000f0: 1640 d53d e788 83bc 7b93 2d3c 0e64 ac3d
00000100: 4349 64bc 0493 16be 9b29 51bd 6381 353d
00000110: 39f0 bb3c f63c 1b3e 6e7e 5d3d bea3 28bd
00000120: b5e7 bd3c 13df 1d3e be28 483d 6daa 2cbd
00000130: b6ec b13c 29b3 133e f942 463d d93e 1bbd
00000140: e3dd a73c cecf 0a3e dde4 2d3d 405a 2cbd
00000150: ef4c 2bbb 380f e73d 5cea 0f3d 6a67 4bbd
00000160: 0a57 883c de4c 153e 99a7 3e3d 4c57 22bd
00000170: 4597 b8bc aea0 1cbe 7196 59bd 579c 243d
00000180: e358 98bc 9d83 b43d 18b0 bf3c 85d0 56bd
00000190: 8697 b63c d5ce 1c3e 29cb 5a3d ad48 2cbd
000001a0: 90ef d1ba f340 ec3d 0582 063d 458e 43bd
000001b0: c377 39bc 3ac6 11be 255d 3dbd bda9 2a3d
000001c0: 7c7d 913b 093f e0bd cc6b ebbc 6fe2 453d
000001d0: c214 2c3c 94a7 083e d1cc 383d 6833 38bd
000001e0: 96d6 d7ba c591 e03d 55d2 fa3c 4647 41bd
000001f0: d730 bd3c b3b9 193e 738f 593d 43ec 27bd
00000200: 134d be3c 9d97 1d3e 3991 5c3d 3eaa 34bd
00000210: 6831 bbbc be28 1dbe 34d9 57bd dbe7 253d
00000220: 33e7 b43c 2a7e 1b3e b425 523d e2f5 2dbd
00000230: 3495 a6bd abfe 2f3d dc9f 9fbb 43ab 9dbd
00000240: 4fe0 c8bc ad02 25be 382f 6ebd 3399 303d
00000250: 193d b1bc 85a5 19be 3bbc 4dbd 8857 2d3d
00000260: 14c7 c33c e787 223e c0b7 513d aa35 30bd
00000270: efd3 b13c a956 1d3e de25 563d 8482 2fbd
00000280: 18c0 c0bc fa5f 1cbe 6957 63bd 4962 2e3d
00000290: 1172 bb3c 8f07 263e 96cc 673d f2a4 2ebd
000002a0: 11ab 1fbc 1348 0ebe bf47 38bd b924 363d
000002b0: ab88 f9b9 789e fdbd 2dd1 16bd 80a4 443d
000002c0: 4c57 0a3a 7514 fc3d 558d 153d b7d3 3cbd
000002d0: 1463 c83b eca3 083e 56b9 303d 462c 37bd
000002e0: ba20 29ba 95ad eb3d f9eb 0d3d 3a9e 43bd
000002f0: 5672 4b3c 6169 133e b09b 3c3d 1d96 27bd
00000300: d663 0439 57ff f53d 4da2 133d b321 42bd
00000310: 2da2 d9bb 93f3 08be d60b 2ebd beba 3b3d
00000320: 4ced af3a f6fd e73d 31a0 143d 52c6 37bd
00000330: 3ad2 86b9 8f74 fc3d 3b22 1b3d 8aea 44bd
00000340: afcc 00bb e9f4 febd 4760 23bd 9277 443d
00000350: 0100 ba3c 89ec 233e fb4d 6c3d d795 32bd
00000360: cc20 bbbc 3007 20be 8e6b 59bd 18a9 303d
00000370: 9aaf bc3c 0f0d 203e 0edb 503d 109e 33bd
00000380: 7374 acbc 430e 19be 26ce 40bd c240 303d
00000390: 37e3 a4bc 5341 22be 8cd4 64bd dcf8 293d
000003a0: 1f85 56ba 75c6 fdbd 928b 15bd f0cf 3c3d
000003b0: d4ce f23b adfe 0a3e 0b8d 3d3d d7fe 2bbd
000003c0: a17f a5bc 8d3d 1ebe 6d00 52bd 5ede 293d
000003d0: dcfe b9bc 7429 1abe 5fc3 56bd cabd 273d
000003e0: 27c5 c2bc 8e6f 20be 0b48 55bd 68dc 323d
000003f0: ff2f adbd f5fb 213d 218c 8dbb 3268 9cbd

net.2.weight f4 [70, 70]
0.047091335 0.04607454 -0.007869625 0.04592146 0.0083093615 0.020116145 -0.0038197034 -0.049105793
0.0428018 -0.040254835 0.04304145 0.04120321 0.021210369 -0.014385783 0.05284246 0.16395828
-0.031623755 0.040638514 0.044571947 0.031340934 0.024824586 -0.0066074287 0.035539504 -0.04409264
-0.02888207 0.046177782 -0.00734531 -0.02522073 0.0107755065 0.020765632 -0.008792372 0.04034862
0.044614937 -0.045124367 0.04341733 -0.11629016 -0.051424373 -0.041135963 0.046736967 0.044065267
-0.04572028 0.05486229 -0.018551975 0.00048205908 -0.00027092377 0.008948348 -0.0040946314 0.025844613
-0.0018689372 -0.009183936 -0.004954052 -0.002349333 -0.0028628283 0.05286911 -0.05081875 0.049914528
-0.039844107 -0.046640612 0.0013836846 0.014789455 -0.042517293 -0.04107932 -0.04778819 -0.122808546
0.048858233 -0.039280757 -0.0020402237 0.033497527 -0.041942883 0.008934751 -0.044725552 -0.04435358
0.009176185 -0.043766674 -0.008068695 -0.01628865 0.0048405756 0.047403857 -0.041824844 0.037076045
-0.038561717 -0.041110016 -0.020445129 0.0175642 -0.048655182 -0.16594692 0.03021512 -0.042219732
-0.040867984 -0.030803258 -0.023048354 0.0114317965 -0.034107547 0.039565068 0.031073993 -0.043649435
0.008557508 0.019997938 -0.012666591 -0.020353714 0.011121305 -0.03637155 -0.046356425 0.043251157
-0.041177876 0.11774536 0.049591016 0.037738405 -0.048301905 -0.043104403 0.041361526 -0.051170286
0.017402481 -0.0021132517 0.004328711 -0.010799235 0.0059360373 -0.026526839 0.005880071 0.009008364
0.0057461862 0.0050360216 -0.00084297423 -0.050578896 0.0465472 -0.04739099 0.03855625 0.04393828
-0.0031193618 -0.012933592 0.039424714 0.037487824 0.04484045 0.12418665 -0.047059484 0.035995945
0.004304011 -0.03170501 0.041141327 -0.0072663245 0.050005127 0.04752064 -0.014448241 0.044527613
0.00740372 0.019500427 -0.0064583975 -0.048164807 0.04169862 -0.039648782 0.041184973 0.044935897
0.022888318 -0.011638101 0.0541104 0.16251169 -0.035564445 0.04203427 0.044574924 0.031702545
0.025752334 -0.0037051912 0.03843763 -0.043612264 -0.023447305 0.04493913 -0.00504335 -0.02460544
0.009336013 0.021967046 -0.0035197623 0.042511005 0.046323773 -0.04488416 0.045724694 -0.11481588
-0.05466739 -0.04096423 0.049785558 0.047777735 -0.04721099 0.05634857 -0.022336254 -0.0037636566
0.0016936586 0.015112409 -0.0033413467 0.02939892 0.0016680013 -0.013364161 0.0016849309 0.00329513
-0.0059260624 0.053010494 -0.050552085 0.049228664 -0.041096058 -0.04776215 -0.0046355473 0.01629341
-0.04235503 -0.043245785 -0.04829357 -0.120248705 0.047782052 -0.04117123 0.0006668788 0.035748105
-0.043898176 0.010672153 0.047262874 0.047695022 -0.009086456 0.048071716 0.0061626164 0.017850732
-0.0033051576 -0.048170973 0.044050727 -0.03856988 0.043845564 0.046054095 0.020292442 -0.015558284
0.050892655 0.16845433 -0.029114384 0.04400411 0.044040952 0.031564236 0.030018913 -0.010089312
0.03526057 -0.04519971 -0.031679094 0.043619577 -0.0063267965 -0.019285878 0.0124214655 0.016429592
-0.009257722 0.038339216 0.045785196 -0.044094108 0.042737525 -0.11790585 -0.05178397 -0.04318153
0.04841353 0.04770782 -0.04412342 0.05569124 -0.01572026 0.0031797027 -0.002522822 0.007278013
00000000: d8e2 403d a8b8 3c3d 9aef 00bc 2418 3c3d
00000010: fd23 083c 9dca a43c fd53 7abb 2823 49bd
00000020: f150 2f3d 41e2 24bd 3b4c 303d b2c4 283d
00000030: 5ec1 ad3c 59b2 6bbc 5671 583d aee4 273e
00000040: e987 01bd 9274 263d 1391 363d 5a5f 003d
00000050: ee5c cb3c 2183 d8bb df91 113d 7c9a 34bd
00000060: 179a ecbc ea24 3d3d edb0 f0bb b49b cebc
00000070: c08b 303c b01c aa3c e20d 10bc 9844 253d
00000080: 27be 363d 54d4 38bd 5fd6 313d 8929 eebd
00000090: 5da2 52bd 2f7e 28bd 436f 3f3d c87d 343d
000000a0: 3045 3bbd 48b7 603d 50fa 97bc e0bc fc39
000000b0: c60a 8eb9 189c 123c 422c 86bb 15b8 d33c
000000c0: 20f7 f4ba 3878 16bc 9a55 a2bb 44f7 19bb
000000d0: 4a9e 3bbb 488d 583d 5227 50bd 2d73 4c3d
000000e0: 9333 23bd 3a0a 3fbd c05c b53a 784f 723c
000000f0: 9d26 2ebd ca42 28bd 8dbd 43bd 0c83 fbbd
00000100: 921f 483d dce4 20bd 46b5 05bb b434 093d
00000110: 4dcc 2bbd 1063 123c 2432 37bd 19ac 35bd
00000120: b657 163c af44 33bd 8f32 04bc c66f 85bc
00000130: b19d 9e3b 8c2a 423d 8750 2bbd 0ddd 173d
00000140: e4f2 1dbd fa62 28bd 8b7c a7bc cce2 8f3c
00000150: a84a 47bd fded 29be b385 f73c 99ee 2cbd
00000160: 3065 27bd 1d57 fcbc e7cf bcbc 6e4c 3b3c
00000170: 5bb4 0bbd fb0e 223d e38e fe3c c0c9 32bd
00000180: ca34 0c3c b7d2 a33c 8987 4fbc d5bc a6bc
00000190: 2236 363c 56fa 14bd 3ce0 3dbd 2028 313d
000001a0: 22aa 28bd 7b24 f13d f31f 4b3d 9693 1a3d
000001b0: 38d8 45bd 3e8e 30bd b46a 293d ef97 51bd
000001c0: a68f 8e3c 7b7e 0abb dcd7 8d3b 46ef 30bc
000001d0: 1783 c23b d04e d9bc 9cad c03b d197 133c
000001e0: 814a bc3b 3605 a53b 0bfb 5cba d12b 4fbd
000001f0: 47a8 3e3d 0e1d 42bd 29ed 1d3d a0f8 333d
00000200: 356e 4cbb 6be7 53bc cf7b 213d d58c 193d
00000210: 9faa 373d 9255 fe3d 72c1 40bd 7c70 133d
00000220: a908 8d3b 1ddd 01bd cf83 283d 591a eebb
00000230: 2dd2 4c3d 01a5 423d 51b8 6cbc 9662 363d
00000240: e89a f23b 5cbf 9f3c f7a0 d3bb 7648 45bd
00000250: 2ccc 2a3d c366 22bd 93b1 283d b40e 383d
00000260: 4880 bb3c bcad 3ebc dea2 5d3d 7769 263e
00000270: 06ac 11bd 202c 2c3d 3294 363d 87da 013d
00000280: 8ff6 d23c cbd2 72bb c770 1d3d c6a2 32bd
00000290: 9014 c0bc 1812 383d b042 a5bb 5991 c9bc
000002a0: 14f6 183c 3cf4 b33c d0ab 66bb 0520 2e3d
000002b0: ffbd 3d3d 74d8 37bd d149 3b3d 9724 ebbd
000002c0: eaea 5fbd 1cca 27bd f1eb 4b3d 96b2 433d
000002d0: 5060 41bd c2cd 663d 85fa b6bc aea7 76bb
000002e0: c1fd dd3a 0a9a 773c 7ffa 5abb 01d6 f03c
000002f0: d6a0 da3a 5bf5 5abc e6d8 dc3a 1cf3 573b
00000300: 6a2f c2bb 8821 593d b40f 4fbd ffa3 493d
00000310: 5754 28bd 3fa2 43bd cae5 97bb c279 853c
00000320: 787c 2dbd 7e22 31bd 7acf 45bd f444 f6bd
00000330: 1db7 433d 2aa3 28bd 7bd1 2e3a 9b6c 123d
00000340: 93ce 33bd 41da 2e3c b796 413d db5b 433d
00000350: 5cdf 14bc d9e6 443d c6ef c93b b33b 923c
00000360: 589b 58bb ed4e 45bd 896e 343d 73fb 1dbd
00000370: 6897 333d 38a3 3c3d 563c a63c 2ce8 7ebc
00000380: d174 503d 4b7f 2c3e 4a81 eebc a73d 343d
00000390: 4964 343d 8049 013d 39ea f53c a44d 25bc
000003a0: 636d 103d 5523 39bd f0c1 01bd 71aa 323d
000003b0: 0451 cfbb 6bfd 9dbc 6783 4b3c 5a97 863c
000003c0: b3ad 17bc 9509 1d3d 4289 3b3d 069c 34bd
000003d0: 8b0d 2f3d 9f78 f1bd 6e1b 54bd 1edf 30bd
000003e0: 444d 463d 4669 433d c2ba 34bd 7f1c 643d
000003f0: c6c7 80bc 8f62 503b ee55 25bb 667c ee3b

net.4.weight f4 [70, 70]
-0.0073348586 0.0011768767 -0.009821094 -0.004246818 -0.016292114 0.005308264 -0.007253221 -0.0030263257
0.015476616 -0.017455645 -0.004860349 0.0034126327 0.018701985 0.006834445 -0.007838214 -0.01727593
0.0032221552 0.01283156 0.018263899 0.0062851487 0.0043806517 -0.020001728 0.003710564 -0.019222805
-0.016684711 0.019033473 0.016765127 0.016237164 -0.0041188686 0.015651355 -0.019228013 -0.0055521857
0.007672298 -0.018029379 0.0072283586 0.018927371 0.0010745178 0.006893182 0.01752183 -0.016895114
-0.0015183529 0.005334655 -0.01817571 0.004416458 0.01773763 -0.004993084 -0.0048244535 0.0025924179
0.007667537 -0.018355409 0.0076136403 -0.017888756 0.015077926 0.003442625 0.0053626997 -0.0009993609
-0.0041655665 0.001959047 0.018341102 -0.014346554 -0.006474198 0.017765595 0.0057035876 0.005202264
-0.01590716 0.020676723 0.018767899 -0.005239704 0.005278673 -0.0032536532 -0.012298942 0.007113575
-0.016498554 -0.008583687 -0.025391763 0.011418425 -0.012549361 -0.011962576 0.024472654 -0.025597852
-0.012681926 0.007585692 0.025383517 0.010973679 -0.010443344 -0.02371159 0.010996614 0.020613655
0.025597664 0.012030283 0.008232273 -0.02517805 0.009125418 -0.024760675 -0.026117044 0.025901819
0.024513772 0.026875433 -0.013114593 0.025519725 -0.025029749 -0.011108142 0.013454074 -0.024388468
0.012305584 0.027060859 0.0070762904 0.012905082 0.026710639 -0.025413547 -0.0056419945 0.011564552
-0.02194488 0.0096732965 0.027053643 -0.011457313 -0.009308653 0.0013647391 0.014157426 -0.02398711
0.013679864 -0.023993036 0.02081162 0.009114228 0.011581974 -0.007976139 -0.011355484 0.007607043
0.022693086 -0.023703886 -0.01010695 0.024937768 0.0099207135 0.010696951 -0.020396208 0.027358307
0.026442224 -0.013542659 0.01070468 -0.00620379 0.0063346983 -0.0027530757 0.0023184365 0.006068874
0.012940579 -0.0016644221 0.002639913 -9.097566e-05 -0.011210004 0.015217742 0.0052137915 -0.00605083
-0.014110004 -0.00026816153 0.0042745797 0.011946366 -0.0019231557 -0.012627256 -0.012752586 -0.0036618777
-0.0019437589 0.011650854 -0.004007237 0.012728532 0.011517026 -0.010104797 -0.014456257 -0.0125208665
0.0047335257 -0.014695936 0.011397816 0.004416851 -0.0032232152 0.0117696 -0.0048091616 -0.013894512
-0.005046973 -0.0033067423 -0.011176887 0.011909669 -0.0063152225 -0.001626314 0.015462886 -0.00360397
-0.011304576 0.0029959807 0.00637492 -0.006979038 -0.0036518038 0.012935549 -0.0018407855 0.013646673
-0.015095414 -0.0055152853 -0.005099545 0.0046149027 0.0045766155 0.006240926 -0.014520559 0.013735142
0.0037451424 -0.010987925 -0.002277987 -0.005458185 0.014704062 -0.010715399 -0.011304279 0.0043915613
-0.0007928703 0.0072504883 -0.0092540905 0.0060522007 -0.007871113 -0.0060355673 -0.021698328 0.0041807
-0.0044868556 -0.005709458 0.022585215 -0.021573888 -0.0065659783 0.006363478 0.02324457 0.0066866907
-0.004272268 -0.022781605 0.0066700894 0.025966808 0.024143757 0.00842134 0.0050144996 -0.021803984
0.0067133037 -0.021965034 -0.020330928 0.020112917 0.022889411 0.022090448 -0.006475134 0.023226535
-0.020879393 -0.008790789 0.007625283 -0.021442695 0.005907955 0.019954784 0.0024090444 0.006660967
0.019762624 -0.020901745 -0.00022101635 0.0056495396 -0.02567782 0.004160472 0.020245885 -0.0039864588
00000000: 4159 f0bb 6e41 9a3a a7e8 20bc e428 8bbb
00000010: 0a77 85bc f2f0 ad3b 6dac edbb 5255 46bb
00000020: a291 7d3c 24ff 8ebc 9043 9fbb 7aa6 5f3b
00000030: e834 993c 7bf3 df3b da6b 00bc 4086 8dbc
00000040: cb2a 533b 773b 523c 2c9e 953c a6f3 cd3b
00000050: 928b 8f3b aada a3bc ef2c 733b 2579 9dbc
00000060: 60ae 88bc 16ec 9b3c 0557 893c cd03 853c
00000070: 93f7 86bb 4537 803c 1184 9dbc 1cef b5bb
00000080: e667 fb3b 59b2 93bc dedb ec3b 930d 9b3c
00000090: d6d6 8c3a 34e0 e13b f189 8f3c 9f67 8abc
000000a0: 7803 c7ba 54ce ae3b 3ae5 94bc efb7 903b
000000b0: 824e 913c 069d a3bb 7316 9ebb 8ee5 293b
000000c0: f63f fb3b 155e 96bc d87b f93b 718b 92bc
000000d0: 6809 773c aa9d 613b 96b9 af3b fdfc 82ba
000000e0: 4e7f 88bb 5b63 003b 1440 963c cf0d 6bbc
000000f0: 8225 d4bb 2789 913c 29e5 ba3b c177 aa3b
00000100: bb4f 82bc 3b62 a93c 23bf 993c d3b1 abbb
00000110: b8f8 ac3b 3e3b 55bb 8081 49bc fe18 e93b
00000120: fa27 87bc 98a2 0cbc 6302 d0bc 5814 3b3c
00000130: d69b 4dbc aefe 43bc e07a c83c 96b2 d1bc
00000140: dac7 4fbc 6691 f83b 18f1 cf3c f2ca 333c
00000150: 8f1a 2bbc cf3e c2bc 242b 343c f8dd a83c
00000160: 31b2 d13c aa1a 453c a8e0 063c 3342 cebc
00000170: c782 153c e6d6 cabc 69f3 d5bc 0d30 d43c
00000180: 1bd1 c83c de29 dc3c 97de 56bc be0e d13c
00000190: 300b cdbc edfe 35bc 7a6e 5c3c 53ca c7bc
000001a0: 5c9d 493c bcae dd3c 3ae0 e73b d66f 533c
000001b0: 45d0 da3c 1230 d0bc 7be0 b8bb 3f79 3d3c
000001c0: c0c5 b3bc bf7c 1e3c 9a9f dd3c 74b7 3bbc
000001d0: 5283 18bc 0ce1 b23a 8cf4 673c 9e80 c4bc
000001e0: 8221 603c 0b8d c4bc 217d aa3c d853 153c
000001f0: 52c2 3d3c 5aae 02bc 5a0c 3abc 8044 f93b
00000200: dae6 b93c a72e c2bc 9f97 25bc 4a4a cc3c
00000210: 7d8a 223c 4442 2f3c f315 a7bc 871e e03c
00000220: 5d9d d83c 07e2 5dbc af62 2f3c 2a49 cbbb
00000230: 4d93 cf3b f26c 34bb e9f0 173b 68dd c63b
00000240: b904 543c bd28 daba 6402 2d3b 30ca beb8
00000250: 2aaa 37bc d653 793c 74d8 aa3b 0a46 c6bb
00000260: a52d 67bc 0898 8cb9 c611 8c3b b1ba 433c
00000270: 6612 fcba 8de2 4ebc 39f0 50bc 1dfc 6fbb
00000280: bac5 feba 39e3 3e3c 244f 83bb 558b 503c
00000290: e9b1 3c3c 978e 25bc f0d9 6cbc 5224 4dbc
000002a0: b11b 9b3b 39c7 70bc e8bd 3a3c 3bbb 903b
000002b0: 943c 53bb 48d5 403c 2c96 9dbb cfa5 63bc
000002c0: 1461 a5bb eeb5 58bb 431f 37bc c620 433c
000002d0: edef cebb 0b2a d5ba 0b58 7d3c 9530 6cbb
000002e0: d436 39bc 3758 443b b4e4 d03b 6ab0 e4bb
000002f0: 1a53 6fbb a0ef 533c 8346 f1ba 4c96 5f3c
00000300: c152 77bc 91b9 b4bb 151a a7bb 9c38 973b
00000310: 6ff7 953b af80 cc3b a4e7 6dbc 5c09 613c
00000320: 1071 753b b306 34bc 484a 15bb 93da b2bb
00000330: 4ee9 703c a48f 2fbc 9535 39bc 16e7 8f3b
00000340: a0d8 4fba 8195 ed3b 789e 17bc 8a51 c63b
00000350: d7f5 00bc 02c6 c5bb b1c0 b1bc 41fe 883b
00000360: 7906 93bb 6816 bbbb a104 b93c b9bb b0bc
00000370: 6b27 d7bb b984 d03b 656b be3c 071c db3b
00000380: 62fe 8bbb 7da0 babc c490 da3b 58b8 d43c
00000390: 21c9 c53c a9f9 093c ac50 a43b 459e b2bc
000003a0: 46fb db3b 04f0 b3bc 0c8d a6bc d8c3 a43c
000003b0: 9382 bb3c 07f7 b43c 5c2d d4bb 9345 be3c
000003c0: 430b abbc 3e07 10bc 83dd f93b 97a8 afbc
000003d0: 8597 c13b 3778 a33c 0fe1 1d3b 3e44 da3b
000003e0: 3ae5 a13c 233a abbc a0c0 67b9 c61f b93b
000003f0: 4b5a d2bc 9254 883b b3da a53c d7a0 82bb

net.6.weight f4 [1, 70]
0.23363209 0.2333518 -0.23097977 0.22794098 -0.22883946 -0.23180607 0.22953866 -0.23260923
0.23385967 0.2286442 -0.22747111 0.23225814 -0.22874439 -0.22848111 0.241297 0.23022279
0.22790334 0.2287077 -0.22254528 -0.2336736 0.23275751 0.22773196 -0.23336567 -0.2328636
0.24003376 0.23253617 0.23351428 -0.22933884 -0.23508675 -0.23346712 -0.23246107 0.23932691
-0.22927761 -0.23030661 0.23099306 -0.2277115 0.23285 -0.22777691 0.23305434 0.2321051
-0.23210467 -0.22748657 -0.22814126 0.23328894 0.23256522 -0.22784367 -0.2289574 0.23312156
0.22817937 -0.23968837 -0.23356846 -0.23237719 0.23238434 -0.22994465 -0.23261344 0.22751664
-0.2325818 -0.23287746 -0.2294321 0.23257601 -0.23230264 0.23234557 0.22739628 -0.22751279
-0.23313753 -0.22736816 0.22907683 -0.22762077 0.22879466 0.23217644
00000000: 403d 6f3e c6f3 6e3e f685 6cbe 5c69 693e
00000010: e454 6abe 925e 6dbe 2f0c 6b3e 1d31 6ebe
00000020: e978 6f3e b521 6a3e 30ee 68be 14d5 6d3e
00000030: f83b 6abe f4f6 69be 9016 773e 86bf 6b3e
00000040: 7e5f 693e 5a32 6a3e e9e2 63be 2248 6fbe
00000050: fc57 6e3e 9132 693e 69f7 6ebe cc73 6ebe
00000060: 69cb 753e f61d 6e3e 5e1e 6f3e cdd7 6abe
00000070: 95ba 70be 0112 6fbe 460a 6ebe 1d12 753e
00000080: c0c7 6abe 7fd5 6bbe 7289 6c3e 342d 69be
00000090: 3b70 6e3e 5a3e 69be cca5 6e3e f6ac 6d3e
000000a0: d9ac 6dbe 3df2 68be dd9d 69be 4ce3 6e3e
000000b0: 9425 6e3e da4f 69be cf73 6abe 6bb7 6e3e
000000c0: daa7 693e de70 75be 922c 6fbe 49f4 6dbe
000000d0: 29f6 6d3e 9c76 6bbe 3832 6ebe 1ffa 683e
000000e0: ec29 6ebe 6e77 6ebe 40f0 6abe 6828 6e3e
000000f0: bee0 6dbe ffeb 6d3e 92da 683e 1df9 68be
00000100: 9bbb 6ebe 33d3 68be 1e93 6a3e 6b15 69be
00000110: 2649 6a3e a9bf 6d3e
