models/mlp_residual_seed_1011.pt (torch, 46131 bytes, 4 tensors)

net.0.weight f4 [70, 4]
000000 eb 11 a0 3d 68 ef d1 3d 58 8a 14 bd 21 ac ab bd
       0.078159176 0.10250741 -0.036264747 -0.0838244
000010 7a aa 8e 3d a9 ff ea 3d 27 d1 e5 bc 33 f8 bc bd
       0.069661096 0.114745446 -0.028053833 -0.09227028
000020 d3 db a8 bd 7c 1c c3 bd b2 3a 29 3d f6 56 95 3d
       -0.08245053 -0.09526917 0.04131574 0.07291977
000030 d6 39 8e bd 7b 5f e5 bd 6e 26 dc 3c 86 39 c4 3d
       -0.06944625 -0.11199852 0.026873793 0.09581284
000040 25 00 8e 3d 50 be e8 3d 57 e4 cf bc c0 d7 be bd
       0.06933621 0.11364424 -0.025377436 -0.09318495
000050 ed e2 9b bd a1 f6 d2 bd fc 37 09 3d d4 3d aa 3d
       -0.07611642 -0.10300947 0.033500656 0.08312574
000060 93 e2 8b bd 20 ff e4 bd db d5 ee 3c 69 ca c4 3d
       -0.06830325 -0.11181474 0.029154709 0.09608919
000070 e2 e5 8b bd a8 2c ec bd e5 a4 ef 3c d9 27 c7 3d
       -0.06830956 -0.11531955 0.029253433 0.09724397
000080 6f 38 9a bd ae ca d7 bd 51 cb 04 3d 90 1c ad 3d
       -0.07530295 -0.10536705 0.03242046 0.084527135
000090 9c de 97 3d 1c 3b d6 3d 36 92 fa bc 81 84 b9 bd
       0.07415506 0.10460493 -0.030587297 -0.09058476
0000a0 3c 12 91 3d 76 65 eb 3d 5f fd dc bc 38 83 c0 bd
       0.07083556 0.114939615 -0.026976286 -0.09400028
0000b0 0f 2d 9b bd 78 43 df bd 83 02 05 3d a0 cc ae 3d
       -0.075769536 -0.109015405 0.0324731 0.08535123
0000c0 a8 08 91 3d 5d 29 e6 3d 9d bc cd bc c0 45 bd bd
       0.07081729 0.11238358 -0.025114352 -0.092418194
0000d0 94 4d 9f bd 55 fe d5 bd 05 d6 0d 3d 71 27 ac 3d
       -0.07778469 -0.104489006 0.034627933 0.0840596
0000e0 ef c4 89 bd 2c 15 ec bd e7 e4 d5 3c 90 83 c0 3d
       -0.06727015 -0.11527476 0.026110126 0.094000936
0000f0 5d 1f 9d 3d e9 f4 dc 3d 19 71 00 bd 62 70 b0 bd
       0.07671998 0.107889004 -0.03135786 -0.08615185
000100 60 08 a6 bd 8d 03 d0 bd 75 5e 21 3d 6a de 9e 3d
       -0.08107066 -0.10156927 0.039396722 0.07757266
000110 17 e7 89 3d 17 f2 e7 3d 44 c6 f2 bc 0a bf c1 bd
       0.0673353 0.11325472 -0.029635556 -0.09460266
000120 51 34 a4 3d de 38 d1 3d 31 98 0a bd e3 0e a5 bd
       0.08017791 0.10215925 -0.033836547 -0.0805948
000130 b1 d1 9a 3d ab 95 e0 3d 11 b9 00 bd 0c 40 b0 bd
       0.07559527 0.10966047 -0.031426493 -0.08605966
000140 88 52 a4 3d 7f f0 ce 3d eb 89 07 bd bd 9e a1 bd
       0.08023554 0.10104465 -0.033090513 -0.07891605
000150 38 70 8c bd e3 d4 ec bd 19 57 c6 3c 60 46 c2 3d
       -0.068573415 -0.115640424 0.024211453 0.09486079
000160 91 4d 9f 3d ef ad da 3d d4 b8 f9 bc 3f a8 b0 bd
       0.077784665 0.106777065 -0.03048364 -0.086258404
000170 58 fc 8d bd 8b ea e4 bd 28 8e f0 3c 1c da c1 3d
       -0.069328964 -0.11177548 0.02936466 0.09465429
000180 aa cc 9f 3d 4a cf db 3d 31 81 08 bd d7 5d b3 bd
       0.078027084 0.107328966 -0.03332633 -0.08758133
000190 5f 5e a0 bd 9d eb d9 bd aa 6b 16 3d 11 26 a5 3d
       -0.078305 -0.10640643 0.03672377 0.08063901
0001a0 66 62 8b 3d b8 50 e7 3d bb af de bc 97 60 bc bd
       0.068058774 0.11294693 -0.027183404 -0.091981106
0001b0 76 f0 88 3d 6d c4 ea 3d 96 29 c4 bc ff c0 c4 bd
       0.06686489 0.114632465 -0.023945611 -0.096071236
0001c0 98 91 a4 3d 61 41 d0 3d ac b2 08 bd a0 22 a9 bd
       0.08035582 0.1016872 -0.03337352 -0.08258557
0001d0 28 e2 8c bd 67 b3 ee bd 45 fa da 3c e6 bc bf 3d
       -0.068790734 -0.11655312 0.026730666 0.093622014
0001e0 09 dc 87 bd f9 26 ef bd cb 02 ba 3c 29 7f c9 3d
       -0.06633765 -0.11677355 0.02270641 0.09838707
0001f0 cf cb 9d 3d 7a 6a d2 3d 0c db 0e bd 54 3c b3 bd
       0.07704889 0.10274215 -0.034876868 -0.08751741
000200 16 d5 9e 3d 38 b2 d1 3d ea 09 12 bd bf 49 ad bd
       0.07755487 0.10239071 -0.035653986 -0.084613316
000210 4a db 8a 3d a6 d6 e6 3d ce 86 ee bc d7 aa c1 bd
       0.06780107 0.1127141 -0.029117014 -0.09456413
000220 0f 1e 8e 3d 78 f1 e8 3d b4 5d c5 bc 5f b7 c2 bd
       0.06939327 0.113741815 -0.024092533 -0.095076315
000230 d5 aa 93 bd 90 4c de bd c9 ef e4 3c 8d 22 b6 3d
       -0.07210318 -0.10854447 0.02794637 0.08893309
000240 61 9b a0 bd 00 2e d5 bd ea a0 1b 3d d6 ec a5 3d
       -0.07842136 -0.104091644 0.037995256 0.081018135
000250 b2 57 9c bd e9 cb d1 bd c4 8f 0d 3d 42 6d ab 3d
       -0.07633914 -0.10243971 0.034560934 0.08370449
000260 0f 37 8b bd ab 8d e7 bd 29 a9 d0 3c b4 16 bb 3d
       -0.06797611 -0.11306318 0.025471287 0.0913519
000270 cf 19 a2 3d 90 ed d8 3d 48 90 0e bd 43 c9 a5 bd
       0.07915079 0.105921865 -0.034805566 -0.08095028
000280 bb 4c 9e bd da f3 d8 bd 24 57 ff 3c f6 1b ab 3d
       -0.07729479 -0.10593386 0.031169482 0.083549425
000290 4e 4d 99 bd c5 5b e0 bd f1 c2 05 3d c7 51 ae 3d
       -0.07485448 -0.10955004 0.032656614 0.085116915
0002a0 e9 ab 9e bd b4 54 d7 bd 16 05 f0 3c f6 1c b1 3d
       -0.07747633 -0.10514203 0.0292993 0.08648102
0002b0 5c fa 8a 3d cf 0c e3 3d 2b 11 f0 bc 9b f0 c1 bd
       0.067860335 0.110864274 -0.029305061 -0.0946972
0002c0 0d b6 99 3d 4b 26 df 3d 1e e2 0e bd b9 ab ac bd
       0.075054266 0.10895976 -0.03488361 -0.08431191
0002d0 8a 50 ad bd 2e 8e bd bd 48 a2 22 3d d9 63 90 3d
       -0.08462627 -0.09255634 0.039705545 0.070502944
0002e0 e8 0c 8b 3d 24 53 ea 3d 81 9e eb bc e6 bc bc bd
       0.06789571 0.11441639 -0.028762104 -0.09215717
0002f0 71 e6 8a 3d 99 47 e6 3d 5b bb d0 bc 56 e4 c4 bd
       0.067822345 0.11244125 -0.025479963 -0.09613864
000300 83 a8 90 3d 0a a8 e8 3d 15 5b f7 bc 45 13 bc bd
       0.07063391 0.11360176 -0.030194798 -0.09183363
000310 11 3a 89 bd d4 d8 e6 bd 64 f8 c7 3c ea f8 c2 3d
       -0.067005284 -0.112718254 0.024410434 0.09520133
000320 09 34 a0 bd 9c 3b da bd eb 44 fb 3c 97 79 ad 3d
       -0.07822425 -0.10655901 0.030672511 0.08470457
000330 a7 c2 8e 3d f6 92 ec 3d 6c be c7 bc c8 fe c3 bd
       0.06970721 0.11551468 -0.024382792 -0.0957008
000340 79 bd 8e bd 0c 0e ee bd 42 bd cb 3c 26 ff c2 3d
       -0.06969733 -0.11623773 0.024870519 0.09521322
000350 53 4b 8b 3d 2d 30 e7 3d f3 96 dd bc c9 3c c2 bd
       0.06801476 0.11288486 -0.027049517 -0.0948425
000360 35 05 8f 3d d5 93 ee 3d 32 62 c4 bc eb f7 c2 bd
       0.06983415 0.116492905 -0.023972604 -0.09519943
000370 07 b0 8f 3d 92 5f ec 3d f3 da db bc d2 63 c4 bd
       0.070159964 0.11541666 -0.026837802 -0.09589352
000380 20 ea 9e 3d ce df d8 3d d7 d6 04 bd 3e 7a ae bd
       0.077594995 0.10589562 -0.03243145 -0.085194096
000390 dc 99 a0 3d 68 8f d3 3d 41 ae 0f bd 73 d5 a5 bd
       0.07841846 0.10330087 -0.03507829 -0.08097353
0003a0 7b af 8b 3d e8 72 e9 3d 07 5d ea bc 48 31 c2 bd
       0.068205796 0.1139887 -0.028608812 -0.09482056
0003b0 24 ec 9f 3d db 20 dc 3d 5b e4 05 bd b9 8c aa bd
       0.07808712 0.10748454 -0.03268848 -0.08327622
0003c0 d2 2a 8c 3d e5 79 ea 3d 2d b9 e1 bc e6 9e c2 bd
       0.06844105 0.11449031 -0.027554119 -0.09502964
0003d0 33 d8 88 3d ad 1e e6 3d fc bc c7 bc 7d 11 c3 bd
       0.06681862 0.1123632 -0.024382107 -0.0952482
0003e0 b4 ce 9c 3d 1e 64 db 3d 02 fd 01 bd 41 37 b1 bd
       0.07656613 0.10712455 -0.031735428 -0.08653117
0003f0 85 8c a2 bd 17 6c d7 bd 32 a1 04 3d dc 68 ad 3d
       -0.07936958 -0.105186634 0.03238029 0.08467266

net.2.weight f4 [70, 70]
000000 3c 74 4c be 6c 56 5f be 7f 57 39 3e a7 06 61 3e
       -0.19966215 -0.21810311 0.18099783 0.21975194
000010 1b 4e 5e be cf 03 58 3e 19 26 5b 3e 62 26 50 3e
       -0.21709482 0.21095203 0.21401252 0.20327142
000020 2d 42 5e 3e 5e 88 61 be 40 03 63 be 12 f9 5e 3e
       0.21704932 -0.22024676 -0.22169209 0.217747
000030 40 9c 5f be f0 23 57 3e f1 b1 00 3e 47 58 57 be
       -0.21836948 0.21009803 0.1256788 -0.21029769
000040 d6 dd 3f 3e 8c ae 01 be f9 0f 45 be fd ec 60 be
       0.18736967 -0.1266424 -0.19244374 -0.21965404
000050 38 39 47 be d6 1c 52 3e 2d 06 58 be d9 aa 61 3e
       -0.19455421 0.20518813 -0.21096106 0.2203783
000060 7e 61 57 be 38 46 4f 3e 69 c7 51 be 7e 35 07 be
       -0.21033284 0.2024163 -0.20486225 -0.13204
000070 45 0d 46 be e0 32 59 3e b3 8f 08 3e 7c 75 55 be
       -0.19341 0.21210814 0.13336067 -0.20845598
000080 12 de 4f be 92 fc 44 be 97 d1 60 be b8 c6 61 3e
       -0.20299557 -0.19236973 -0.21954952 0.22048461
000090 97 81 50 3e 3b 8d 5a 3e 34 9a 4a 3e 96 b3 4f be
       0.20361935 0.21342938 0.19785386 -0.2028335
0000a0 bf 17 58 3e 71 f6 59 3e b9 bd 59 3e d5 11 54 be
       0.21102808 0.21285416 0.2126378 -0.20709927
0000b0 39 09 5f be be d6 25 3e 10 56 29 be 97 2e 3a be
       -0.21780862 0.16195199 -0.16536736 -0.18181835
0000c0 2f d0 5e be 80 53 fb 3d 56 5f 58 3e 62 ed 5e be
       -0.21759103 0.12271786 0.21130118 -0.21770242
0000d0 6a b9 5f 3e 87 58 4f be 57 e8 61 be 54 e1 60 be
       0.21848074 -0.20248614 -0.22061287 -0.21960956
0000e0 76 2f 55 be bf 96 50 be 7d 4e 52 be 40 ac 56 be
       -0.20818886 -0.20370005 -0.20537753 -0.20964146
0000f0 b4 fa 58 be c7 0b 03 be 1e ab 58 be c4 87 51 3e
       -0.21189386 -0.12797461 -0.21159026 0.20461947
000100 e3 15 5d 3e 46 e6 54 be f1 ed 60 be 96 2e 03 be
       0.2159038 -0.20790967 -0.21965767 -0.1281074
000110 75 d8 57 3e 4e 7d 5a 3e a7 02 4e 3e 68 6d 62 3e
       0.21078666 0.21336862 0.201182 0.22112048
000120 4d b7 3c be b7 d6 61 be 52 be 61 3e dc 4b 58 be
       -0.18429299 -0.22054563 0.22045258 -0.21122688
000130 cc 0d 5f be bf 79 52 be 37 ca 5c be 8c 27 61 3e
       -0.21782607 -0.20554255 -0.21561514 0.21987742
000140 86 f5 60 3e b5 b7 5c be 8c dd 60 3e 08 56 55 be
       0.2196866 -0.21554454 0.21959513 -0.208336
000150 31 ac 03 be 5a 10 59 3e 34 4b 3e be 85 aa 03 3e
       -0.12858655 0.21197644 -0.18583375 0.12858017
000160 39 f4 48 3e fe b4 5e 3e ae de 47 3e 57 c7 53 be
       0.19624414 0.2174873 0.1951854 -0.20681511
000170 b7 6c 59 3e af 2c 63 be ca 3e 56 3e d0 fc 4f be
       0.21232878 -0.22185014 0.2092239 -0.20311284
000180 71 dc 50 3e cf 98 08 3e 57 f1 45 3e 64 07 5a be
       0.20396592 0.13339542 0.19330345 -0.21291882
000190 15 d7 0a be 04 96 55 3e 6f ab 51 3e 71 77 46 3e
       -0.1355861 0.20858008 0.20475553 0.19381501
0001a0 bd 6e 60 3e 7e 69 63 be 3c 1f 4f be 06 8c 56 be
       0.21917243 -0.22208211 -0.20226759 -0.20951852
0001b0 fa 6a 4c be cd 4d 4e 3e 97 7e 59 be 0b 4a 5c be
       -0.19962683 0.20146866 -0.21239696 -0.2151262
0001c0 a2 9f 59 be 3f 25 58 3e 9e b5 64 3e 90 92 26 be
       -0.21252301 0.21107958 0.22334906 -0.16266847
0001d0 56 46 2b 3e 7f 9a 3c 3e d6 3c 60 3e c4 00 03 be
       0.1672605 0.1841831 0.21898207 -0.12793261
0001e0 6a 31 56 be 34 57 5f 3e f4 e0 64 be e8 34 50 3e
       -0.20917287 0.21810609 -0.22351438 0.20332682
0001f0 7d e4 60 3e bc 0e 63 3e 30 e2 52 3e d7 97 4e 3e
       0.21962161 0.2217359 0.20594096 0.2017511
000200 91 bd 52 3e 29 de 55 3e 8a 01 5b 3e 57 49 05 3e
       0.20580126 0.20885529 0.21387306 0.13016258
000210 3a f2 58 3e da 4a 51 be 13 bc 5a be 42 4d 57 3e
       0.21186152 -0.2043871 -0.21360807 0.21025565
000220 e7 e6 62 3e ec c0 01 3e 14 4f 5c be c9 e8 5b be
       0.22158395 0.1267125 -0.21514541 -0.21475519
000230 84 76 50 be 17 69 60 be d0 2c 3a 3e ec 2d 62 3e
       -0.2035771 -0.21915089 0.18181157 0.2208783
000240 2b 49 61 be c0 e2 5c 3e 97 29 5c 3e ef 6c 4e 3e
       -0.22000568 0.21570873 0.2150024 0.20158742
000250 3d 3e 60 3e e0 80 60 be 54 9e 63 be f4 2c 5f 3e
       0.21898742 -0.21924162 -0.22228366 0.21794492
000260 f0 12 60 be 80 37 58 3e 2d dd 01 3e cf bf 57 be
       -0.21882224 0.21114922 0.12682028 -0.21069263
000270 e6 31 42 3e 93 cd 01 be a2 0e 49 be 50 d0 60 be
       0.18964347 -0.12676077 -0.19634488 -0.21954465
000280 fc 71 4b be d8 d3 53 3e 08 e8 59 be 5c 49 60 3e
       -0.198677 0.2068628 -0.21279919 0.21902984
000290 70 72 56 be 0a 37 52 3e cb 2f 52 be 78 d6 05 be
       -0.20942092 0.20528808 -0.20526044 -0.13070095
0002a0 5b ee 46 be 85 53 59 3e 5e 7f 07 3e 50 51 58 be
       -0.19426863 0.21223266 0.1323218 -0.21124768
0002b0 6d fd 54 be 11 4a 44 be a8 df 5d be 26 12 62 3e
       -0.207998 -0.19168879 -0.2166735 0.22077236
0002c0 e6 f0 50 3e 51 24 59 3e 9b 99 49 3e 55 30 50 be
       0.20404395 0.2120526 0.19687502 -0.20330937
0002d0 75 fa 58 3e d7 eb 5a 3e 79 d7 58 3e 9e 68 57 be
       0.21189292 0.21379028 0.21175946 -0.21036002
0002e0 e8 0e 60 be 2c b9 2a 3e d0 a1 28 be a5 b8 3b be
       -0.21880686 0.166722 -0.16467977 -0.18332155
0002f0 f4 97 5f be cd 53 01 3e 7f f1 56 3e a3 67 5f be
       -0.2183531 0.12629624 0.20990561 -0.21816878
000300 53 8a 5e 3e b5 78 4c be 9a 82 60 be b3 bc 60 be
       0.21732454 -0.19967921 -0.2192482 -0.21946983
000310 d4 77 52 be 2f d2 50 be 6e 0b 51 be bf 0f 57 be
       -0.20553523 -0.20392679 -0.20414516 -0.210021
000320 74 03 57 be ee cb fe bd 05 79 57 be 25 f4 51 3e
       -0.20997411 -0.1244124 -0.21042259 0.2050329
000330 96 c1 5a 3e a8 78 53 be f0 05 62 be 8f 14 01 be
       0.2136291 -0.20651495 -0.22072577 -0.12605499
000340 0a 32 58 3e bd de 5d 3e 7a ea 4f 3e ef 3b 63 3e
       0.21112838 0.21666999 0.2030429 0.22190832
000350 f8 18 3c be cf bf 61 be a0 fa 60 3e 2b c9 59 be
       -0.183689 -0.22045825 0.21970606 -0.21268146
000360 9c d3 5f be 2d 1e 53 be 06 e2 5d be 7d e2 61 3e
       -0.21858066 -0.2061698 -0.21668252 0.22059055
000370 1f ac 62 3e 6e ea 5a be c1 92 5f 3e 07 28 56 be
       0.22135971 -0.2137849 0.21833326 -0.20913707
000380 8f 24 04 be 55 4f 59 3e 10 de 3d be cc de 03 3e
       -0.12904571 0.21221669 -0.18541741 0.12877959
000390 4e 4f 46 3e c3 4c 5e 3e 9b 89 47 3e a3 f3 56 be
       0.1936619 0.2170897 0.19486086 -0.20991378
0003a0 e2 2e 58 3e 2b 9a 62 be 2c 46 57 3e 07 b8 52 be
       0.21111634 -0.22129123 0.21022862 -0.20578013
0003b0 26 b6 50 3e aa b5 05 3e 29 8a 44 3e e8 4e 58 be
       0.20381984 0.1305758 0.19193329 -0.2112385
0003c0 b1 16 0b be 86 6b 54 3e b5 2a 51 3e ff 26 48 3e
       -0.13582875 0.20744142 0.20426448 0.19546126
0003d0 a1 e2 61 3e bb 49 65 be 8f 7e 4c be 2a 5c 5a be
       0.22059108 -0.22391407 -0.19970153 -0.2132422
0003e0 51 77 4c be 5a c9 50 3e 2c 3c 59 be f8 e6 5a be
       -0.1996739 0.2038931 -0.2121436 -0.2137717
0003f0 b2 84 57 be 87 38 57 3e e1 23 61 3e 34 36 26 be
       -0.21046713 0.21017657 0.21986343 -0.16231614

net.4.weight f4 [70, 70]
000000 94 21 58 be af b4 59 3e 83 4a 5e be a5 ee 59 3e
       -0.21106559 0.21260332 -0.21708111 0.21282442
000010 82 e8 57 3e 6e 02 5d 3e 5a c9 5a 3e 23 0a 4a 3e
       0.21084788 0.21582958 0.21365872 0.1973043
000020 5e 24 62 3e 22 cd 5a 3e 2c 50 63 be 99 17 5b be
       0.22084185 0.21367314 -0.22198552 -0.2139572
000030 09 6e 64 be 79 fb 5b 3e 2c ef 5a be 82 bf 64 3e
       -0.223076 0.21482648 -0.213803 0.2233868
000040 98 e6 45 3e 73 4b 65 be 35 de 62 be fd 04 63 3e
       0.19326246 -0.22392063 -0.22155078 0.22169872
000050 42 cc 59 3e 21 f2 5b be e0 4f 5c 3e 41 f5 5c 3e
       0.21269324 -0.21479084 0.21514845 0.21577932
000060 eb f2 56 3e 23 41 4d 3e 48 d5 63 be 9c 5c 66 be
       0.20991103 0.20044379 -0.22249329 -0.22496265
000070 bf f7 63 3e d9 c2 62 be 73 b1 5a be d1 b2 5c 3e
       0.22262476 -0.22144641 -0.21356754 0.21552588
000080 41 61 5a 3e a2 fa 59 be 35 ba 62 3e 06 bb 5a 3e
       0.21326162 -0.21287015 0.22141345 0.21360406
000090 c1 3b 62 be b3 9f 62 be a5 b5 65 3e 2e 0a 5a 3e
       -0.22093107 -0.22131233 0.22432573 0.21292946
0000a0 69 47 58 be 6d 5c 65 3e 50 7f 5a 3e f9 97 5a 3e
       -0.21120991 0.22398539 0.21337628 0.21347035
0000b0 e3 f2 5d 3e 44 9e 5a 3e f6 ad 5c 3e 30 06 4b be
       0.21674685 0.21349436 0.21550736 -0.19826579
0000c0 3c 16 5b 3e 88 db 5b 3e bf f8 5c be 1b 9a 5c 3e
       0.213952 0.21470463 -0.21579264 0.21543162
0000d0 43 16 5b be eb c1 5b 3e 5b d9 62 3e b0 09 64 be
       -0.21395211 0.21460693 0.22153227 -0.2226932
0000e0 23 cd 57 be 18 99 60 be 93 3c 56 3e 56 04 5b 3e
       -0.21074347 -0.219334 0.20921545 0.21388373
0000f0 7f d1 5a be 4a 5e 4d 3e e1 87 64 be cd 38 58 3e
       -0.21368979 0.200555 -0.22317459 0.21115418
000100 31 24 49 3e a8 82 5c be ae 21 61 be 61 66 62 3e
       0.19642712 -0.21534216 -0.21985504 0.22109367
000110 6d cb 61 3e 7e 1c 5d 3e 08 bb 57 be 53 c6 5a 3e
       0.22050257 0.215929 -0.2106744 0.21364717
000120 0f 51 5d be e8 fe 5c 3e 00 60 5b 3e 09 79 5d 3e
       -0.21612953 0.21581614 0.2142334 0.21628202
000130 6f ed 5a 3e dd 9c 4b 3e c8 e6 61 3e 33 ea 59 3e
       0.21379636 0.19884057 0.22060692 0.21280746
000140 ad d2 65 be e6 d3 59 be e9 4b 63 be 5d fe 59 3e
       -0.22443648 -0.21272239 -0.22196926 0.21288438
000150 b5 7d 59 be cf 96 65 3e f7 34 46 3e 5e 4f 64 be
       -0.2123936 0.2242081 0.19356142 -0.22295901
000160 03 38 63 be e4 24 66 3e 28 cf 58 3e a0 81 5c be
       -0.22189336 0.2247501 0.21172774 -0.21533823
000170 59 65 5b 3e 5c 83 5c 3e 61 ba 56 3e b7 f5 4c 3e
       0.2142538 0.21534485 0.20969535 0.20015608
000180 a9 d8 63 be 7e 54 64 be bb fd 63 3e f8 e0 63 be
       -0.22250618 -0.22297856 0.22264759 -0.22253788
000190 da bd 5c be 97 75 5d 3e c7 bd 5c 3e 15 24 5b be
       -0.21556798 0.21626888 0.2155677 -0.21400483
0001a0 45 0e 63 3e 41 60 5b 3e 5e e2 61 be 03 4c 63 be
       0.22173412 0.21423437 -0.22059008 -0.22196965
0001b0 9e 39 63 3e 18 47 5b 3e 84 57 5c be 95 10 62 3e
       0.22189948 0.21413839 -0.2151776 0.22076638
0001c0 d6 ca 5a 3e c7 5d 5d 3e 1a 6e 5d 3e a7 55 5c 3e
       0.21366438 0.21617804 0.21624032 0.21517049
0001d0 5b 00 5c 3e 46 10 4b be 8c a8 58 3e c0 ff 5b 3e
       0.2148451 -0.19830427 0.21158046 0.2148428
0001e0 8d d9 59 be 96 6c 59 3e 69 f0 5c be 66 56 5b 3e
       -0.21274395 0.21232828 -0.21576084 0.21419677
0001f0 48 c9 62 3e 56 af 62 be 46 84 58 be f3 76 64 be
       0.22147095 -0.22137198 -0.21144208 -0.22311
000200 cd 65 59 3e 0a de 57 3e 85 e6 5b be 47 5d 50 3e
       0.2123024 0.21080795 -0.21474655 0.20348082
000210 bb 21 64 be 31 35 5a 3e c6 6f 46 3e 93 ca 5a be
       -0.22278492 0.21309353 0.19378576 -0.21366338
000220 0d 82 62 be f2 90 65 3e 83 eb 5f 3e cf e9 5c 3e
       -0.22119923 0.22418573 0.21867184 0.21573566
000230 5a 5b 63 be bb 60 65 3e 87 82 65 be 47 57 66 3e
       -0.22202817 0.22400181 -0.22413073 0.22494231
000240 59 97 61 3e 11 af 65 3e ba a1 4b 3e 88 e4 57 3e
       0.22030391 0.22430064 0.19885913 0.21083272
000250 8e b4 5c 3e c0 52 61 3e e1 72 59 be 10 60 66 be
       0.21553251 0.22004223 -0.21235229 -0.22497582
000260 3d 66 57 be 59 13 66 3e fc 9c 5f be fd 0f 5d 3e
       -0.21035095 0.22468318 -0.21837229 0.2158813
000270 ee ed 53 3e 50 2c 56 be 81 df 5b be 02 59 59 3e
       0.20696232 -0.20915341 -0.21471979 0.2122536
000280 41 19 61 3e e4 80 65 be 28 33 63 3e 7f 67 66 3e
       0.2198229 -0.22412449 0.22187483 0.22500418
000290 4b 19 62 3e 45 68 5b 3e 88 dd 5c be d5 79 58 be
       0.22079961 0.21426494 -0.21568882 -0.21140225
0002a0 aa 51 58 3e 51 f4 55 be 48 96 66 be 82 89 63 3e
       0.21124902 -0.2089398 -0.22518265 0.22220424
0002b0 f9 4f 66 3e b9 2c 66 be fd 42 59 3e 20 de 66 3e
       0.22491445 -0.22477998 0.2121696 0.22545671
0002c0 26 9a 57 be 88 39 58 be a7 aa 59 3e 0e 1e 64 3e
       -0.21054897 -0.21115696 0.21256505 0.2227709
0002d0 fd 4a 63 be 1a 30 5a 3e 72 63 52 3e ac 06 65 3e
       -0.22196575 0.21307412 0.20545748 0.22365826
0002e0 0e a5 52 3e b4 85 66 3e e1 84 62 3e 80 86 56 be
       0.20570776 0.22511941 0.22121002 -0.20949745
0002f0 9c 71 63 3e 3b 21 56 3e 0f 7c 66 be 6e 3f 65 3e
       0.22211307 0.20911114 -0.22508262 0.22387478
000300 63 05 63 be 9e db 65 3e be 0d 5a 3e 70 8c 5c be
       -0.22170024 0.22447059 0.21294305 -0.21537948
000310 41 90 4d be d9 cb 56 be 57 29 5f 3e 11 c7 5f 3e
       -0.2007456 -0.20976199 0.21793114 0.21853282
000320 e1 11 66 be b4 c9 5b 3e 69 36 59 be 8f 59 61 3e
       -0.22467758 0.21463662 -0.21212162 0.2200682
000330 08 b7 51 3e 0a ca 65 be 64 02 59 be c9 05 5c 3e
       0.20479977 -0.22440353 -0.21192318 0.21486582
000340 07 86 64 3e e0 0a 64 3e 2b a3 5e 3e 29 67 5d be
       0.22316752 0.22269773 0.21741931 -0.21621384
000350 4f a2 5c 3e f2 50 5f be c5 be 5f be 19 6d 5e be
       0.21546291 -0.21808222 -0.21850117 -0.21721305
000360 06 65 47 be 76 c2 5f be 0e dd 53 be e2 06 5e be
       -0.19472131 -0.21851525 -0.20689794 -0.21682313
000370 a6 26 50 3e b9 56 5f 3e 36 bb 50 3e af 4f 62 be
       0.20327243 0.21810426 0.20383915 -0.2210071
000380 4e 37 61 3e 91 fb 52 be 3f 67 5a be 6d 17 4e 3e
       0.21993753 -0.20603777 -0.21328448 0.20126124
000390 81 46 56 3e 62 27 51 be 93 ae 61 be 22 59 5d 3e
       0.20925333 -0.2042518 -0.22039251 0.21616033
0003a0 35 84 5d be a2 89 60 be 67 38 61 be ea 9d 61 be
       -0.21632464 -0.21927503 -0.21994172 -0.22032896
0003b0 7e 06 4f 3e 1f 77 50 3e f7 37 4f be 6d 89 50 3e
       0.2021732 0.20357941 -0.20236193 0.20364924
0003c0 b0 8d 5d 3e 24 93 60 be 33 21 61 be c1 cf 60 3e
       0.2163608 -0.2193113 -0.21985321 0.21954252
0003d0 55 a8 50 be 83 8d 5d be 9b c6 51 3e 83 b7 50 3e
       -0.20376714 -0.21636014 0.20485918 0.20382504
0003e0 d3 33 50 be 46 8e 60 be 2c 3a 62 3e b0 31 53 be
       -0.2033227 -0.21929273 0.22092503 -0.20624423
0003f0 3a 61 49 be 10 28 5e be 8e 04 48 be 5d d3 60 be
       -0.19665995 -0.2169497 -0.19532987 -0.21955629

net.6.weight f4 [1, 70]
000000 da 83 86 be ba 97 86 be a5 04 8c be 81 36 86 3e
       -0.2627247 -0.26287633 -0.27347293 0.26213458
000010 c4 d8 8a 3e cd d1 86 3e 7a f5 8a 3e bd ca 8a be
       0.27118504 0.2633194 0.2714041 -0.27107802
000020 e8 30 8c 3e f8 b4 8a 3e be e1 8a 3e c8 e8 86 be
       0.27381063 0.27091193 0.27125353 -0.26349473
000030 d0 7b 8a be dd ec 86 3e 14 db 8b 3e 46 49 86 3e
       -0.27047586 0.26352587 0.2731558 0.26227778
000040 d2 e3 85 be fd 04 87 3e d0 3e 89 3e 55 ab 78 3e
       -0.26150376 0.26370993 0.26805735 0.24284108
000050 46 b0 86 be f5 0b 8c be 7d 1c 8c 3e ad 96 7e be
       -0.2630636 -0.27352872 0.27365485 -0.24862166
000060 30 91 86 3e 90 e0 85 3e f3 31 87 3e 6d a4 8b be
       0.26282644 0.2614789 0.26405296 -0.27273884
000070 d7 a5 85 be cf cc 85 be 81 96 87 3e 3b 54 86 3e
       -0.26103088 -0.2613282 0.26482013 0.26236138
000080 09 63 8b 3e 95 61 82 3e b0 ce 8a 3e cf c0 86 3e
       0.27223995 0.25465074 0.27110815 0.26318976
000090 1a 50 86 3e e5 bc 8b 3e c9 44 8b 3e 7a cd 86 3e
       0.26232988 0.27292553 0.27200916 0.2632864
0000a0 20 6f 8b 3e f6 3f 86 be 3b ac 8b be 33 63 8b be
       0.2723322 -0.26220673 -0.2727984 -0.2722412
0000b0 75 e3 8b 3e d8 4f 87 3e 2b a1 86 3e d2 32 8b 3e
       0.27321973 0.26428103 0.26294836 0.2718721
0000c0 83 89 8a 3e e6 95 8a be 54 b5 85 3e b8 d5 86 3e
       0.27058038 -0.27067488 0.26114905 0.2633493
0000d0 58 75 83 be 95 c7 8a be 8b 5e 8b be 47 0b 8c 3e
       -0.25675464 -0.27105394 -0.27220568 0.27352354
0000e0 98 93 85 3e 99 d5 86 be 1d b8 8b 3e c6 f2 8b 3e
       0.26089168 -0.26334837 0.27288905 0.2733366
0000f0 7d 3a 86 be 62 e5 89 be 87 17 81 3e 23 a6 8b 3e
       -0.26216498 -0.26932818 0.25213262 0.2727519
000100 b1 85 86 3e 43 14 86 be 45 dc 85 3e d2 42 86 be
       0.26273873 -0.26187333 0.26144615 -0.26222855
000110 aa 13 8b 3e 8b d1 8b be
       0.2716344 -0.27308306
