models/mlp_residual_seed_456.pt (torch, 46057 bytes, 4 tensors)

net.0.weight f4 [70, 4]
0	0x3d713a02	0.05889321
1	0x3e02c2ef	0.12769674
2	0xbd12e34d	-0.035861302
3	0xbd6d2b27	-0.05790248
4	0x3d79592e	0.060876064
5	0x3e0210aa	0.1270167
6	0xbd0eb881	-0.034843925
7	0xbd68ef94	-0.056869105
8	0x3d8bb4df	0.06821608
9	0x3decde53	0.115658425
10	0xbd324d83	-0.043530952
11	0xbd861a1d	-0.065479495
12	0x3d8e8b18	0.06960124
13	0x3deef163	0.116671346
14	0xbd2d4f31	-0.04231185
15	0xbd870da5	-0.06594399
16	0x3d90ff70	0.07079971
17	0x3df198c9	0.117967196
18	0xbd38780e	-0.045036368
19	0xbd63dcf1	-0.055630628
20	0x3d7874e2	0.060658343
21	0x3e045550	0.12923169
22	0xbd0f5b4d	-0.03499918
23	0xbd671a97	-0.056421842
24	0xbd879001	-0.066192634
25	0xbdf91a7b	-0.12163254
26	0x3d27e9b5	0.040994365
27	0x3d82a97f	0.06379985
28	0xbd759cc6	-0.059963964
29	0xbe047679	-0.12935819
30	0x3d107c55	0.035274822
31	0x3d74e5a4	0.059789315
32	0xbd904f9c	-0.07046434
33	0xbdee1790	-0.11625588
34	0x3d3b3803	0.045707714
35	0x3d729cc6	0.059231542
36	0xbd90eab2	-0.070760146
37	0xbdef4158	-0.11682385
38	0x3d34c8ab	0.044136684
39	0x3d887625	0.06663159
40	0xbd8c6a1d	-0.06856177
41	0xbdf501ef	-0.119632594
42	0x3d2fe689	0.042944465
43	0x3d85f3a7	0.065406136
44	0x3d7510cc	0.059830472
45	0x3e005bbe	0.12534997
46	0xbd1c4452	-0.038151093
47	0xbd7644b7	-0.060124125
48	0x3d916833	0.070999525
49	0x3df23ee0	0.11828399
50	0xbd413079	-0.047165368
51	0xbd6c5154	-0.057694748
52	0x3d936bec	0.07198319
53	0x3de47da7	0.11156779
54	0xbd3dd1eb	-0.04634277
55	0xbd735460	-0.05940664
56	0xbd70eed3	-0.05882151
57	0xbe03e96b	-0.1288201
58	0x3d140f10	0.036147177
59	0x3d6c14f8	0.057637185
60	0xbd99da37	-0.07512324
61	0xbdd92715	-0.106031574
62	0x3d4c26b2	0.04984159
63	0x3d6628d1	0.05619127
64	0xbd7bcbda	-0.061473705
65	0xbe035e98	-0.12829053
66	0x3d15126c	0.03639452
67	0x3d77b3e4	0.06047429
68	0x3d8c7098	0.06857413
69	0x3dec136c	0.11527142
70	0xbd3b23be	-0.045688383
71	0xbd88fe6c	-0.06689152
72	0x3d9a2b31	0.07527769
73	0x3dcb742a	0.09934266
74	0xbd4d53ac	-0.050128624
75	0xbd5c8a9e	-0.053843133
76	0x3d89263e	0.06696747
77	0x3dfd0874	0.12355128
78	0xbd27d40a	-0.0409737
79	0xbd7616fe	-0.06008052
80	0x3d71dcf4	0.059048608
81	0x3e01ad7c	0.12663835
82	0xbd0acfe6	-0.033889674
83	0xbd75858a	-0.059941806
84	0x3d768dbb	0.06019376
85	0x3e000908	0.12503445
86	0xbd10a7b6	-0.03531619
87	0xbd69a5f7	-0.057043042
88	0x3d7a3519	0.061085794
89	0x3e0378ab	0.12839
90	0xbd0f36b5	-0.034964282
91	0xbd6c5c2c	-0.05770509
92	0xbd8b574f	-0.06803762
93	0xbd9272af	-0.071507804
94	0x3d5348e4	0.051583186
95	0x3cf9761b	0.030451825
96	0x3d7280c5	0.059204835
97	0x3dfe0b55	0.12404505
98	0xbd02b203	-0.031908046
99	0xbd76cce3	-0.06025399
100	0xbd98129f	-0.07425427
101	0xbde26b2e	-0.11055599
102	0x3d4da630	0.050207317
103	0x3d5d042b	0.053959053
104	0x3d779c72	0.060451932
105	0x3e020530	0.12697291
106	0xbd02ade7	-0.031904127
107	0xbd76b9f5	-0.060235936
108	0x3d78f7ac	0.060783073
109	0x3dff05d5	0.12452284
110	0xbd1cec0a	-0.038311042
111	0xbd6e2b61	-0.058146838
112	0x3d8e26ac	0.0694097
113	0x3deb5b8e	0.11492072
114	0xbd30e6d0	-0.04318887
115	0xbd843b8f	-0.064566724
116	0xbd75e84a	-0.06003598
117	0xbe037158	-0.12836206
118	0x3d013a66	0.031549834
119	0x3d753ae7	0.059870627
120	0xbd7ada5a	-0.061243393
121	0xbdf98757	-0.12184017
122	0x3d1f1208	0.038835555
123	0x3d748f63	0.059707057
124	0xbd76f55e	-0.060292594
125	0xbe007037	-0.12542807
126	0x3d15c931	0.036568824
127	0x3d723f78	0.05914256
128	0x3d79ee56	0.06101831
129	0x3e032d6a	0.12810293
130	0xbd026220	-0.03183186
131	0xbd73d495	-0.059528906
132	0x3d732cb2	0.059368797
133	0x3e00713b	0.12543194
134	0xbd08fde7	-0.033445265
135	0xbd697b1f	-0.057002183
136	0x3d83d5a1	0.06437231
137	0x3dfafa90	0.12254822
138	0xbd21b1b4	-0.03947611
139	0xbd74fc4f	-0.059810933
140	0x3d6f1b6b	0.058375757
141	0x3e03e62d	0.12880774
142	0xbd0ba243	-0.03409029
143	0xbd70eca0	-0.058819413
144	0xbd8cdc33	-0.06877937
145	0xbdf3755b	-0.11887618
146	0x3d283352	0.041064568
147	0x3d79f85d	0.061027873
148	0xbd77a809	-0.060462985
149	0xbe01e8ef	-0.12686513
150	0x3d06c2b7	0.03290054
151	0x3d7df6df	0.062003013
152	0x3d797b5c	0.06090866
153	0x3e01f366	0.12690505
154	0xbd14beb6	-0.03631469
155	0xbd77cf1b	-0.060500246
156	0xbd7a4884	-0.061104313
157	0xbe044381	-0.12916376
158	0x3d080d64	0.033215895
159	0x3d777780	0.0604167
160	0x3d74bcac	0.059750244
161	0x3e001a66	0.1251007
162	0xbd1cb8cf	-0.038262185
163	0xbd6b8c39	-0.057506774
164	0x3d6fb94c	0.058526322
165	0x3e02be88	0.12767994
166	0xbd12fedc	-0.035887584
167	0xbd78935f	-0.06068742
168	0xbd91a318	-0.07111186
169	0xbdf350da	-0.118806556
170	0x3d4681b8	0.048463553
171	0x3d64cd15	0.055859644
172	0x3d9901ef	0.07471072
173	0x3dcf4f0a	0.101224974
174	0xbd5049fb	-0.050851803
175	0xbd64ee4f	-0.05589133
176	0x3d91b1ab	0.071139656
177	0x3deaaa4e	0.11458264
178	0xbd34c8cd	-0.04413681
179	0xbd833b88	-0.06407839
180	0xbd78e2b4	-0.060763076
181	0xbdffc6c4	-0.124890834
182	0x3d192715	0.037390787
183	0x3d67ef8c	0.056624934
184	0x3d83a99c	0.06428835
185	0x3e01244d	0.12611504
186	0xbd0e4e14	-0.03474243
187	0xbd787a03	-0.060663234
188	0xbd7074d0	-0.05870515
189	0xbe010068	-0.12597811
190	0x3d1112a9	0.035418186
191	0x3d73ec53	0.05955155
192	0x3d917c22	0.071037546
193	0x3df579b3	0.11986103
194	0xbd401ab0	-0.04690045
195	0xbd6d2330	-0.057894886
196	0xbd721cff	-0.059109684
197	0xbe01ee3e	-0.12688538
198	0x3d0a1807	0.03371432
199	0x3d6ba5f9	0.05753133
200	0xbd9948f4	-0.07484618
201	0xbdd5f43a	-0.10446973
202	0x3d519816	0.05117043
203	0x3d6f65e6	0.058446787
204	0x3d8c6099	0.06854362
205	0x3df4df31	0.11956633
206	0xbd260f40	-0.040541887
207	0xbd82f5c9	-0.06394536
208	0x3d97191b	0.07377835
209	0x3dc6cde2	0.09707238
210	0xbd4c0228	-0.049806744
211	0xbd54fa6b	-0.05199663
212	0xbd91c241	-0.07117129
213	0xbdf10201	-0.1176796
214	0x3d2d880f	0.042366084
215	0x3d694ed0	0.056959927
216	0xbd721f05	-0.059111614
217	0xbe01b9e9	-0.12668575
218	0x3d0a2026	0.033722065
219	0x3d68c045	0.056823988
220	0xbd8df955	-0.06932322
221	0xbdf54f60	-0.1197803
222	0x3d25aa10	0.040445387
223	0x3d851cd6	0.06499641
224	0x3d7351b5	0.059404094
225	0x3dff5514	0.12467399
226	0xbd0480d7	-0.032349434
227	0xbd7ae715	-0.061255533
228	0x3d735617	0.059408274
229	0x3e03eaa2	0.12882474
230	0xbd118e08	-0.035535842
231	0xbd68adce	-0.056806378
232	0xbd7a3fc4	-0.061095968
233	0xbe02fee7	-0.1279255
234	0x3d0f9c56	0.035061203
235	0x3d689c9e	0.056789987
236	0x3d8c4280	0.06848621
237	0x3df34906	0.118791625
238	0xbd28a4c2	-0.04117275
239	0xbd82d189	-0.06387622
240	0xbd70e33d	-0.05881046
241	0xbe01d797	-0.12679897
242	0x3d1aef5a	0.03782592
243	0x3d6d22bd	0.057894457
244	0x3d8f117b	0.06985756
245	0x3df3e865	0.1190956
246	0xbd2ed227	-0.042680886
247	0xbd634275	-0.0554833
248	0xbd906f20	-0.070524454
249	0xbdf3b320	-0.118994
250	0x3d4125e4	0.047155276
251	0x3d6a7d9e	0.057248704
252	0x3d7372bc	0.05943559
253	0x3e008cdc	0.12553734
254	0xbd055329	-0.03255001
255	0xbd71d3d5	-0.05903991

net.2.weight f4 [70, 70]
0	0x3e28d227	0.16486417
1	0x3e28af0f	0.1647303
2	0x3e3ecc20	0.18632555
3	0x3e441662	0.19149163
4	0x3e2d8dfd	0.16948695
5	0x3e29ca20	0.16581011
6	0xbe45815a	-0.19287625
7	0xbe32e18e	-0.17468855
8	0xbe343423	-0.17598014
9	0xbe4351eb	-0.19074218
10	0xbe47c381	-0.19508173
11	0x3e2b944f	0.16755794
12	0x3e32300d	0.17401142
13	0x3e2f8271	0.17139603
14	0xbe2ade18	-0.16686285
15	0xbe1c6cf1	-0.15275933
16	0xbe36d4bf	-0.17854594
17	0x3e43b13a	0.19110575
18	0x3e096c7a	0.13420287
19	0x3e3de667	0.18544923
20	0x3e2c3532	0.16817167
21	0x3e255119	0.16144218
22	0x3e2d8b1f	0.16947602
23	0xbdbf2b07	-0.09334379
24	0x3e288456	0.16456732
25	0xbe2402bb	-0.16016667
26	0x3e2e0c1a	0.16996804
27	0x3e25dc28	0.16197264
28	0x3e404eb1	0.18780018
29	0xbe2f1098	-0.17096174
30	0xbe29c0ad	-0.16577406
31	0xbe2c7718	-0.16842306
32	0x3e313828	0.17306578
33	0x3e225c45	0.1585551
34	0x3e339fdc	0.1754145
35	0x3e2a49f3	0.16629772
36	0xbe3c61a6	-0.18396625
37	0xbe2f4d73	-0.17119388
38	0x3e30cfd0	0.17266774
39	0xbe329e34	-0.17443162
40	0x3e254f57	0.16143547
41	0x3e2b0856	0.16702399
42	0xbe306325	-0.1722532
43	0x3e14b7ac	0.1452319
44	0x3e3f588f	0.18686126
45	0xbe25bc0b	-0.16185014
46	0x3e3b5663	0.18294673
47	0xbe27fce3	-0.16405062
48	0x3e351e0e	0.17687246
49	0xbe27482a	-0.16336122
50	0xbe1b58d0	-0.15170598
51	0x3e43c2cb	0.19117276
52	0x3e09e12f	0.13464807
53	0xbe302648	-0.17202103
54	0xbe24217b	-0.16028397
55	0xbe47f55c	-0.19527191
56	0x3e2b78de	0.16745326
57	0x3e2a2852	0.16616943
58	0xbe2a648c	-0.16639918
59	0x3e43a23b	0.19104855
60	0xbe27eea4	-0.16399628
61	0x3e2c9af7	0.1685599
62	0xbe320216	-0.17383608
63	0x3e277f35	0.1635712
64	0xbe3633a7	-0.17793141
65	0xbe2a6ca9	-0.16643013
66	0x3e337c84	0.17527968
67	0xbe2553c1	-0.16145231
68	0xbe2db242	-0.16962531
69	0x3e253be3	0.16136126
70	0x3e1c011d	0.152348
71	0x3e1ee6d6	0.15517744
72	0x3e317460	0.1732955
73	0x3e31699b	0.17325442
74	0x3e363d64	0.17796856
75	0x3e2135ab	0.15743129
76	0xbe394b31	-0.1809509
77	0xbe27bee6	-0.16381416
78	0xbe3e1f87	-0.18566714
79	0xbe30bdb7	-0.1725987
80	0xbe37862a	-0.17922273
81	0x3e20c8ad	0.15701552
82	0x3e41e22b	0.18933932
83	0x3e3d0c6f	0.18461774
84	0xbe20973e	-0.15682694
85	0xbe2c0bd5	-0.16801389
86	0xbe2b87dc	-0.16751045
87	0x3e31f5b3	0.17378883
88	0x3df5012b	0.119631134
89	0x3e359e87	0.17736255
90	0x3e1fc736	0.15603337
91	0x3e1d4bd4	0.15360957
92	0x3e250d03	0.16118245
93	0xbda36ae0	-0.07979369
94	0x3e1c8ce8	0.15288126
95	0xbe35425d	-0.17701097
96	0x3e22cd65	0.15898664
97	0x3e1c5935	0.15268405
98	0x3e3351bb	0.17511646
99	0xbe234f06	-0.15948114
100	0xbe2219fa	-0.15830222
101	0xbe22e3e4	-0.15907246
102	0x3e283589	0.16426672
103	0x3e1822d2	0.14857033
104	0x3e2c9e5d	0.16857286
105	0x3e20bf4e	0.15697977
106	0xbe2e586c	-0.17025918
107	0xbe266126	-0.16247997
108	0x3e268112	0.16260174
109	0xbe2bd934	-0.16782075
110	0x3e1df97e	0.15427205
111	0x3e225e75	0.15856345
112	0xbe3b0289	-0.18262686
113	0x3e242bfe	0.16032407
114	0x3e2d66f7	0.16933809
115	0xbe19c76a	-0.15017477
116	0x3e32792d	0.17429037
117	0xbe1bc827	-0.15213071
118	0x3e450a34	0.19242173
119	0xbe1ac5f0	-0.1511457
120	0xbe28f172	-0.16498354
121	0x3e356ce0	0.17717314
122	0x3e15d772	0.14632967
123	0xbe3e27c0	-0.18569851
124	0xbe195f0d	-0.14977665
125	0xbe371f43	-0.17883019
126	0x3e229142	0.15875724
127	0x3e1f36e5	0.15548284
128	0xbe20b574	-0.15694219
129	0x3e35c095	0.17749245
130	0xbe1aa35e	-0.15101382
131	0x3e33d27a	0.17560759
132	0xbe3dd952	-0.18539932
133	0x3e1d69e0	0.1537242
134	0xbe3de244	-0.18543345
135	0xbe377e7c	-0.17919344
136	0x3e40c488	0.1882497
137	0xbe1bbd09	-0.1520883
138	0xbe24cbb6	-0.16093335
139	0x3e1e0023	0.1542974
140	0x3e09922a	0.13434663
141	0x3e0cbf01	0.13744737
142	0x3e355380	0.17707634
143	0x3e3dbf24	0.18529946
144	0x3e0da477	0.1383227
145	0x3e0efc0a	0.13963333
146	0xbe2c71f5	-0.16840346
147	0xbe12ca5d	-0.14335008
148	0xbe159a58	-0.14609659
149	0xbe40bea5	-0.18822725
150	0xbe3b60c5	-0.18298633
151	0x3e0c4dd5	0.13701566
152	0x3e176315	0.1478389
153	0x3e0f1f9c	0.13976902
154	0xbe0a4176	-0.13501534
155	0xbdf149de	-0.11781667
156	0xbe1c1d5a	-0.15245572
157	0x3e3b95bf	0.18318842
158	0x3e1a9ce8	0.15098917
159	0x3e2969e1	0.16544296
160	0x3e0987c4	0.13430697
161	0x3e08c342	0.13355735
162	0x3e13e245	0.14441784
163	0xbdfb0ff6	-0.12258904
164	0x3e0a5279	0.13508023
165	0xbe02b4fa	-0.1276435
166	0x3e11e52f	0.14247583
167	0x3e0d8a97	0.13822399
168	0x3e34e240	0.17664433
169	0xbe0fb3c3	-0.14033417
170	0xbe0cc5fc	-0.137474
171	0xbe0d9ad2	-0.1382859
172	0x3e13a35e	0.14417788
173	0x3e024895	0.12723
174	0x3e1aca78	0.15116298
175	0x3e085f7a	0.13317671
176	0xbe315078	-0.17315853
177	0xbe174d39	-0.14775552
178	0x3e177407	0.14790355
179	0xbe1ad3d8	-0.15119874
180	0x3e09a94a	0.13443485
181	0x3e0d45fe	0.13796231
182	0xbe0f758b	-0.14009683
183	0x3ddf7424	0.10910824
184	0x3e3f2a47	0.18668471
185	0xbe08876e	-0.13332912
186	0x3e237ebc	0.15966314
187	0xbe088622	-0.13332418
188	0x3e176494	0.14784461
189	0xbe065628	-0.13118804
190	0xbdeaaea3	-0.114590906
191	0x3e36eacb	0.17863004
192	0x3dc6461d	0.09681342
193	0xbe10ca83	-0.14139752
194	0xbe058de9	-0.13042416
195	0xbe3d14d7	-0.18464981
196	0x3e0a7141	0.13519765
197	0x3e0ab981	0.13547327
198	0xbe0e0baa	-0.13871637
199	0x3e374b0c	0.17899722
200	0xbe04c499	-0.12965621
201	0x3e0ec50e	0.13942358
202	0xbe13a9a6	-0.14420184
203	0x3e097506	0.13423547
204	0xbe15aff3	-0.146179
205	0xbe0cb30b	-0.13740174
206	0x3e152a3a	0.1456689
207	0xbe05eac7	-0.13077842
208	0xbe0c8cff	-0.1372566
209	0x3e0a6d3b	0.1351823
210	0xbe20a0fd	-0.15686412
211	0xbe23a415	-0.15980561
212	0xbe40cba9	-0.1882769
213	0xbe45e5ff	-0.19326018
214	0xbe1f9109	-0.1558267
215	0xbe26181c	-0.16220134
216	0x3e3ead39	0.18620767
217	0x3e2a92e4	0.16657597
218	0x3e2b243a	0.16713038
219	0x3e44e9cf	0.19229816
220	0x3e467c14	0.1938327
221	0xbe26bef7	-0.16283785
222	0xbe29409c	-0.16528553
223	0xbe25e313	-0.16199903
224	0x3e1f0366	0.1552864
225	0x3e13e310	0.14442086
226	0x3e2dea65	0.16983946
227	0xbe459de7	-0.19298516
228	0xbe0f6977	-0.14005075
229	0xbe3a9c49	-0.1822368
230	0xbe229e08	-0.15880597
231	0xbe1e2f45	-0.1544772
232	0xbe26fdce	-0.16307756
233	0x3dcd1f3a	0.100157216
234	0xbe21516b	-0.15753715
235	0x3e200338	0.15626228
236	0xbe2af49f	-0.16694878
237	0xbe2531d5	-0.1613229
238	0xbe40e8c8	-0.18838799
239	0x3e27a569	0.16371693
240	0x3e21ed3d	0.15813155
241	0x3e2345d8	0.15944612
242	0xbe2afaf3	-0.16697292
243	0xbe1e1473	-0.15437488
244	0xbe2fb12b	-0.17157428
245	0xbe21b76d	-0.15792628
246	0x3e3b1173	0.18268375
247	0x3e2bf5a8	0.16792929
248	0xbe2cfc03	-0.1689301
249	0x3e2df66f	0.16988538
250	0xbe1dc134	-0.15405732
251	0xbe26205d	-0.16223283
252	0x3e279b19	0.16367759
253	0xbe0c7748	-0.13717377
254	0xbe4170c2	-0.1889067
255	0x3e227bc7	0.1586753

net.4.weight f4 [70, 70]
0	0x3e3c339a	0.1837906
1	0x3e322bb1	0.1739948
2	0x3e1cbd5b	0.15306608
3	0xbe307a2f	-0.1723411
4	0x3e3b9eb2	0.18322256
5	0xbe317b0d	-0.17332096
6	0xbe2bcf9a	-0.16778412
7	0x3e3c823e	0.18409058
8	0xbe2220cf	-0.15832828
9	0x3e321891	0.17392184
10	0xbe3d6776	-0.18496498
11	0xbe313342	-0.1730471
12	0x3e3b2140	0.18274403
13	0xbe3230f3	-0.17401485
14	0xbe30f357	-0.17280327
15	0xbe30da7c	-0.17270845
16	0x3e2e2f85	0.17010315
17	0xbe3980f7	-0.18115602
18	0x3e2f2743	0.17104821
19	0xbe3ad0e9	-0.18243755
20	0x3e399c57	0.18126045
21	0xbe394f80	-0.18096733
22	0x3e2d226a	0.16907659
23	0xbe2aadaa	-0.1666781
24	0x3e39e34d	0.18153115
25	0x3e36af73	0.17840366
26	0xbe2ecb09	-0.1706964
27	0xbe27c552	-0.16383865
28	0xbe27d6d4	-0.16390544
29	0xbe29a75b	-0.16567747
30	0x3e3d6963	0.18497233
31	0xbe385194	-0.1799987
32	0x3e390f62	0.18072274
33	0x3e3c83b2	0.18409613
34	0xbe23aa4d	-0.15982933
35	0xbe2542c4	-0.1613875
36	0x3e285db8	0.16442001
37	0x3e3cec5f	0.18449543
38	0xbe3927c8	-0.18081582
39	0x3e3ae84a	0.18252674
40	0x3e3bd2fa	0.183422
41	0x3e33fc8d	0.17576809
42	0x3e3b7b95	0.18308862
43	0x3e2e6289	0.17029776
44	0x3e3a996d	0.1822259
45	0xbe39be01	-0.18138887
46	0xbe37f49b	-0.17964403
47	0xbe2f363d	-0.17110534
48	0x3e3c91a3	0.18414931
49	0x3e28be1c	0.16478771
50	0xbe394768	-0.18093646
51	0xbe3ac6ed	-0.18239947
52	0x3e2a79d4	0.16648036
53	0x3e38e371	0.18055512
54	0xbe3bdcfa	-0.18346015
55	0x3e206a97	0.15665661
56	0xbe3a31a1	-0.18182994
57	0x3e3bd075	0.18341239
58	0x3e3b3834	0.18283159
59	0xbe2c0d95	-0.16802056
60	0x3e1acc9d	0.15117116
61	0xbe2d187b	-0.1690387
62	0x3e22b78c	0.1589033
63	0xbe337633	-0.17525558
64	0x3e3d228a	0.18470207
65	0xbe39d29f	-0.18146752
66	0x3e203e7d	0.15648837
67	0x3e3af561	0.18257667
68	0xbe3a128b	-0.18171136
69	0x3e329a15	0.1744159
70	0xbe3a6a24	-0.18204552
71	0xbe35e418	-0.17762792
72	0xbe1a4023	-0.15063529
73	0x3e320055	0.17382939
74	0xbe38386d	-0.17990275
75	0x3e32203d	0.1739511
76	0x3e2f84b5	0.17140467
77	0xbe382975	-0.17984565
78	0x3e25a497	0.16176067
79	0xbe3116d6	-0.17293867
80	0x3e3ce10c	0.18445224
81	0x3e2ebc37	0.17063986
82	0xbe382c7a	-0.17985716
83	0x3e35af8f	0.17742752
84	0x3e2d6f1a	0.16936913
85	0x3e3478ff	0.17624281
86	0xbe2cf2df	-0.16889523
87	0x3e38a0b8	0.1803006
88	0xbe2cb1a7	-0.16864644
89	0x3e37ae85	0.17937668
90	0xbe3aa607	-0.18227397
91	0x3e36aea2	0.17840055
92	0xbe2c9a55	-0.16855748
93	0x3e283b10	0.1642878
94	0xbe3adf90	-0.18249345
95	0xbe38f28f	-0.18061279
96	0x3e31739f	0.17329262
97	0x3e25e295	0.16199715
98	0x3e29f156	0.16595969
99	0x3e2db79b	0.16964571
100	0xbe3a96aa	-0.18221536
101	0x3e3894f9	0.18025579
102	0xbe3b774c	-0.18307227
103	0xbe38d0ff	-0.18048476
104	0x3e2802bb	0.16407292
105	0x3e23ec9d	0.1600823
106	0xbe28375e	-0.16427371
107	0xbe3afe2d	-0.18261023
108	0x3e3985f2	0.18117502
109	0xbe3979e4	-0.18112904
110	0xbe39eade	-0.18156001
111	0xbe3415d3	-0.1758645
112	0xbe376dbf	-0.17912959
113	0xbe30a6a0	-0.17251062
114	0xbe37b82d	-0.17941351
115	0x3e3c239e	0.18372962
116	0x3e376c7b	0.17912476
117	0x3e2ff05b	0.17181532
118	0xbe3be70d	-0.18349858
119	0xbe256720	-0.1615262
120	0x3e37ccec	0.17949265
121	0x3e3ac0bc	0.18237585
122	0xbe27db6f	-0.16392301
123	0xbe39720d	-0.18109913
124	0x3e3b3bae	0.18284485
125	0xbe23705f	-0.15960835
126	0x3e370cab	0.17875926
127	0xbe3a4758	-0.18191278
128	0xbe3b1106	-0.18268213
129	0x3e2e4261	0.17017509
130	0xbe18a11c	-0.14905208
131	0x3e303d6a	0.17210928
132	0xbe27a164	-0.1637016
133	0x3e3572e9	0.17719616
134	0xbe39d423	-0.1814733
135	0x3e390d9e	0.18071601
136	0xbe211c49	-0.15733446
137	0xbe3cca84	-0.18436629
138	0x3e3910dd	0.18072839
139	0xbe3152e1	-0.17316772
140	0x3e30705a	0.17230359
141	0x3e2869a8	0.16446555
142	0x3e2fdcc4	0.17174059
143	0xbe3cc54d	-0.1843464
144	0x3e30ad34	0.17253572
145	0xbe3e0a30	-0.18558574
146	0xbe262c4f	-0.1622784
147	0x3e33451b	0.1750683
148	0xbe168672	-0.14699724
149	0x3e3d205b	0.18469374
150	0xbe314feb	-0.17315643
151	0xbe3d8507	-0.18507777
152	0x3e303a15	0.17209657
153	0xbe269f5c	-0.16271728
154	0xbe3c0025	-0.1835943
155	0xbe249486	-0.16072282
156	0x3e3e9371	0.18610932
157	0xbe2f2452	-0.17103699
158	0x3e3aab14	0.18229324
159	0xbe3113ae	-0.17292663
160	0x3e308e87	0.1724187
161	0xbe2f8735	-0.17141421
162	0x3e3d5140	0.18488026
163	0xbe25773a	-0.16158763
164	0x3e3166c9	0.17324366
165	0x3e2dfac2	0.16990188
166	0xbe3e754b	-0.18599431
167	0xbe3cb357	-0.18427788
168	0xbe1b4544	-0.15163141
169	0xbe1e32ef	-0.15449117
170	0x3e31a2e0	0.17347288
171	0xbe2f07a8	-0.17092764
172	0x3e322bc6	0.1739951
173	0x3e2feefb	0.17181008
174	0xbe1867e8	-0.14883387
175	0xbe38bcc8	-0.18040764
176	0x3e392d1f	0.18083619
177	0x3e335387	0.17512332
178	0xbe3028ab	-0.17203014
179	0x3e345994	0.17612296
180	0x3e2eeb7f	0.17082022
181	0x3e27c8ab	0.16385143
182	0x3e322d2a	0.17400041
183	0x3e242a2b	0.16031711
184	0x3e32cca9	0.17460884
185	0xbe327e2a	-0.1743094
186	0xbe2f177a	-0.170988
187	0xbe277d79	-0.16356458
188	0x3e330e7f	0.17485999
189	0x3e3af1ee	0.18256351
190	0xbe30c914	-0.17264205
191	0xbe319701	-0.1734276
192	0x3e3b80a6	0.18310794
193	0x3e2ec73b	0.17068188
194	0xbe32dfc9	-0.1746818
195	0x3e36a1ab	0.17835109
196	0xbe2f1f8b	-0.17101876
197	0x3e31a821	0.17349292
198	0x3e30640c	0.17225665
199	0xbe3c4cd7	-0.18388687
200	0x3e2e0213	0.16992979
201	0xbe3e75e4	-0.18599659
202	0x3e178d2e	0.1479995
203	0xbe245f40	-0.1605196
204	0x3e30d6d2	0.17269447
205	0xbe321bbc	-0.17393392
206	0x3e34f30d	0.17670842
207	0x3e322783	0.17397885
208	0xbe328132	-0.17432097
209	0x3e3e371a	0.18575707
210	0xbe3cb9b4	-0.18430215
211	0xbe30735c	-0.17231506
212	0xbe1947ad	-0.14968748
213	0x3e30b4d7	0.17256485
214	0xbe386752	-0.18008164
215	0x3e307fa5	0.17236193
216	0x3e2b0d81	0.1670437
217	0xbe3aca3e	-0.18241212
218	0x3e2497be	0.1607351
219	0xbe338408	-0.17530835
220	0x3e3c676d	0.18398829
221	0x3e31ba43	0.1735621
222	0xbe3c9840	-0.18417454
223	0x3e335bb0	0.17515445
224	0x3e2ed79f	0.1707444
225	0x3e3192c8	0.17341149
226	0xbe2da1b6	-0.16956219
227	0x3e3ac8c9	0.18240656
228	0xbe3000fc	-0.17187876
229	0x3e3b2637	0.18276297
230	0xbe3c30ea	-0.18378034
231	0x3e3a7ab7	0.18210874
232	0xbe2a106b	-0.16607825
233	0x3e27190a	0.16318145
234	0xbe3bb000	-0.18328857
235	0xbe380277	-0.1796969
236	0x3e2f7882	0.17135814
237	0x3e279d7d	0.16368671
238	0x3e27c0f5	0.16382201
239	0x3e2b148a	0.16707054
240	0xbe3c8354	-0.18409473
241	0x3e3889c7	0.18021308
242	0xbe3b3077	-0.18280207
243	0xbe3c99a7	-0.18417989
244	0x3e246144	0.16052729
245	0x3e25b3f2	0.16181925
246	0xbe28a6b8	-0.16469848
247	0xbe3b4443	-0.18287759
248	0x3e3cd34b	0.18439977
249	0xbe38efa7	-0.1806017
250	0xbe3aa3aa	-0.18226495
251	0xbe352e71	-0.17693497
252	0xbe3a1dd5	-0.18175443
253	0xbe2ebd8f	-0.17064498
254	0xbe3a99f8	-0.18222797
255	0x3e3a06da	0.18166676

net.6.weight f4 [1, 70]
0	0xbea8c408	-0.3296206
1	0x3ea7a136	0.32740182
2	0xbea2cfc6	-0.31799144
3	0x3ea90f66	0.3301956
4	0x3ea7fca3	0.32809934
5	0xbea8137d	-0.32827368
6	0x3ea3b807	0.3197634
7	0xbea837e9	-0.32855156
8	0x3ea4a72f	0.321588
9	0xbea89ebb	-0.32933602
10	0x3ea37312	0.3192373
11	0xbea7bb12	-0.3275991
12	0x3ea3d414	0.3199774
13	0x3ea80686	0.32817477
14	0x3ea6b60b	0.32560763
15	0xbea858ba	-0.32880193
16	0xbea3d16a	-0.31995708
17	0xbea3be62	-0.31981188
18	0x3ea419b8	0.32050872
19	0xbe9ef2d8	-0.3104465
20	0x3ea32ee2	0.31871706
21	0x3ea865e6	0.32890242
22	0xbea5dae1	-0.32393554
23	0x3ea2e78c	0.3181728
24	0x3ea7f7e9	0.32806328
25	0x3ea3f234	0.32020724
26	0x3ea7978b	0.32732806
27	0xbea3ba34	-0.31978
28	0xbea31450	-0.31851435
29	0xbea3ae46	-0.31968898
30	0x3ea6ed11	0.32602742
31	0xbea7b0e6	-0.3275215
32	0xbea7d4e6	-0.32779616
33	0xbea7e7eb	-0.32794127
34	0xbea38891	-0.3194013
35	0x3ea45da2	0.32102686
36	0x3ea5d3f4	0.3238827
37	0xbea3c63d	-0.3198718
38	0x3ea87ed7	0.3290927
39	0xbea380ad	-0.3193411
40	0x3ea8b0f6	0.3294751
41	0xbea3b9cb	-0.31977686
42	0xbea90cb5	-0.33017507
43	0x3ea6e1ff	0.32594296
44	0x3ea855d9	0.32877997
45	0xbea88e8a	-0.3292125
46	0xbea67210	-0.32508898
47	0xbea6ef55	-0.3260447
48	0x3ea8d5e5	0.3297569
49	0x3ea42fa3	0.32067594
50	0xbea88238	-0.3291185
51	0x3ea8a982	0.32941824
52	0xbe9df284	-0.30849087
53	0xbea8fd41	-0.33005717
54	0xbea3c253	-0.31984195
55	0x3ea8f235	0.3299729
56	0xbea8a9cb	-0.32942042
57	0x3ea7208d	0.32642022
58	0x3ea82659	0.32841757
59	0xbea3434a	-0.31887275
60	0xbea8a1ed	-0.3293604
61	0xbea7a235	-0.32740942
62	0xbea75c61	-0.32687667
63	0x3ea88e25	0.32920948
64	0x3ea815b6	0.32829064
65	0x3ea46654	0.3210932
66	0xbea2d287	-0.31801245
67	0xbea89c2e	-0.32931656
68	0xbea49005	-0.32141128
69	0x3ea85451	0.32876828
