models/mlp_pure_seed_789.pt (torch, 46017 bytes, 4 tensors)

net.0.weight f4 [70, 4]
00000000: 7019 b3bc 07af 0ebe 13ce e9bb ed0d 423c
00000010: 35b0 093c 7fcb 203e 5501 ae3b efe3 06bd
00000020: 1941 b53c 2aa8 f0bd f339 14bc fb52 3a3c
00000030: fb9a 933c 8138 213e 481e 2b3c cff2 04bd
00000040: fb66 12bc c8c5 1cbe 8c80 1abc 8a81 f63c
00000050: a4b0 26bc f174 26be 558d 68bb d0d6 0c3d
00000060: 6621 32bd cef0 153e f496 20bd e4eb 62bc
00000070: 13c1 89bc 7a6a 073e 0587 22bd 9477 82bc
00000080: 9ac7 cb3b 2e33 0dbe 44f4 83bb b910 4a3c
00000090: 7a1b 993c a117 233e d390 0d3c b026 07bd
000000a0: 9aa7 9d3b 7854 163e c758 353c 28fa abbc
000000b0: 0307 48bd a8ca 1cbd f84e ad3c 68b7 1b3a
000000c0: f464 0b3d e225 ddbd bf1b 32bc 14d9 7c3c
000000d0: bdf0 91bc a573 25be 0c2a 18bc cb21 093d
000000e0: f721 073c b096 0fbe beae fbba b64b 3a3c
000000f0: 1590 173c ebe4 47be a792 b23c e55c 853c
00000100: a2c4 4cbc 9322 063e a544 bf3b f934 34bc
00000110: 72ae 6eba e7ff 103e 37b5 f93b e2de 7dbc
00000120: d55b 743c c78e 1abe de9b 6e3b 694b 8d3c
00000130: 1541 7c3d e552 8bbd 7275 c93c 4380 373c
00000140: 6767 38bd 7f14 bb3d 9614 5e3c a430 95bc
00000150: 1998 e3bb ad80 26be eacb 53bb bd35 0d3d
00000160: efbd 5b3d 0b9c 1cbe 5b14 a93c 2799 123c
00000170: c405 273d b7a9 06be d4d7 083d 14a5 533b
00000180: b341 81bc 50ae 22be 134d 17bc 9959 063d
00000190: 9764 e03b 7822 0fbe bca5 51bb 1eb3 433c
000001a0: 41c0 8f3a bc9a 153e 636f 0b3c fd7a 8fbc
000001b0: d4d9 2f3c 5cd6 213e 7cc6 093c 9631 05bd
000001c0: ed5a 5bbb d92a 133e 94a7 bd3b f4bc 6dbc
000001d0: 1313 d4bb da04 0b3e ca41 6d3b 78c6 43bc
000001e0: 42a2 1ebd 17ec 0abe 7af9 bcbc f1f4 ab3c
000001f0: 81d7 adbc 9529 16be b731 29bc c14a f23c
00000200: ccfb 493d b3a5 b2bd 9c9e 77bc 64a8 a43c
00000210: ad6a 9d3c 5e02 f9bd 1133 23bc 9d03 493c
00000220: c88f 52bc 6792 093e 9ec2 013b 0cf2 2bbc
00000230: 6f98 a53c d798 6abe 8756 7c3c 60af a33c
00000240: 8689 7c3c 73d7 ffbd 8f52 1dbc ab39 373c
00000250: fa79 32bd f9d1 ca3d 091b 02bd 61f2 ff3b
00000260: a535 8bbc 0f61 26be b12c febb e490 143d
00000270: 1713 373c 5f10 293e 4268 9e3b ff01 0ebd
00000280: 8af6 7ebd 1b03 083e 322f e1bc 7885 7fbb
00000290: baac a1bb e1e3 1abe 5f7f 25bc 0226 c73c
000002a0: f081 863c 46cf 04be 9093 5cba 4dae 193c
000002b0: 21b2 603d deb5 103e 9bd4 a93c 7bce b1bc
000002c0: 6947 11bd a042 38be 6dbc 82bc eb40 193d
000002d0: 6caa e9bc 5ed9 0b3e 6ce7 a2bb aee3 61bc
000002e0: ec99 813b 6b70 12be a22a a9bb fb60 643c
000002f0: 2f23 5d3d 64f7 24be 8cba 133d 8dc4 a53c
00000300: 234e 44bc fd49 103e a6ca a3ba 406b 85bc
00000310: fee4 bb3b 88b4 183e fe0a 353c a7e0 c9bc
00000320: b210 b8bb 700d 103e efd6 853b 8492 50bc
00000330: 1842 2c3d e9e6 16be 7549 453d f986 113d
00000340: 7380 04bc b271 0a3e d5c1 f63a 362a 29bc
00000350: 8622 debb e38e 0a3e 1a29 7c3b d416 48bc
00000360: 6743 09bc f53f 0a3e a173 e73a 2194 27bc
00000370: 4d99 fbbb 9b49 23be 110f 8bbb e52a 0a3d
00000380: fa9d 7abc bfd0 e3bd 150e 73bb 8341 383c
00000390: 5d1c 62bd 3414 af3d 852f 8e3c ba74 bdbc
000003a0: 237a 843d 460f 1d3e 26cc a03c f583 d9bc
000003b0: b187 d6bc c475 6b3e b833 a1bb a2bf bbbc
000003c0: 05fe 153c 10cb 09be 41e6 11bb cb2d 213c
000003d0: 451e 39bb b6d7 9c3c 7f2d 1d3b 100f a0bb
000003e0: 35f9 d9bb 11dc 29be c25b adba 4f0f 113d
000003f0: 4cd8 333c 2858 07be f4ba b2bb a40b 263c
-0.021862715 -0.13933955 -0.0071351617 0.0118441405 0.008403827 0.15702628 0.0053102174 -0.03293222
0.022125768 -0.11750825 -0.009047019 0.011372323 0.018018236 0.15744211 0.010444231 -0.032458123
-0.008935685 -0.15309823 -0.009430062 0.030091066 -0.01017395 -0.16255547 -0.003548463 0.03438455
-0.043488882 0.14642641 -0.03920646 -0.013850186 -0.016815698 0.13224211 -0.039679546 -0.01592616
0.0062188627 -0.13789055 -0.0040269215 0.012333089 0.01868986 0.15926982 0.008640486 -0.03299588
0.0048112394 0.1468066 0.011068529 -0.020993307 -0.048834812 -0.038279206 0.02115582 0.00059401104
0.034031823 -0.10798241 -0.010870873 0.015432615 -0.017814988 -0.16157396 -0.0092873685 0.033479493
0.008247844 -0.14022326 -0.0019201858 0.01137059 0.00925066 -0.19520919 0.021798445 0.016279647
-0.012498053 0.13099127 0.0058370405 -0.010998958 -0.0009104974 0.14160119 0.0076204794 -0.015495034
0.014914473 -0.15093528 0.0036408822 0.017247872 0.061585505 -0.0680292 0.024592135 0.011200014
-0.045020487 0.09134769 0.013554713 -0.01821167 -0.0069456217 -0.16260023 -0.0032317587 0.034475077
0.05364793 -0.152939 0.020639589 0.008947647 0.040776983 -0.13150679 0.033408955 0.003229444
-0.015778398 -0.15886807 -0.0092346845 0.03280029 0.0068479287 -0.13977993 -0.0031989655 0.01194456
0.001096733 0.14609808 0.008510443 -0.0175147 0.010733087 0.15804428 0.008409139 -0.032517992
-0.0033470944 0.14371814 0.005787799 -0.014510382 -0.0064720004 0.1357607 0.0036202543 -0.011949174
-0.03872896 -0.13566624 -0.023068178 0.02099082 -0.021220924 -0.146643 -0.010326794 0.029576661
0.049312398 -0.08723011 -0.015113499 0.020099826 0.019215906 -0.12158655 -0.009960906 0.012268928
-0.012851663 0.13434754 0.0019799839 -0.01049472 0.020214288 -0.22909866 0.015401489 0.019981086
0.0154136475 -0.124922656 -0.009602203 0.011183183 -0.043573357 0.0990333 -0.031764064 0.0078108762
-0.016993353 -0.16247962 -0.0077567925 0.03627099 0.011173985 0.16510151 0.004834206 -0.034669872
-0.062246837 0.13282435 -0.027488325 -0.0038989466 -0.0049339207 -0.15125991 -0.010101168 0.024310116
0.01641938 -0.12969694 -0.00084143225 0.009379935 0.054857377 0.14131877 0.020731261 -0.021704903
-0.035468493 -0.17994165 -0.015958989 0.037415426 -0.028523646 0.13657138 -0.0049714353 -0.013787193
0.0039551165 -0.14300697 -0.005162553 0.013939138 0.05398863 -0.16109997 0.036066577 0.020235324
-0.01198152 0.14090724 -0.0012496307 -0.016286492 0.005734085 0.14912617 0.011049984 -0.024643255
-0.0056172246 0.14067626 0.00408446 -0.012730245 0.04205522 -0.14736523 0.048165757 0.03552911
-0.008087265 0.13519934 0.0018826077 -0.010325005 -0.006779018 0.1353107 0.0038476647 -0.012212474
-0.008377886 0.1350096 0.0017658361 -0.010228188 -0.007678187 -0.15946047 -0.0042437394 0.033732314
-0.015296454 -0.111237995 -0.003708725 0.011246088 -0.05520283 0.08548775 0.017356643 -0.023126949
0.06468608 0.15337858 0.019628596 -0.02655218 -0.02618775 0.22994143 -0.0049194954 -0.022918526
0.009154801 -0.13456368 -0.0022262486 0.009837578 -0.0028246802 0.019145828 0.0023983417 -0.004884608
-0.0066520222 -0.16587855 -0.0013226198 0.03541499 0.010976862 -0.13217223 -0.0054544155 0.010134611

net.2.weight f4 [70, 70]
00000000: c53f a53c a37e 25bc e044 543c 32a0 87bc
00000010: 7d3a 883c 3740 313c ceb3 bc3c 6571 373c
00000020: bde5 323c 8d19 45bc 94d2 3dbc a17b d93c
00000030: 21e9 213c b4bc 5b3c e4bf 143c 3109 1d3c
00000040: e1cd 34bc d328 4ebc 97e0 153c 021e 3dbc
00000050: 34c4 54bb cc57 4f3c a337 4abc 2d05 a8bc
00000060: 1c44 4f3c 2104 023c c475 4bbc 205e 8dbc
00000070: 841d 23bc 7006 dbbb 60f4 fc3c 84ef 653c
00000080: 23ff 543b 99b6 3e3c 4a96 08bc 7e0b be3a
00000090: 15d4 463c b382 d83c 40d1 ce3c 775d 2abc
000000a0: c09c c03c 1530 5b3c 376f 003c e7c9 09bd
000000b0: 909b 2b3d ce73 cebb 350c 333c 3bab cdbc
000000c0: 83e3 11bc b3b6 3cbc 82fc 12bc af17 d2bc
000000d0: b3c7 ebbb fdf3 f0bb be89 f8bb a757 313c
000000e0: 2585 6a3c 380a 2839 ab67 15bd ac0a 9a3a
000000f0: 421d 383c 9a98 473b 19aa 303c a156 613c
00000100: 7ec1 6ebc da2e ad3b a726 303c dd6b 18bd
00000110: b725 0d3a 12d3 a2bc 61cc 2d3d e192 d8bc
00000120: ddb6 1e3b cd4e 14bd f5ac 513c 7bca f33c
00000130: 910b 42bc d586 f2bc 0b90 143c 11cf 18bd
00000140: 785a 6bbc 2c0d d53b a31c d8bb d7b3 1d3d
00000150: d741 f63b c41e 963c 9bc6 3fbb a7cd 2fbc
00000160: 2cde a33b 0f2c 11bd 0b1d 1b3c 9177 e83c
00000170: daf0 61bc ee2b 6b3c a0e9 063d f024 153c
00000180: 86de 39bc f4fe 6cbc 39e2 e8bb f9b3 3abc
00000190: e0d3 693d ffb9 293d d67a 4ebc 0c1d ceb9
000001a0: f929 8bbb ff53 033d 6771 bf3a cef9 adbc
000001b0: 87a4 953c 80d8 05bd d5e7 513c 64ae 773c
000001c0: f686 553b e2ca 84bd 393c a93c 6900 2f3c
000001d0: c8d4 263c 3cc5 1e3b cd0d ecbb 336f 83bc
000001e0: 077b 1ebc 405a 443c bc2b e0bb 0af6 10bc
000001f0: 474b 09bc 88e1 db3c fc6e 183d e2c4 823c
00000200: 2ec4 97bd 8da9 a3bc 5bd2 ae3b 4f08 9abc
00000210: 9e01 ea3c 5aca 663b 712c 32bc 6831 1fbc
00000220: 6c61 fa3c c468 d4bc 7b21 6a3c cabd 1fbd
00000230: ad28 9d3c ff14 21bc 5da0 3a3c 317a 6cbc
00000240: e8ba 9e3c 983e 1f3c 521c b63c 5fca 2c3c
00000250: 9b28 d43b 64a0 55bc bb04 2ebc dffc d63c
00000260: ba73 c53b cdbc 833c 7340 1e3c 5cb4 053c
00000270: 9599 5dbc 88a0 27bc 5c7c cb3b 645c 47bc
00000280: 2ff2 44bb 595c 2b3c daa5 51bc 6efc a7bc
00000290: bfeb 5f3c 8164 2d3c 9354 4ebc 483e a3bc
000002a0: 44a5 0bbc 907f d8bb ebe1 fe3c 6d1b 803c
000002b0: 0d22 193b 1a12 313c bc54 18bc eaaf 9f3a
000002c0: 71fc 593c aad4 cc3c 3623 b53c f7e4 3bbc
000002d0: f5ab a63c 9b2f 493c c5bc 343c a63c 0cbd
000002e0: 363f 2a3d 4797 14bc bc45 073c 219d ccbc
000002f0: 67e2 9fbb 1e35 5bbc a7fa 04bc 1589 c3bc
00000300: d27a 12bc b47a f7bb 48b2 0dbc 3080 173c
00000310: c660 5f3c 4171 033b 6f42 12bd dbfc 473b
00000320: 7ddf 053c ae75 173b e28c 5b3c bf32 293c
00000330: f801 82bc b43d 963b 49b6 663c 8c7a 1bbd
00000340: 68c7 163b 1110 a0bc 742f 8b3c a1cf 5fbc
00000350: 548e 693d 4d2a 09bc 7e59 bd3c 1c52 693c
00000360: e8b5 98bb 8bd2 b7bb 861d ac3c 78fd 2dbb
00000370: b7b6 71bc d1c9 d33c 1e6f 803d 6dd9 4e3c
00000380: 8d15 bf3c 59e3 243d 24c0 30bd 9775 75bc
00000390: 56fb 253d d685 073d ea97 8abd fe04 823c
000003a0: 020f 3bbb 0141 183c 6a7d 633c 70a1 ca3c
000003b0: f6bf 8bbc d74a c6bc 381f 93bc 4051 9cbc
000003c0: b4a5 1b3d 5e40 bf3b dd87 8d3d d686 553d
000003d0: 02d8 23bd d084 f03c 285f 533d b076 34bc
000003e0: 26a1 e03c 5722 89bc 120d 403b b61a 9f3c
000003f0: 353a 323d c985 cbbc 6ffa e73c db26 35bc
0.02017201 -0.010100993 0.012955874 -0.01655588 0.016629452 0.010818533 0.023034956 0.011196469
0.010919032 -0.012030018 -0.01158585 0.026548209 0.009882242 0.01341169 0.009078953 0.009584711
-0.0110354135 -0.012582975 0.009147785 -0.011542799 -0.003246558 0.01265521 -0.012342366 -0.02051028
0.012650516 0.007935555 -0.012418214 -0.017256796 -0.009955768 -0.006684117 0.030878246 0.014034156
0.0032500706 0.011640214 -0.008336613 0.0014499275 0.012135525 0.02642951 0.025246263 -0.01039826
0.023512244 0.013378163 0.007839016 -0.033639815 0.041896403 -0.006300426 0.010928203 -0.025106063
-0.008904341 -0.011518168 -0.008971335 -0.025646059 -0.007195437 -0.0073533044 -0.0075847795 0.010824121
0.014313971 0.00016025535 -0.03647582 0.0011752448 0.011237444 0.0030455948 0.010782742 0.013753564
-0.014572499 0.005285126 0.010751403 -0.03721224 0.0005384343 -0.019876037 0.04243124 -0.026437225
0.0024217882 -0.036207963 0.012797584 0.029759636 -0.011843578 -0.029605309 0.009067546 -0.03730685
-0.014364831 0.0065018144 -0.0065952106 0.038501587 0.007515173 0.018325217 -0.0029262665 -0.010730184
0.00500085 -0.03544241 0.009467374 0.028377326 -0.013790334 0.014353735 0.032937646 0.009103045
-0.011344558 -0.014465082 -0.007107046 -0.011395448 0.057086825 0.041437145 -0.012602529 -0.00039313023
-0.004246947 0.032062527 0.001460594 -0.02123728 0.01826693 -0.032677174 0.012811621 0.015117262
0.0032581664 -0.06484009 0.0206586 0.01068125 0.010182567 0.0024226448 -0.0072037936 -0.016044235
-0.009672887 0.011984408 -0.006841151 -0.008847723 -0.008379764 0.02684094 0.037215218 0.015963022
-0.07410465 -0.019978309 0.005335135 -0.01880279 0.028565224 0.0035215826 -0.0108748535 -0.009716369
0.030564032 -0.025928862 0.014290209 -0.038999356 0.019184435 -0.009831666 0.011390773 -0.01443343
0.019376233 0.009719513 0.022230301 0.010546296 0.006474567 -0.013038728 -0.010621245 0.026243625
0.0060257586 0.016081238 0.009658921 0.008160677 -0.013525386 -0.010231145 0.006209893 -0.012168024
-0.003005158 0.010459029 -0.01279589 -0.02050611 0.013667046 0.010583044 -0.012593406 -0.019927159
-0.008523289 -0.0066070035 0.031113585 0.015638078 0.0023366243 0.010807538 -0.009297546 0.0012183164
0.013304816 0.02500375 0.022111516 -0.011468164 0.020345667 0.012279416 0.011031334 -0.034237526
0.04156419 -0.00906927 0.008256372 -0.024977269 -0.004879284 -0.013379363 -0.008116401 -0.023869077
-0.008940415 -0.007552469 -0.008648463 0.009246871 0.013633912 0.0020056518 -0.035707887 0.0030515704
0.00817096 0.0023110914 0.013400288 0.01032704 -0.01587008 0.0045849923 0.014081546 -0.037958667
0.002300704 -0.019538911 0.0169904 -0.013660342 0.0570205 -0.008371902 0.023113962 0.014240768
-0.004660357 -0.0056098155 0.021010172 -0.0026548784 -0.014753035 0.02585307 0.06271194 0.0126250805
0.023325706 0.040255878 -0.04315199 -0.014981649 0.040522896 0.03308662 -0.067672566 0.015871521
-0.002854288 0.009292842 0.0138848815 0.024735183 -0.017059308 -0.024205608 -0.017959222 -0.019081712
0.037999824 0.0058365306 0.069106795 0.052130543 -0.040000923 0.029360205 0.05160442 -0.011014625
0.027420592 -0.016740007 0.0029304666 0.019421916 0.04351254 -0.024844067 0.028317658 -0.011056627

net.4.weight f4 [70, 70]
00000000: d82a 44bc 9320 9fbb 05b4 58bc d5ab 6abc
00000010: 33c5 783b 7126 0b3c b7ee 3cbc 9374 a73c
00000020: 2ef4 14bc 46a6 9dbc 3090 77bc 145c 40bc
00000030: 9870 58bc 6af7 52bc b995 8abc 7e22 9cbc
00000040: 9b8c 27bc abf7 0fbc 2dfa 91bb 5135 0a3c
00000050: 065a 5c3c e0b8 2e3c 2995 8d3c 0e2e 00bc
00000060: b346 323c e5c0 09bc 7ab3 a43c 7a7e 23bc
00000070: 9f3d 1dbc bc15 993c a522 ad3c b697 133c
00000080: 72aa 9a3c e2cf 95bb daa4 6a3c 054d a03c
00000090: 8387 00bc 5e8c 31bc c1b6 5e3c b0b9 113c
000000a0: 3080 c73c 142a 473c a6f6 47bc e6c2 3d3c
000000b0: 01ff 4ebc 0a9d 55bc 273d 483c 0fb7 243c
000000c0: 685a 623c 3731 40bc 7713 2cbc c200 4bbc
000000d0: e6c7 b33b 8f47 bb3b 81b3 25bc 1022 553c
000000e0: 0ab9 0d3c d683 c13b a423 a1bc ef93 32bc
000000f0: 7a41 d23b 9eb6 383c 100e 2d3c 1beb c53b
00000100: 0863 023c 56d4 17bc 134b 18bc 166a 193c
00000110: 9a87 57bc 9c60 05bc a82c 223c 5d83 b33c
00000120: a7ae 4b3c 2ef9 a0bb 9a05 85bc 909a 1cbc
00000130: 7572 4c3c ad72 103c a23c 5c3c 7f0c 0bbc
00000140: 2beb 2b3c 4208 383c e169 353c 8513 533c
00000150: 58f5 5fbb ba35 d0bb 993a 483c feff 643c
00000160: 0d08 b13c 3e35 4cbc 5c98 58bc 7e0c 41bc
00000170: 7963 1fbc 4690 9b3c 97c5 40bc f745 3e3c
00000180: 98e6 203c fb6a 443c 848f 453c 3d02 073c
00000190: 4b25 c93b ae40 4abc 4c8c d03b 8dc6 9a3c
000001a0: 8373 37bc 406a ff3b 6b76 463c 4ec8 293c
000001b0: 1fe6 d1bb 20ff aabc f5d6 01bc 6f59 0fbc
000001c0: 1606 663c db7b a9bb 011e 243c 90ea 513c
000001d0: d6ca 45bc 507c 31bc 500d 60bc 55bd 2b3c
000001e0: ed09 593c f2f3 5f3c e43a bcbc 23d5 15bc
000001f0: da55 443c fa4b 93bb da11 5abc 6079 b2bc
00000200: ca88 aabb 777d 413c ae2d 78bb c02d 57bc
00000210: 6d28 30bc a3cc 3fbc 17bb 9cbc 99bc 5a3c
00000220: bc8e 3c3c 8fb1 45bc 15a2 1a3c b550 b23c
00000230: dd50 4d3c 3dd7 713c 2293 433c 11a4 d03b
00000240: 6b8f 40bc 1c85 4bbc 527d 6e3c 502b 0cbc
00000250: d737 573c 93a2 143c bf0b 673c fb2a 583c
00000260: a0d6 413c 8ade 663c b6f2 303c 78d9 2b3c
00000270: 186a 3c3c fcec 5b3c 7a75 3a3c 472b 5cbc
00000280: b7c2 71bc dfd5 45bc c1a3 ddbc d2ec a33c
00000290: bff0 60bc 6a27 303c ea32 15bc 0305 5b3c
000002a0: 3857 2a3c 9adb fdbb a9d4 2ebc 20c0 34bc
000002b0: cd17 22bc 28bb 4a3c 16be 65bc 297c 22bc
000002c0: c595 3b3c ea66 5d3c 8804 b1bc 9d2d a8bc
000002d0: 7db6 0cbd 2110 52bc 00f8 793c 7f70 39bc
000002e0: 844b 403c df99 3e3c 8bc9 41bc 9757 55bc
000002f0: 6400 4ebc a218 773c 759f 623c 9eec 633c
00000300: 44f4 7dbc 3fa2 a7bc e76c 563c 61f1 c5bc
00000310: 16e8 4abc 5b78 60bc b2e0 173c 8f6e 733c
00000320: d077 58bc f42d 6abc 1c74 3bbc 9f81 33bc
00000330: 6eda a2bc df06 373c 20ed 373c e39d 4cbc
00000340: 8a7a 4b3c f7d1 a53c d7ef 0fbb 96c4 633b
00000350: 3c07 29b9 3e59 c7bc 0e2d 2dba 983f 5dba
00000360: ec4b 3ebb 5884 523c f7ec 18bb 00b3 d9bc
00000370: 9b7b e9ba daac 39bb 8c11 97ba 8da2 33ba
00000380: 01da 38bc 4487 1dbc 68a8 23bb e8f9 823b
00000390: c3cf 873b a938 a13b 19a8 363b b4b0 ea3a
000003a0: 045c bdbb 9c1c 1f3c a332 9fb9 d702 f73a
000003b0: c126 c23c 1e61 02ba 3f1c a2ba db12 913c
000003c0: 3b00 4e3c 4191 a63a 4558 c33c 1d2c 803a
000003d0: 25d8 303b 2f9a 323c 374c 55ba d0d0 afb8
000003e0: ecf1 993a b03a 37bc 83ae 37bc 8e0c 3ab9
000003f0: 00ee d4ba 2877 25b9 e71a f3ba 26db 3f39
-0.011973105 -0.004856178 -0.013226514 -0.0143231945 0.0037959337 0.008493052 -0.011531523 0.02044133
-0.00909142 -0.019244324 -0.015110061 -0.011740703 -0.013210438 -0.012876371 -0.016917096 -0.019059416
-0.010226394 -0.008787076 -0.004454872 0.008435563 0.013449198 0.010664195 0.01728304 -0.00782348
0.010881114 -0.008407806 0.020105112 -0.009978885 -0.009597211 0.018687122 0.021134684 0.009008339
0.018880103 -0.0045719007 0.01432153 0.019567976 -0.0078448085 -0.010836689 0.013593377 0.008894369
0.024353117 0.012156028 -0.012204802 0.011582112 -0.01263404 -0.013037929 0.012221611 0.01005341
0.0138155 -0.011730484 -0.010502688 -0.012390317 0.0054864762 0.0057153176 -0.010113598 0.013008609
0.008650074 0.0059056086 -0.019670315 -0.010899528 0.006416497 0.011274008 0.010562435 0.0060399896
0.007958181 -0.009266933 -0.009295243 0.009363672 -0.0131548885 -0.008140709 0.009898342 0.021913225
0.012431777 -0.004912517 -0.016238023 -0.009558335 0.012478461 0.008816403 0.01344219 -0.008486866
0.01049308 0.011232438 0.011072607 0.012883072 -0.0034173336 -0.006354061 0.012221002 0.013977049
0.021610284 -0.012463866 -0.013219919 -0.0117827635 -0.009728306 0.018989693 -0.011765859 0.011613361
0.009820603 0.011988397 0.012058143 0.00824028 0.006138479 -0.012344522 0.006364381 0.018893505
-0.011196974 0.0077946484 0.012113194 0.010362698 -0.0064056064 -0.020873606 -0.007924785 -0.00874935
0.014039537 -0.0051722354 0.010016919 0.012812272 -0.012072286 -0.010832861 -0.013675049 0.010482152
0.013246995 0.013669001 -0.0229773 -0.009145054 0.011983359 -0.004495141 -0.01330992 -0.021786392
-0.005204295 0.011809698 -0.0037869024 -0.013133466 -0.010751826 -0.011706504 -0.01913218 0.013350629
0.01150864 -0.012066259 0.009438057 0.021767 0.012531486 0.014760789 0.011936935 0.0063672145
-0.0117529435 -0.0124218725 0.014556246 -0.008555248 0.013135872 0.009071964 0.014101922 0.013193841
0.011830956 0.014091143 0.010800054 0.01048886 0.011499904 0.013423201 0.011380548 -0.0134380525
-0.014755896 -0.012074917 -0.027055623 0.020010386 -0.013729273 0.010751585 -0.009106377 0.013367894
0.010396771 -0.007747126 -0.010670819 -0.011032134 -0.00989337 0.012373723 -0.014022371 -0.009917297
0.011449282 0.013513306 -0.021608606 -0.020529563 -0.034353722 -0.012821228 0.015256882 -0.011318325
0.011736754 0.011633365 -0.011827837 -0.013021371 -0.012573335 0.0150815565 0.013831963 0.013911394
-0.015500132 -0.020463107 0.013087488 -0.02416295 -0.012384435 -0.01370057 0.00926988 0.014857902
-0.013212159 -0.014293183 -0.011441257 -0.010956197 -0.019879546 0.011171072 0.011225969 -0.012488815
0.012419352 0.02024172 -0.0021963024 0.0034754626 -0.00016119791 -0.024334546 -0.000660614 -0.0008439957
-0.0029036952 0.012848936 -0.0023334601 -0.026574612 -0.0017813327 -0.0028331787 -0.0011525615 -0.000685253
-0.011282445 -0.009614769 -0.0024972204 0.0039970763 0.00414464 0.0049200845 0.002787119 0.0017905445
-0.0057787914 0.009711411 -0.0003036457 0.0018845451 0.02370012 -0.0004973578 -0.0012368037 0.017709186
0.012573297 0.0012708084 0.023845801 0.0009778772 0.00269843 0.010901018 -0.0008136662 -8.3835446e-05
0.0011745072 -0.011183426 -0.01121104 -0.00017743019 -0.0016245246 -0.00015780015 -0.0018547446 0.00018296819

net.6.weight f4 [1, 70]
00000000: 6998 0e3c c6ad febb d275 0dbc 2b8a ba3b
00000010: e838 653c a867 dfbb bb96 ed3b d24a c4bb
00000020: 6491 0cbc 3bc5 9fbb 8294 14bc 6a89 fabb
00000030: fe04 e23b 95da 303c 9d37 3abc 6626 90bb
00000040: 4368 f5bb 5afa 88bb 3b99 4cbc c27b 4ebc
00000050: f0b8 f33b 130a 183c d50d 6cbc ea0a 413c
00000060: 124f 023c c7af 073c b980 14bc 81ad 133c
00000070: b013 01bc 814a 04bc 9f5c 05bc 3e3c e03b
00000080: f4f6 e8bb 2a09 6fbc 571c 053c d86d d7bb
00000090: 3cbf 17bc a1bd b3bb 22d8 2e3c 4c97 f93b
000000a0: ab3a fb3b 27a5 143c 248b 03bb 101d 973a
000000b0: e454 ff3b d3c2 153c 4ee0 183c aa9e fcbb
000000c0: 6efc 41bc 90d7 02b4 ddd5 073c 9e26 ca3b
000000d0: c096 e63b 4f6a bfba 3b5d a43b a6fd 53bc
000000e0: bf63 3ebc 9c34 e9bb 853a d93b 7973 9abb
000000f0: e6bb f6bb 917e e43b 9c06 513c 5fa0 f6bb
00000100: 456a e63b 727d d93b 0aac ae3b 10a0 5abc
00000110: 194b 063c 61f1 3439
0.00870333 -0.0077721803 -0.008634048 0.0056927404 0.013990618 -0.0068177767 0.0072506345 -0.0059903646
-0.008579586 -0.0048758066 -0.00906861 -0.0076457756 0.006897568 0.0107943015 -0.011365798 -0.0043991087
-0.0074892356 -0.004180235 -0.012487705 -0.012602748 0.0074378178 0.009279746 -0.014407595 0.011782387
0.007953422 0.008281655 -0.009063893 0.0090135345 -0.007878229 -0.008074404 -0.008139758 0.006843119
-0.007109517 -0.014589587 0.0081244325 -0.0065743737 -0.009261902 -0.005485252 0.010671647 0.007616913
0.007666906 0.0090725785 -0.0020071948 0.0011529047 0.007792102 0.009140688 0.009330822 -0.007709344
-0.011839969 -1.2185615e-07 0.008290735 0.0061691543 0.007037014 -0.0014603826 0.0050159968 -0.0129388925
-0.011620461 -0.007116867 0.0066292905 -0.0047134724 -0.0075297235 0.0069730957 0.012757923 -0.007526442
0.0070317113 0.0066372687 0.0053305672 -0.013343826 0.008196616 0.00017256058
