models/mlp_pure_seed_43.pt (torch, 46007 bytes, 4 tensors)

net.0.weight f4 [70, 4]
000000 5b 66 51 3c 18 d8 f6 3c 20 a5 12 ba ae 4d d6 bb
       0.012780751 0.030132338 -0.00055940636 -0.006540022
000010 c2 45 9e bb 08 ca 25 3e 3d 5b 69 3c 82 22 11 bd
       -0.004830093 0.1619035 0.014242944 -0.0354333
000020 ef e6 a0 bc e9 10 8e bd 8d 05 3f 3c 65 a8 cc 3c
       -0.019641368 -0.06936819 0.011659038 0.02498264
000030 3e 7d 0f bc 8e 9d de bc 18 1a 44 bd 15 be 4b bc
       -0.008757887 -0.027174737 -0.047876447 -0.012435456
000040 49 e5 10 bc ea f6 43 3d 59 79 28 3d 17 28 13 3c
       -0.008843728 0.047842897 0.04113135 0.008981726
000050 45 b1 1e bc 27 d5 54 bd d0 5b bc 3a 17 30 58 3c
       -0.009685819 -0.05196109 0.0014370624 0.013195059
000060 a1 e9 a0 bc ab 8b 10 bd 26 50 1d 3c c7 f9 97 3c
       -0.019642653 -0.035289448 0.009601628 0.01855172
000070 23 0f 4f bc 17 fc f3 bc 24 88 3b 3a d6 b1 ec 3b
       -0.012637886 -0.029783292 0.00071537704 0.007223348
000080 52 3b 4a bc dd 65 d4 bc d8 d6 cc 36 a2 b5 09 3a
       -0.012343245 -0.025927478 6.104685e-06 0.00052532007
000090 89 4a e0 ba eb 2f 28 3e 30 04 6a 3c 00 42 0d bd
       -0.0017112057 0.16424529 0.014283225 -0.03448677
0000a0 b2 47 af bc 08 5c ec bc 1c 17 39 3c ce bd 95 3c
       -0.021396492 -0.028852478 0.011297014 0.018278982
0000b0 3e 05 69 bd 3e b3 58 bb 0a 7f b7 3c e9 a6 6a 3c
       -0.056889765 -0.003306582 0.022399444 0.014322021
0000c0 5d ba db bb 6a 26 22 3e cf e2 85 3c f6 e8 00 bd
       -0.006705566 0.15834966 0.016343502 -0.03147217
0000d0 49 1f 91 3c 6d 1a 45 3e cf 2d d3 3b 17 01 c8 bc
       0.017715113 0.19248362 0.00644467 -0.024414582
0000e0 51 93 06 bd 7c 12 91 3b b5 42 e8 3c a3 40 a2 3c
       -0.032855336 0.0044272523 0.02835212 0.019806212
0000f0 78 0c ad 3c 79 fc 47 3e 1c a7 13 3c 5c dd cf bc
       0.02112411 0.19529904 0.00901201 -0.025374107
000100 db 5a bf bc 7e 29 4d be 4c 5f 48 bc d4 f9 e5 3c
       -0.023358753 -0.2003536 -0.012229752 0.028073229
000110 ba c2 79 3c c1 d7 3f 3e 42 d5 f9 3b 11 4d d7 bc
       0.01524418 0.18734647 0.0076242993 -0.026281865
000120 79 87 1b 3b cc a3 0c 3d 37 ac b7 3a f0 0d ef 3b
       0.002373187 0.034335896 0.0014013116 0.0072953627
000130 e0 77 1c 3c 41 f0 0b be 78 df 4a bc d2 4a f9 3c
       0.009550065 -0.13665868 -0.012382381 0.030431185
000140 50 04 5b bc cd 68 3c be af fc c1 bb 28 7c d1 3c
       -0.013367727 -0.18399353 -0.005920015 0.025571898
000150 53 15 9f 3c 65 bf 93 3d 3c 98 3b bc b0 bd c8 bc
       0.019419348 0.0721424 -0.01144987 -0.024504513
000160 05 ea 2d bb 2a a2 fb bc e8 84 cd ba b2 13 07 bc
       -0.0026537192 -0.030716974 -0.0015679868 -0.008244442
000170 80 83 a0 3b ef ba 38 3e 29 ce 64 3c cf a1 0e bd
       0.0048984885 0.1804006 0.013965168 -0.03482228
000180 12 d5 ab 3c cd ab 4a 3e 0a 1e 10 3c e7 95 d0 bc
       0.020975623 0.197921 0.008796224 -0.025462104
000190 c5 e8 3f bb 8c ce 8f b9 3e 46 19 bc a2 34 58 bc
       -0.0029283029 -0.00027428975 -0.009355126 -0.013196142
0001a0 a5 8b ae bc 93 bc 48 be 43 d3 0b bc fe 4a cf 3c
       -0.021306822 -0.19603185 -0.008534255 0.025304314
0001b0 1d fb 39 bc 09 33 5b bb 87 7d a8 bb 1b f8 bd ba
       -0.011351374 -0.0033447167 -0.005141917 -0.0014493497
0001c0 cb ae 0e bc c7 78 2f be dc 31 85 bb ba 0d d1 3c
       -0.008708666 -0.17135917 -0.0040647816 0.02551924
0001d0 08 86 31 bc c1 45 74 39 8b b6 be bb ec ad a6 b9
       -0.010835178 0.00023295639 -0.0058201007 -0.0003179157
0001e0 8e 1a 83 3c b6 d5 42 3e 24 c0 e7 3b c8 8c ce bc
       0.016003873 0.19026837 0.0070724655 -0.025213614
0001f0 44 2d 71 3c 5f 64 3c 3e 64 ca fa 3b 7c 1a d8 bc
       0.014720265 0.18397664 0.0076535214 -0.026379816
000200 b8 4b a1 bc 34 7c 48 be 73 4a e9 bb 04 04 c9 3c
       -0.019689426 -0.1957863 -0.0071194707 0.024538048
000210 0d 2b bd bc 63 87 87 bc 81 ff 5f 3c bd 07 9c 3c
       -0.023091817 -0.01654405 0.013671757 0.019046659
000220 1c 48 9a 3c aa f9 47 3e eb 11 f7 3b bd e3 c9 bc
       0.018833213 0.19528833 0.007539978 -0.024644727
000230 c0 2c 09 bb 11 dd 9a bc e0 d8 65 bb 27 8e 35 bc
       -0.0020931214 -0.01890424 -0.0035071895 -0.011081255
000240 cc 36 a8 bc 32 be 46 be 4e d7 0f bc c8 fd cf 3c
       -0.020533942 -0.19408491 -0.00877936 0.025389567
000250 2f bc 9b 3c 41 a8 48 3e 97 0e e5 3b 97 fc c8 bc
       0.019010631 0.19595434 0.0069902646 -0.024534507
000260 e9 1d 00 bc 20 da 2f be 47 4e 3e bb b1 c8 cd 3c
       -0.007819631 -0.17173052 -0.0029038356 0.025120111
000270 ae 87 ec 3c e6 d4 58 3e c3 e3 51 3c d4 80 de bc
       0.02887329 0.21174964 0.01281065 -0.02716104
000280 fa b8 af bc 2c 09 45 be ad 7f 16 bc 0e 63 d1 3c
       -0.021450508 -0.1924178 -0.009185714 0.025559928
000290 1c bb ac bc c1 6d e1 bc 68 27 1a 3c 93 42 84 3c
       -0.021085314 -0.027518155 0.009408809 0.016145026
0002a0 ac 5f 9d 3c 06 c3 45 3e de 37 f4 3b 11 c8 cb bc
       0.019210659 0.19312677 0.007452949 -0.024875673
0002b0 f8 75 47 bd 5f a0 c9 bd ea 9f 01 bd ac 9b e0 ba
       -0.04869649 -0.098450415 -0.031646647 -0.0017136238
0002c0 52 05 b8 bc b9 c7 47 be 8a 20 1c bc d1 54 cf 3c
       -0.022463474 -0.19509782 -0.009529242 0.025308998
0002d0 5b ea 9c 3c ca 5f 49 3e cc de 04 3c 25 bf cd bc
       0.019154718 0.19665447 0.00810976 -0.025115559
0002e0 45 26 8e bb 97 4e d5 3c e5 a9 26 3c 6d f9 37 3c
       -0.004338058 0.026038451 0.010172342 0.011228901
0002f0 13 24 94 3c 38 0e 42 3e 64 cb fb 3b 12 48 d1 bc
       0.018083608 0.18950737 0.007684158 -0.025547061
000300 2a 69 f5 3b d8 43 2e 3e ca d1 b6 3b 9a f8 da bc
       0.007489343 0.17018068 0.005579208 -0.02672987
000310 31 45 97 3c 32 bb 42 3e e1 15 07 3c 30 71 d3 bc
       0.01846561 0.19016722 0.008244962 -0.025810808
000320 3e ea ac bc 9b 94 44 be 60 1d 31 bc d2 29 dc 3c
       -0.02110779 -0.19197313 -0.010810226 0.02687541
000330 79 e5 de bb 61 5e fe 3d 65 dd 02 3c 7a cf 00 bd
       -0.0068022576 0.12420345 0.007987355 -0.031447865
000340 f2 32 11 3c 0b f3 ae bd e4 aa 18 bc 0b 2c 86 3c
       0.008862244 -0.085424505 -0.009318087 0.016378423
000350 03 91 82 3c b3 41 80 3c 15 1c ba ba d4 ea 35 bc
       0.015938288 0.015656328 -0.0014199043 -0.011103351
000360 eb ee 67 3c 46 26 3e 3e 6a 08 dd 3b ae d8 d3 bc
       0.014156084 0.18569288 0.006745388 -0.025860157
000370 ae d2 c8 bc 57 c2 43 bd 5f f6 8b 3c cb d1 c6 3c
       -0.024514522 -0.04779276 0.017085252 0.024269959
000380 cd 82 f0 3c 2d 05 d4 bd 09 c2 84 3c d2 5a 92 bc
       0.029359246 -0.1035255 0.016205804 -0.017865572
000390 15 a9 44 bc a5 29 38 be 04 9d b8 bb df a2 d2 3c
       -0.012003203 -0.17984636 -0.005633952 0.025712429
0003a0 30 29 bc bb 7d 29 6e bd 02 8e 97 b9 fd d7 db 3b
       -0.0057422146 -0.058145035 -0.00028906768 0.0067090974
0003b0 e8 c0 05 bc d8 0f fa bc 07 98 c0 ba bb fe e8 ba
       -0.008163668 -0.030525133 -0.0014693745 -0.0017776111
0003c0 86 0f a4 bc 76 49 b0 bc b0 83 fc 3b 0a 46 90 3c
       -0.020026933 -0.021519404 0.007706128 0.017611522
0003d0 d0 cb 99 bc eb 16 48 be ee b9 e6 bb cc 79 c6 3c
       -0.018773943 -0.19539993 -0.0070412075 0.024228
0003e0 08 dc 14 bd 87 48 79 3c 9b c9 04 3d e7 46 9a 3c
       -0.03634265 0.015215046 0.03241883 0.018832637
0003f0 45 8a bb 3c 89 1a 4e 3e 6c 23 49 3c cb 34 e8 bc
       0.02289308 0.2012731 0.012276512 -0.028345486

net.2.weight f4 [70, 70]
000000 4f 8c a9 3b bf 17 07 bc f9 a2 90 bb 18 e6 24 bc
       0.005174197 -0.008245408 -0.004413959 -0.010064624
000010 d2 d8 5d bc 41 31 96 bb 1f d3 3f bb 16 76 55 bb
       -0.0135404635 -0.0045835082 -0.0029270125 -0.0032571605
000020 b9 59 45 bb 49 35 34 bc 76 fe 74 bb 63 61 13 bc
       -0.0030113293 -0.010999032 -0.0037383116 -0.008995387
000030 f5 67 5c bc df 40 9b 3a 91 4e b5 bc a2 05 3a 39
       -0.01345252 0.0011844895 -0.02213219 0.0001774044
000040 e9 07 a8 3b 40 9d 15 bb 90 5a e2 3b ee 16 fc 3b
       0.005127896 -0.0022829324 0.0069077685 0.007693163
000050 65 88 a1 3b 93 cf 18 3b b1 b2 ac bb 0d 76 1e bc
       0.0049295896 0.0023317083 -0.005270325 -0.0096717
000060 23 62 56 3b 4f 1b 15 bc 99 ee 19 3a 35 5a 92 bb
       0.0032712303 -0.009100749 0.00058720406 -0.00446632
000070 c9 a0 e0 3b 1b 5f a7 bb 82 7d 06 bb 3b a7 c9 bb
       0.0068551046 -0.005107773 -0.0020521586 -0.0061539686
000080 b1 83 90 ba 00 87 fc bb 11 4c f5 3a a2 ef f4 bb
       -0.0011025575 -0.007706523 0.0018714686 -0.0074748555
000090 db 01 37 ba b5 9f 54 3b e5 d3 ed 3b aa 73 fb b9
       -0.00069811725 0.0032443826 0.007257926 -0.00047960627
0000a0 99 28 80 3a c9 e3 52 bb d9 94 39 ba ca 83 7d bb
       0.0009777724 -0.0032179228 -0.000707937 -0.0038683289
0000b0 94 99 0a ba 9f 33 2d 3a e0 1b 54 bb fe 9e ac ba
       -0.0005287167 0.00066071184 -0.0032365248 -0.0013169942
0000c0 40 bb 2a bc a4 b6 60 ba eb 19 97 3b 88 70 a2 bb
       -0.01042062 -0.00085721374 0.004611244 -0.0049572624
0000d0 da 68 70 3b 3c 77 79 3b 76 b5 12 bb a5 57 86 bb
       0.003668359 0.0038065454 -0.0022385991 -0.0040998035
0000e0 91 ef a9 3c 58 13 df 3b 14 8d ad b9 95 4a b1 bb
       0.020744117 0.006807726 -0.00033102243 -0.005410502
0000f0 fd ae c9 bb 80 97 1c bb 94 51 be bc 85 57 a5 bb
       -0.0061548934 -0.0023894012 -0.023232259 -0.0050458335
000100 e0 27 97 3b 5b 21 c6 bb 3f 5c 5d bb 23 49 ed 3b
       0.004612908 -0.0060464568 -0.0033776907 0.0072413846
000110 01 c0 21 bb e2 8b 72 3b e1 9e 03 3b 6c ae 1a bc
       -0.0024681094 0.0037009646 0.0020083713 -0.0094409995
000120 e2 be 45 bb cd 59 60 bb 08 dc 7c bc cd b8 30 bb
       -0.003017359 -0.0034233213 -0.015433319 -0.0026965619
000130 eb 68 d9 bb a4 81 a2 bb 88 a2 3a bb 8d fc 23 bc
       -0.0066348216 -0.004959302 -0.0028478224 -0.010008943
000140 a4 72 bf bb 15 83 0d bc 04 6d 89 bc cb 1d 21 bb
       -0.0058425236 -0.008637209 -0.016775616 -0.0024584408
000150 d9 76 b5 bc f3 5d 39 ba 6a df 0f 3c 05 51 8d bb
       -0.022151398 -0.00070711895 0.008781293 -0.004312637
000160 32 1b 96 3b c4 dd 06 3c e5 50 89 3b a7 da 13 3b
       0.0045808787 0.008231584 0.0041905516 0.0022560747
000170 d0 bb 71 bb fb 2b 2b bc a3 02 14 3b 1a 2f 16 bc
       -0.0036885627 -0.0104474975 0.002258458 -0.009166503
000180 50 e5 20 3a 1d 4d 97 bb 5e 21 2c 3c a3 38 ed bb
       0.0006137686 -0.004617347 0.010506002 -0.0072394176
000190 32 cb 18 bb 6a 6d ba bb c6 40 02 b9 c4 17 e3 bb
       -0.0023314473 -0.0056893127 -0.00012421896 -0.0069303233
0001a0 7e 2e 9d ba 87 12 d9 bb 90 a8 82 3a 69 06 eb b9
       -0.0011992005 -0.006624523 0.0009968448 -0.0004482747
0001b0 fd a8 f1 3b 58 be 29 bb 2c 67 cc 3a 02 65 45 bb
       0.0073748813 -0.0025900807 0.0015594712 -0.003012002
0001c0 78 cf 71 bb d6 aa 13 ba 92 c4 ba 3a be e8 01 3a
       -0.0036897343 -0.00056330615 0.0014249256 0.0004955641
0001d0 61 6f 9c bb d4 d2 81 bb 72 1d 25 bc c3 a0 ac bb
       -0.0047740196 -0.0039619002 -0.010077821 -0.0052681877
0001e0 fe a6 0d 3c 0e 01 cf bb f7 e9 17 3b 03 0f 92 3b
       0.008645771 -0.0063172644 0.0023180225 0.004457356
0001f0 d2 41 d4 bb 15 49 c2 bb 7f c4 a5 3c 10 2b b8 3b
       -0.006477573 -0.005929122 0.020235298 0.005620368
000200 f1 8a 1e bb f3 93 d0 bb 42 fe cb bb 61 cc 90 ba
       -0.0024191702 -0.006365293 -0.0062253783 -0.0011047238
000210 65 3e b8 bc 52 98 d6 bb 31 8b ab 3b 65 ef 0d bc
       -0.02249069 -0.0065489197 0.005235099 -0.008663033
000220 40 5c 63 bb 1a 58 1e 3c ee 79 4b b9 ea 29 9d 3b
       -0.0034692436 0.00966456 -0.00019405011 0.0047962563
000230 80 8d 78 3b 48 0b 0c bc 8d 65 dd bb 30 d2 41 bc
       0.0037926137 -0.008547612 -0.0067564906 -0.011829898
000240 60 b2 37 bc 79 53 95 bb 54 70 89 bb 4d 65 8d bb
       -0.0112119615 -0.00455707 -0.0041942988 -0.0043150545
000250 b4 f6 91 bb 29 f2 20 bc 8c e5 a9 bb 73 21 23 bc
       -0.004454458 -0.0098233605 -0.005184835 -0.009956705
000260 a0 d3 4f bc 69 c6 18 3b df 1c 94 bc 82 a1 43 3b
       -0.012684733 0.002331162 -0.018080173 0.0029850905
000270 74 ed 20 3b 1a 5c d8 ba ca e4 9d 3b e5 6a fb 3b
       0.0024555596 -0.0016506941 0.0048185335 0.007672655
000280 1a 27 19 3b 80 c2 5f 3b aa 6f 77 bb d9 e5 20 bc
       0.0023369254 0.003414303 -0.0037755766 -0.009820425
000290 86 38 2d 3b 94 30 1d bc 57 32 5a bb 9a 3c ba bb
       0.0026431396 -0.009594101 -0.0033294165 -0.005683494
0002a0 ed 90 0c 3c 1d 78 98 bb f3 a0 4e 39 30 94 51 bb
       0.008579475 -0.0046529905 0.00019705649 -0.0031979196
0002b0 c5 30 36 bb 34 02 a2 bb e8 96 52 3a 3e 54 be bb
       -0.0027800065 -0.0049441103 0.0008033351 -0.0058083823
0002c0 c0 fd ba ba 44 a5 0d 3b 62 60 92 3b 41 cf 6f 3b
       -0.0014266297 0.0021613399 0.004467056 0.0036592039
0002d0 ea 71 de 39 38 f1 aa bb 0b 94 42 ba a3 85 9c bb
       0.00042428012 -0.005216744 -0.0007422573 -0.004776673
0002e0 19 5c 49 bb fe f9 53 3b e2 bb 88 bb c1 45 47 3a
       -0.003072506 0.0032345052 -0.004172788 0.00076016417
0002f0 f2 6c e0 bb 63 3f 59 bb 04 4b 9a 3b a7 5c a9 bb
       -0.006848925 -0.0033149354 0.0047086496 -0.0051685157
000300 a1 0f 6a 3b b7 ce d9 3b 1f e1 d9 ba 24 52 ad bb
       0.0035714882 0.006646957 -0.0016622877 -0.005289333
000310 e2 bf ab 3c c9 60 8c 3b 4d 68 5a bb 05 c0 87 bb
       0.02096552 0.0042839986 -0.0033326328 -0.0041427636
000320 04 f5 9b bb d0 4a 80 ba b5 ca c4 bc 2b 4a 0b bb
       -0.0047594327 -0.0009787921 -0.02402244 -0.0021253924
000330 cf 2d 63 3b 1f 25 b3 bb 1b 7c 4e bb 33 1d d1 3b
       0.0034664755 -0.0054670717 -0.0031507078 0.0063816546
000340 5b dc b9 bb 87 1b 23 39 af 82 44 3b d9 44 19 bc
       -0.0056720204 0.00015555146 0.002998512 -0.0093547935
000350 23 83 b6 bb ad 6e 2d bc 99 9f 48 bc 7b be 04 bb
       -0.005569832 -0.010585469 -0.012245082 -0.0020255137
000360 ab 47 97 bb c9 3a dc bb 55 50 59 bb 9f b1 31 bc
       -0.004616698 -0.006720875 -0.0033159454 -0.010845571
000370 4c 80 c6 bb af 0a 04 bc 83 b5 49 bc a2 9a 9f 3a
       -0.0060577746 -0.008059188 -0.012311342 0.0012176821
000380 1f b8 9e bc 42 e2 8d 3a 1e 7b 8d 3b d8 96 36 bb
       -0.019374905 0.0010824876 0.004317655 -0.0027860906
000390 c7 45 ab 3b 61 1d f7 3b 29 f8 64 3b 33 a4 16 3b
       0.005226824 0.007541344 0.0034937954 0.0022986054
0003a0 d4 85 af bb 43 79 3a bc 1f 66 76 3b b8 a1 01 bc
       -0.0053565297 -0.01138145 0.003759749 -0.007912092
0003b0 bf f0 75 bb 6d 5d c3 bb 28 7e f3 3b a4 9a 9f bb
       -0.003752753 -0.005962065 0.0074308105 -0.0048707295
0003c0 3d f3 41 bb 29 b1 bd bb 90 e4 87 ba 60 34 99 bb
       -0.0029594444 -0.0057889414 -0.00103678 -0.004675433
0003d0 bd 27 93 3a 26 76 cd bb e1 a4 94 ba 0e 93 bb 3a
       0.0011227053 -0.006270188 -0.0011340642 0.0014310793
0003e0 cd 6b da 3b a0 2b 42 3b e3 b3 6c 3a a6 ba d8 bb
       0.006665683 0.0029628053 0.0009029491 -0.006614047
0003f0 ff ca bc 3a 82 85 d8 bb 93 f5 d9 ba 9c c7 53 3b
       0.0014403759 -0.0066077122 -0.0016628973 0.0032315021

net.4.weight f4 [70, 70]
000000 8d c7 ff 39 ab 09 56 bb 83 68 bd ba d3 9c 0f bb
       0.00048786067 -0.003265957 -0.0014450703 -0.0021913543
000010 d3 a6 08 3c 30 5a 14 bb 69 7c 10 3c 04 50 50 bb
       0.008340555 -0.0022636764 0.008818724 -0.0031785974
000020 dc 82 d6 bb e7 2a 8c 3c 0c 90 b8 3c 93 0f e4 bb
       -0.0065463614 0.017110301 0.022529624 -0.0069598644
000030 a8 7c ec ba 1f d0 83 bc 1f 28 2d bc 82 da 3d 3a
       -0.0018042522 -0.01609045 -0.010568648 0.0007242338
000040 81 a9 3d 3b b0 fb 3f 3c 99 d6 5a bb e2 f7 2e 3a
       0.0028940144 0.011717722 -0.003339207 0.00066745107
000050 f7 fa 04 3b b1 36 a0 3a d5 cf 42 3c a0 54 90 ba
       0.0020291188 0.001222333 0.011890371 -0.0011011548
000060 e9 b1 e6 ba 9f 31 44 bb fb 8c 21 3b 31 8b 2f 3a
       -0.0017600629 -0.0029936803 0.0024650681 0.00066964614
000070 5d a7 f1 3b 15 f7 23 3b af 42 14 3a 63 3f 91 3b
       0.0073746876 0.0025019099 0.00056556886 0.004432605
000080 52 8a 2c bc 5c 99 49 3c 51 1b c4 ba 28 c8 00 bc
       -0.010531025 0.01230463 -0.0014961754 -0.007860221
000090 04 21 f8 39 dc 6f 5b bb aa f7 15 ba a3 eb 1c bc
       0.00047326845 -0.0033483421 -0.0005720804 -0.009577665
0000a0 56 bf a6 ba 76 78 df 3a cf 6b d7 3b 0e 41 5c 3b
       -0.0012721817 0.001704945 0.006574131 0.0033608112
0000b0 5e 18 36 bc 14 bf e1 39 66 d8 35 bc db ed dc 3a
       -0.011114208 0.00043057709 -0.011098957 0.0016855554
0000c0 77 fd 39 b9 aa 37 2c bb 3a 65 3e bc 38 f2 30 3c
       -0.00017737398 -0.0026278296 -0.011620814 0.010799937
0000d0 79 24 3c 3b 31 94 b8 39 72 a1 e2 b8 ab ee 0f bc
       0.0028708263 0.00035205626 -0.00010806591 -0.00878493
0000e0 be 89 1c 3b f7 99 52 ba 8d 86 a5 bb 0f 66 c8 3a
       0.0023885812 -0.0008033807 -0.00505144 0.0015289205
0000f0 9b f1 15 3a 43 d5 44 3c 54 a4 74 3c fc 2c 1a bb
       0.0005719901 0.012013736 0.014931757 -0.0023525348
000100 82 35 77 3c f3 a3 de bb dc 0b e3 3a 70 61 1c 3c
       0.015088441 -0.0067944466 0.001732226 0.009544715
000110 b3 87 0b 3b 6a 40 cc 3a a9 7a ad 3a 77 52 c5 39
       0.00212906 0.0015583162 0.0013235408 0.0003763621
000120 0f 82 9e 3a 0c 31 cd ba d2 92 97 bc b8 e1 a7 ba
       0.0012093204 -0.0015654876 -0.018502627 -0.0012808358
000130 78 d0 38 3b 21 04 fd bb db 77 29 3b 5d 6c 62 bc
       0.002820043 -0.0077214395 0.0025858793 -0.013819781
000140 10 8c 42 ba 9e 15 cb bb 5f e9 5a 3b 1f a3 86 3c
       -0.00074213836 -0.0061976453 0.003340326 0.016435204
000150 da 83 2d 3c e9 81 87 ba a1 0d 54 3c 5b 28 60 bc
       0.010590518 -0.0010338399 0.0129427025 -0.0136814965
000160 f3 d5 bc ba 22 f9 d8 3b 5e 6a 1e ba d6 1e 5d ba
       -0.0014407024 0.006621496 -0.00060430716 -0.0008435076
000170 d4 f3 98 bc 52 1a 24 3b 1d 6b e5 ba 47 db ff ba
       -0.018670954 0.0025040102 -0.0017503236 -0.0019520306
000180 93 57 e9 3a f8 1f 9f 3a 37 fd 9c bb 73 6d e7 ba
       0.0017802588 0.0012140265 -0.0047909277 -0.001765652
000190 41 31 d9 39 63 b1 25 3a e9 ae 8b 3c de 01 82 bc
       0.00041426162 0.0006320683 0.017051177 -0.015870031
0001a0 48 e5 e1 3a 47 40 60 3c ef ac 93 3a 74 81 22 ba
       0.0017234469 0.0136872 0.0011266748 -0.00061990996
0001b0 0d af 6b 39 86 8f 36 bc 9c 2d fc 38 50 4f 1f bb
       0.00022476558 -0.011142617 0.00012024792 -0.0024308749
0001c0 e1 e7 ee 3b de 17 f7 bb 5b 1f 71 3c 61 71 96 3a
       0.0072908257 -0.007540687 0.014716948 0.0011477881
0001d0 50 43 85 3c 41 4b e4 ba 51 81 50 3b bd a5 7d 3a
       0.016267449 -0.0017417447 0.003181536 0.0009675881
0001e0 13 24 8a 3c 0f f8 fa 38 60 5b 80 3b 5a a6 cc ba
       0.016862905 0.000119671335 0.0039171427 -0.0015613541
0001f0 dd 86 8a 3a 30 3c 77 3c d4 1b 56 ba c5 66 9b 3c
       0.0010568757 0.015090033 -0.0008167599 0.018969903
000200 52 a6 91 bb 8c a1 90 3a 62 33 a7 b9 21 b6 83 bc
       -0.0044448758 0.0011034473 -0.00031891005 -0.016078057
000210 70 f0 7f 3a 24 22 1b ba b5 f8 64 bc 40 7e 86 3c
       0.0009763306 -0.0005917868 -0.013975312 0.016417623
000220 40 66 48 3b ff 6c 95 bc da e3 c9 ba ee a2 eb ba
       0.0030578524 -0.01824045 -0.0015402988 -0.0017977634
000230 73 10 c9 3a da 1c 93 ba 67 ba 61 b9 8a eb b0 b7
       0.0015339985 -0.0011223808 -0.00021527112 -2.1090516e-05
000240 1a 9c 7f bc 6c bf 5c ba 24 cf fe b9 a6 69 80 bb
       -0.015601182 -0.0008420858 -0.00048600987 -0.0039188443
000250 47 f2 c4 3b 67 fd 80 bc 5f e0 c3 bb e8 49 00 bb
       0.006010327 -0.015745832 -0.005977675 -0.0019575302
000260 8a ce 28 3b 7b 3b 70 3c e5 5c 24 3c 77 62 8f ba
       0.0025757872 0.014662619 0.010031913 -0.0010939379
000270 53 99 05 3c 45 0d 45 bc 65 b5 2b 3b 1f 2e 9c 3b
       0.008154231 -0.0120270895 0.002620065 0.0047662403
000280 77 f3 6e ba b1 56 ae 3a 9f 1a 7f bc 6d 21 4b 3b
       -0.00091152586 0.0013300983 -0.015570312 0.0030995265
000290 d2 85 1a 37 b4 8a fb 39 51 e2 a4 ba 15 e4 d6 b9
       9.210273e-06 0.00047977793 -0.0012579655 -0.00040987195
0002a0 2a 4a 0c bc 2a cb 05 bb 57 a1 5a ba 09 55 32 bb
       -0.008562604 -0.0020415285 -0.00083400815 -0.002721133
0002b0 70 92 5a 3c 66 d2 82 bc 24 01 f1 3a f7 6b 3f 3c
       0.0133405775 -0.015969466 0.0018387181 0.011683456
0002c0 c7 49 06 bb b0 19 07 3b bb 86 d3 ba 99 65 b4 bb
       -0.0020490752 0.0020614676 -0.0016138175 -0.0055052754
0002d0 44 ba ab 3a ef 99 be ba 68 a0 6d ba 3b 0c 9d bb
       0.0013101776 -0.0014541725 -0.0009064735 -0.0047927178
0002e0 6d 45 75 3c 88 8e 8c ba e0 b1 75 3c d9 69 86 3a
       0.014970166 -0.001072363 0.014996022 0.0010254934
0002f0 80 78 c7 ba 2c 23 e2 b9 48 d7 80 3c 80 4d 5e bb
       -0.0015218407 -0.00043132284 0.015727654 -0.0033920705
000300 d3 49 05 3b 4c 5c 2b bb 96 c6 28 bb 30 87 52 3c
       0.0020338192 -0.0026147543 -0.0025753132 0.012849614
000310 b5 6c 0b 3b 44 9e 51 3c 5f 31 b9 ba 41 f7 d1 ba
       0.0021274511 0.012794081 -0.0014129094 -0.0016019122
000320 2c b3 5d 3a 15 b7 7e bc c3 c6 85 bb 71 fc cf 3a
       0.00084571796 -0.01554658 -0.004082532 0.001586808
000330 ff 83 5f bc cb e5 57 3c 43 3d 5e ba 69 dd 83 bc
       -0.01364231 0.0131773455 -0.00084777566 -0.016096788
000340 21 4b 81 3a 59 fe 05 ba c8 d6 23 bb e6 90 90 ba
       0.0009864309 -0.0005111448 -0.0024999846 -0.0011029511
000350 a3 dd 33 39 0e d3 c1 ba 99 67 65 bc 0a 1c 4f ba
       0.00017153336 -0.0014787631 -0.01400175 -0.00079006015
000360 99 5a 65 3c 4a d1 61 bc 12 26 04 3a 2e e6 a7 bc
       0.013998651 -0.013782809 0.00050410733 -0.0204955
000370 a6 c0 7e 3b 15 fd 4e bc 09 59 4f bb 9d 53 b7 3c
       0.0038872152 -0.012633582 -0.0031638762 0.022378737
000380 e0 b6 97 3c 1c 08 81 ba 53 a9 d3 3b 00 17 dd bc
       0.018519819 -0.0009844336 0.006459394 -0.026988506
000390 98 ab 04 bb 87 c1 6b 3c 85 99 91 3a d3 a4 85 3a
       -0.002024388 0.014389402 0.0011108374 0.0010196216
0003a0 a9 58 d3 bc 32 09 66 bb 34 bf 03 bb 6e 3d 2a ba
       -0.025799112 -0.0035100696 -0.002010298 -0.0006494139
0003b0 bf 75 e2 3a 38 33 70 ba 33 dc 1b bc be 69 54 3b
       0.0017277523 -0.00091629056 -0.009512949 0.003241166
0003c0 dd 72 cb 3a 78 f3 cd 3b b1 f3 b3 3c d9 a0 e7 bc
       0.0015521903 0.0062851273 0.021966787 -0.02827494
0003d0 15 54 09 b9 53 0f f7 3c 66 17 08 ba 3d f1 3c 3a
       -0.00013096661 0.030158674 -0.0005191475 0.0007207578
0003e0 2c 5b 12 3b c1 88 1f 3c bc 8a 97 ba 93 5b ec 3b
       0.0022332175 0.0097371945 -0.0011561732 0.007213065
0003f0 5e 35 9a 3c ee f5 83 bc 85 84 a8 3c 4a d0 f9 3a
       0.018824276 -0.01610848 0.020571003 0.0019059267

net.6.weight f4 [1, 70]
000000 16 3e 5a ba 14 ba b8 3b 03 3c 81 3b 98 13 21 3b
       -0.00083252916 0.0056374166 0.0039439215 0.002457833
000010 0f a5 f8 bc b2 f8 d4 bb a5 8c 0f 3c 68 b7 cd 3a
       -0.030352144 -0.0064993734 0.00876156 0.0015694918
000020 0f 0b ab b9 b9 ba 7b b9 5b fd 6c b9 97 40 8a 3b
       -0.000326239 -0.00024006785 -0.00022601096 0.0042191255
000030 4b 4c 3a 3b c8 92 a0 39 cb 2b ef 3a dc ee 36 bb
       0.0028426822 0.0003062694 0.0018247304 -0.0027913367
000040 e5 35 27 ba 85 ac 9a 3b fd b8 8d b9 79 f2 69 3c
       -0.00063785753 0.004720273 -0.00027031443 0.014279001
000050 23 c8 b8 3b a5 74 2a 3b 70 29 bb 3b f5 c9 40 ba
       0.0056390925 0.0026009467 0.005711727 -0.00073543127
000060 27 c0 4b 3b 73 f2 79 3b 2e b4 72 3b f9 f8 93 3a
       0.0031089874 0.0038138896 0.0037033665 0.001128941
000070 1a 96 90 3b c2 30 9d bc e1 41 9a 3b 2d 27 01 bc
       0.0044124248 -0.019188289 0.0047075604 -0.007882875
000080 e2 89 14 3a 33 f9 aa 3b a7 f2 63 ba 5e 92 53 bb
       0.0005666298 0.005217695 -0.0008695521 -0.0032283287
000090 15 f4 41 3c a1 7e 02 bb 52 1c d5 bb 71 cb af 3b
       0.011837979 -0.0019911902 -0.00650362 0.0053648283
0000a0 92 95 aa bb c0 7a ed 3b 8c 28 59 ba 26 7b ab bb
       -0.0052058185 0.007247299 -0.0008283935 -0.0052331863
0000b0 bc 71 ea 3c 2b 93 b8 3b a8 fb b9 3b 38 de 74 3b
       0.028618686 0.005632778 0.0056757517 0.0037363898
0000c0 31 40 a3 bc 01 b2 c5 bb a3 32 f0 bc d0 22 2d bb
       -0.01992807 -0.0060331826 -0.02932102 -0.0026418455
0000d0 09 80 85 3b 74 74 7b bb 9a fb f7 39 df 32 b6 3b
       0.004074101 -0.0038368972 0.0004729897 0.0055602635
0000e0 d3 e1 e8 3a b5 f3 d3 b9 dd f3 9c 3b 0a 1d f6 3b
       0.0017767496 -0.00040426632 0.004789813 0.007510786
0000f0 d1 f9 30 3c 4b e5 0b 3c ed 52 e6 ba 73 86 11 38
       0.010801748 0.008538554 -0.0017572321 3.469591e-05
000100 56 d0 9a 3b 7a 19 e6 bb 57 62 8e 3b 8c 5b c9 3b
       0.0047245426 -0.00702208 0.004345219 0.0061449464
000110 2e 1b 1a bc 4b a9 c7 bb
       -0.009405894 -0.0060931793
