models/mlp_pure_seed_111.pt (torch, 46017 bytes, 4 tensors)

net.0.weight f4 [70, 4]
000000 34 3d 9d bd be 5f c9 3e 42 27 36 be fa 26 68 be
       -0.07677689 0.39330858 -0.17788413 -0.22671118
000010 0b e1 8a bd dc c0 a6 3e bc c2 db bd c2 5a 06 be
       -0.06781205 0.32569015 -0.10730502 -0.13120559
000020 7a f8 8a bd a3 f0 a7 3e 6e ba dd bd c7 a4 e8 bd
       -0.067856744 0.3280078 -0.10826574 -0.11359554
000030 c8 ab 9a 3d de 1d d5 be 24 24 24 3e 8d 3b 4a 3e
       0.07552296 -0.4162435 0.16029412 0.1974928
000040 99 7f a5 bd 90 53 95 3e 6d f1 13 be cd d3 32 be
       -0.08080978 0.29165316 -0.14447565 -0.17463608
000050 18 c9 8d bd 39 68 a9 3e 77 9b de bd cb e9 f4 bd
       -0.06923121 0.33087328 -0.10869496 -0.11958655
000060 72 e7 8a 3d d1 fd a6 be 13 e4 dc 3d e8 a8 02 3e
       0.06782426 -0.32615522 0.10785689 0.12759745
000070 67 ee 8c bd 75 85 9c 3e ca 31 d5 bd 6f 81 25 be
       -0.06881409 0.3057057 -0.10409887 -0.16162656
000080 c5 77 87 bd 2d 61 ab 3e ba ee 0d be ca 27 5e be
       -0.06614641 0.33472577 -0.13860598 -0.21694866
000090 22 37 86 bd cd b8 94 3e 99 f1 07 be 98 30 62 be
       -0.065534845 0.29047242 -0.13275756 -0.2208885
0000a0 cc df 9a 3d c5 27 ad be 40 27 05 3e 10 b5 1e 3e
       0.07562217 -0.33819404 0.13003254 0.15498757
0000b0 1f 40 9a 3c d8 e7 8a 3d 29 c5 76 3d df 98 da 3d
       0.018829403 0.06782502 0.06024662 0.10673689
0000c0 26 98 8b bd 7c eb a0 3e 34 35 da bd e7 aa 1e be
       -0.068161294 0.3142966 -0.10654679 -0.15494882
0000d0 d9 45 9a 3d d2 34 a5 be fd ca 03 3e ff ea 1b 3e
       0.07532854 -0.3226686 0.12870403 0.15226363
0000e0 f6 04 8a bd 69 aa a6 3e 4c 75 dd bd ed 59 05 be
       -0.067392275 0.32551888 -0.10813388 -0.13022585
0000f0 40 3a 9a bd 2f b1 c5 3e f3 5e 27 be 6a 73 58 be
       -0.075306416 0.38611743 -0.16344814 -0.21137777
000100 2f b6 88 3d f1 14 ab be c2 85 04 3e c2 43 4f 3e
       0.06675374 -0.33414415 0.1294165 0.20240691
000110 7b 38 89 bd 37 8c a6 3e 29 72 df bd d7 8d 02 be
       -0.06700226 0.3252885 -0.10910446 -0.1274942
000120 6e 27 9e bd 46 04 c7 3e 4d 7c 25 be 55 a3 16 be
       -0.07722364 0.38870448 -0.16160698 -0.14710744
000130 fa 21 9c bd 4e e8 c8 3e d0 84 27 be bd 69 31 be
       -0.07623668 0.39239734 -0.16359258 -0.17325492
000140 69 f2 89 bd 11 30 a1 3e 5a 48 dc bd 8a 12 13 be
       -0.06735689 0.31481984 -0.107559875 -0.14362541
000150 4a 65 88 3d 5f 0f a3 be ec b7 de 3d 3f 86 06 3e
       0.06659944 -0.31847665 0.10874924 0.13137148
000160 9f d3 9e 3d db b1 cc be f5 64 28 3e 6d 25 1b 3e
       0.07755207 -0.39979443 0.16444762 0.15150996
000170 26 67 9f 3d ad 0d d6 be 23 9e 3a 3e 75 80 69 3e
       0.07783346 -0.4180731 0.18224387 0.22802909
000180 1d 89 89 3d 31 22 a8 be 5e 68 dc 3d 81 ba e7 3d
       0.067156054 -0.32838586 0.10762094 0.1131487
000190 ea 5a cd 3b c7 27 c8 bd 69 17 b7 bd 5c ae 2d be
       0.0062669413 -0.09773212 -0.08940012 -0.16961044
0001a0 a8 6a 8b 3d 4d 8a a4 be e5 5b dd 3d fc ba 0c 3e
       0.068074524 -0.32136765 0.10808543 0.13743204
0001b0 d0 f7 9e 3d 54 aa bd be 08 24 38 3e 58 35 87 3e
       0.0776211 -0.37044013 0.17982495 0.26407886
0001c0 75 1b 9f 3d 29 b7 d7 be 6c 78 19 3e 7b e5 16 3e
       0.07768909 -0.42131928 0.14987344 0.14735977
0001d0 e9 eb a8 ba 7d 4f 81 bd 0c 49 c1 bd 8f 8e 2f be
       -0.001288769 -0.06313989 -0.09437761 -0.17144226
0001e0 38 6b 8b 3d 91 de 9f be 33 40 d8 3d a7 6e 17 3e
       0.0680756 -0.31224492 0.1055912 0.14788304
0001f0 97 ac 8a 3d 2c af a7 be 06 af e0 3d cc 33 05 3e
       0.067712 -0.32750833 0.10970883 0.1300804
000200 14 fc 88 bd 03 30 b4 3e 33 3b 0a be 4b 2f 46 be
       -0.06688705 0.3519288 -0.13499145 -0.19353978
000210 d0 36 96 bd 5b f3 d6 3e 9c f2 33 bd 03 54 28 bc
       -0.073346734 0.4198254 -0.043932542 -0.010273936
000220 81 01 8b 3d 34 6d a8 be ed 9c dc 3d 3f f9 e2 3d
       0.06787396 -0.32895815 0.10772119 0.11082696
000230 05 98 8b bd 34 24 a7 3e 4e db de bd 96 e6 01 be
       -0.06816105 0.32644808 -0.10881673 -0.12685618
000240 89 85 aa bd e5 05 8a 3e 5c 89 1f be 8b 1a 27 be
       -0.08326251 0.26957622 -0.15579742 -0.16318719
000250 51 a0 88 3d 87 1c aa be 84 cc 03 3e 3d 01 4d 3e
       0.06671203 -0.3322489 0.12870985 0.20020004
000260 f2 4c a1 bd d5 90 c2 3e 08 6c 0d be 41 87 da bd
       -0.07876004 0.38001123 -0.13810742 -0.10670329
000270 ba 4c 9d bd 5c b9 cc 3e a0 a3 15 be 4e 36 09 be
       -0.0768065 0.39985168 -0.14613199 -0.13399622
000280 5b 4e 9f 3d 85 83 c7 be c7 7e 23 3e 3b 39 0e 3e
       0.07778617 -0.3896753 0.1596633 0.13889019
000290 11 03 8b 3d 61 2d b7 be d1 d1 08 3e 2f 75 45 3e
       0.06787694 -0.3577681 0.13361289 0.19282983
0002a0 81 f8 8b 3d fa f4 9d be f5 a9 d7 3d bd 2b 1d 3e
       0.06834508 -0.30850965 0.105304636 0.15348716
0002b0 8d 84 ed 3c aa e0 97 3d 77 07 bc 3d 6b f4 20 3e
       0.02899387 0.07415898 0.09181111 0.15718238
0002c0 08 dc 03 bd 07 3e 2e bd 0b 10 b0 bd 92 4e 0b be
       -0.03219226 -0.042539623 -0.0859681 -0.13604191
0002d0 3c b8 8a 3d b0 e7 a4 be 69 76 de 3d e9 87 0c 3e
       0.06773421 -0.32208014 0.10862429 0.1372372
0002e0 bf 56 8b bd a9 31 a8 3e 59 23 e0 bd cf 03 fc bd
       -0.06803655 0.32850388 -0.10944242 -0.12305414
0002f0 3c 87 8a bd cc 6c a8 3e 23 97 dc bd 4a 8f fe bd
       -0.06764075 0.32895505 -0.107710145 -0.12429674
000300 ff b5 8a 3d a3 b7 a7 be 15 eb e1 3d 9b 24 01 3e
       0.06772994 -0.3275729 0.110311665 0.1261162
000310 c6 03 9b 3d 45 d4 bb be a1 37 14 3e 79 ba 23 3e
       0.07569079 -0.36685386 0.14474346 0.15989102
000320 39 b7 8a bd 17 5a a6 3e 9f ff df bd a2 4f 05 be
       -0.06773228 0.32490608 -0.10937428 -0.13018659
000330 fa 39 8b bd 31 3c a6 3e 7a 0a dc bd d3 9a 0b be
       -0.067981675 0.32467797 -0.10744186 -0.1363328
000340 9f ce a0 bd 95 a2 d7 3e 6a 5d 3d be 0d 8a 66 be
       -0.0785191 0.42116228 -0.18492666 -0.225136
000350 7d 64 8b 3d cd bd a9 be 10 65 db 3d f4 4c e2 3d
       0.06806276 -0.3315262 0.107126355 0.11049834
000360 56 cb 08 3c 53 eb db bd c3 21 c0 bd d6 03 2a be
       0.00834926 -0.10738244 -0.093814395 -0.16603026
000370 4c 34 8b bd a4 eb a4 3e c7 09 db bd da e4 0f be
       -0.06797084 0.3221103 -0.10695224 -0.14052144
000380 0d e0 a1 3d f5 c3 a1 be a4 0e 29 3e 23 cb 63 3e
       0.079040624 -0.31594816 0.16509491 0.2224546
000390 94 03 9a bd 3c d0 c9 3e c3 51 2f be 02 6c 85 be
       -0.07520214 0.39416683 -0.17121033 -0.26058966
0003a0 2d 37 a4 3d fe e2 bb be 27 c0 01 3e 70 f9 b9 3d
       0.080183364 -0.3669662 0.12670957 0.090807796
0003b0 b7 3f 8a 3d 29 c0 a6 be 1f f5 df 3d af b4 04 3e
       0.06750434 -0.32568482 0.10935425 0.1295955
0003c0 8f 5f 8b 3d ca 03 a7 be 8b c2 e2 3d ef 49 0a 3e
       0.06805336 -0.32620078 0.110722624 0.13504766
0003d0 09 b6 87 bd 99 b5 a4 3e d2 7f e0 bd 26 a8 ff bd
       -0.06626517 0.32169798 -0.1096188 -0.12483244
0003e0 d4 cc a2 bd 60 52 b9 3e 68 96 3d be ec 16 77 be
       -0.07949224 0.3619566 -0.18514407 -0.24129838
0003f0 63 51 ae 3d 6b 04 73 be 4f 96 15 3e 3a d8 29 3e
       0.08511617 -0.23732154 0.1460812 0.1658639

net.2.weight f4 [70, 70]
000000 da 33 42 3e b3 23 a8 3d b9 e1 a0 3d 84 b3 13 be
       0.18965092 0.08209934 0.07855553 -0.14423949
000010 6b 6d d7 3d 0f d8 ab 3d 73 79 a3 bd cb 0e ac 3d
       0.10518917 0.08390819 -0.07982149 0.08401259
000020 d9 4b b9 3d c3 06 7d 3d 10 7d c0 bd f0 2f 27 3d
       0.0904767 0.061774027 -0.09398854 0.0408172
000030 cb 8c a9 3d d2 64 bb bd 38 db a0 3d 52 3e 14 3e
       0.08278807 -0.09150089 0.07854313 0.14476898
000040 e0 26 b9 bd 4b e3 9d 3d 99 fb 17 3e 5c 99 19 3e
       -0.09040618 0.07709368 0.1484207 0.14999908
000050 3e d2 a6 3d a9 03 9a bd 97 c7 1e be 99 45 4f be
       0.08145569 -0.07520229 -0.15505825 -0.20241393
000060 3c 61 a1 bd 08 8b 7b 3c f5 dc a6 bd 0d 98 4e be
       -0.07879874 0.015352972 -0.08147613 -0.2017519
000070 9a b8 08 be 84 36 2b 3c da 68 a7 bd 6e 46 a6 bd
       -0.1335167 0.010450009 -0.08174296 -0.08118902
000080 f7 a6 bc 3d 75 91 bc 3d 43 74 a8 bd d9 80 ac 3d
       0.092115335 0.09207431 -0.082253 0.08423013
000090 a8 e7 e8 3d 76 92 ba bd 52 94 f0 3d 87 eb fd 3d
       0.1137231 -0.091099665 0.1174704 0.12398439
0000a0 81 59 14 be b4 e7 ca bd e3 98 a6 bd 74 56 51 3c
       -0.14487268 -0.09907475 -0.081346296 0.01277696
0000b0 f4 e7 cf bc ea bf a5 bd 60 a7 ab 3d e1 02 a8 3d
       -0.025379159 -0.08093245 0.083815336 0.08203674
0000c0 71 ab a5 bd 9c 6a de bd 6d ba a3 3d 3e d3 a7 3d
       -0.080893405 -0.10860178 0.07994542 0.08194588
0000d0 51 ba 38 3e c3 f5 a7 bd dc 61 c4 3c 70 02 aa 3d
       0.18039824 -0.08201172 0.023972444 0.08301246
0000e0 16 9f 22 be 6a 5e 2d 3e e3 be df bd 00 2d a4 bd
       -0.15880999 0.16930547 -0.109250806 -0.080163956
0000f0 31 80 ac bd d4 f2 93 3d cf e3 48 3e 47 92 da bd
       -0.08422888 0.0722405 0.19618152 -0.106724314
000100 1d ec fd 3d 2c 97 9e bd 35 dd ca bd 23 ee a2 bd
       0.12398551 -0.077436775 -0.09905473 -0.07955577
000110 c4 26 81 3d 54 09 20 be c8 50 23 3e 5a 64 c5 3d
       0.06306222 -0.15628558 0.15948784 0.09638281
000120 ec af cc 3d 33 85 14 be 26 4c 04 3e 59 8b c9 3d
       0.09994492 -0.14503936 0.12919673 0.098410316
000130 77 51 c7 bd 40 74 c8 3d 38 4d 18 3e bd 77 0c 3e
       -0.09732335 0.09787798 0.14873207 0.13717552
000140 5e 25 fd bd e5 50 12 3d fb 47 c9 3d 76 f7 f0 bd
       -0.12360643 0.03572168 0.09828182 -0.117659494
000150 e6 b1 c5 3d 2f cd 3a 3e b0 d4 08 be 79 bb cb 3d
       0.09653072 0.18242334 -0.13362384 0.09947867
000160 ad de ec 3d 8b b3 03 3e 3a 1c c7 3d 89 f6 c9 bd
       0.115659095 0.12861459 0.09722181 -0.09861476
000170 8c e0 f5 bd c3 25 1e be e3 43 c7 bd ab 12 31 3c
       -0.120057195 -0.15444092 -0.09729745 0.010807673
000180 5f 76 c5 bd a4 be 3a be 3c a1 00 be 9b 0c 80 3c
       -0.09641718 -0.18236786 -0.12561506 0.01563101
000190 8a 9d c3 bd f2 c0 c7 bd 06 66 07 3e 1a 31 a4 3d
       -0.095515326 -0.09753598 0.13222513 0.08017178
0001a0 a6 2c c9 bd c0 70 cc 3d d9 97 f8 3d ed f3 06 be
       -0.09822969 0.09982443 0.12138338 -0.13178988
0001b0 07 15 dd 3d a1 ef f9 3d ab d0 ea bd b3 69 06 be
       0.10795026 0.12203909 -0.114655815 -0.13126259
0001c0 8b 6a c6 bd 43 43 28 3c 6e 06 30 bc bd 36 c7 bd
       -0.0968829 0.010269943 -0.01074372 -0.097272374
0001d0 25 fe c5 3d d2 0c c8 3d 84 dd c8 bd 91 43 13 be
       0.09667615 0.0976807 -0.09807876 -0.14381243
0001e0 e2 20 c7 3d 0d d1 c9 3d 13 98 56 3e e3 ad cc bd
       0.09723069 0.098543264 0.20956449 -0.09994104
0001f0 22 a4 90 3c ac 9a ca 3d ce 25 41 be 95 df 40 3e
       0.01765639 0.098927826 -0.18862078 0.1883529
000200 1e b8 cd bd 0b 27 c8 bd d3 3e ce bd d0 fc ca 3d
       -0.10044883 -0.09773072 -0.100705765 0.099115014
000210 7a ef 51 3e 9c cb e4 bd 44 19 ea 3d dd cb ca bd
       0.2050151 -0.11171648 0.114306 -0.09902165
000220 c0 b2 e9 bd 0c 0c c4 bd eb 72 7a 3d 51 ee 33 be
       -0.11411047 -0.0957261 0.06114475 -0.17571379
000230 8e 7b 46 3e 1a e7 ab 3d ad 40 a6 3d c8 35 13 be
       0.1938307 0.083936885 0.08117805 -0.14375985
000240 f5 1a de 3d 6e 5c b4 3d 36 47 ae bd 21 b5 b3 3d
       0.108449854 0.08806692 -0.08509676 0.08774782
000250 44 22 bc 3d 90 29 8a 3d b9 54 c0 bd c0 e8 1e 3d
       0.09186223 0.06746209 -0.093911596 0.038796186
000260 ca de ac 3d a1 db c4 bd 5f 88 a7 3d b3 c4 17 3e
       0.08440931 -0.096122034 0.081803076 0.14821129
000270 94 39 c3 bd 4c 4a a3 3d 9b f5 18 3e b9 cb 1a 3e
       -0.095324665 0.079731554 0.14937441 0.15116777
000280 f5 ee a8 3d f8 1a a3 bd 3c f4 21 be 31 87 53 be
       0.082487024 -0.07964128 -0.15815824 -0.2065704
000290 18 51 a3 bd fc d0 81 3c 35 74 b0 bd 2b 69 50 be
       -0.07974452 0.015846722 -0.08615915 -0.20352618
0002a0 da 29 0a be 29 87 1f 3c 52 00 ac bd 07 1a a9 bd
       -0.13492528 0.009736815 -0.083984986 -0.082569174
0002b0 12 3a c7 3d 85 f6 c2 3d f8 3b a8 bd 6f 4e ab 3d
       0.09727873 0.09519676 -0.08214563 0.083645694
0002c0 b7 19 e4 3d 6e ba c2 bd 72 98 f6 3d cd 89 fe 3d
       0.11137717 -0.09508215 0.120407954 0.12428627
0002d0 4f c1 18 be e8 e4 cd bd a7 a6 ac bd ef b9 84 3c
       -0.14917491 -0.10053426 -0.08430224 0.016201941
0002e0 fa 00 da bc 0a 7d a9 bd 32 47 a9 3d 5a 42 ad 3d
       -0.026611794 -0.082758024 0.082655326 0.08459921
0002f0 76 f5 ab bd dd ef dc bd 8c 3d aa 3d d7 e5 ad 3d
       -0.08396427 -0.10787938 0.083125204 0.08491104
000300 08 be 3d 3e 92 51 aa bd ab 85 be 3c c6 b5 ad 3d
       0.18529522 -0.083163396 0.023257097 0.08481936
000310 9e b6 23 be d0 4b 2f 3e e9 f8 e7 bd d8 56 ac bd
       -0.15987632 0.17118764 -0.11326773 -0.08415002
000320 ab 0f aa bd 4a 35 9d 3d e0 bc 4b 3e 0f a0 d9 bd
       -0.0830377 0.0767618 0.19896269 -0.10626232
000330 d2 60 00 3e 2e 76 a3 bd 22 10 d0 bd 40 79 a9 bd
       0.12536934 -0.07981525 -0.10159327 -0.0827508
000340 f7 c4 7d 3d 48 26 26 be 69 3c 46 3e 67 d0 a4 3d
       0.06195542 -0.1622554 0.19358982 0.08047562
000350 bb 28 a2 3d d5 b5 13 be f1 5c db 3d f9 91 aa 3d
       0.07917925 -0.14424832 0.107110865 0.08328623
000360 d6 91 a4 bd 37 f8 a8 3d 3f b4 b3 3d f7 ef 85 3d
       -0.080356285 0.08250468 0.087746136 0.0653991
000370 06 70 be bd 8c bd 25 3d 8a fd a9 3d 89 0e bd bd
       -0.092987105 0.04046397 0.08300312 -0.09231288
000380 e9 82 a7 3d ff a6 13 3e 4e 98 b9 bd 96 2e 9d 3d
       0.08179266 0.14419173 -0.09062253 0.07674901
000390 d0 4f 15 3e a5 0b 1a 3e 75 7c a2 3d a9 81 98 bd
       0.14581227 0.15043505 0.079338945 -0.07446606
0003a0 53 dc 1e be d6 72 4e be e4 93 9e bd 53 ed 7f 3c
       -0.15513735 -0.20160994 -0.07743052 0.015620547
0003b0 8a dd a4 bd 6a a6 4b be f3 6f 09 be c8 d2 56 3c
       -0.08050068 -0.198877 -0.13421611 0.013111778
0003c0 4e 9d ab bd 42 05 a3 bd 5e b6 c1 3d e1 53 bb 3d
       -0.08379613 -0.07959987 0.09458612 0.09146858
0003d0 34 4a a5 bd 51 ac a4 3d 42 aa e6 3d c9 8d b9 bd
       -0.08070794 0.08040679 0.11262943 -0.090602465
0003e0 8b a1 f0 3d 16 59 01 3e 5e 24 17 be f8 7b ce bd
       0.11749562 0.1263164 -0.14759967 -0.10082239
0003f0 9b fb aa bd 29 fc 27 3c f7 cc bf bc 23 4b a2 bd
       -0.08348771 0.010252991 -0.023413165 -0.079244874

net.4.weight f4 [70, 70]
000000 29 78 fe bc 41 80 a9 3b 4c 69 f8 bc 89 65 06 bd
       -0.031063156 0.0051727598 -0.030323647 -0.032811675
000010 38 43 d3 ba cc 4b 10 3d 63 ee fb bc f5 9d 12 3d
       -0.0016118055 0.035228536 -0.03075332 0.03579517
000020 bd fa 0b 3d b7 b5 a4 ba 39 22 02 bb 80 70 15 bd
       0.03417467 -0.0012566362 -0.0019856824 -0.03648424
000030 b8 c4 3b 3c 6c 1c d5 b6 3b 6c 0c bd 04 d8 0a bd
       0.011460476 -6.3512034e-06 -0.034282904 -0.033897415
000040 12 c0 14 bd fa e9 56 3b 68 6e 12 3d 23 2a 07 bd
       -0.036315985 0.003279327 0.035749823 -0.03299917
000050 c6 81 14 bb 47 19 14 3d e4 c1 05 3d af 11 22 bc
       -0.0022660359 0.03615692 0.03265561 -0.009891911
000060 a7 01 0c bb eb b1 59 bb cf a0 8c 3d 7b 76 11 bd
       -0.002136329 -0.003321762 0.06866609 -0.035513382
000070 47 1d bf ba 7f 59 fd 3c f2 aa 14 3d 22 15 07 3d
       -0.0014580869 0.030926464 0.03629584 0.03297914
000080 02 94 03 3d a1 39 e5 ba 1d 2e b6 ba 24 b9 d5 3b
       0.032123573 -0.0017488488 -0.0013899241 0.0065223146
000090 73 86 11 3d 0a a4 71 bc 1a 1b ec 36 48 bd 5f 38
       0.03552861 -0.014748583 7.036503e-06 5.3343625e-05
0000a0 3c b1 1a b9 3a 3e 56 3d dc d0 cf 3a 55 cd e3 bb
       -0.0001475261 0.052305438 0.0015855092 -0.0069519677
0000b0 03 36 09 3d 6f 04 44 3c 68 f7 c1 3a da 0d 0b 3d
       0.033498775 0.011963948 0.0014798464 0.033948757
0000c0 29 34 0a bd 3d e3 a4 3b b1 34 07 3d 38 ab 39 bb
       -0.03374115 0.0050319717 0.033009235 -0.0028330814
0000d0 02 d2 b8 39 09 80 fc 3c ef 67 0c bd 17 ab 02 bd
       0.00035251683 0.03082277 -0.034278806 -0.031901445
0000e0 b5 88 df 3a 77 73 cb bb 8c 2a 0e 3d 7a b5 43 bb
       0.0017054292 -0.006208833 0.034708545 -0.0029862807
0000f0 bf 6e 12 bd 6c 56 f1 b9 93 82 0d bd 0c 46 fc 3a
       -0.035750147 -0.0004603149 -0.034548353 0.001924695
000100 54 f2 07 3d 59 74 0c 3d b9 b0 53 3b 7f ff 09 3d
       0.033190086 0.034290645 0.003230138 0.033690926
000110 f5 82 28 3b 0d 60 70 bb 45 ed 2f 3d 59 fc c0 bc
       0.0025712822 -0.0036678344 0.042950887 -0.023557829
000120 23 7b 0b 3d de 3d 29 3d d3 b2 6d bc 5b 12 0e bd
       0.03405298 0.041318767 -0.014507967 -0.034685474
000130 a4 39 27 3d 33 54 2e bd fb 32 1f bd 9e 9b 74 bc
       0.040826455 -0.042560767 -0.03886698 -0.01492968
000140 72 cd ac 3c 27 1b 19 3d 3e 4c b5 3b 85 45 a0 bc
       0.021094058 0.03737941 0.0055327704 -0.0195644
000150 a0 ce 05 3d 1c d1 23 3d cc cc 0b 3d d3 57 2b 3c
       0.032667756 0.039994344 0.034130856 0.010457951
000160 15 e6 12 bd 2c b8 12 3d 1e e2 76 3c 29 d2 1f bd
       -0.035863955 0.03582017 0.015068559 -0.039018784
000170 a4 2e 11 bd a9 27 a3 3c e9 4f c8 3c 2a 60 d0 bb
       -0.03544487 0.019916372 0.024452167 -0.00635912
000180 46 66 31 3d 70 37 31 3d 30 ee 16 bc 44 cc 21 bd
       0.043310426 0.04326576 -0.009212062 -0.039501444
000190 22 58 0b bd 78 dd 15 bd 9e bd 24 bd e5 53 8c bb
       -0.034019597 -0.036588162 -0.040219896 -0.004282462
0001a0 1c 01 c9 3c ad 03 08 bd b6 f5 14 bd 5e 22 91 bc
       0.024536662 -0.03320663 -0.03636714 -0.017716583
0001b0 bc 90 27 3c fc fa 88 3c e1 69 ab bc e9 88 4b 3d
       0.010227378 0.016721241 -0.02092451 0.049691115
0001c0 e3 ef 88 3c e7 c7 00 3d 5b 5f 32 bd a3 3a f7 bc
       0.01671595 0.03144064 -0.04354797 -0.030179327
0001d0 0f ef 6f bc 34 b1 35 bd 77 fb 1e 3d 85 a6 a1 bc
       -0.014644398 -0.044358447 0.038814034 -0.019732723
0001e0 61 2e 27 bd 00 a2 bb 3c ba ac 82 bc 08 c1 26 bd
       -0.040815715 0.022904396 -0.015951503 -0.040711433
0001f0 74 2d 26 3d 62 ca 2b 3d 42 7a 98 3c 89 67 08 3d
       0.04057069 0.041941054 0.018612985 0.033301864
000200 a6 15 2a bd 5b e9 a9 3c 4a 2f 1a 3d 4a 16 8c 3c
       -0.04152455 0.020741155 0.037642755 0.017100472
000210 4c 87 15 3d 6a 84 90 3c aa 70 16 bd b5 3e 14 bd
       0.036505982 0.017641265 -0.03672854 -0.036192615
000220 c7 2d 45 bc de 0d 2a bd 11 be 86 3b 23 84 86 3c
       -0.01203484 -0.04151713 0.004112013 0.01642043
000230 50 44 02 be 50 d8 30 be e9 37 05 be 0d 7d fb bd
       -0.12721372 -0.17270017 -0.1300961 -0.12279711
000240 b1 70 2a be 39 17 05 3e cd 92 03 be af 16 00 3e
       -0.16644551 0.1299714 -0.12848969 0.12508653
000250 a9 44 02 3e 7e 6a 2a be 3e a6 2f 3e 2e 35 07 be
       0.12721504 -0.16642186 0.1715326 -0.1320388
000260 25 9c 1e be 7f 27 2f be 2e d3 05 be 6e 13 ff bd
       -0.15489252 -0.1710491 -0.1306884 -0.12454878
000270 6a 0f 06 be f3 2a 27 3e b6 99 03 3e be bf 01 be
       -0.13091817 0.16324978 0.12851605 -0.126708
000280 42 5b 2e 3e 95 8f 03 3e 0c 22 04 3e 7a 29 33 3e
       0.17027 0.12847741 0.12903613 0.17496291
000290 c9 9b 2d 3e 52 25 29 be 50 f8 cd bc 89 43 fe bd
       0.16953959 -0.16518143 -0.025142819 -0.12415225
0002a0 71 81 27 be 81 cc fe 3d 6d 8b 05 3e dc d7 01 3e
       -0.16357972 0.1244135 0.13041468 0.1268
0002b0 ee ea 02 3e a1 60 24 be c9 a0 2b 3e 2b 28 31 be
       0.12784931 -0.16052486 0.16760553 -0.17300479
0002c0 6b 78 02 3e 98 49 1a 3e 95 e8 29 3e 5d a9 30 3e
       0.12741248 0.15067136 0.16592629 0.17252107
0002d0 70 69 31 be 4f 57 2b bd 97 ff 28 3e 10 90 2b 3e
       -0.17325377 -0.04183131 0.1650375 0.16754174
0002e0 93 98 01 3e cd 85 28 be 49 51 2d be 11 7d fd 3d
       0.12655859 -0.16457291 -0.16925539 0.1237737
0002f0 45 e0 ff bd 0a 60 28 be 47 e1 01 3e 1a a4 26 3e
       -0.12493948 -0.16442886 0.12683593 0.16273537
000300 64 fd 2b be b2 b3 01 3e 46 3f fe bd 4c be fe bd
       -0.1679588 0.12666205 -0.12414412 -0.1243864
000310 8f 89 2b 3e 93 6c 2e 3e 65 53 02 3e e0 54 2f 3e
       0.16751693 0.17033605 0.12727125 0.17122221
000320 a8 09 07 be d7 01 2e 3e 31 fc 04 be 17 a8 2a 3e
       -0.13187277 0.1699289 -0.12986828 0.16665684
000330 2c 81 04 3e 0e 3e 05 3e 82 45 24 be 6c 4f ff 3d
       0.129399 0.13011953 -0.1604214 0.124663204
000340 4e c4 28 be 35 ff 2f 3e f8 91 eb 3c 35 db a4 3c
       -0.16481134 0.17187198 0.028756127 0.020124057
000350 25 bb f3 3c 39 cb ea 3c 39 03 a7 3c 68 f3 ec bc
       0.029752323 0.028661357 0.020387279 -0.028924659
000360 2d 52 e8 3c 14 22 e9 bc 46 5e ee bc 0c 9f 96 3c
       0.028359497 -0.028458633 -0.029097687 0.018386386
000370 3b 7d b2 bc 37 f7 ea 3c 27 95 13 3c 3b b0 9e 3c
       -0.02178823 0.028682334 0.009007729 0.019371143
000380 d4 4a f7 3c 97 3d ea 3c 9d 39 e2 3c af 62 87 bc
       0.030187048 0.028593821 0.027615363 -0.016526548
000390 b7 8b f4 bc a2 fd 01 3d d8 e6 ae bc 69 89 e4 bc
       -0.029851777 0.031736024 -0.02135031 -0.027897554
0003a0 64 3c f9 bc 98 24 b9 bc a3 65 93 bc 3b 05 91 3c
       -0.030424304 -0.022600457 -0.0179928 0.01770269
0003b0 6f 56 7f 3b f4 15 ec 3c c5 55 60 3c 0e b0 f5 bc
       0.003896143 0.028819062 0.013692324 -0.029991176
0003c0 e6 b1 d2 bc 15 94 ff bc aa 44 d1 bc 9c 31 62 3c
       -0.025719594 -0.03119854 -0.025545437 0.013805773
0003d0 b6 9c 8d bc 0c 41 a8 3c f4 92 db bc c8 f8 cc bb
       -0.01728664 0.02053883 -0.026803471 -0.006255243
0003e0 5d 66 7f bc aa ed 8b bc 9d cc a2 3c 48 70 32 3b
       -0.01558837 -0.0170811 0.019872958 0.002722757
0003f0 a3 45 8d bc e1 93 91 bc ec 67 e5 bc 2f d9 54 3c
       -0.01724512 -0.01777071 -0.028003655 0.012991234

net.6.weight f4 [1, 70]
000000 40 b5 81 bd 5d d4 cf 3d 89 19 ce 3d 7a 5a 0d bc
       -0.06333399 0.10147927 0.10063464 -0.008627528
000010 94 34 81 bd 8c 1c cd 3d fd 77 cb 3d 2a 67 e7 39
       -0.063088566 0.100152105 0.09934995 0.00044136617
000020 c0 79 53 ba 6d c4 4f 3d 43 f1 cc 3d 68 c1 83 3d
       -0.00080671534 0.050724436 0.100069545 0.06433374
000030 a3 9f c2 bc 2f f2 cd 3d 0a 8a cc 3d b5 b7 8b bd
       -0.023757761 0.100559585 0.09987266 -0.06822149
000040 9f 9c 76 3d e5 ca e2 3d 7e 87 a5 bd ee 27 cb 3d
       0.06020796 0.11073855 -0.08082484 0.09919725
000050 58 c7 81 bd dd 92 cd 3d 4d 44 4c 3d e3 84 d8 3b
       -0.0633685 0.100377776 0.049869824 0.006607638
000060 95 12 6a 3d 89 59 af bd 31 34 a5 bd 37 4b cd 3d
       0.057146627 -0.08561999 -0.08066595 0.10024112
000070 6f ee ca bd 0f e3 93 bd 99 cd cc bd f5 b1 2f bd
       -0.09908759 -0.07221042 -0.10000152 -0.042894322
000080 7e f2 c9 bd da 3d 88 bd 41 03 d2 3d a7 c7 8e bd
       -0.09860705 -0.06652422 0.10254527 -0.069716744
000090 5c be 45 bd 32 c7 85 bd 83 18 81 3c d9 59 75 bd
       -0.048277244 -0.06532134 0.015758758 -0.05990014
0000a0 6f a1 cb bd 42 9a bf 3c 23 6c b3 3d d5 fe c9 3d
       -0.099429004 0.023388986 0.0876086 0.098630585
0000b0 be 3c 97 3b 48 68 94 bd 43 ae 79 bd 84 f1 cd 3d
       0.0046153953 -0.072464526 -0.060957205 0.10055831
0000c0 70 d2 cb bd 50 41 f5 bc 69 ba ca bd 12 6d cd bd
       -0.09952247 -0.02993837 -0.09898836 -0.10030569
0000d0 49 dc c9 3d f8 b7 45 3d ad b7 e7 3b 58 01 09 bd
       0.09856469 0.04827115 0.0070714564 -0.033448547
0000e0 33 68 94 39 41 78 c9 bd ad 59 b9 3d 77 62 cd 3d
       0.00028306394 -0.0983739 0.090503074 0.10028546
0000f0 fd 4e 01 be 5c 1f c4 3a c7 e5 89 bd b0 dc ca 3d
       -0.12627788 0.0014962959 -0.0673328 0.09905374
000100 f7 f7 c9 3d 73 89 50 bb 17 af 6d bd 93 b9 cd 3d
       0.09861749 -0.0031820207 -0.058028307 0.10045161
000110 4c f4 41 bb a5 5d fb bb
       -0.0029595075 -0.0076710754
