models/mlp_pure_seed_1011.pt (torch, 46027 bytes, 4 tensors)

net.0.weight f4 [70, 4]
0	0x3d3a1efd	0.04543971
1	0x3dc47492	0.095925465
2	0x3d945af6	0.07243912
3	0xbd047d00	-0.03234577
4	0x3d1a9fb4	0.03774996
5	0xbe01195a	-0.12607327
6	0x3e01cee6	0.12676582
7	0xbdab95dd	-0.083781935
8	0x3da89ce2	0.08233048
9	0xbac7a2ec	-0.001523105
10	0x3e20d9ca	0.1570808
11	0x3b095836	0.0020957119
12	0xbd8059ed	-0.06267152
13	0x3ca61459	0.020273374
14	0xbe15b64a	-0.14620319
15	0x3bd0c027	0.0063705626
16	0x3d438f16	0.04774388
17	0xbd870b3b	-0.06593939
18	0x3e0cc3d3	0.13746576
19	0xbd420a6b	-0.047373217
20	0xbdb8b7fd	-0.09019468
21	0x3b4d9c9f	0.003137387
22	0xbe24121d	-0.16022535
23	0xbaf03259	-0.0018325552
24	0xbd19268c	-0.037390277
25	0x3db35f5d	0.087584235
26	0xbe00cb65	-0.12577589
27	0x3d7ac088	0.06121877
28	0xbe132333	-0.14368896
29	0xbcf6cf2a	-0.03012808
30	0xbcc5c61d	-0.02414232
31	0x3bfc8b72	0.007707053
32	0xbd8dc27e	-0.06921862
33	0x3ca243f3	0.019807791
34	0xbe19992c	-0.14999837
35	0x3bd20711	0.006409534
36	0xbd2ab801	-0.041679386
37	0x3de092bb	0.109654866
38	0xbe06b542	-0.13155082
39	0x3d93a3b3	0.072089575
40	0xbcffa450	-0.03120628
41	0x3defa0b2	0.11700572
42	0xbdf68ce5	-0.12038592
43	0x3db29c7b	0.087212525
44	0x3d1555c1	0.036458734
45	0xbdb761dd	-0.08954213
46	0x3e00af9e	0.12566993
47	0xbd84fde3	-0.064937375
48	0xbce7ff31	-0.028319927
49	0x3e783f51	0.24242903
50	0xbdf7f298	-0.12106818
51	0x3e13400d	0.14379902
52	0xbd24b033	-0.0402071
53	0x3dd0fd71	0.1020459
54	0xbe058de0	-0.13042402
55	0x3d91cc3d	0.071190335
56	0xbd980bc1	-0.07424117
57	0xbd0248ae	-0.031807594
58	0xbda1ea10	-0.07905972
59	0x3d07eca3	0.03318466
60	0x3ddfe9d5	0.10933272
61	0x3b78f47b	0.0037987519
62	0x3d825b1e	0.063650355
63	0xbcc038f7	-0.023464663
64	0x3df6d209	0.1205178
65	0xbd742b92	-0.059611864
66	0xbd93c8dd	-0.07216046
67	0xbbca2e81	-0.0061700945
68	0xbd3634ed	-0.044484068
69	0x3d781210	0.0605641
70	0xbe08ec68	-0.13371432
71	0x3d1c6fc3	0.03819252
72	0x3d223a6b	0.039606493
73	0xbdc8634b	-0.09784564
74	0x3e04fb62	0.1298652
75	0xbd8db61a	-0.06919499
76	0x3d6eaea8	0.058272034
77	0x3e0e1c50	0.13877988
78	0xbde7c7da	-0.113174155
79	0x3d528acf	0.05140191
80	0x3dc64c69	0.09682543
81	0x3e30e222	0.17273763
82	0xbd48199d	-0.04885255
83	0x3ddf349e	0.10898708
84	0xbd0a145c	-0.033710822
85	0x3e0febe1	0.14054824
86	0xbdfbdf52	-0.12298454
87	0x3dce90c8	0.100862086
88	0xbd373242	-0.044725664
89	0x3dccaffb	0.09994503
90	0xbe0b9b50	-0.13633466
91	0x3d8d3abe	0.0689597
92	0xbd9cfeed	-0.07665811
93	0xbe52a019	-0.20568885
94	0x3d952b04	0.07283595
95	0xbe03e9b0	-0.12882113
96	0x3dccc65c	0.099987715
97	0x3d0e63de	0.03476321
98	0x3dba2d4f	0.09090673
99	0xbd246aba	-0.040140845
100	0x3da68ff2	0.08132924
101	0xbca06b0f	-0.0195823
102	0xbd98d40c	-0.0746232
103	0xbcf44674	-0.02981875
104	0x3e0233c0	0.12715054
105	0xbd094402	-0.033512123
106	0xbd8ea7c9	-0.06965596
107	0xbc5bf23f	-0.013424455
108	0x3d33da6d	0.04390948
109	0xbd82c295	-0.0638477
110	0x3e05cbf6	0.13066086
111	0xbd296b9e	-0.041362397
112	0xbc39b8e9	-0.01133559
113	0x3e60f169	0.2196709
114	0xbdd24eea	-0.10268958
115	0x3dd7921e	0.105259165
116	0x3d8a69c9	0.06758458
117	0xbcac4ec5	-0.021033654
118	0x3e1d6b2a	0.15372911
119	0xbc0a0297	-0.008423469
120	0xbda1b565	-0.078959264
121	0x3cca0ff8	0.024665818
122	0x3d90ffa7	0.07080012
123	0x3cf22fd8	0.02956383
124	0x3cae3b95	0.021268645
125	0x3d9d0560	0.07667041
126	0x3db1dcc5	0.086846866
127	0xbd571979	-0.052514527
128	0xbd9a1b1a	-0.075247005
129	0xbbe4be06	-0.0069806604
130	0x3dd8e102	0.10589792
131	0x3c31e05b	0.010856713
132	0xbd280a71	-0.041025583
133	0x3d99e2f3	0.0751399
134	0xbe04f7e9	-0.12985195
135	0x3d5ed1af	0.05439919
136	0x3d9f4396	0.07776563
137	0xbcbb7ca7	-0.022886587
138	0x3e27f066	0.16400298
139	0xbc5dfe3f	-0.0135493865
140	0x3d984eb8	0.074368894
141	0x3bd11b75	0.006381447
142	0xbde02365	-0.10944251
143	0xbc320c27	-0.010867155
144	0x3d1d414e	0.038392358
145	0xbdfb5324	-0.12271717
146	0x3e040853	0.128938
147	0xbdb4b4ab	-0.08823522
148	0xbd814521	-0.063120134
149	0x3cd0f64f	0.025508074
150	0xbe16cf58	-0.14727533
151	0x3c76d42a	0.015065232
152	0x3d368f45	0.044570226
153	0xbd830696	-0.063977405
154	0x3e065eab	0.1312205
155	0xbd3717f5	-0.04470058
156	0xbd15a507	-0.036534335
157	0x3dd2d7fb	0.10295101
158	0xbe001e7e	-0.12511632
159	0x3d8cfdeb	0.068843685
160	0xbd92a77b	-0.071608506
161	0xbc60a5df	-0.013711422
162	0x3dddca34	0.10829583
163	0x3c091cd1	0.008368687
164	0xbd18ba60	-0.037287116
165	0x3dd814f1	0.10550869
166	0xbe0179cf	-0.12644123
167	0x3d959938	0.07304615
168	0xbdcdc854	-0.10047975
169	0xbbdb2f53	-0.006688991
170	0xbe213f0d	-0.15746708
171	0xbbfefd48	-0.0077816583
172	0x3d8a6fa7	0.06759577
173	0xbc4819d5	-0.01221319
174	0x3e1882bb	0.1489362
175	0xbb0e4aa6	-0.0021711974
176	0xbdb78ae9	-0.08962042
177	0x3d4e0cf0	0.050305307
178	0xbd731512	-0.059346266
179	0x3d87cc8b	0.0663081
180	0xbd24f808	-0.040275604
181	0x3d33012e	0.043702297
182	0xbdb34aa8	-0.08754474
183	0x3d8830d0	0.06649935
184	0x3d1b68c4	0.03794171
185	0xbe02b8a6	-0.1276575
186	0x3e0286bb	0.12746708
187	0xbdb24e61	-0.08706356
188	0xbc60c197	-0.01371803
189	0xbd236b11	-0.03989703
190	0xbdaa24a0	-0.08307767
191	0x3d499a21	0.049219254
192	0xbd4a5c31	-0.049404327
193	0x3d940c58	0.07228917
194	0xbe0faa8e	-0.14029905
195	0x3d307434	0.04307957
196	0xbd65db92	-0.0561176
197	0x3d2e7806	0.042594932
198	0xbe123287	-0.14277087
199	0x3cd73934	0.026272394
200	0x3da94de4	0.082668096
201	0xbcd1dda5	-0.025618384
202	0xbd2f6a0e	-0.04282575
203	0xbd2f1544	-0.04274489
204	0xbd8bc7d6	-0.06825225
205	0x3cd4aadd	0.02596038
206	0xbe1d1221	-0.15338947
207	0x3c5ea1c0	0.013588369
208	0xbe31083d	-0.17288299
209	0xbe171fac	-0.14758176
210	0xbd52b244	-0.05143954
211	0x3c9789c4	0.018498309
212	0xbd7c3242	-0.061571367
213	0x3d4c4aed	0.049876142
214	0xbe1e0dd9	-0.1543497
215	0x3cf4a013	0.029861486
216	0xbd49db16	-0.049281202
217	0x3d96eb61	0.07369114
218	0xbe10a95c	-0.14127105
219	0x3d4b2e22	0.049604543
220	0x3b07c1f6	0.0020714975
221	0xbcb6ff75	-0.022338608
222	0xbda28afd	-0.07936666
223	0x3d4f9a78	0.050684422
224	0xbda63567	-0.081156544
225	0x3dc6ae44	0.09701207
226	0xbe559fd6	-0.20861754
227	0xbcdee108	-0.027206913
228	0x3e253308	0.16132748
229	0x3ddf3946	0.10899596
230	0x3daa7739	0.08323521
231	0xbcba5813	-0.022747075
232	0x3cd64645	0.026156554
233	0xbe7dc00b	-0.2478029
234	0x3e01e56a	0.12685171
235	0xbe1496c1	-0.14510633
236	0xbd6b6b68	-0.057475477
237	0x3d12c88e	0.035835795
238	0xbe1690ec	-0.14703721
239	0x3cab4dce	0.020911124
240	0xbcae507e	-0.021278616
241	0xbd119d04	-0.035550132
242	0xbda7b0ab	-0.081879936
243	0x3d39bff6	0.045349084
244	0xbd32f9ed	-0.04369538
245	0x3dc7c73a	0.09754796
246	0xbe0a2d84	-0.13493925
247	0x3d899ed9	0.06719751
248	0x3d175aed	0.036951948
249	0xbdd60444	-0.10450032
250	0x3e009c20	0.12559557
251	0xbd90f100	-0.07077217
252	0x3e0794d0	0.13240361
253	0x3cf4aedb	0.029868534
254	0xbcc3de07	-0.023909582
255	0xbac295b6	-0.0014845643

net.2.weight f4 [70, 70]
0	0x3c43e4b3	0.011956382
1	0x3d46b257	0.048509922
2	0x3d33c377	0.04388758
3	0xbd1e8e2b	-0.0387098
4	0x3d480e1c	0.04884158
5	0xbd3abfe7	-0.04559317
6	0xbd3c6ef0	-0.046004236
7	0xbd0ed3df	-0.034870025
8	0xbd2d39f5	-0.0422916
9	0xbd518951	-0.051156346
10	0xbd47622f	-0.04867762
11	0x3d2cd6ad	0.04219692
12	0xbd89da13	-0.067310475
13	0xbd51d6bc	-0.051230177
14	0xbd4a9306	-0.04945662
15	0x3d431958	0.04763159
16	0x3dbc0c2b	0.09182008
17	0xbd26a2e5	-0.040682692
18	0x3d430d7c	0.04762028
19	0x3d419e37	0.047270026
20	0xbda0bd5d	-0.07848618
21	0xbd5ecc15	-0.054393847
22	0xbd5bc491	-0.053654257
23	0x3e03e742	0.12881187
24	0x3d9dcb19	0.077047534
25	0x3dc8a678	0.097973764
26	0x3dcebe20	0.10094857
27	0x3d2937fc	0.041313156
28	0xbd115f06	-0.035491012
29	0x3d3036a2	0.043020852
30	0xbdce030e	-0.100591764
31	0x3d0b382e	0.033989124
32	0xbdb81f56	-0.08990352
33	0xbd3c64c3	-0.04599453
34	0x3d451a30	0.048120677
35	0x3dbc4ad4	0.0919396
36	0x3d62f937	0.05541345
37	0xbd361745	-0.044455785
38	0x3d41ef4b	0.04734735
39	0xbd34a248	-0.044100076
40	0xbdba7cbb	-0.09105822
41	0xbd4715f5	-0.048604924
42	0xbd3a6fd4	-0.045516804
43	0x3d1fd15e	0.039018027
44	0xbe169211	-0.14704157
45	0xbe269be8	-0.16270411
46	0x3d581bfc	0.052761063
47	0xbd25d112	-0.040482588
48	0xbd38332f	-0.044970687
49	0xbd3b073b	-0.045661192
50	0x3dd6bd5a	0.10485335
51	0xbd3358e9	-0.043785963
52	0xbd4b9d2a	-0.04971043
53	0xbd48cc81	-0.049023155
54	0xbd483418	-0.048877805
55	0xbd212629	-0.039343033
56	0xbd89a692	-0.06721224
57	0x3d3cc23c	0.046083674
58	0x3d98bde2	0.07458092
59	0xbd331285	-0.043718833
60	0xbd19e42a	-0.03757111
61	0xbd524a4e	-0.051340394
62	0x3d445bba	0.04793904
63	0x3cf3e0cb	0.029770276
64	0xbd3b36ed	-0.04570668
65	0xbd311ff5	-0.043243367
66	0x3d45b219	0.04826555
67	0xbd68e5b4	-0.056859687
68	0x3e0ac58e	0.13551924
69	0xbdec6348	-0.11542374
70	0xbbec5d3f	-0.0072132642
71	0x3da2b659	0.07944936
72	0x3d59743f	0.053089377
73	0xbd5394e4	-0.051655665
74	0x3d8da279	0.06915755
75	0xbd6a1f47	-0.057158735
76	0xbd8ac2bc	-0.06775424
77	0xbc142d08	-0.009043939
78	0xbd6129f1	-0.05497164
79	0xbd9b9601	-0.0759697
80	0xbd9e44fd	-0.07728002
81	0x3d8af9d2	0.06785931
82	0xbe032d14	-0.12810165
83	0xbd982d56	-0.07430522
84	0xbc57d30b	-0.013172875
85	0x3c8151a5	0.015786001
86	0x3d9b5440	0.07584429
87	0xbd620c31	-0.055187408
88	0x3d93fbda	0.07225771
89	0x3c3d9971	0.011572228
90	0xbdf60fe4	-0.1201475
91	0xbdb4bb89	-0.08824832
92	0xbda32975	-0.07966892
93	0x3e300fb4	0.1719349
94	0x3c836e70	0.016043872
95	0x3d327fda	0.04357896
96	0x3d84bd49	0.06481416
97	0x3d750a96	0.05982455
98	0xbd983107	-0.07431226
99	0x3d6810a7	0.056656506
100	0xbd219f67	-0.03945866
101	0x3c047e5d	0.008086768
102	0xbd25a038	-0.040436
103	0xbd859d34	-0.06524125
104	0x3d836946	0.06416564
105	0x3d2614b4	0.040547088
106	0x3dad6aa0	0.08467603
107	0xbd66a57f	-0.056310173
108	0x3d7f44e0	0.062321544
109	0xbd91c0d5	-0.07116858
110	0xbd1e32cb	-0.03862266
111	0xbd999e0b	-0.075008474
112	0xbd60cfbf	-0.054885622
113	0x3d4ca9eb	0.049966734
114	0xbd4e40cc	-0.050354764
115	0xbca85f69	-0.020553308
116	0x3dab4b50	0.08363974
117	0xbc87744e	-0.01653495
118	0xbd8764cb	-0.066110216
119	0xbd7ad8e6	-0.061242007
120	0x3d36b437	0.04460546
121	0xbd70e28e	-0.05880981
122	0xbc8a194c	-0.016857766
123	0xbd86367a	-0.06553359
124	0xbd930302	-0.07178308
125	0xbcbeb1c0	-0.023278117
126	0xbda5c98e	-0.08095084
127	0x3cd8045a	0.026369262
128	0x3e049038	0.1294564
129	0xbd640508	-0.05566886
130	0xbc8224f0	-0.015886754
131	0xbd990eb2	-0.07473506
132	0x3d999031	0.074982055
133	0x3bf1c2be	0.0073779514
134	0xbd6c2a06	-0.057657264
135	0xbd957a51	-0.07298721
136	0x3d893c8a	0.06701
137	0xbd1c96b0	-0.038229644
138	0x3d6139bc	0.0549867
139	0xbd6936ca	-0.056937017
140	0xbd2e7ae1	-0.042597655
141	0xbd7330a2	-0.05937255
142	0xbd47b2fa	-0.04875467
143	0x3d3e4180	0.046449184
144	0xbd66f08e	-0.056381755
145	0x3d544407	0.05182269
146	0x3d506fb9	0.050887797
147	0x3d67cc43	0.056591284
148	0x3d4ee169	0.050507937
149	0x3d716e44	0.058943048
150	0x3d67d053	0.056595158
151	0xbd549ab1	-0.051905338
152	0x3d999874	0.07499781
153	0x3d6ff7b7	0.05858585
154	0x3d7dfa5e	0.062006347
155	0xbd8b5412	-0.068031445
156	0xbdb87d6c	-0.09008297
157	0x3d48946b	0.048969667
158	0xbd685dd5	-0.05673011
159	0x398b5c20	0.00026580784
160	0x3d0f0cd7	0.034924354
161	0x3d84e36c	0.0648869
162	0x3d745af8	0.059657067
163	0xbdb000ad	-0.08593879
164	0xbdbb90fa	-0.091585115
165	0xbd88af1c	-0.066740245
166	0xbdad30cc	-0.08456573
167	0xbd4f96fd	-0.050681103
168	0x3d57a78f	0.05265003
169	0xbd5290a1	-0.05140746
170	0x3d860c78	0.06545347
171	0xbd59f07a	-0.053207852
172	0x3d474fbd	0.04866003
173	0x3d5e9bd8	0.054347843
174	0xbd7398aa	-0.059471764
175	0xbd3e84bc	-0.046513304
176	0xbd8102f5	-0.06299392
177	0x3d48305b	0.04887424
178	0xbd57e441	-0.052707914
179	0x3d5d93d2	0.05409605
180	0x3d3af09a	0.04563961
181	0x3d6a999b	0.057275396
182	0x3d52d85a	0.05147586
183	0xbd41f0dc	-0.047348842
184	0x3e12bb12	0.14329174
185	0x3df61ade	0.12016843
186	0xbd75d2ba	-0.060015418
187	0x3d498ee8	0.04920855
188	0x3d5ec389	0.054385696
189	0x3d533ded	0.05157273
190	0xbd9a0881	-0.07521153
191	0x3d5da869	0.054115687
192	0x3d85526d	0.06509862
193	0x3d6fe8a0	0.058571458
194	0x3d71aeb9	0.05900452
195	0x3d352514	0.044224814
196	0x3daf1670	0.085492015
197	0xbd74e71d	-0.05979072
198	0xbdb149bf	-0.08656644
199	0x3d4979c1	0.04918838
200	0x3d4256a2	0.0474459
201	0x3d74ee11	0.05979735
202	0xbd64b375	-0.055835206
203	0xbd488333	-0.048953246
204	0x3d5636a6	0.05229821
205	0x3d569365	0.05238666
206	0xbd5ed393	-0.05440099
207	0x3d87181e	0.06596397
208	0xbe04e0f3	-0.12976436
209	0x3db4b18f	0.08822929
210	0xbc04e037	-0.008110098
211	0x3da07787	0.07835298
212	0x3d4da67f	0.05020761
213	0xbd3b23e6	-0.045688532
214	0x3d85d311	0.06534398
215	0xbd5b4fcb	-0.053542893
216	0xbd84c6a9	-0.06483204
217	0xbbad5df6	-0.005290742
218	0xbd50dbb2	-0.050990768
219	0xbd984c0f	-0.07436382
220	0xbd9caab5	-0.07649747
221	0x3d8601cc	0.065433115
222	0xbe02be7a	-0.12767974
223	0xbd989255	-0.074497856
224	0xbc37ce4e	-0.01121862
225	0x3c49dce5	0.012320732
226	0x3d985e30	0.0743984
227	0xbd6010c3	-0.054703485
228	0x3d8ecd44	0.06972745
229	0x3c74aa5c	0.014933195
230	0xbe038806	-0.12844858
231	0xbdb41e7a	-0.087948754
232	0xbd9c2919	-0.07625026
233	0x3e34c968	0.17654955
234	0x3c8ee350	0.017442375
235	0x3d2cf252	0.042223282
236	0x3d839087	0.06424051
237	0x3d6b5505	0.057454128
238	0xbda29e63	-0.07940366
239	0x3d4bd460	0.049763083
240	0xbd2baf78	-0.041915387
241	0x3bb1d062	0.0054264525
242	0xbd2feaf5	-0.04294868
243	0xbd80aaeb	-0.062826
244	0x3d726dec	0.05918686
245	0x3d2383a8	0.03992048
246	0x3da5d24f	0.08096754
247	0xbd5cd528	-0.05391422
248	0x3d7a4df8	0.061109513
249	0xbd8d368f	-0.06895172
250	0xbd1fff93	-0.039062094
251	0xbd93949e	-0.07206081
252	0xbd46b2d1	-0.048510376
253	0x3d45bcf7	0.048275914
254	0xbd525233	-0.051347923
255	0xbc9a180b	-0.018810293

net.4.weight f4 [70, 70]
0	0x3d0c0781	0.034186844
1	0x3d2564df	0.0403794
2	0xbd630f97	-0.05543479
3	0x3ceccb3b	0.028905502
4	0xbd013897	-0.03154811
5	0xbd0d755c	-0.03453575
6	0xbd76adb2	-0.060224243
7	0xbd7abacd	-0.061213303
8	0xbd596172	-0.053071447
9	0x3d17af2e	0.0370323
10	0xbd607322	-0.0547973
11	0x3d6811d5	0.05665763
12	0xbd1d9d3d	-0.038480032
13	0x3d7b0956	0.0612882
14	0xbd0fdd87	-0.035123374
15	0x3cfcdcd8	0.030867025
16	0x3cf01f85	0.029311905
17	0xbd00d156	-0.03144964
18	0x3cf75914	0.030193843
19	0x3d6292af	0.05531567
20	0x3d3fd433	0.04683323
21	0x3d7139c1	0.05889297
22	0xbd254882	-0.040352352
23	0xbd153548	-0.036427766
24	0xbd6758ef	-0.056481298
25	0xbd648d4a	-0.055798806
26	0xbd484f46	-0.048903726
27	0x3d4897d0	0.048972905
28	0xbd768196	-0.060182177
29	0x3cfc4d5f	0.030798612
30	0x3d72dd64	0.059293166
31	0xbd768e51	-0.060194317
32	0x3d6f497d	0.058419693
33	0x3d6a4388	0.05719331
34	0x3d073678	0.03301093
35	0x3d848d3b	0.0647225
36	0xbd0f2c96	-0.03495463
37	0x3d63cd95	0.05561598
38	0xbd560b06	-0.052256607
39	0xbd732934	-0.059365466
40	0xbd754f1f	-0.05988991
41	0x3ce9a97e	0.028523203
42	0x3d1d1e7f	0.03835916
43	0x3d0e23ec	0.034702227
44	0x3d6d2aa8	0.05790201
45	0x3d06cd24	0.03291048
46	0xbd813a62	-0.06309964
47	0x3ce20d81	0.02759433
48	0x3cfba66d	0.030719006
49	0x3d15798d	0.036492873
50	0x3cfb185d	0.030651266
51	0x3cf66733	0.030078506
52	0x3d69d290	0.057085574
53	0x3d0999aa	0.03359381
54	0xbd625eab	-0.055266064
55	0x3d2807f3	0.041023206
56	0x3d172213	0.03689773
57	0x3d08ea9d	0.03342687
58	0x3cf20a5a	0.029545952
59	0x3d6d4ac3	0.057932626
60	0x3cf56b61	0.029958429
61	0x3d160e2e	0.036634617
62	0x3d5fcf45	0.054641027
63	0x3d700e9e	0.05860769
64	0xbd73e6aa	-0.05954615
65	0x3cf31d6c	0.029677115
66	0xbd533737	-0.05156633
67	0xbcd663d2	-0.026170645
68	0xbd1369c1	-0.035989527
69	0xbd75149b	-0.059834104
70	0x3ca8a7c2	0.020587806
71	0x3d2d2b78	0.042277783
72	0xbd0a9f15	-0.03384312
73	0x3d1c522e	0.03816431
74	0xbd173c6c	-0.036922857
75	0xbd22970f	-0.039694842
76	0xbd132da7	-0.03593221
77	0xbd243f4e	-0.040099435
78	0xbd028302	-0.03186322
79	0x3d2729be	0.040811293
80	0xbd031b14	-0.032008246
81	0x3d13be7b	0.03607033
82	0xbd218496	-0.039433084
83	0x3d02669f	0.03183615
84	0xbd2287cb	-0.039680284
85	0x3d152e88	0.03642133
86	0x3d0f2f60	0.03495729
87	0xbd14d302	-0.036334045
88	0x3d1a9ea4	0.037748948
89	0x3d065ff8	0.032806367
90	0x3d3b9ef2	0.04580588
91	0x3d1215be	0.035665266
92	0xbd1fbf8c	-0.039001033
93	0xbd1f3c2d	-0.038875747
94	0xbd099241	-0.033586744
95	0xbcfb690f	-0.030689744
96	0xbd048baf	-0.032359775
97	0x3cf004a1	0.029299082
98	0xbd0ed2f5	-0.034869153
99	0x3d1716f2	0.036887117
100	0x3d104bf3	0.03522868
101	0xbd16b246	-0.03679111
102	0x3d0bd457	0.03413805
103	0x3d054c22	0.03254331
104	0x3d1f746c	0.038929388
105	0x3d1c2a35	0.03812619
106	0xbd2b46b0	-0.04181546
107	0x3d07f187	0.033189323
108	0xbd00aba0	-0.031413674
109	0xbd0e71ce	-0.0347765
110	0xbd0e5712	-0.034751005
111	0x3c6c777d	0.014432785
112	0x3d2654e5	0.040608305
113	0x3d268a34	0.040659145
114	0x3d156896	0.036476694
115	0x3d192de1	0.03739727
116	0xbd199e98	-0.037504762
117	0x3d0fe3f6	0.03512951
118	0x3d219fa0	0.03945887
119	0x3caabdb7	0.020842416
120	0x3d251483	0.040302765
121	0x3d188e9f	0.03724539
122	0x3d0b973d	0.03407978
123	0x3d1c1c6a	0.038113035
124	0xbd031e3d	-0.03201126
125	0x3d32778b	0.043571036
126	0x3d2650c9	0.040604386
127	0x3d1783b1	0.036990825
128	0x3d19d72a	0.037558712
129	0x3d16f977	0.036859002
130	0x3d1ca4d3	0.038243126
131	0x3d28022a	0.04101769
132	0x3d0b35f6	0.033987008
133	0x3d091f14	0.033476904
134	0xbd08023b	-0.033205252
135	0x3d16efbb	0.03684972
136	0xbcf6493a	-0.030064214
137	0xbd083a6f	-0.03325885
138	0xbd2dca9b	-0.042429548
139	0xbd180716	-0.037116133
140	0x3d1924c6	0.037388586
141	0x3d241bc9	0.04006556
142	0xbd77e44e	-0.060520463
143	0x3cfe137f	0.031015156
144	0xbcfeedd3	-0.031119263
145	0xbd049ec8	-0.032377988
146	0xbd7ee462	-0.06222952
147	0xbd85eb0d	-0.06538973
148	0xbd651628	-0.055929333
149	0x3d18e424	0.037326947
150	0xbd69c9c4	-0.057077184
151	0x3d73db0c	0.05953507
152	0xbd1d5639	-0.038412306
153	0x3d804877	0.062638216
154	0xbd1585c4	-0.036504522
155	0x3d0452c9	0.032305513
156	0x3cdae26a	0.02671929
157	0xbce56a5e	-0.028004821
158	0x3d01cead	0.031691242
159	0x3d6f8f70	0.058486402
160	0x3d36003e	0.044433825
161	0x3d7a5d4c	0.06112413
162	0xbd237753	-0.03990872
163	0xbd0ef858	-0.034904808
164	0xbd72575a	-0.059165336
165	0xbd749e9e	-0.05972158
166	0xbd5ed8fc	-0.05440615
167	0x3d5c1555	0.05373128
168	0xbd8531a1	-0.065036066
169	0x3d03e88d	0.0322042
170	0x3d7bb01b	0.061447244
171	0xbd80c071	-0.06286705
172	0x3d80a6a8	0.06281787
173	0x3d75901c	0.059951887
174	0x3d03456c	0.032048628
175	0x3d8a196e	0.067431316
176	0xbd094b21	-0.033518914
177	0x3d706d45	0.058697958
178	0xbd6a6dcb	-0.057233613
179	0xbd743eeb	-0.059630316
180	0xbd79f613	-0.06102569
181	0x3cf12840	0.029438138
182	0x3d0d96a5	0.034567494
183	0x3d0eac5b	0.03483234
184	0x3d7eca2f	0.062204536
185	0x3cee2d26	0.029074263
186	0xbd85ac31	-0.065269835
187	0x3cf5f90d	0.030025983
188	0x3ce92483	0.028459793
189	0x3d24ab3c	0.040202364
190	0x3d00f902	0.031487472
191	0x3ce3b9d1	0.027798565
192	0x3d72331d	0.059130777
193	0x3cfdd97e	0.030987497
194	0xbd68308b	-0.05668692
195	0x3d1d1d0f	0.03835779
196	0x3d1651fa	0.036699273
197	0x3d15bfbf	0.036559816
198	0x3cd75bfa	0.026288975
199	0x3d7379cd	0.05944233
200	0x3d072d11	0.033001963
201	0x3d22c65f	0.039739963
202	0x3d6676e9	0.056265745
203	0x3d706377	0.058688607
204	0xbd7fb0b3	-0.062424373
205	0x3ceac572	0.028658602
206	0xbd6761be	-0.0564897
207	0xbcdd4c64	-0.027013965
208	0xbd156147	-0.036469724
209	0xbd824763	-0.06361272
210	0xbc99b6d5	-0.018763939
211	0xbd2e5170	-0.042558134
212	0x3cf57fe6	0.029968213
213	0xbd1c9e59	-0.03823695
214	0x3d1f73b6	0.03892871
215	0x3d1f5d3a	0.038907267
216	0x3d064ec5	0.032789964
217	0x3d1fd988	0.039025813
218	0x3cebdb1d	0.028791005
219	0xbd250611	-0.04028899
220	0x3d0c2514	0.034215048
221	0xbcfd902e	-0.03095254
222	0x3d2a43df	0.041568633
223	0xbcf665af	-0.030077783
224	0x3d309cb7	0.043118205
225	0xbd1ea737	-0.038733687
226	0xbd188b9c	-0.037242517
227	0x3d229a77	0.03969809
228	0xbd1d0450	-0.03833419
229	0xbcf99374	-0.030465819
230	0xbd3821ae	-0.044953994
231	0xbcfb8afa	-0.030705918
232	0x3d2598ae	0.04042881
233	0x3d296139	0.041352484
234	0x3d07628c	0.033052966
235	0x3d02df98	0.031951517
236	0x3cfd120e	0.030892398
237	0xbce72546	-0.028216016
238	0x3d144217	0.03619584
239	0xbd1f13ba	-0.038837172
240	0xbd10e55f	-0.035374995
241	0x3d043389	0.03227571
242	0xbd0b0966	-0.03394451
243	0xbcfbed50	-0.030752808
244	0xbd238f46	-0.039931558
245	0xbd1c8ed8	-0.038222164
246	0x3d2c9e5a	0.042143203
247	0xbd0cebe2	-0.034404643
248	0x3cf6076b	0.030032834
249	0x3d0550ab	0.032547634
250	0x3d078cb8	0.033093184
251	0xbc409ee7	-0.011756635
252	0xbd273114	-0.04081829
253	0xbd292cec	-0.041302606
254	0xbd103369	-0.03520528
255	0xbd1f81c6	-0.03894212

net.6.weight f4 [1, 70]
0	0x3d680101	0.056641582
1	0x3d3e0145	0.04638793
2	0x3d6935ba	0.056936003
3	0xbd37b80c	-0.044853255
4	0x3d5e5fac	0.05429046
5	0x3d65f81d	0.056144822
6	0xbd4960e1	-0.049164657
7	0xbd804d19	-0.06264705
8	0xbd5ea7c3	-0.05435921
9	0x3d3f8506	0.04675772
10	0xbd6707b9	-0.05640385
11	0xbc37c062	-0.011215301
12	0x3d6187de	0.055061214
13	0xbd67dcab	-0.05660693
14	0x3d3bf624	0.045889035
15	0xbd42c060	-0.047546744
16	0x3d686b8a	0.056743182
17	0x3d5da835	0.054115493
18	0xbd47555a	-0.048665382
19	0x3d659202	0.056047447
20	0x3d65cf39	0.056105826
21	0x3d5ab339	0.053393576
22	0xbd5ee3fc	-0.05441664
23	0xbd672989	-0.056436095
24	0x3d5b6d07	0.053570773
25	0xbd5f5efd	-0.054533947
26	0x3d4104b7	0.047123637
27	0x3d618483	0.055058014
28	0x3d66c7ee	0.05634301
29	0xbd5ab034	-0.053390697
30	0x3d5d2f41	0.054000143
31	0xbd6197da	-0.055076458
32	0x3d868f84	0.06570342
33	0x3cbc6ee4	0.023002096
34	0x3d5ed9d8	0.05440697
35	0xbd5e79c4	-0.054315343
36	0x3d4841a1	0.048890714
37	0x3d484913	0.048897814
38	0x3ce33a8a	0.027737875
39	0xbd5ab623	-0.053396355
40	0x3d47ab98	0.04874763
41	0xbd607f21	-0.05480874
42	0x3d3a7aa4	0.045527115
43	0x3d5b6343	0.05356146
44	0xbd5c8144	-0.053834215
45	0xbd5ee920	-0.054421544
46	0x3d5c7ab3	0.053827953
47	0xbd64618a	-0.055757083
48	0x3d60ea31	0.054910842
49	0xbd5ae5ea	-0.05344192
50	0x3d5d4df0	0.054029405
51	0x3d3e45ef	0.046453413
52	0xbd42ee1f	-0.04759037
53	0xbd602b57	-0.054728832
54	0xbd62e523	-0.055394303
55	0x3d5a58ef	0.05330747
56	0x3d643dd9	0.055723045
57	0xbd5c86fe	-0.053839676
58	0xbd67da31	-0.056604568
59	0xbd67540b	-0.056476634
60	0x3d65606f	0.05600017
61	0xbd38438e	-0.0449863
62	0xbd0c19a5	-0.034204144
63	0xbd8d83cd	-0.06909905
64	0x3d5cb515	0.05388363
65	0xbd58fc1b	-0.0529748
66	0x3d34f893	0.04418237
67	0xbd640cf7	-0.055676427
68	0xbd62b56d	-0.055348802
69	0xbce1d9fd	-0.027569765
