models/mlp_pure_seed_456.pt (torch, 46017 bytes, 4 tensors)

net.0.weight f4 [70, 4]
00000000: 3899 82bd f58b a0bc b449 cf3d 16f3 b6bd
00000010: 1e46 973d 40c8 223d b3a3 4dbd 5e63 b63d
00000020: 3bee d9bd 8ba8 14bb deaf 343d 2dbb 7abd
00000030: 34a8 b8bd ab22 bfbd c155 cc3c b57a 7fbd
00000040: fd74 b43d 270b 533d 1daf 7f3d 738b 6bbc
00000050: 246f b5bd c942 b7bd 2d40 fd3c 719e 88bd
00000060: d4b0 aebd 709c c5bd 7ed4 bfbd 16a2 44bc
00000070: faaa ad3d 9fef 0f3d 4256 83bd 71c8 b53d
00000080: 629b e63d 24df d93c c8a9 10bd 5a26 7e3d
00000090: feb2 773d bd83 893e ed81 c93b bb4f bf3d
000000a0: d7be 35bd 3c60 a03d 0eb3 da3d 4150 c1bd
000000b0: 862e 8fbd 9f79 f1bd 19f5 cabd e4b3 ad3d
000000c0: cbab babd 683b acbd 390c bd3c 1fc9 75bd
000000d0: 37cb ac3d a410 c3bd 6b31 78bd 38e4 793d
000000e0: 0c66 b13d 3b14 063d f5da 8f3d 9e56 be3c
000000f0: 9019 15bd 5c1c 8dbc 287f 973d 0769 92bd
00000100: ca03 b13d 2ddd 523d 10e6 72bd eab9 ac3d
00000110: 40fb 8fbc 79b6 92bc 96ae 9d3c daaf 68bd
00000120: f47d 393d 6e13 5cbd 55b2 e1bd 3636 b73d
00000130: 5c92 6ebd da1c 7abe d706 383c 3e39 c3bd
00000140: 6112 743d 0069 7a3e 9ae1 e4bc 9c9a cd3d
00000150: c8c9 6dbd 69ca 283c 9f60 c93d c28f c0bd
00000160: ead7 60bd 283a 50be cd6a a5bd 9b70 7a3d
00000170: af8d acbd d403 92bd d752 573d 824f acbd
00000180: dde4 8f3c 3771 7fbc dbb3 43bd 3736 72bd
00000190: 91f4 9a3d 3b77 2f3d b606 523d 8bf9 06bd
000001a0: d82e d43d 9b08 c23d e791 1e3d afe1 a73c
000001b0: a050 8dbd 8fde 81be afdd 743b 72bd ecbd
000001c0: c199 bfbd 6d68 8fbd 3e4a 35bd 5072 6a3c
000001d0: 90f1 a73d ae54 003d fce5 8bbd 2656 bf3d
000001e0: beca b7bd 72d8 c6bd 2159 a93c e50f 74bd
000001f0: 5b3d abbd 5d03 86bd 0a84 623d 5954 b0bd
00000200: 4f9e b3bd 79d8 abbd 86cf 263d f612 97bd
00000210: a5a1 b23d 0026 873d 345b 54bd 57e5 a63d
00000220: 8d27 3bbd 7ab6 44be 34b1 9cbd 6dbe 6d3d
00000230: 09ea 84bc 0842 74bc 5e50 2c3c 1fb1 6cbd
00000240: af29 963d 9676 4e3e ac9f 903b 68ca ff3d
00000250: 7d40 b4bd 6d04 d0bc 7dd5 29bd 2af4 1ebd
00000260: 0b57 69bd f87e 9abe 7c77 64bc 9621 d5bd
00000270: 8271 debb 3872 e3ba 788d 23bd 60ef 453d
00000280: ae07 bb3d de9b c33d 4abd 52bc 0757 5a3d
00000290: 3fa3 b3bd 86c2 87bd 61c1 523d f7f7 a3bd
000002a0: 5df3 b2bc 4354 cbbc c24a 483d e29f 77bd
000002b0: fa9f b8bd 4a55 c2bd 757d 993c 411b 71bd
000002c0: 25b1 afbd d0f4 87bd 11af 553d 097d a5bd
000002d0: f5e1 75bd 727b 84be 5739 8f3c 83b8 cbbd
000002e0: 096c a43d 8aaa 4b3d ce1d eb3c 96a1 06bd
000002f0: e7ce fd3c cdfe 303d e30a c0bb 04ed 863d
00000300: 76bc bebd a6a1 d73d 17f7 443d c3ed 54bd
00000310: 9ea2 acbd d2de 79bd 5359 6b3d 38bc b1bd
00000320: 2244 9d3d de4a 6c3e b6f9 f03d bd0a a8bc
00000330: a704 883d 262f 063e defa 74bd 8b60 db3d
00000340: 4f09 933d 489f 253d 630a 3f3d a313 00bd
00000350: 9dee 28bd 70aa 923d 5d76 e13d cc7f b6bd
00000360: 8a9a debd 67c9 3bbc 4725 323d f708 79bd
00000370: 78e0 be3d 91e4 6e3d 5f20 263d b870 88bc
00000380: f75e acbd df17 49bd d450 16bd 1c6a 14bd
00000390: 1133 6cbd 91db 89be ec64 483b 147d dabd
000003a0: 3aac 893d 2bb8 2f3e e5a3 30bd 42a1 e53d
000003b0: a31f b13d 10a7 d23c 9e17 813d 2aa5 fa3c
000003c0: 0d60 88bd 335e 58be 713a cd3c eea6 e7bd
000003d0: 24de 8d3c 99a8 a13c d07c 13bd 3c63 663d
000003e0: 3791 50bd 1d18 183d 4f39 db3d f668 b9bd
000003f0: cebf 92bd 9e73 f9bd 4c8d d2bd af7c aa3d
-0.063768804 -0.019597987 0.1012148 -0.08933084 0.07386421 0.039741755 -0.050204944 0.089056715
-0.10641142 -0.0022683467 0.044113033 -0.06121366 -0.09016457 -0.09332784 0.024943234 -0.062372882
0.08811376 0.051524308 0.06242286 -0.014376509 -0.08859089 -0.08948285 0.03091439 -0.06670845
-0.08529821 -0.09648979 -0.093667015 -0.012001535 0.08479877 0.03514063 -0.06412937 0.08876122
0.11260106 0.02659566 -0.035318166 0.062048294 0.060473435 0.2685832 0.0061495216 0.09341379
-0.044371452 0.07830855 0.10678683 -0.09439135 -0.069912955 -0.117907755 -0.0991003 0.08481577
-0.09114798 -0.08409768 0.023077117 -0.060006257 0.08437198 -0.09524658 -0.060594004 0.061008662
0.08662042 0.032734137 0.070241846 0.023234662 -0.03640133 -0.017225437 0.073973 -0.071489386
0.08643301 0.05148046 -0.059301436 0.08433898 -0.01757586 -0.017909275 0.019248288 -0.05680833
0.045286134 -0.053729467 -0.11020342 0.08945887 -0.058245048 -0.24425068 0.0112320995 -0.095324025
0.05958784 0.24454117 -0.027939606 0.10039255 -0.05805376 0.010302165 0.09832882 -0.094024196
-0.05489341 -0.20334685 -0.08077011 0.061142545 -0.084254615 -0.071296364 0.052569237 -0.084136024
0.017565185 -0.015590957 -0.047778945 -0.059133735 0.075661786 0.042838316 0.05127593 -0.032952826
0.10360497 0.094742976 0.038713362 0.020493357 -0.069001436 -0.2536511 0.003736358 -0.11559571
-0.09355498 -0.070023395 -0.044260256 0.014309481 0.08200371 0.031330757 -0.068309754 0.093426034
-0.08974217 -0.097092524 0.020672383 -0.05958547 -0.08361312 -0.0654361 0.055301704 -0.08609838
-0.08770429 -0.08390898 0.040725254 -0.073766634 0.087222375 0.06599045 -0.05184479 0.08149212
-0.045692015 -0.19210234 -0.07650986 0.058042932 -0.016224878 -0.014908321 0.010517208 -0.057786103
0.07332169 0.20162424 0.0044135656 0.12489778 -0.08801363 -0.025392735 -0.041463364 -0.03880707
-0.056967776 -0.30174994 -0.013944503 -0.10406797 -0.0067884335 -0.0017352765 -0.039929837 0.04832399
0.09132324 0.09551214 -0.012862513 0.053305652 -0.08771371 -0.06628899 0.05145395 -0.0800628
-0.02184456 -0.024820453 0.04889942 -0.06045521 -0.09014888 -0.09488924 0.01873658 -0.058863882
-0.085787095 -0.06638491 0.05216891 -0.08080489 -0.060029943 -0.2587543 0.017483396 -0.09947302
0.080284186 0.049723186 0.028700735 -0.032868944 0.030982448 0.043211747 -0.005860673 0.06588176
-0.0931329 0.10528879 0.048087206 -0.05198456 -0.08429454 -0.061003514 0.057458233 -0.08678478
0.07679011 0.23075435 0.117663786 -0.020512933 0.06641512 0.13103923 -0.059809558 0.107117735
0.0717951 0.040435106 0.046640765 -0.031268727 -0.041243184 0.071614146 0.11008904 -0.08911094
-0.1086932 -0.011461592 0.04349258 -0.060799565 0.09320158 0.058323447 0.040558215 -0.016655311
-0.084165506 -0.04909503 -0.036698177 -0.036234006 -0.05766589 -0.26925328 0.0030577732 -0.10668388
0.06722303 0.17160098 -0.043125052 0.11212398 0.08648612 0.025714427 0.06303333 0.030596334
-0.06658945 -0.21129684 0.025052281 -0.11311136 0.017317839 0.019733714 -0.036007702 0.05624698
-0.050919738 0.03713237 0.1070429 -0.09053223 -0.0716549 -0.12180255 -0.102808565 0.08324563

net.2.weight f4 [70, 70]
00000000: 842b 3c3d e8a3 44bd d9f8 b13d 3aab be3d
00000010: 05be 8fbd 2ea6 bd3d 54bd cb3d 0334 98bd
00000020: d5aa c8bd 0000 09bd e478 243d 4653 983d
00000030: e798 bd3d 4ddd 79bd 1a33 8bbd 78ea 2dbd
00000040: 8f80 b1bd 07fb 4ebd 3574 2ebd 040b df3c
00000050: b4b3 0fbd 5e6a 463d 5c01 a83d de7c af3d
00000060: 27d6 62bd 1921 8abd c567 aabd 4186 1c3e
00000070: f380 983d 34cb 91bd 31b2 c43d 7f9b a73d
00000080: 3cc1 b83d 6e78 acbd 87a4 703d 61f4 55bd
00000090: b1da 09be dc15 8b3d 21f7 fe3c 6822 683d
000000a0: 29a2 c3bd 61d2 ad3d ca7d 52bd 8645 b93d
000000b0: 2e42 af3d 8622 223d 70f4 88bd 6629 2b3d
000000c0: 484c 853d 9248 a33d 4d75 15be 02ae 9bbd
000000d0: f1af 85bd 9f39 243d 0bc0 b83d b8d7 92bd
000000e0: 4e0d 993d 37a2 ea3c cca2 cbbd b65e 91bd
000000f0: cc7c cb3d 5f16 513d 745d 3f3d dc99 bb3d
00000100: 7092 b0bd 902f ec3d 8b0e 88bd 6840 413d
00000110: ba8c 803d a46c cabd 32b4 943c 37a3 cfbd
00000120: 9d28 043e 2527 fd3d dda0 dfbd ea77 fa3d
00000130: 704c c53d 819e fbbd feae 0fbe 629a 5fbd
00000140: dc25 ac3c e098 933d dfc9 f73d 1f84 c3bd
00000150: af71 d8bd 5440 95bd fffa 02be 17f5 ccbd
00000160: 6692 09bd b543 2d3d 1a91 90bd dbcf 073d
00000170: 9f27 f23d 2264 fb3d 3fe0 bcbd 8222 dabd
00000180: 93f4 eebd afa1 3f3e ea7d ea3d 35ce f8bd
00000190: cae4 fa3d 3ff1 f73d 6047 fc3d 194f febd
000001a0: 717c 9c3d 8bb2 cfbd 3649 2fbe a666 da3d
000001b0: 7289 d53d ae88 ce3d ee03 f5bd 55f4 003e
000001c0: f135 b8bd 2d57 f43d ccdf fe3d f011 9e3d
000001d0: a041 debd 0d69 be3d 4ae4 c63d d228 fd3d
000001e0: 6320 edbd 70b3 a4bd fe56 dabd 05be a93c
000001f0: f239 053e b96f e2bd 2f76 d53d 98b2 d73d
00000200: 3022 f9bd 431d dabd 85f8 153e df00 c43d
00000210: 2095 133d 8f16 973d d959 febd 87e7 cc3d
00000220: bd22 e3bd 0c5f b93d 65ba 5e3d 6136 d9bd
00000230: 2f4e 533d bcd7 b3bd fc1c c73c eba6 773d
00000240: edf7 13bd fc04 843d ca48 153d 9cab a1bd
00000250: d196 16bd fa2b babd c959 483d 0840 83bc
00000260: e69e 683d 5d1d 6dbc 6db9 50bd 86b0 df3a
00000270: 9db2 96bd 6876 70bc 0d86 47bd dcf3 c13d
00000280: 6893 e1bd a292 5c3d 4334 60bb b24b 9c3d
00000290: 5f85 3e3c 6a9d e4bc 7fbc 27bd a3af 093e
000002a0: 395d 1b3d b2c0 a9bd f6bc 6f3d 098d 9d3d
000002b0: 398b 883d a307 96bd 23f6 a0bb f28c 76bc
000002c0: b1c0 13be b2a0 5e3d 7754 103e d465 873c
000002d0: c40e 55bd 993c 933d ea5a 01bc 4cb5 7d3d
000002e0: c131 903d e3a9 e73d ebf1 eabc 12d3 c33b
000002f0: d842 ee3b c48e a13d 0808 dfbb ba91 c1bd
00000300: 2009 eabc 71e2 3b3d c2dc c83c 8bdc 07bd
00000310: da6d 5c3d 3fcc 0f3e 60e9 e6bd 9bf6 51bd
00000320: 2d4b fb3d 22d9 383c bc97 573d e529 2ebc
00000330: dc4e 91bd fd2e d63d 03e4 66bd b4bb ed3d
00000340: 83af a13d 4399 1bbd a3ff 5fbd 613c c53d
00000350: 4b4c 22bd 705c 90bd 95fc 393d 9b06 9abd
00000360: fefa 1fbd 62bd b63d 5be8 5f3d 9bbe bf3d
00000370: 71f2 6dbd 32a8 483c 6df6 8dbd 5d75 903c
00000380: 5352 6d3d 4376 0f3b b8a2 b33d cb79 e03c
00000390: 10d1 733d d6fc bebd 8093 e33d df6d 7abd
000003a0: 7941 563a 3b38 b2bd 24da ed3b 9788 1a3d
000003b0: 9010 533d 3122 0dbe 3acc 45bd a39d c73d
000003c0: ec85 8bbd b90d b2bd be46 9dbd 9664 ad3d
000003d0: e705 033b f9d6 ea3c 536c 163e ddf1 7ebd
000003e0: 07b4 0ebe 0876 fabc 8bd9 853d 7727 adbd
000003f0: 70ff 903c 0304 8fbd b7c2 aebd 46e1 e1bd
0.045939937 -0.048007876 0.08690042 0.093100026 -0.07018665 0.09260212 0.09948221 -0.074317954
-0.097982086 -0.033447266 0.040154353 0.07437758 0.092576794 -0.061002064 -0.06796856 -0.042459935
-0.08667099 -0.050532367 -0.042591292 0.027226932 -0.035083488 0.048441283 0.08203384 0.085687384
-0.055380013 -0.06744594 -0.08320574 0.15285589 0.0744647 -0.07118836 0.096043 0.081839554
0.090212315 -0.08421408 0.058750656 -0.05223501 -0.1346233 0.06791279 0.0311237 0.056673437
-0.09552414 0.08487392 -0.051389493 0.09046464 0.08557545 0.039583705 -0.06687248 0.041787528
0.0650869 0.07972826 -0.14595528 -0.07601549 -0.06527699 0.040094014 0.09021004 -0.07170051
0.07473241 0.028641803 -0.099431604 -0.07098143 0.099359125 0.051046725 0.046719983 0.09160206
-0.08621681 0.11532509 -0.06643399 0.047180563 0.062768415 -0.09884003 0.01815233 -0.10138553
0.12906118 0.12360982 -0.10919354 0.12229903 0.0963372 -0.122860916 -0.14031598 -0.05459059
0.021014147 0.07206893 0.12099051 -0.095466845 -0.105685584 -0.0728766 -0.1279106 -0.10007685
-0.033586882 0.0423009 -0.07058926 0.03315721 0.118239634 0.12274958 -0.09222459 -0.10651113
-0.116677426 0.18714021 0.114497975 -0.12148706 0.12250669 0.12106561 0.12318301 -0.124174304
0.07640923 -0.10141476 -0.17117772 0.1066411 0.10426606 0.10084663 -0.1196364 0.12593205
-0.089946635 0.1193069 0.124450296 0.07718265 -0.10852361 0.092973806 0.097115114 0.123613015
-0.11578443 -0.080420375 -0.10661124 0.020720491 0.13010386 -0.11056466 0.10422932 0.10532111
-0.12164724 -0.106501125 0.14645584 0.09570479 0.03603089 0.073773496 -0.12419481 0.10005098
-0.1109061 0.09051332 0.05437698 -0.10606075 0.051588234 -0.087813824 0.024305813 0.06046192
-0.036125112 0.06446263 0.03644637 -0.0789406 -0.036764923 -0.09090419 0.04891375 -0.016021743
0.056792162 -0.014472333 -0.050958086 0.0017066158 -0.073582865 -0.014676668 -0.048711825 0.094703406
-0.11014444 0.053850777 -0.0034210838 0.07631625 0.011628478 -0.027907092 -0.04095125 0.13445906
0.0379307 -0.08288707 0.058529817 0.07692916 0.066671796 -0.07325675 -0.0049121543 -0.015048252
-0.14428975 0.05435247 0.14094721 0.016528048 -0.052016035 0.071892925 -0.007895211 0.061940476
0.0704074 0.113117 -0.028679809 0.0059760893 0.007271152 0.078885585 -0.0068063773 -0.09451623
-0.028568804 0.04587025 0.024519328 -0.03316931 0.0538157 0.14042757 -0.112749815 -0.051260572
0.12270198 0.011282237 0.05263494 -0.010630106 -0.07095119 0.10458181 -0.056369793 0.11608067
0.07894804 -0.03798796 -0.054687154 0.09630657 -0.03962354 -0.07048881 0.045406897 -0.07520791
-0.039057724 0.08922841 0.05466495 0.09362527 -0.05809254 0.012247132 -0.069317676 0.017634088
0.05793984 0.0021890558 0.087712705 0.027401825 0.05952555 -0.093255684 0.11112118 -0.061139937
0.00081732083 -0.08702131 0.0072586704 0.03772792 0.051529467 -0.13782574 -0.04829047 0.09746864
-0.06812653 -0.08694024 -0.076795086 0.08466451 0.0019992532 0.02866696 0.1468976 -0.062242378
-0.13935862 -0.03057386 0.06535634 -0.08454793 0.017699927 -0.06983187 -0.08533233 -0.110292956

net.4.weight f4 [70, 70]
00000000: fa37 163d 8eb1 a33d 8654 2b3d 3706 44bd
00000010: 5dff 74bb 229b a0ba d5de 17bd 3447 163b
00000020: 73b3 2cbb de3b 73bd 16df 45bd b363 013c
00000030: 9c64 883d 0393 763c 6236 5fbd e71e d7bc
00000040: a1da 52bd fcbd 5a3d 9dd9 6f3d c43a 213d
00000050: 81c5 843d 3ada 87bd c715 8f3d dea5 58bc
00000060: 7e86 91bd f0b7 72bd 2843 863d edd3 8a39
00000070: cd11 9b3d a0bf 00bd 0a3c adbb 4da1 a2bd
00000080: c341 0e3d 6024 603d 7287 dc3b 6548 36bd
00000090: 538a 553d 05d9 5fbd 7a4c 833d 24c6 d4b9
000000a0: 99df 97bc 00b4 e63b 9337 62bd cb16 25bd
000000b0: 9001 2c3d 3e50 25bd 5817 7c3d a09b 34bd
000000c0: f301 673d 15d2 f33c e9ed 79bd e2e6 8b3d
000000d0: 9b3b 76bb 3b26 1d3d 4ba1 d0bb b8ed 043c
000000e0: 7523 75bd 5936 633d c722 733d 2a0f 23bd
000000f0: 919f 103b 8855 823d 2c9c 453d 7ec2 1bbd
00000100: 057d 4b3d a0bf 3f3d c47b 03bb cb97 f7ba
00000110: 4bb0 74bd b8d0 923d 0327 a4bd 0531 e7bd
00000120: 9ce7 3ebd 2128 443d 2948 313c c0ac bf3d
00000130: fd14 cd3d 9830 ea3b 323e 9dba 5e50 7a3d
00000140: 95ea ce3d 4996 00bd f0b3 90bd 24c2 c5bc
00000150: c878 623d d8c4 9a3d c424 673d 5bfc 60bd
00000160: d11a 7fbd 954a 24bd 9dc7 cabd dce9 963d
00000170: 02ce a4bd 1b27 1f3c 2080 9f3d 9b98 773d
00000180: 2db9 94bd f00f 4dbd 5f72 d2bd 1b89 b73d
00000190: 1509 193c 5e27 e03d a851 9cbd 78cc 6abd
000001a0: d6fb 09bd 06e4 c43d b4e0 60bd 7593 623d
000001b0: efe0 95bd 9b9e 383c 924e adbc c71d 25bd
000001c0: f870 e83d 7474 a93d eadd dbbd fb51 363d
000001d0: 445e 81bd c8e3 a53d 4570 d9bd 846e 9fbd
000001e0: 958f d73d 0c20 b0bd 3a6a 5b3c 1a7e bcbd
000001f0: ede9 2b3c 2108 1ebd e418 863d f244 7bbd
00000200: 13c2 7bbd c982 b43d 17bc 1ebc bf0e eabd
00000210: 0297 4dbd 18b3 b33d 44ce 5cbd 1b9b c9bd
00000220: 109c f2bb b737 debb 2ded f13d 966f a6bd
00000230: a321 dcbd d047 01be 17e7 3dbd 657a 533d
00000240: 8df9 14bc a5b6 2e3e ae42 033e 470f 71bc
00000250: 7b69 9c3c 1639 873d e382 033e b1d9 14bd
00000260: 3023 94bd 6171 07bd e3c4 753d b8dc ae3d
00000270: 5fcf 643d 8bc9 67bd a679 86bd 141f 37bd
00000280: 2073 dabd 63e2 a63d b236 b0bd c6b6 333c
00000290: 64f2 af3d 5405 873d b1d7 98bd cec7 45bd
000002a0: c8c3 eebd a533 e73d fefd 0bbc 7d3d fc3d
000002b0: aa25 c5bd eca1 69bd 3d29 08bd 9ca9 fb3d
000002c0: f415 55bd 0480 763d 4905 a3bd cac3 40bc
000002d0: 97d2 0b3d 4445 0abd a57c 0c3e 9b43 7b3d
000002e0: 158b 0ebe 2b65 2d3d c04a 8abd a4ca cd3d
000002f0: d231 03be 1977 bfbd 1d87 ef3d 6203 c2bd
00000300: 55c9 1cbc d627 f7bd 3c15 213c 0028 47bd
00000310: 221b 923d ca07 7cbd 0d09 80bd f884 ef3d
00000320: 1037 303c 542b 08be bbba 56bd 01e0 e03d
00000330: b18a 5abd 09c2 febd f6d0 833c 6164 8a3c
00000340: 1fce 0b3e bd25 bbbd c1d0 96bd 03d3 dbbd
00000350: 8789 40bd 0867 583d b3bd 423c 0b1f 823d
00000360: ab82 c23d 3b85 f83b 29a2 02bc 0e70 853d
00000370: 63b9 c33d a465 e2bc 210f 98bd b8c4 84bc
00000380: 1e31 603d ba2a 8e3d e5e4 6e3d 9b37 68bd
00000390: 35f4 86bd b80c 29bd 3ce7 d6bd 902a 983d
000003a0: e7f3 9fbd 00d9 cb3b 73da a03d d1ec 773d
000003b0: f96f 94bd 3a24 2bbd a0e1 c7bd 57b7 ad3d
000003c0: b77c 593c ddfd cf3d 6bcd 95bd e080 6bbd
000003d0: 813f fdbc 5863 b93d 2932 64bd c76b 643d
000003e0: e965 93bd ab68 5f3c a885 ffbc 84bb 03bd
000003f0: f459 d83d 8918 a83d 50cf ccbd 88bc 383d
0.036674477 0.0799285 0.041828655 -0.04785749 -0.0037383654 -0.0012253264 -0.037077744 0.0022930624
-0.0026352077 -0.059383266 -0.048308454 0.007897305 0.06659815 0.015049699 -0.054495223 -0.026259853
-0.051478032 0.05340384 0.05855714 0.039362684 0.064829834 -0.0663342 0.069865756 -0.01322314
-0.071057305 -0.059257448 0.06555778 0.00026479308 0.075717546 -0.031432748 -0.005286698 -0.07940922
0.034730684 0.05472219 0.0067300135 -0.044502635 0.05213387 -0.054650325 0.06411071 -0.00040583417
-0.018539237 0.0070405006 -0.05522878 -0.04030494 0.041993678 -0.040359728 0.0615457 -0.044093728
0.056398343 0.02976326 -0.061017904 0.06831147 -0.0037572149 0.038366538 -0.006366884 0.008113317
-0.059848268 0.05547175 0.059359338 -0.039809383 0.0022067765 0.0636397 0.04824464 -0.03802728
0.049679775 0.046813607 -0.0020062784 -0.0018889842 -0.05973844 0.07168716 -0.080152534 -0.112886466
-0.0466076 0.047889832 0.010820427 0.09359121 0.10013769 0.007146906 -0.0011996685 0.0611118
0.10103337 -0.031393323 -0.0706557 -0.024140425 0.055290967 0.07557076 0.056431547 -0.054928165
-0.062281433 -0.04011019 -0.099013545 0.07368824 -0.08047105 0.009713913 0.0778811 0.06044827
-0.07261882 -0.050064027 -0.10275721 0.08961698 0.009340544 0.10945009 -0.07632762 -0.057323903
-0.033687435 0.096138045 -0.054901794 0.055316407 -0.07318293 0.011268283 -0.02115563 -0.0403116
0.11349672 0.08274165 -0.10735686 0.044511776 -0.06316808 0.081000865 -0.10617117 -0.07784751
0.10525433 -0.085998625 0.013392026 -0.092037395 0.010492784 -0.03858197 0.06547716 -0.06134505
-0.06146438 0.08814008 -0.009688399 -0.11428594 -0.05019284 0.08774394 -0.053907648 -0.09844037
-0.007403858 -0.006781544 0.11812816 -0.08126752 -0.10748603 -0.1262505 -0.046362963 0.051630396
-0.009092701 0.17061861 0.12818405 -0.014713115 0.019093266 0.06602685 0.12842898 -0.03634042
-0.07233274 -0.03306711 0.06000222 0.085381925 0.055861827 -0.05658869 -0.06566171 -0.044707373
-0.106664896 0.081486486 -0.08604182 0.01096887 0.08591154 0.06592813 -0.07463015 -0.04828625
-0.11658436 0.11289147 -0.008544443 0.123164155 -0.096263245 -0.057039186 -0.033242453 0.1228821
-0.05202289 0.06018068 -0.079599924 -0.01176543 0.03413638 -0.033757463 0.13719423 0.06134377
-0.13920243 0.04233281 -0.06752539 0.10048416 -0.12811974 -0.09348888 0.11695693 -0.094733015
-0.009569486 -0.12068145 0.009831723 -0.04862213 0.071340814 -0.061530866 -0.06251726 0.11695284
0.010755315 -0.13297778 -0.052424174 0.10980225 -0.053354923 -0.12439353 0.016090851 0.016893568
0.13652848 -0.091380574 -0.073640354 -0.10733607 -0.047006156 0.052832633 0.011886048 0.06353577
0.09497579 0.0075842417 -0.007973232 0.06515513 0.09556844 -0.027636357 -0.074247606 -0.016207084
0.05473434 0.06941743 0.05832376 -0.056693655 -0.065895475 -0.041271895 -0.10493323 0.07429993
-0.078101926 0.006220937 0.07854166 0.06052858 -0.072479196 -0.041782595 -0.097598314 0.08482235
0.013274363 0.101558425 -0.07314571 -0.05749595 -0.03091407 0.090521514 -0.0557119 0.055766847
-0.07197172 0.013635795 -0.031191662 -0.03216125 0.10564032 0.08207805 -0.10000479 0.045101672

net.6.weight f4 [1, 70]
00000000: 0826 423d 520d adbd 1e18 dcbd 77ed 97bd
00000010: 7f18 b53d 9bdb dcbd 7ada b13d c103 343d
00000020: 2c16 9fbd 036a d2bd 343b 42bd bd26 bdbd
00000030: c995 b2bd f4eb aa3d 03db d9bd 976f d33d
00000040: e86b 523d 2f29 b2bd c82b 2cbd e4d5 393d
00000050: 10c6 8e3d 9d9e 35bd 3fcf 49bd e0d6 dcbd
00000060: b46a abbd d55b 2fbd 9a5c b43d ce8a 43bd
00000070: b176 bebd 778e dabd 2352 ab3d f3f6 c0bd
00000080: fee8 b93d ecda dcbd 0bd0 b0bd 3a44 ce3d
00000090: f65d 323d 1c54 bebd f2b9 be3d 643a 363d
000000a0: 1cfa da3d d14b cd3d a2d8 bb3d e154 dd3d
000000b0: 74eb ddbd 8080 3cbd a321 3bbd 210e 40bd
000000c0: ed13 b53d 4c05 ddbd d3cc 323d 02d1 dd3d
000000d0: e8b7 46bd 4f59 bd3d e430 3bbd b9ef 41bd
000000e0: 3a6f bfbd 8e5b 35bd f9c7 bb3d 42cd 4cbd
000000f0: 0aaa ba3d 3aa7 3dbd 485f dc3d a1b2 45bd
00000100: eff4 383d 60e5 483d ffdc 35bd 5dcf 3abd
00000110: 2ecb bc3d 787e d7bd
0.04739955 -0.08449806 -0.107467875 -0.0741834 0.08842563 -0.10784074 0.08684249 0.043948893
-0.07767901 -0.102741264 -0.04741974 -0.09235904 -0.087199755 0.08345786 -0.10637476 0.103240184
0.05137244 -0.086992614 -0.04203394 0.045369998 0.06971371 -0.04434072 -0.04926991 -0.10783172
-0.083699614 -0.042812187 0.08806725 -0.047739796 -0.09299982 -0.10671704 0.08365276 -0.09422102
0.09077643 -0.107839435 -0.08633431 0.10071607 0.04354664 -0.09293386 0.0931281 0.04448928
0.10692236 0.100242265 0.09172179 0.10807205 -0.10835925 -0.046020985 -0.045686375 -0.046888474
0.08841691 -0.10792026 0.043652367 0.10830881 -0.04851523 0.0924555 -0.045700923 -0.047347758
-0.09347387 -0.044276766 0.09169001 -0.050000437 0.091144636 -0.046302058 0.10760361 -0.048266057
0.045155462 0.049046874 -0.04440021 -0.045607913 0.09218441 -0.10522169
