models/mlp_residual_seed_111.pt (torch, 46057 bytes, 4 tensors)

net.0.weight f4 [70, 4]
00000000: fad4 ca3c c67f 8fbe ed67 a2bd 0400 453e
00000010: d0fa f7bc 819d 8f3e 54cb 9b3d 55e1 3cbe
00000020: dd8f f7bc 4aa7 8b3e 9c9b 963d 3af3 3bbe
00000030: ac4e f5bc e1d7 863e 80e9 853d b9d5 36be
00000040: afcb 1a3d d658 583e bbc0 a03c 29bb 25be
00000050: b4e8 febc f36c 8f3e 5bb1 9a3d c84c 3dbe
00000060: e611 e9bc 33a3 943e 3ff6 ab3d 173c 4cbe
00000070: 6860 f6bc d3a9 8c3e 49a6 9a3d 194a 3cbe
00000080: 0a3b 013d db73 96be 9d45 acbd 0612 413e
00000090: cd93 f73c 2246 8dbe ea90 97bd aea8 3a3e
000000a0: af6d fe3c 7d82 8ebe c94e 95bd d090 3d3e
000000b0: 6799 003d b704 91be 38bf 9bbd e7a9 3e3e
000000c0: 0c29 e4bc 4ff5 883e 84a0 923d 99e5 38be
000000d0: 9a6c f1bc e4b0 923e b698 a53d 58e4 44be
000000e0: 612e dbbc fc33 943e fee0 a63d cdf9 41be
000000f0: 2041 64bd 4dba 71be 3b35 b8bb a76c 5f3e
00000100: a8e8 edbc be8c 993e 5758 b63d a3dd 4dbe
00000110: 4058 cabc 2ba3 903e 01ae a03d c2d8 49be
00000120: 7a94 fbbc 1174 8d3e 8d76 983d ccc9 3fbe
00000130: e058 46ba 7e4f 44be 0977 6cbd ebe4 c33d
00000140: 989d c9bc 9b7d 5d3e 078a 903d d2bf 2fbe
00000150: aa75 d03c e5c1 90be 3093 a0bd edf8 493e
00000160: 58de fcbc 303a 8f3e be33 983d d1cc 3fbe
00000170: 8a42 f3bc 4903 833e 6638 7e3d 6c35 35be
00000180: 5838 02bd ec89 913e af90 993d d585 3fbe
00000190: b47a 01bd f64b 913e 2223 a23d 82d8 43be
000001a0: b020 ffbc 826c 8f3e 3e14 953d f690 3cbe
000001b0: 37bc dcbc b8fe 953e a514 ad3d 5146 4cbe
000001c0: a615 82bd 1c12 71be e851 fdba dc45 623e
000001d0: 8429 f2bc 1876 863e 5056 873d d20c 37be
000001e0: 6043 d03c fc7d 95be a2ec b7bd 7c43 503e
000001f0: 2adb d13c 4a27 93be 9e69 abbd 0043 473e
00000200: 5ed8 f13c def8 81be fdaa 80bd 6489 333e
00000210: eead 013d d881 94be 5804 a6bd dc6d 413e
00000220: b133 c8bc e3de 8f3e 49a6 9f3d ab7f 48be
00000230: 4023 f5bc 57d0 883e f490 8e3d f740 37be
00000240: b815 e1bc eab9 9b3e 34bd bd3d a427 52be
00000250: 9d8b fd3c 9228 92be 0d68 aabd 7941 423e
00000260: 9e2a b0bc a5e4 853e 6d3f 963d 5c6e 3dbe
00000270: 9efa eabc 6482 963e 645c af3d df37 4fbe
00000280: 1843 06bd 8430 953e 8c1e a83d 2782 44be
00000290: 0612 fb3c 7647 90be 4c28 9ebd a42d 3b3e
000002a0: 1aa0 c93c e74a 90be 2ba4 a7bd af13 473e
000002b0: 60bf 023d a707 93be 6b0a a8bd 23d1 443e
000002c0: 9744 003d f2c5 91be 0de6 a1bd 3d57 413e
000002d0: 7ff2 05bd c670 953e 60b6 a83d a55e 44be
000002e0: 8b43 ebbc ec6e 8f3e a489 993d 235d 3bbe
000002f0: 3203 acbc 7eb5 853e 9603 953d d43f 3fbe
00000300: 29f0 a63c defe 84be eead 9cbd a69b 433e
00000310: 438e c8bc fe76 953e 040f b83d cc50 4dbe
00000320: 2c95 f0bc 4628 853e 11c5 873d b43b 34be
00000330: 95af febc c1e4 8f3e 250f 963d 5434 3bbe
00000340: bc13 043d 84b3 91be 18ea a8bd 2251 473e
00000350: 128b d5bc 7ce3 933e 182a aa3d 86cc 44be
00000360: 0146 ca3c 3039 5cbe 8cd3 94bd 5ccd 2e3e
00000370: 550d ce3c 860a 93be e16c a7bd 4d0a 473e
00000380: 35d8 d83c db95 93be 6131 acbd 52c0 483e
00000390: 426f e23c 8448 9abe f046 b5bd cb55 4b3e
000003a0: ed3c dd3c 55eb 9abe 01f7 bfbd f4a8 4d3e
000003b0: a574 d0bc e889 933e 1a36 ab3d f7c9 47be
000003c0: 0a2f c5bc 72de 8f3e cdf7 9e3d 9a39 40be
000003d0: 4475 f6bc d773 8e3e 53e1 9d3d f555 3abe
000003e0: d5db d33c bbb7 96be 2325 b1bd 7286 453e
000003f0: 80c5 eebc 14fd 913e 01cc a13d b80c 3fbe
0.024759758 -0.2802717 -0.079299785 0.19238287 -0.030270964 0.28049853 0.07607141 -0.18445332
-0.030219967 0.2727607 0.07353899 -0.18354502 -0.02994474 0.26336578 0.06538677 -0.17854966
0.037791904 0.21127638 0.019623151 -0.16184677 -0.03111682 0.2801281 0.07553359 -0.18486321
-0.028450917 0.2903076 0.08396577 -0.19944797 -0.030075267 0.27473316 0.075512476 -0.18387641
0.031550445 -0.29385266 -0.08411715 0.18854532 0.030221844 -0.2759257 -0.07400687 0.18228409
0.03105816 -0.2783393 -0.07290418 0.18512273 0.031396296 -0.2832391 -0.076048315 0.186195
-0.027851604 0.26749656 0.07159522 -0.18056335 -0.02947073 0.28650582 0.08085768 -0.19227731
-0.026755514 0.2894591 0.081483826 -0.18942948 -0.05572617 -0.23606224 -0.00562158 0.21818791
-0.029041603 0.2999019 0.08903568 -0.20104079 -0.024700284 0.28249487 0.078456886 -0.19711593
-0.030710448 0.27627614 0.07444487 -0.18729323 -0.0007566344 -0.19170949 -0.05773071 0.09565147
-0.02461128 0.21629946 0.070575766 -0.17163017 0.025446732 -0.2827293 -0.07840574 0.19723864
-0.03086774 0.2797408 0.07431744 -0.18730475 -0.029694814 0.25588444 0.062065504 -0.1769616
-0.031792015 0.2842554 0.07498299 -0.18703397 -0.03161116 0.28378266 0.07916857 -0.1912556
-0.031143516 0.28012472 0.072792515 -0.18414673 -0.026945217 0.29295897 0.08451203 -0.19948699
-0.06351785 -0.23542064 -0.0019326778 0.22096962 -0.029560812 0.26261973 0.0660826 -0.17875984
0.025422752 -0.2919768 -0.08980681 0.20338243 0.0256172 -0.28740913 -0.08369754 0.19459152
0.029522117 -0.25385183 -0.062826134 0.17532879 0.031660013 -0.29005313 -0.08106297 0.18889564
-0.02443871 0.28099737 0.07795388 -0.19579951 -0.029924035 0.2672145 0.06961241 -0.17895876
-0.027476177 0.3041528 0.09264603 -0.20522934 0.030950362 -0.28546578 -0.08320627 0.18970288
-0.021504696 0.26151004 0.07336316 -0.1849913 -0.028683957 0.29396355 0.08562544 -0.20236157
-0.03277883 0.29138577 0.08208951 -0.19190274 0.030648243 -0.2817952 -0.0772253 0.1827913
0.024612475 -0.28182146 -0.081856094 0.19441102 0.03192079 -0.28716776 -0.08205112 0.19220404
0.031315412 -0.28471333 -0.07905207 0.18880935 -0.032701965 0.29187602 0.0823791 -0.19176729
-0.02871873 0.28014314 0.07496956 -0.18297248 -0.020997617 0.2611503 0.072760746 -0.18676692
0.02037819 -0.25975698 -0.07650362 0.19102344 -0.024481898 0.29192346 0.08987239 -0.20050353
-0.029368006 0.2600729 0.06629384 -0.176009 -0.031089583 0.28104213 0.07327107 -0.1828168
0.032245383 -0.28457272 -0.08247775 0.19464543 -0.02606729 0.28884494 0.0830881 -0.19218644
0.024691584 -0.2150619 -0.07266912 0.17070526 0.025152842 -0.28718966 -0.08175064 0.19437523
0.026470283 -0.28825268 -0.08407856 0.19604614 0.027640942 -0.3013345 -0.08851421 0.19856946
0.02700659 -0.3025767 -0.09373284 0.20083982 -0.025446245 0.28816152 0.083599284 -0.19510637
-0.024070282 0.280994 0.07762108 -0.18771973 -0.030085213 0.27822754 0.07708993 -0.18196853
0.02586166 -0.2943705 -0.086496614 0.19289568 -0.02914691 0.28513396 0.07900239 -0.18657196

net.2.weight f4 [70, 70]
00000000: cc7f dfbd 3458 cc3d 4a3b bd3d a27f a13d
00000010: 6dc8 883d c4ce cc3d 98af 0b3e 59b3 c23d
00000020: 946e febd dcc0 bebd b5f7 cbbd 56e7 d4bd
00000030: 8f5e a33d 1665 ee3d e5cf ed3d 69ab bcbd
00000040: 2b4d 233e 480d f53d 185e ce3d 168c c2bc
00000050: cba3 393d 2815 f6bd 128d d43d b26d 923d
00000060: 277d df3d 8409 eb3d 0c9b c83d 7640 103e
00000070: e01f ddbd 7aaa 9c3d 1fcf 13be 0757 00be
00000080: ffd4 89bd 6488 f3bd 1b2f f13d 4161 a53d
00000090: b22a 303e f9b7 ebbd 83d4 a13d f05a 1a3e
000000a0: 0286 fe3d 21c5 c6bd 92a4 f1bd 5fa5 fabd
000000b0: 5ac0 e4bd 1c1a 023e 9430 c43d 4425 9f3d
000000c0: 0820 a3bd 3c0c 103e 1ca3 963d 2826 cb3d
000000d0: 70c0 f3bd 4a28 fd3d 7b73 3cbd cca3 fdbd
000000e0: 2a28 03be 743c 1dbe 529c 24be ddbb 023e
000000f0: c98d d43d 8a4f c13d 905a 07be f661 d43d
00000100: 4f9c e53d 7239 96bd 5f8f d73d 9014 de3d
00000110: b021 f4bd a060 e3bd 50f2 bd3d 31f9 b4bd
00000120: 27c1 a2bd 8ac8 80bd ae2d 96bd 1ebb aebd
00000130: da01 febd 7172 a5bd 751c e33d ea46 a53d
00000140: 37a3 b23d 677d bf3d 57c3 a1bd ddae ebbd
00000150: 495f cebd b85a 9e3d 9351 13be 7a4c fcbd
00000160: 1653 b6bd 20e7 8d3b 043c 03bd f752 e63d
00000170: 9d18 bdbd b4d8 79bd a08f c2bd 7bc6 cfbd
00000180: e37d b0bd c786 0cbe 08fc e93d 778c 82bd
00000190: 0cac 143e 77f9 d53d ea79 683d a0df dc3d
000001a0: b679 f1bd 5f56 89bd 65c8 2abe e9d1 d23d
000001b0: 4bc3 82bd 2ae9 08be d95c ddbd 157d b23d
000001c0: 85a2 c73d 40f5 d63d 36f3 c73d cf65 debd
000001d0: c71a adbd f40c 82bd 4230 803d 5a73 11be
000001e0: 2809 76bd bd63 aabd 42c4 d73d c2d2 cbbd
000001f0: 385b fd3c 6938 d13d ee47 fb3d 8b5a 1c3e
00000200: d207 223e 6208 dbbd 4169 aebd 430d a6bd
00000210: 0b28 eb3d 158f dbbd 5d2c c9bd dbaa 813d
00000220: 07e6 c2bd 1aca c0bd 0ad0 d83d ed05 c53d
00000230: 5227 df3d 9971 99bd ccd2 86bd f6d5 5bbd
00000240: 922a 42bd f19f 97bd 7d0a dfbd d0db 8dbd
00000250: 331b c23d 8926 8b3d e7ef 983d cd78 a03d
00000260: 6c92 63bd 72de babd b2ac e6bd a33a cd3d
00000270: 005c fbbd 501d bfbd ba1e 98bd 36b9 f93c
00000280: b510 4dbd e04a c13d bb7f a2bd a0ab 3fbd
00000290: 4517 a7bd c274 b9bd c03a 95bd 9306 e2bd
000002a0: a0e2 b63d 952b 5dbd 9372 e63d 401a f43d
000002b0: d247 343d 66b9 bb3d 4c8a b3bd 7897 66bd
000002c0: 7aae 08be c27a b03d c3fa a3bd a7d1 f5bd
000002d0: 1ba0 c7bd badc 933d 6daa e43d 202a c53d
000002e0: ea4c b33d 3b41 c9bd e1d0 95bd 34fb a2bd
000002f0: c3bf a23d 56a7 dcbd a7cb 41bd 8952 91bd
00000300: cef4 bd3d cb09 f2bd e6ce 593d 440c fa3d
00000310: 71e5 c83d 4a75 fa3d 09b3 003e fb52 febd
00000320: ff3f d3bd 6636 89bd 468c 033e fa03 9fbd
00000330: cc19 b3bd 3c29 523d 1812 a1bd 51bf a9bd
00000340: 5a51 bb3d 415d a93d 7c9e bdbd 063d b03d
00000350: 1212 a33d 7391 803d 23e5 8f3d cb99 ad3d
00000360: df24 fd3d c628 aa3d 6c6d e5bd 1be0 a1bd
00000370: d7b6 adbd acae bdbd e5cf a33d 7539 ee3d
00000380: ffca c83d cc73 9ebd ed66 143e 518e fa3d
00000390: f4b2 b63d 5850 c7bb 3fcb 083d 35a5 efbd
000003a0: 4657 b73d 271b 6e3d e288 bf3d cf87 ce3d
000003b0: 5c69 af3d 4bec 0b3e 5cad e7bd 288b 813d
000003c0: 6cd8 13be f76a d3bd a9f6 68bd fa63 debd
000003d0: d41c f73d a0ab 8a3d b99d 2c3e 7249 d4bd
000003e0: c270 823d f873 0a3e 1493 e03d a4b3 afbd
000003f0: 9214 cabd 20cd dabd 02f0 ccbd 1fdb e23d
-0.10913047 0.09977761 0.09239824 0.07885672 0.06678853 0.10000375 0.13641202 0.09506864
-0.12423435 -0.09314129 -0.09959356 -0.10395686 0.0797702 0.11640374 0.11611918 -0.092123814
0.15947406 0.11965424 0.10076541 -0.023748439 0.04532222 -0.12015754 0.103784695 0.07149829
0.10912543 0.11476424 0.09795198 0.1408709 -0.10797095 0.07649703 -0.14434479 -0.12533198
-0.06730079 -0.11891249 0.11776563 0.0807519 0.17203787 -0.115096994 0.079018615 0.15073752
0.12427904 -0.09705568 -0.117989674 -0.12238573 -0.11169501 0.12705272 0.09579578 0.0777078
-0.07965094 0.14067167 0.073553294 0.09919387 -0.11901939 0.123612 -0.04600857 -0.123847574
-0.1280829 -0.15355092 -0.16075256 0.12766977 0.10378606 0.09438999 -0.1321814 0.10370247
0.11211454 -0.073351756 0.10525393 0.10843766 -0.11920488 -0.11102414 0.09274733 -0.08836592
-0.07946997 -0.0628825 -0.073329315 -0.085317835 -0.12402697 -0.080784686 0.11089412 0.080701664
0.08722537 0.093500905 -0.07898586 -0.11507962 -0.10076768 0.07732147 -0.14386587 -0.12319274
-0.08902566 0.0043305308 -0.032039657 0.11246293 -0.0923321 -0.06099768 -0.095000505 -0.10145279
-0.08617761 -0.13723288 0.11425024 -0.06374448 0.14518756 0.10447972 0.05675689 0.107848406
-0.11790793 -0.06705927 -0.16678007 0.102939434 -0.063849054 -0.13370195 -0.10808725 0.08715264
0.09747795 0.104959965 0.09763186 -0.10859262 -0.08452373 -0.06350127 0.062592044 -0.1420416
-0.060067326 -0.08319805 0.1053548 -0.09952308 0.030927286 0.102158375 0.12269579 0.15268914
0.15823296 -0.10694958 -0.08516169 -0.08107998 0.11482247 -0.1072065 -0.09822915 0.06331416
-0.095165305 -0.09413548 0.10586555 0.09620271 0.10896172 -0.0749237 -0.06583175 -0.053670846
-0.04740388 -0.07403553 -0.10890672 -0.069266915 0.09477844 0.067944594 0.07467633 0.07835541
-0.05555956 -0.09124459 -0.11263408 0.1002095 -0.12273407 -0.09331763 -0.074277356 0.030483823
-0.05006476 0.094381094 -0.07934519 -0.046794534 -0.08158735 -0.09055473 -0.07286596 -0.1103641
0.08929944 -0.05399664 0.11252322 0.11919069 0.044013806 0.09166221 -0.087666124 -0.056296796
-0.13347808 0.08617164 -0.080068134 -0.12002879 -0.097473346 0.072198346 0.11165319 0.09627175
0.087549046 -0.09826895 -0.07315231 -0.079580694 0.07946732 -0.10774104 -0.04731336 -0.070958205
0.092752084 -0.11818274 0.05317583 0.12209371 0.098093875 0.12229402 0.12568296 -0.12418171
-0.10314941 -0.06699829 0.12846479 -0.0776443 -0.08745155 0.051308855 -0.07864779 -0.08288444
0.09146376 0.0826974 -0.09258744 0.08605389 0.07962431 0.06277742 0.07026126 0.08476599
0.12360548 0.08308558 -0.11202511 -0.07904073 -0.084821396 -0.09261832 0.07998637 0.11632053
0.098043434 -0.0773693 0.14492388 0.12234176 0.08920851 -0.006082576 0.033396956 -0.117014326
0.08952193 0.058131363 0.0935228 0.10084497 0.085650176 0.13664357 -0.113123626 0.0632537
-0.14438027 -0.10323136 -0.05687586 -0.10858913 0.120660454 0.06771016 0.16857041 -0.10365571
0.06369163 0.13520801 0.10965553 -0.085791856 -0.09867205 -0.10683656 -0.10006715 0.1107695

net.4.weight f4 [70, 70]
00000000: bc41 cdbd ecc0 a23d 9b62 943d f2d6 a0bd
00000010: 02c0 84bd 9ee2 abbd 2d4b 88bd c19c d13d
00000020: cef6 cabd 6b5f cbbd 1a5b c83d cacc 543d
00000030: 74db c5bd 59ee 803d be97 cc3d 5df7 dfbc
00000040: 474b c63d 5d71 a0bd 88fb 98bd 0025 a6bd
00000050: fd5d d03d e7b9 ac3d c64b a03d 3c47 9b3d
00000060: bd5f cb3d 2a78 cfbd ccb8 cdbd 91b2 b03d
00000070: 4c86 853d 7ab0 ccbd 97bb 9fbd 0724 cf3d
00000080: b637 d1bd d8de aabd c173 cd3d 04a0 cf3d
00000090: 0a92 acbd 8228 b33d 561f 963d 8fd6 c93d
000000a0: e780 ca3d 737d 08bd dad3 ab3d 67c0 3abd
000000b0: 573e a5bd 09a7 c6bd e47e d23d 8f93 6a3d
000000c0: 1358 c8bd 3b5b c8bd 3802 a63d 0d2d 873d
000000d0: 672d d1bd d8d6 ae3d ecb6 cb3d abf4 8cbd
000000e0: 8373 9e3d ba43 8fbd 07cd be3d 18f9 b3bd
000000f0: 87f6 cc3d 4764 ce3d 2435 ccbd ede7 39bd
00000100: 39fb d1bd ea5a c83d 8170 c53d 6a7a cdbd
00000110: fd4b cbbd 81cb cf3d acd1 ce3d 8ee3 9fbd
00000120: 4c90 90bd 50fe a63d 4fa9 743d f4b3 ac3d
00000130: 06f8 883d b4c9 d1bd 4841 cf3d 9c04 ce3d
00000140: 6a45 cbbd f473 52bd 46b9 c83d 5407 7fbd
00000150: 7865 d0bd cc20 e63c e626 c6bd 51de a43d
00000160: 1da8 9b3d 7e82 a03d c77a cbbd 6a58 aebd
00000170: ddaa 9ebd 653d 99bd 709b cfbd 68b5 cf3d
00000180: a0e3 cb3d f7b0 b3bd d61b 8abd 0108 cb3d
00000190: c084 a63d d021 cabd e3b3 cd3d 6cb8 a83d
000001a0: a3c1 cbbd 0397 cdbd 80df aa3d a259 b3bd
000001b0: d754 97bd 91a9 cfbd 1f19 d1bd ea36 f93c
000001c0: 3d42 a9bd 8edc 3d3d 5a8e a23d 5046 c73d
000001d0: 177f cfbd aecf 66bd f780 cc3d 1046 cc3d
000001e0: 85bf a6bd 3226 85bd dc4e cd3d ae41 abbd
000001f0: 6021 cfbd 8a17 883d 194a 9fbd 1df0 933d
00000200: abd9 bcbd e03b b63d b033 cdbd 1d79 cabd
00000210: 0691 ca3d 24de 3e3d c2f4 cb3d 34f6 cfbd
00000220: 6103 c8bd c0e5 cc3d 0d48 c83d 6d73 d0bd
00000230: 249a c7bd 6224 9b3d e3e7 9e3d c065 9bbd
00000240: 46e2 88bd c638 a0bd ff48 82bd f9bd cb3d
00000250: 1d1b c9bd efb9 cfbd c789 c93d 6af8 633d
00000260: e134 c6bd 8cbc 8e3d 5874 d13d 8c1e 0ebd
00000270: 6d75 c63d 9cd6 95bd 9c4f 8fbd 66a7 acbd
00000280: 7db5 cf3d 3697 a33d 0138 a73d a398 a63d
00000290: 6ff2 ca3d 0414 cfbd 0532 cabd 5cb4 ab3d
000002a0: b89b 7f3d a7c4 cfbd 16bf 99bd f2be c93d
000002b0: f18f cfbd 585a a4bd 8bb5 cc3d e99f ce3d
000002c0: 2b59 a0bd 83b2 ac3d bc44 953d 98fe cc3d
000002d0: b88b cb3d df0e 17bd dd84 9f3d 75d7 35bd
000002e0: 4612 98bd e34a cabd 1b65 d03d 271a 833d
000002f0: dd49 c9bd 30ca c7bd 3912 9a3d ea19 8d3d
00000300: e607 cbbd 9083 b33d 6070 cd3d 8d66 90bd
00000310: 84dd a83d 2c15 8cbd 6ceb c03d 1634 bcbd
00000320: 2e98 c93d 6480 c73d a171 cbbd 470e 27bd
00000330: 8d0b cfbd 780f ce3d 54c4 c93d 4956 c9bd
00000340: fe73 c9bd e78c cb3d b182 c8bd 012f 963d
00000350: 3786 a63d 5fbe 98bd 36fc 91bd 71bb 9fbd
00000360: b27f 76bd a033 cb3d a4a6 cbbd 565f c6bd
00000370: 4cbf cb3d ac8e 803d 1a1d cdbd d3e5 943d
00000380: 689d c43d c7c3 29bd 8ecb cf3d 183a 9abd
00000390: ece9 89bd c477 b4bd 9b35 c63d 3a35 a43d
000003a0: e54d b23d 35a1 ae3d df70 ca3d 684d cbbd
000003b0: 32b6 c6bd 04e7 a03d 1c73 7f3d 7373 cabd
000003c0: 55ad 92bd b2d6 c83d 2351 c9bd 4dd1 9dbd
000003d0: 2c41 cb3d dee5 c63d 4f25 9dbd 5a16 ad3d
000003e0: bd8c 903d 2a6c c93d 48d5 c43d fd95 2fbd
000003f0: dff0 9c3d e84a 2cbd 5a1c 97bd 6624 ccbd
-0.100223035 0.07946953 0.0724537 -0.078534976 -0.06481935 -0.08392833 -0.06654964 0.102349766
-0.099103555 -0.09930309 0.09783001 0.051953115 -0.09660998 0.06295461 0.0998988 -0.027339632
0.09682327 -0.07834122 -0.07469851 -0.08112526 0.10174177 0.084338956 0.07826953 0.07581946
0.0993037 -0.10130341 -0.10045013 0.08627809 0.06519756 -0.09994598 -0.07799452 0.101142935
-0.10215704 -0.08343285 0.10031844 0.101379424 -0.08426292 0.087479606 0.073301956 0.09855377
0.098878674 -0.033322763 0.08390017 -0.045593645 -0.08068531 -0.09699828 0.10278109 0.05726963
-0.09782424 -0.09783026 0.08105892 0.0660039 -0.10213738 0.08537072 0.09946999 -0.06882604
0.07736876 -0.0699534 0.093164496 -0.08787745 0.10007959 0.1007772 -0.09971073 -0.045387197
-0.10252995 0.097829655 0.09640599 -0.10033114 -0.09926603 0.10146237 0.100985855 -0.078070745
-0.070587724 0.08153975 0.059731778 0.08432761 0.06687932 -0.1024355 0.10119873 0.10059473
-0.09925349 -0.051380113 0.09800963 -0.062262848 -0.10175604 0.02809181 -0.09675388 0.08050216
0.076004244 0.078373894 -0.09935527 -0.085129574 -0.07747433 -0.07482413 -0.10137069 0.10142022
0.099555254 -0.08773988 -0.067435905 0.09913636 0.08130789 -0.098697305 0.10044076 0.08238301
-0.09949043 -0.10038569 0.083434105 -0.087573305 -0.07389229 -0.10139764 -0.102098696 0.030421693
-0.08264587 0.046352915 0.07937308 0.09730208 -0.10131662 -0.056350403 0.099855356 0.09974301
-0.08141998 -0.06501426 0.10024807 -0.08362137 -0.10113788 0.06645115 -0.07777805 0.07223532
-0.09221204 0.08898139 -0.10019624 -0.09886382 0.09890942 0.04659857 0.09958793 -0.101543814
-0.097662695 0.10004759 0.097793676 -0.10178266 -0.09746197 0.07575299 0.07759073 -0.07587767
-0.06683783 -0.07823329 -0.06361579 0.09948344 -0.098196246 -0.10142886 0.09840732 0.055656828
-0.096780546 0.06969556 0.10227269 -0.0346971 0.09690366 -0.07316324 -0.06997606 -0.08430366
0.10142038 0.079878256 0.08164979 0.08134582 0.09909522 -0.101112396 -0.09872822 0.0838401
0.062404364 -0.1014493 -0.0750715 0.09850873 -0.101348765 -0.08025044 0.09995564 0.10089094
-0.078295074 0.08432486 0.07288501 0.100094974 0.099387586 -0.036879417 0.077890135 -0.04439493
-0.074253604 -0.09877565 0.10175534 0.064014725 -0.098285414 -0.09755361 0.07523007 0.06889708
-0.09913616 0.08765328 0.100311995 -0.0705081 0.08245376 -0.06839976 0.09419903 -0.09189622
0.09843479 0.097412854 -0.09933782 -0.0407851 -0.10109625 0.10061544 0.098519 -0.09830911
-0.09836577 0.09938984 -0.097905524 0.07333184 0.08131068 -0.074581854 -0.071281835 -0.077994235
-0.060180373 0.09921956 -0.099438936 -0.09686153 0.09948596 0.062772125 -0.10015316 0.07270398
0.09600335 -0.041446473 0.10146247 -0.07530612 -0.0673407 -0.08811906 0.09678193 0.08017965
0.087062635 0.085268416 0.0988481 -0.099268734 -0.0970272 0.07856563 0.062365636 -0.098853014
-0.07161967 0.09806575 -0.09829929 -0.077059366 0.0992454 0.097118124 -0.07673132 0.08451529
0.07058094 0.09835084 0.09610993 -0.04286765 0.0766313 -0.042063624 -0.073784545 -0.0996788

net.6.weight f4 [1, 70]
00000000: 980a 803e 5fea 7ebe edb0 783e 1eab 773e
00000010: 7dc9 7fbe 842b 813e 1b54 803e 4ebc 6e3e
00000020: a1a9 78be 6029 793e c4a9 80be c635 6fbe
00000030: 1fd4 773e 0eb2 6c3e b1c9 803e f957 763e
00000040: 4705 783e abea 74be 9a07 813e ab3e 6dbe
00000050: af9e 80be 4812 81be 06ef 77be 6490 803e
00000060: 2fc6 803e 85ed 77be ca7a 80be c107 7cbe
00000070: 2157 77be 2870 7f3e e5cc 803e f0e9 753e
00000080: 6139 763e f265 80be 2986 80be 5540 7fbe
00000090: 998e 773e af7c 80be 69b6 7fbe 9091 743e
000000a0: 46f1 773e 80e0 77be fe77 783e 7a75 80be
000000b0: c229 783e 6e58 783e 4802 813e dd3c 7ebe
000000c0: 08af 7fbe ce5b 773e 2ff7 6b3e 2a17 813e
000000d0: 7481 7fbe 21e1 6a3e d492 80be f592 773e
000000e0: 69d8 7d3e e1f4 803e ba80 773e e782 6a3e
000000f0: 4856 81be 1c2a 7d3e 954c 81be 964e 71be
00000100: 502e 81be a088 6b3e 2a25 813e 0109 813e
00000110: 50f8 78be 9d00 79be
0.25008082 -0.24894093 0.24286242 0.2418637 -0.24979205 0.25228512 0.25064167 0.2331402
-0.24283458 0.2433219 -0.2512952 -0.23360357 0.24202012 0.23114797 0.25153878 0.24056996
0.24220763 -0.23917644 0.25201112 -0.23168437 -0.25121066 -0.2520926 -0.24212274 0.2511016
0.25151202 -0.242117 -0.2509368 -0.24612333 -0.24154331 0.24945128 0.25156322 0.24015021
0.24045326 -0.25077778 -0.25102356 -0.24926884 0.2417549 -0.25095126 -0.24971928 0.23883653
0.24213132 -0.24206734 0.24264523 -0.25089628 0.2423468 0.24252483 0.25197053 -0.24827905
-0.24969113 0.24156114 0.23043512 0.25212985 -0.24951726 0.22937442 -0.2511202 0.24177153
0.24789585 0.25186828 0.24170199 0.22901498 -0.2526114 0.24723095 -0.2525374 -0.23565134
-0.25230646 0.23001337 0.25223666 0.25202182 -0.24313474 -0.2431664
